Final_exp/FL_002/3stacks_1nhead_120lwin_0_0005lr_128dff_64batch_40epcs_0_1dropout_5rounds/checkpoints/client1/model__lr_0.0005_l_win_120_dff_128.pt (torch, 164111 bytes, 49 tensors)

encoder.encoder_layer.encoderlayer.self_attn.in_proj_weight f4 [69, 23]
0	0x3e3ed1bb	0.18634693
1	0xbd90294f	-0.07039129
2	0x3bd5c84e	0.0065241223
3	0x3dd7b0dc	0.1053178
4	0xbe689ef4	-0.22716886
5	0xbe43394a	-0.19064823
6	0x3b93160e	0.004488713
7	0xbe0ca3a3	-0.13734297
8	0x3e2370cf	0.15961002
9	0x3d74dc91	0.05978066
10	0x3d10cf00	0.03535366
11	0x3ccb7258	0.024834797
12	0x3e7cfd4e	0.24706003
13	0xbddda54b	-0.10822543
14	0xbcadc027	-0.02120979
15	0x3d8b5fd5	0.06805388
16	0x3dfa586e	0.12223898
17	0x3e09fe3f	0.13475893
18	0xbd8246b3	-0.06361141
19	0x3c83000a	0.01599123
20	0x3dad2e1d	0.08456061
21	0xbdadc8b6	-0.08485548
22	0xbcbb7f0e	-0.022887733
23	0xbdcb9bf0	-0.09941852
24	0xbd45158e	-0.04811626
25	0x3e18e3d3	0.14930658
26	0xbe48ba06	-0.19602212
27	0xbe37f99c	-0.17966312
28	0x3e70c304	0.23511893
29	0x3e25ccfe	0.1619148
30	0x3df32137	0.118715696
31	0xbd914bb4	-0.07094517
32	0xbe70af83	-0.23504452
33	0xbdb5a64f	-0.088696115
34	0xbe4994e1	-0.19685699
35	0xbe5acc20	-0.2136693
36	0x3e5876ba	0.2113904
37	0x3d083af3	0.033259343
38	0xbe548068	-0.20752108
39	0x3b1201fe	0.002227902
40	0x3de3cc35	0.11122934
41	0x3dfc4eca	0.12319715
42	0x3d5fdd35	0.05465432
43	0x3d123715	0.03569706
44	0xbe41627f	-0.1888523
45	0x3e48a0f0	0.19592643
46	0xbd6a3d59	-0.057187412
47	0x3ddb7819	0.10716266
48	0xbe435d73	-0.19078617
49	0x3d842aac	0.064534515
50	0x3e73bdcb	0.23802869
51	0x3b6b2b96	0.0035884134
52	0x3e0251bc	0.12726492
53	0x3e44cb01	0.19218065
54	0x3def9efc	0.11700246
55	0xbdae1d31	-0.085016616
56	0x3e508cbe	0.20366189
57	0x3e3aa680	0.18227577
58	0xbe3f9a80	-0.18711281
59	0xbde7c017	-0.11315935
60	0xbe64d1c7	-0.22345649
61	0x3e5c1cc2	0.21495345
62	0xbe0c82f4	-0.1372183
63	0xbe5a7f36	-0.2133759
64	0xbd66becc	-0.0563343
65	0xbe822837	-0.25421306
66	0x3da85f0d	0.082212545
67	0xbe28349a	-0.16426316
68	0x3da94de4	0.082668096
69	0x3c6bf1c2	0.014400901
70	0x3e4c9f7f	0.19982718
71	0x3e281d1c	0.16417354
72	0x3d41f918	0.047356695
73	0x3e1a871b	0.15090601
74	0xbe0f7b37	-0.14011846
75	0xbde3bc27	-0.111198716
76	0xbe5dda29	-0.21665253
77	0x3d988d9e	0.07448886
78	0xbe145102	-0.14484027
79	0x3e334253	0.1750577
80	0xbe79f1a0	-0.24408579
81	0x3e1b4c13	0.15165739
82	0x3e3c08d8	0.18362749
83	0xbdd17570	-0.102274776
84	0xbe4e8b63	-0.2017036
85	0x3e48841a	0.19581643
86	0x3cce6d59	0.025198625
87	0xbad62543	-0.0016338009
88	0xbdab1a29	-0.08354599
89	0x3e51bf56	0.20483145
90	0x3e67c200	0.22632599
91	0xbe17029c	-0.14747089
92	0x3e0b3fb0	0.13598514
93	0x3d68ae64	0.056806937
94	0xbe76a3ee	-0.24085972
95	0xbcc27565	-0.023737619
96	0x3d3f7496	0.046742044
97	0xbd98287d	-0.074295975
98	0x3cbfeb56	0.023427647
99	0xbe32beca	-0.17455593
100	0x3e04c8d0	0.12967229
101	0x3e17711b	0.1478924
102	0x3d084f07	0.03327849
103	0x3ce69d79	0.02815126
104	0xbd60a9a3	-0.05484928
105	0xbd327bdb	-0.04357515
106	0x3e789c65	0.2427841
107	0xbe346975	-0.17618354
108	0xbdfb7b56	-0.12279384
109	0xbe0d429b	-0.13794939
110	0x3db76bdc	0.089561194
111	0x3d6cb44c	0.057789132
112	0xbe02b936	-0.12765965
113	0x3d454abb	0.04816697
114	0x3dea1420	0.1142962
115	0x3dcfd7be	0.101485714
116	0x3e4c4cb0	0.19951129
117	0x3e4f8c8d	0.2026846
118	0xbe7bfd75	-0.24608405
119	0x3e82a75d	0.25518313
120	0xbe2db67c	-0.16964144
121	0xbb9696af	-0.0045955996
122	0x3d7f096b	0.06226484
123	0x3d665082	0.056229122
124	0xbd0b746c	-0.034046575
125	0x3e04fa63	0.1298614
126	0xbd47da9b	-0.048792463
127	0x3dda0159	0.10644788
128	0x3e672a9e	0.22574851
129	0xbe219828	-0.15780699
130	0xbe2e6bb4	-0.17033273
131	0x3d9e9ac0	0.0774436
132	0x3d5db151	0.05412418
133	0x3e446843	0.19180398
134	0xb9cc6de3	-0.00038991784
135	0xbd454ccf	-0.048168954
136	0x3dd22e30	0.10262716
137	0x3e7110f7	0.23541628
138	0xbe7d2ab5	-0.24723323
139	0x3e134c84	0.14384657
140	0x3e1a4df9	0.15068807
141	0x3d4e3c0e	0.05035024
142	0xbcadb137	-0.021202667
143	0xbe650062	-0.22363427
144	0x3dbb3967	0.09141808
145	0x3e6a1c7f	0.22862433
146	0xbc1622be	-0.009163557
147	0xbe3d61a5	-0.1849428
148	0x3da861af	0.08221757
149	0xbe7e7dfc	-0.24852747
150	0x3e60f061	0.21966697
151	0xbe4f662c	-0.20253819
152	0x3d170832	0.03687305
153	0x3de99a99	0.1140644
154	0xbe5be9c4	-0.21475893
155	0x3e0d5648	0.13802445
156	0x3dbf6be7	0.093467526
157	0xbd186d1f	-0.03721344
158	0x3d4bf54a	0.049794473
159	0x3d06b65c	0.032888755
160	0xbdd8851f	-0.10572266
161	0x3e4c69b1	0.19962193
162	0x3e6ebf1a	0.23315087
163	0x3e553af8	0.20823276
164	0x3c7318d0	0.014837459
165	0x3e269f26	0.16271648
166	0x3d945c51	0.072441705
167	0xbd5a0913	-0.05323131
168	0x3e0fec17	0.14054905
169	0xbdea9bd3	-0.11455502
170	0x3e10c9ce	0.14139482
171	0x3e4c7302	0.19965747
172	0x3e564b13	0.20927076
173	0xbe1b4e58	-0.15166605
174	0x3e7948e4	0.24344212
175	0xbdd8d6b7	-0.105878286
176	0xbd24e80c	-0.04026036
177	0xbd88e5e7	-0.066844754
178	0xbcc2b0c7	-0.023765935
179	0xbc900163	-0.017578786
180	0xbe726da8	-0.23674643
181	0xbe35bc86	-0.17747697
182	0xbdb46fbc	-0.08810374
183	0xbde90c5e	-0.11379312
184	0xbdb83ddc	-0.08996174
185	0xbdc85354	-0.097815186
186	0x3e5a2c34	0.21305925
187	0x3e634425	0.22193964
188	0x3d45228b	0.048128646
189	0xbe7f946d	-0.24958964
190	0xbd8ab19e	-0.06772159
191	0x3da7aa4f	0.08186781
192	0xbe005809	-0.12533583
193	0x3d5999ec	0.053125307
194	0x3dbe6030	0.0929569
195	0xbd345e73	-0.044035386
196	0x3e0510b8	0.12994659
197	0xbd25c98b	-0.04047541
198	0x3d7cce33	0.061720084
199	0xbe58797f	-0.21140097
200	0xbe1358f2	-0.14389399
201	0xbe2518d1	-0.16122748
202	0xbd1fa882	-0.03897906
203	0x3dc4eba7	0.096152596
204	0xbd29b5e1	-0.04143322
205	0x3d97500f	0.07388317
206	0xbe589a7d	-0.21152683
207	0x3dcd02be	0.10010289
208	0x3e811732	0.2521301
209	0x3d42b418	0.047535032
210	0xbcc85ffa	-0.024459828
211	0x3ddf3e8e	0.10900603
212	0xbe10f4ce	-0.14155886
213	0x3c80ea7e	0.015736815
214	0xbe8246f4	-0.25444758
215	0xbe307103	-0.1723061
216	0x3e367063	0.1781631
217	0xbe5abbc8	-0.21360695
218	0x3df1b7d8	0.118026435
219	0xbac652fc	-0.0015130932
220	0x3d97a65c	0.074047774
221	0x3d3bc9e2	0.045846827
222	0xbcdd9859	-0.027050184
223	0x3e2fa278	0.1715182
224	0xbd2bdbd4	-0.04195769
225	0x3dd4810a	0.10376175
226	0x3e0b4c96	0.13603434
227	0xbe0bb7b1	-0.13644291
228	0x3cb57b74	0.022153594
229	0x3daa491f	0.08314728
230	0x3e360471	0.17775132
231	0x3cda48e2	0.026646081
232	0xbe123ce6	-0.14281043
233	0x3e23c992	0.15994862
234	0x3d51f230	0.05125636
235	0x3c2a9b56	0.010413012
236	0x3d6eda89	0.05831388
237	0xbe14b3dd	-0.14521737
238	0xbe1914c1	-0.14949323
239	0x3dcaf151	0.09909309
240	0x3d42d512	0.04756648
241	0x3e11e5a6	0.1424776
242	0xbe37b506	-0.17940149
243	0x3dbf7edd	0.09350369
244	0xbe52f8d3	-0.20602731
245	0x3d270fda	0.0407866
246	0x3d045f60	0.03231752
247	0xbe0e5c58	-0.13902414
248	0xbd00c22d	-0.03143518
249	0xbdb3f0cd	-0.087861635
250	0x3e03c613	0.12868528
251	0xbde628e3	-0.11238267
252	0x3e763ad5	0.2404588
253	0xbe0f5ee4	-0.14001042
254	0x3dd870e1	0.10568405
255	0xbdf5da9c	-0.12004587

encoder.encoder_layer.encoderlayer.self_attn.in_proj_bias f4 [69]
0	0x00000000	0.0
1	0x00000000	0.0
2	0x00000000	0.0
3	0x00000000	0.0
4	0x00000000	0.0
5	0x00000000	0.0
6	0x00000000	0.0
7	0x00000000	0.0
8	0x00000000	0.0
9	0x00000000	0.0
10	0x00000000	0.0
11	0x00000000	0.0
12	0x00000000	0.0
13	0x00000000	0.0
14	0x00000000	0.0
15	0x00000000	0.0
16	0x00000000	0.0
17	0x00000000	0.0
18	0x00000000	0.0
19	0x00000000	0.0
20	0x00000000	0.0
21	0x00000000	0.0
22	0x00000000	0.0
23	0x00000000	0.0
24	0x00000000	0.0
25	0x00000000	0.0
26	0x00000000	0.0
27	0x00000000	0.0
28	0x00000000	0.0
29	0x00000000	0.0
30	0x00000000	0.0
31	0x00000000	0.0
32	0x00000000	0.0
33	0x00000000	0.0
34	0x00000000	0.0
35	0x00000000	0.0
36	0x00000000	0.0
37	0x00000000	0.0
38	0x00000000	0.0
39	0x00000000	0.0
40	0x00000000	0.0
41	0x00000000	0.0
42	0x00000000	0.0
43	0x00000000	0.0
44	0x00000000	0.0
45	0x00000000	0.0
46	0x00000000	0.0
47	0x00000000	0.0
48	0x00000000	0.0
49	0x00000000	0.0
50	0x00000000	0.0
51	0x00000000	0.0
52	0x00000000	0.0
53	0x00000000	0.0
54	0x00000000	0.0
55	0x00000000	0.0
56	0x00000000	0.0
57	0x00000000	0.0
58	0x00000000	0.0
59	0x00000000	0.0
60	0x00000000	0.0
61	0x00000000	0.0
62	0x00000000	0.0
63	0x00000000	0.0
64	0x00000000	0.0
65	0x00000000	0.0
66	0x00000000	0.0
67	0x00000000	0.0
68	0x00000000	0.0

encoder.encoder_layer.encoderlayer.self_attn.out_proj.weight f4 [23, 23]
0	0x3e858b8c	0.26083028
1	0x3e51bf85	0.20483215
2	0x3e1fe4fa	0.15614691
3	0x3e3b5b6b	0.18296592
4	0xbe0e4bf2	-0.13896158
5	0x3de3f311	0.111303456
6	0x3c32631c	0.010887887
7	0xbea9d552	-0.33170563
8	0xbde54678	-0.111950815
9	0xbe955126	-0.29163474
10	0xbe17c5f7	-0.14821611
11	0xbea23d39	-0.31687334
12	0x3e90896e	0.2822985
13	0x3e90d50c	0.28287542
14	0xbe876f66	-0.26452178
15	0x3c2a85d6	0.010407886
16	0xbd2e2d25	-0.042523522
17	0x3e764d20	0.24052858
18	0x3d3f77c2	0.04674507
19	0xbdcbc50e	-0.099496946
20	0xbe33d8fa	-0.17563239
21	0x3e9de1c2	0.30836302
22	0x3d56017c	0.05224751
23	0xbe2094d1	-0.15681769
24	0xbddd17f0	-0.10795581
25	0x3e792402	0.24330142
26	0xbe5e7ffa	-0.21728507
27	0x3deb1e9c	0.11480448
28	0x3e1331c2	0.1437445
29	0x3e834016	0.2563483
30	0x3e299d82	0.1656399
31	0xbe87b6c1	-0.26506618
32	0xbe78d4ea	-0.2429997
33	0xbeab3eb0	-0.33446264
34	0x3e7129cc	0.235511
35	0xbdbf1a9a	-0.09331246
36	0x3e7969fc	0.24356836
37	0xbdfcd318	-0.123449504
38	0xbaa242e6	-0.0012379556
39	0xbe635aa7	-0.2220255
40	0xbdeab15c	-0.1145961
41	0x3cf4d99a	0.029888917
42	0xbe7defbd	-0.24798484
43	0x3e647010	0.22308373
44	0xbe621ffb	-0.22082512
45	0x3e4bd93d	0.19907089
46	0x3e085f40	0.13317585
47	0xbeb4f4a7	-0.35342905
48	0xbeb63fdf	-0.35595605
49	0x3e89e54a	0.26932746
50	0xbe3da082	-0.1851826
51	0xbea4b580	-0.32169724
52	0x3c6cf578	0.014462821
53	0x3e8fe4ca	0.2810424
54	0xbe4a87de	-0.19778392
55	0x3e31cbdc	0.17362922
56	0x3e920a5c	0.2852353
57	0x3d170723	0.03687204
58	0xbe84781f	-0.25872895
59	0xbe9fc2b4	-0.31203234
60	0xba727ea6	-0.00092504395
61	0x3c949d9a	0.018141557
62	0x3df50e2d	0.119655944
63	0xbe808d8e	-0.25107998
64	0xbe1ae7ac	-0.15127438
65	0x3e9b4e9b	0.3033341
66	0x3ea843b1	0.32864144
67	0x3e7b377e	0.24532887
68	0x3e4ae173	0.19812565
69	0xbc457767	-0.0120523935
70	0xbdf59262	-0.11990811
71	0xbb95570e	-0.004557497
72	0x3d67f4f1	0.05663008
73	0xbe852609	-0.2600558
74	0x3d8fe5e4	0.0702627
75	0x3e3c3dcc	0.18382949
76	0x3e8f4b66	0.27987212
77	0x3e96790b	0.29389223
78	0x3e292fdb	0.16522162
79	0x3dd48d4e	0.10378514
80	0xbea24ecb	-0.3170074
81	0x3eb07a8a	0.3446849
82	0x3e50c37c	0.20387071
83	0x3ea4de9b	0.32201084
84	0x3dc297e8	0.0950163
85	0x3b74ea66	0.0037371158
86	0x3e45e209	0.19324507
87	0x3da69f7c	0.08135888
88	0xbd960b98	-0.0732643
89	0x3c218b40	0.00985986
90	0x3de675d2	0.11252941
91	0x3e5f3637	0.21798025
92	0xb9a85836	-0.0003210918
93	0x3e3d2457	0.18470894
94	0xbe907afc	-0.2821883
95	0x3dcf4776	0.10121052
96	0x3e1744fe	0.14772412
97	0xbe832937	-0.25617382
98	0x3eb7f4c0	0.35928917
99	0xbe833e84	-0.25633633
100	0xbe5d1b05	-0.21592338
101	0x3ead19be	0.33808702
102	0x3e467c29	0.19383301
103	0xbdc04ec4	-0.09390023
104	0x3eaf4ec0	0.3423977
105	0x3e658056	0.22412238
106	0x3e3af69f	0.18258141
107	0xbeaf3048	-0.34216523
108	0x3eb696a5	0.35661808
109	0xbc0995b6	-0.00839751
110	0x3e44406a	0.19165197
111	0x3e185af9	0.14878453
112	0x3d27390b	0.040825885
113	0x3e6221d2	0.22083214
114	0xbe20e1cd	-0.15711136
115	0x3e226929	0.15860428
116	0x3d5db418	0.05412683
117	0x3e6acf0b	0.22930543
118	0x3e51d53f	0.20491503
119	0x3e92cf1d	0.2867364
120	0x3dfe343d	0.124123074
121	0x3d9acfe4	0.07559183
122	0xbdd4764e	-0.10374127
123	0xbd57881e	-0.052620046
124	0x3eb6a7db	0.3567494
125	0xbe0cd9cd	-0.1375496
126	0x3eb1bfa3	0.3471652
127	0x3cfc89a4	0.03082735
128	0xbe033fb5	-0.12817271
129	0x3ddeeea2	0.10885359
130	0x3e981680	0.29704666
131	0xbe38a153	-0.1803029
132	0x3e1857ed	0.14877291
133	0x3d3ff89b	0.046867948
134	0x3dcca191	0.09991754
135	0x3e3f80c8	0.1870147
136	0xbd32c5e3	-0.04364575
137	0xbeac645e	-0.33670324
138	0x3d82a272	0.0637864
139	0xbeb0e481	-0.34549335
140	0xbe72cdc2	-0.23711303
141	0x3e7d9094	0.24762183
142	0xbe003221	-0.12519123
143	0x3eaf4c1d	0.34237757
144	0xbe4732ee	-0.19453022
145	0xbe19374b	-0.14962499
146	0xbe9e30c6	-0.30896586
147	0xbe341abf	-0.17588328
148	0xbea1f26c	-0.31630266
149	0xbe8d7139	-0.27625445
150	0x3d54b63f	0.051931616
151	0x3c9be9b1	0.019032331
152	0xbea4148a	-0.3204692
153	0x3e9eb3e1	0.30996612
154	0x3e8d5996	0.2760741
155	0xbe8a7e6a	-0.2704957
156	0x3e9c1fd5	0.30493036
157	0x3e767c64	0.24070889
158	0x3e9dffa8	0.30859113
159	0x3e32a4b7	0.17445646
160	0x3d9616e0	0.07328582
161	0x3e69b6f3	0.22823696
162	0x3e893b83	0.26803216
163	0x3ea2531f	0.3170404
164	0x3e7d6c80	0.2474842
165	0x3e9d532a	0.30727512
166	0x3ba1427a	0.0049212547
167	0xbdd2ee5b	-0.10299369
168	0x3df29cce	0.11846314
169	0x3d8b671c	0.06806776
170	0xbe94b5a7	-0.2904484
171	0xbc572344	-0.013130967
172	0xbe9157b0	-0.28387213
173	0xbe1ecaa5	-0.1550699
174	0xbd256414	-0.040378645
175	0x3eaac51a	0.33353502
176	0x3d1ebdfe	0.03875541
177	0xbe9eb53c	-0.30997646
178	0xbd9cd322	-0.07657458
179	0xbe7fa52c	-0.24965352
180	0xbe9633ed	-0.2933649
181	0x3e99fcd0	0.30075693
182	0x3def8468	0.11695176
183	0x3e39fe62	0.18163446
184	0xbdbdc3d7	-0.09265869
185	0xbe86c9fe	-0.26325983
186	0xbe14cbd2	-0.14530876
187	0x3e51da65	0.20493467
188	0x3e9470da	0.2899235
189	0x3e8aba03	0.2709504
190	0x3d0111c4	0.031511083
191	0x3e8b93f1	0.27261308
192	0x3cc7cdd7	0.024390144
193	0xbe9b4eaa	-0.30333453
194	0x3e7f7a5a	0.24949017
195	0x3e65314e	0.2238209
196	0xbd4a4f09	-0.04939178
197	0xbe4a6d3e	-0.19768235
198	0x3d24380d	0.040092517
199	0x3d631cba	0.055447318
200	0xbe484b6a	-0.19560018
201	0x3d5db13d	0.054124106
202	0xbe8e38f0	-0.27777815
203	0x3dda57d1	0.10661281
204	0x3e0116a4	0.12606293
205	0x3e109831	0.14120556
206	0x3e385263	0.18000178
207	0xbe5b353a	-0.21407023
208	0xbea85f44	-0.32885182
209	0x3e2ddbc6	0.16978368
210	0xbe8e31fe	-0.27772516
211	0xbdb46cc2	-0.088098064
212	0x3e48bf7e	0.19604298
213	0xbe92ad82	-0.28648
214	0x3de45a2a	0.1115001
215	0xbe85b0aa	-0.26111346
216	0xbd06eb42	-0.032939203
217	0x3e6c00c9	0.23047175
218	0xbdd04dc6	-0.10171084
219	0xbe6bac60	-0.23014975
220	0x3e1bfcdd	0.15233178
221	0xbe3b55e9	-0.18294491
222	0xbe8823ca	-0.26589805
223	0xbe4f2ba6	-0.20231494
224	0x3e08524e	0.13312647
225	0xbe277abb	-0.16355412
226	0xbd5929e2	-0.05301846
227	0xbc367c18	-0.011137985
228	0xbe526a22	-0.20548299
229	0x3e21e1ba	0.15808764
230	0xbd4beb29	-0.049784813
231	0xbe9864bb	-0.2976435
232	0xbe83ead1	-0.25765088
233	0xbd8525c2	-0.06501342
234	0xbe9e653a	-0.30936605
235	0x3e4b7f58	0.19872797
236	0xbd7ee1a9	-0.062226925
237	0xbe884780	-0.2661705
238	0x3d03331d	0.032031167
239	0xbd389bdc	-0.045070514
240	0x3ba938da	0.005164248
241	0xbdb6a56c	-0.089182705
242	0x3e1f0d52	0.15532425
243	0x3eb8d011	0.36096242
244	0x3e608b20	0.21928072
245	0xbe3f9d7e	-0.18712422
246	0x3dda236e	0.10651289
247	0x3d0b05a4	0.033940926
248	0x3e86a7aa	0.26299793
249	0xbe0b0070	-0.13574386
250	0xbe8ebb64	-0.27877343
251	0x3d220f06	0.03956511
252	0x3cc2166f	0.023692338
253	0xbdc15803	-0.09440615
254	0xbc6eac47	-0.014567441
255	0xbe959567	-0.29215547

encoder.encoder_layer.encoderlayer.self_attn.out_proj.bias f4 [23]
0	0x00000000	0.0
1	0x00000000	0.0
2	0x00000000	0.0
3	0x00000000	0.0
4	0x00000000	0.0
5	0x00000000	0.0
6	0x00000000	0.0
7	0x00000000	0.0
8	0x00000000	0.0
9	0x00000000	0.0
10	0x00000000	0.0
11	0x00000000	0.0
12	0x00000000	0.0
13	0x00000000	0.0
14	0x00000000	0.0
15	0x00000000	0.0
16	0x00000000	0.0
17	0x00000000	0.0
18	0x00000000	0.0
19	0x00000000	0.0
20	0x00000000	0.0
21	0x00000000	0.0
22	0x00000000	0.0

encoder.encoder_layer.encoderlayer.linear1.weight f4 [128, 23]
0	0x3d9fa1c2	0.07794525
1	0x3de3120e	0.11087428
2	0xbde03a2d	-0.10948596
3	0xbc39b8e0	-0.011335582
4	0x3e4b73d7	0.19868408
5	0xbe114472	-0.14186266
6	0xbddf4548	-0.10901886
7	0x3c7d258a	0.015450845
8	0xbd215e34	-0.03939648
9	0xbe160fa3	-0.14654402
10	0x3d933d87	0.0718947
11	0xbe2b6991	-0.16739489
12	0x3dc8a472	0.097969905
13	0xbd9b3170	-0.07577789
14	0xbe469d0e	-0.19395849
15	0xbda6fafc	-0.0815334
16	0x3e19271f	0.1495633
17	0x3dd4f04e	0.10397397
18	0x3dd35fa7	0.103209786
19	0xbded09fa	-0.115741685
20	0xbd18ff5c	-0.037352905
21	0x3d6fd7e1	0.058555488
22	0xbd5ba4a2	-0.053623803
23	0xbd2f5462	-0.042805083
24	0x3d51aae2	0.051188357
25	0x3dfe80ac	0.12426886
26	0xbdf90f18	-0.12161082
27	0xbdd55809	-0.10417182
28	0xbd7f871c	-0.06238471
29	0xbe1ea4b1	-0.15492512
30	0x3b592fc5	0.0033140045
31	0xbe13a7c3	-0.14419465
32	0x3e4460b9	0.19177522
33	0x3e22dd36	0.15904698
34	0xbe4988ee	-0.19681141
35	0x3ce09460	0.0274145
36	0xbe1a35af	-0.15059541
37	0xbe10f55f	-0.14156102
38	0x3e3d14e0	0.18464994
39	0x3dc6db56	0.09709804
40	0xbe488e7b	-0.19585602
41	0xbd772feb	-0.060348433
42	0xbe151bbc	-0.14561361
43	0x3e1bd7d1	0.15219046
44	0x3e2339e2	0.1594005
45	0xbdb1c6c6	-0.08680491
46	0xbd5f8c4d	-0.05457716
47	0x3b71b14c	0.0036879359
48	0x3dfc3c28	0.123161614
49	0x3e45d49f	0.1931939
50	0xbe1f9769	-0.15585102
51	0xbe1ce0f2	-0.15320185
52	0x3daa4591	0.0831405
53	0x3deeca2d	0.11659656
54	0xbe2b9e3c	-0.1675958
55	0x3b232702	0.0024895077
56	0x3e243cbe	0.16038796
57	0x3c22412c	0.0099032335
58	0x3e0e3a10	0.13889337
59	0x3d348d69	0.04408017
60	0xbce6c282	-0.02816892
61	0x3daecbd0	0.08534968
62	0x3d210c07	0.03931811
63	0xbc6cf903	-0.014463666
64	0xbda5c60a	-0.080944136
65	0x3dcba730	0.09943998
66	0xbe1d44eb	-0.15358321
67	0xbdbf85f6	-0.09351723
68	0x3ba95789	0.0051679057
69	0x3e07f7e4	0.13278157
70	0x3d9b2eb6	0.07577269
71	0xbe365360	-0.17805243
72	0x3d2b10b7	0.041763987
73	0x3dc44773	0.0958394
74	0xbe1e8eb1	-0.1548412
75	0xbdd97ed9	-0.106198974
76	0xbd0f2e4c	-0.03495626
77	0x3e3efa8b	0.18650262
78	0x3de5ebca	0.11226614
79	0xbe03c776	-0.12869057
80	0x3d875a66	0.06609039
81	0xbcec3452	-0.028833542
82	0x3b87399a	0.0041267397
83	0xbe170f94	-0.14752036
84	0x3d4c9206	0.049943946
85	0xbdf18d8e	-0.117945775
86	0xbd049692	-0.032370158
87	0x3e20e2ef	0.15711568
88	0x3becb922	0.007224218
89	0x3e200600	0.15627289
90	0x3e1f9685	0.15584762
91	0xbd07aef6	-0.03312584
92	0xbe210007	-0.15722667
93	0xbbed830f	-0.0072482894
94	0x3e1ba470	0.15199447
95	0xbd1bf272	-0.03807301
96	0x3c91ab34	0.017781831
97	0xbd2ed89f	-0.042687055
98	0x3de91356	0.11380641
99	0x3d2a280a	0.04154209
100	0xba9934ae	-0.0011688673
101	0x3ddb97b0	0.107222915
102	0x3e48d111	0.19611003
103	0xbd848267	-0.06470185
104	0x3d9c4b76	0.076315805
105	0xbd6bc96e	-0.057565145
106	0xbe1b8f14	-0.15191299
107	0x3da4f4bf	0.08054494
108	0xbe2d437d	-0.16920276
109	0x3d659eb5	0.056059558
110	0xbe36d5e5	-0.17855032
111	0xbc001945	-0.007818525
112	0xbe07a08a	-0.13244835
113	0x3d840f4c	0.0644823
114	0x3dc6295f	0.0967586
115	0x3d28457e	0.041081898
116	0x3da8437d	0.08215997
117	0xbe05352a	-0.13008562
118	0xbe10a9ca	-0.1412727
119	0x3d1d295c	0.03836952
120	0x3e2ceacd	0.16886444
121	0xbd8b3661	-0.06797481
122	0xbe3c4ee2	-0.18389466
123	0x3db7a011	0.08966077
124	0x3de6899e	0.11256717
125	0x3e0c5106	0.13702783
126	0xbd9b0d49	-0.07570893
127	0x3e02c993	0.12772207
128	0xbe08a0d9	-0.13342609
129	0x3d81f668	0.063458264
130	0x3d86b894	0.06578174
131	0x3d8f81c2	0.07007171
132	0x3b9f85e6	0.004868257
133	0xbe3e0e55	-0.18560155
134	0xbc995454	-0.018716969
135	0xbe462111	-0.19348551
136	0x3d424a08	0.047433883
137	0x3e0a838f	0.13526748
138	0xbdbb4893	-0.09144702
139	0xbdd6455a	-0.104624465
140	0x3d56e2ea	0.052462496
141	0x3e2f8d96	0.17143854
142	0x3d005db1	0.03133935
143	0xbc9115f3	-0.017710662
144	0x3d0e9362	0.034808524
145	0x3e196474	0.14979726
146	0xbd80bf4b	-0.06286486
147	0xbe4412ad	-0.19147749
148	0x39852b5a	0.00025400036
149	0xbe26755c	-0.16255707
150	0x3de0b8ba	0.10972734
151	0x3d49b07a	0.049240567
152	0x3e10616b	0.14099662
153	0xbc917912	-0.017757926
154	0xbe141b2f	-0.14463495
155	0x3e240bfc	0.16020197
156	0xbe134884	-0.14383131
157	0x3dfffbbb	0.12499186
158	0x3ce2472e	0.027621832
159	0x3d8b9e15	0.06817261
160	0xbe1b5d8b	-0.15172403
161	0xbe286e82	-0.16448405
162	0xbdc5b02c	-0.09652743
163	0xbe0722a0	-0.13196802
164	0xbe303141	-0.17206289
165	0xbd61fbbb	-0.05517171
166	0x3e430c19	0.19047584
167	0x3e1a0958	0.15042627
168	0x3e367053	0.17816286
169	0x3d56cc02	0.05244065
170	0xbe18e129	-0.14929642
171	0x3e02d9a8	0.12778342
172	0x3e47f712	0.19527844
173	0xbe018952	-0.1265004
174	0xbb3588f3	-0.0027700036
175	0x3d352065	0.044220347
176	0x3de63808	0.11241156
177	0x3c5e4274	0.013565648
178	0xbe4aacb8	-0.1979245
179	0xbcc04640	-0.023470998
180	0xbe0b461b	-0.13600962
181	0x3ddf458b	0.10901936
182	0x3e1018b9	0.14071931
183	0x3c92b98e	0.017910745
184	0xbe2b45d1	-0.16725852
185	0xbd8591b6	-0.06521933
186	0xbd913fd6	-0.07092254
187	0x3dbd3a75	0.092396654
188	0x3df96fed	0.12179551
189	0x3e017b70	0.12644744
190	0xbd8379d2	-0.0641972
191	0x3da39150	0.079867005
192	0xbd4c9199	-0.04994354
193	0x3c7f2b9e	0.015574364
194	0x3b2ccdfb	0.002636789
195	0xbe239272	-0.15973833
196	0x3d4940b3	0.049133968
197	0x3bb5dbdf	0.0055498923
198	0xbcd73094	-0.026268281
199	0xbe486f16	-0.19573626
200	0xbe0c5c66	-0.13707122
201	0x3e322b5d	0.17399354
202	0xbe464d7b	-0.19365494
203	0xbdb15506	-0.08658795
204	0xbdb87ca4	-0.09008148
205	0x3dfc4b10	0.123190045
206	0xbd27ca94	-0.040964678
207	0xbe25a87c	-0.16177553
208	0x3e19cb64	0.15018994
209	0x3e359a3c	0.17734617
210	0x3cff73ac	0.031183086
211	0xbe251dde	-0.16124675
212	0x3de19294	0.11014286
213	0x3db470c8	0.08810574
214	0x3ce80556	0.028322857
215	0xbca52490	-0.020159036
216	0x3d1ac40d	0.037784625
217	0xbe1cf610	-0.1532824
218	0x3e176855	0.14785893
219	0xbbc6a85c	-0.0060625505
220	0xbe3bab1a	-0.18326989
221	0x3e266a10	0.16251397
222	0xbd971104	-0.07376292
223	0x3c87920e	0.016549136
224	0x3db6b979	0.08922095
225	0x3d3673c9	0.044544015
226	0x3e211072	0.1572893
227	0xbe3ae112	-0.1824992
228	0x3d5eeb9e	0.05442392
229	0x39676e0a	0.0002207087
230	0xbc117dda	-0.008880103
231	0xbdf3225f	-0.1187179
232	0xbe054e4c	-0.13018149
233	0x3d907588	0.07053667
234	0x3c706e2c	0.0146747045
235	0x3be523cb	0.0069927922
236	0x3dec82b3	0.115483664
237	0x3ced9526	0.029001784
238	0x3c672d42	0.014109911
239	0x3e041252	0.12897614
240	0xba8ad4ec	-0.001059202
241	0x3e3da8d4	0.18521434
242	0xbe27abcf	-0.16374134
243	0x3dbacb54	0.09120813
244	0x3d4fc592	0.050725527
245	0x3ca6c395	0.020356933
246	0xbd7281ee	-0.05920594
247	0xbd1ea294	-0.038729265
248	0x3d744a42	0.05964113
249	0x3c85a5b2	0.016314361
250	0xbe24c400	-0.16090393
251	0xbe3384e4	-0.17531163
252	0xbdcc26ae	-0.09968315
253	0xbe47f332	-0.19526365
254	0xbd891f62	-0.06695439
255	0x3d55e766	0.052222632

encoder.encoder_layer.encoderlayer.linear1.bias f4 [128]
0	0x3e286932	0.16446379
1	0x3d1d439f	0.038394567
2	0x3e05dd40	0.13072681
3	0xbe475633	-0.19466476
4	0xbd12edcf	-0.035871323
5	0x3d8c53e0	0.068519354
6	0x3c7202a2	0.0147711355
7	0x3d7b7a0e	0.061395697
8	0x3c9ca8ac	0.019123398
9	0xbd2da454	-0.042393044
10	0x3e17c1cb	0.1482002
11	0xbdd5d99a	-0.10441895
12	0x3e12349f	0.14277886
13	0xbd0d4c96	-0.034496866
14	0x3da75bc8	0.08171803
15	0xbd9e1960	-0.07719684
16	0x3da34786	0.079726264
17	0xbc88d6d6	-0.016704004
18	0xbe462fec	-0.19354218
19	0x3c8d2eb0	0.017234176
20	0xbe540f28	-0.20708907
21	0xbde171ec	-0.11008057
22	0x3d3e677a	0.0464854
23	0x3e375f3c	0.17907423
24	0x3e350d76	0.17680916
25	0x3d0bc422	0.034122594
26	0xbce1e368	-0.027574256
27	0xbdb025cf	-0.086009614
28	0x3e42d8cf	0.19028018
29	0xbe4c7653	-0.19967012
30	0x3b3d2036	0.002885831
31	0xbe48d45b	-0.19612257
32	0x3d72654a	0.059178628
33	0xbe2a059f	-0.16603707
34	0xbcad7e0a	-0.021178264
35	0xbe34a030	-0.17639232
36	0x3e0d14e9	0.13777508
37	0x3c6662ed	0.014061672
38	0xbe29e131	-0.1658981
39	0x3dc979d6	0.098376915
40	0xbc8fc91a	-0.017551947
41	0xbe2466e0	-0.16054869
42	0x3e20bf3c	0.1569795
43	0xbe522b7b	-0.20524399
44	0xbd236b1b	-0.039897066
45	0xbe169df7	-0.14708696
46	0x3e3ac998	0.18240964
47	0x3dd6661c	0.104686946
48	0xbd359417	-0.044330683
49	0xbd87f731	-0.06638945
50	0x3e156837	0.14590536
51	0xbde3e7fc	-0.11128232
52	0x3de71faf	0.1128534
53	0xbd91d606	-0.071209
54	0x3d1572b1	0.03648633
55	0xbd6814b0	-0.056660354
56	0xbdf85dd8	-0.12127274
57	0x3e301348	0.17194855
58	0x3e446f40	0.19183064
59	0x3e2e5e9c	0.17028278
60	0xbdcac462	-0.09900738
61	0xbd249f1c	-0.0401908
62	0xbe25b5d2	-0.1618264
63	0x3db736de	0.08946012
64	0xbdf40d75	-0.11916629
65	0x3d8d7d88	0.06908709
66	0x3dfd1f9b	0.12359544
67	0x3db89787	0.090132765
68	0xbcd596fd	-0.026072973
69	0xbc9ec9d5	-0.01938335
70	0xbe2915a3	-0.1651216
71	0xbbd63bdf	-0.006537899
72	0xbe2e4d1d	-0.17021604
73	0x3e3e3984	0.18576628
74	0x3dd609cb	0.104510866
75	0x3dbbb78f	0.091658704
76	0x3e53de0a	0.2069017
77	0xbd55173a	-0.052024104
78	0xbe51cc63	-0.20488124
79	0xbdfebfac	-0.12438902
80	0x3e52e155	0.2059377
81	0xbe50c286	-0.20386705
82	0xbc82d901	-0.015972616
83	0xbd8eb488	-0.06968027
84	0x3e0c1d02	0.1368294
85	0xbe417a65	-0.18894346
86	0x3daa56f8	0.08317369
87	0x3d526e9c	0.051375017
88	0xbe283f80	-0.16430473
89	0x3e185d32	0.14879301
90	0xbddd0380	-0.10791683
91	0x3e2c1fa4	0.16808945
92	0xbe4262ac	-0.18982953
93	0xbe3266ce	-0.1742203
94	0xbe369066	-0.17828521
95	0x3cb27c8a	0.0217879
96	0xbe14d0bb	-0.1453275
97	0x3d57ec77	0.052715745
98	0x3d1dacd8	0.038494915
99	0x3e317626	0.17330226
100	0x3debded0	0.115171075
101	0x3e081d47	0.13292418
102	0xbd6e94f9	-0.05824754
103	0x3e1ce839	0.15322961
104	0xbdd2bccc	-0.102899164
105	0xbdb1092e	-0.08644329
106	0xbd825bce	-0.063651666
107	0xbd71350a	-0.058888473
108	0x3e0b5782	0.136076
109	0x3dc192ce	0.09451829
110	0xbd071a8c	-0.0329843
111	0xbdb3605f	-0.08758616
112	0xbde21c4f	-0.11040556
113	0xbda38d86	-0.07985978
114	0x3cab34e5	0.020899246
115	0xbe056631	-0.13027264
116	0xbbf89d7a	-0.007587132
117	0xbe20a0be	-0.15686318
118	0x3d9b8069	0.07592852
119	0xbe37a3b8	-0.17933547
120	0x3ddfb7cd	0.10923729
121	0xbde726e1	-0.112867124
122	0x3e24fdbc	0.16112417
123	0xbb2d0b4e	-0.0026404443
124	0x3e11c1e3	0.14234118
125	0xbdf6049e	-0.120125994
126	0x3c826972	0.01591942
127	0x3de1cd5b	0.110254966

encoder.encoder_layer.encoderlayer.linear2.weight f4 [23, 128]
0	0xbddba8f4	-0.107255846
1	0xbe254208	-0.1613847
2	0x3da02a4a	0.07820566
3	0xbca76e10	-0.020438224
4	0x3db8fd38	0.09032673
5	0x3e11a3ea	0.14222685
6	0x3e22317a	0.15839186
7	0x3de8ae23	0.11361339
8	0xbe05c514	-0.1306346
9	0x3e0d6dfc	0.13811487
10	0xbde976b2	-0.113995925
11	0xbd92aa0b	-0.07161339
12	0x3db45e81	0.08807088
13	0xbdcf05ff	-0.101085655
14	0xbde445de	-0.111461386
15	0x3dc641c6	0.09680514
16	0x3d33677d	0.043799866
17	0x3de5a0c0	0.11212301
18	0xbe232c7c	-0.15934938
19	0xbcd17826	-0.025569987
20	0xbe172ad3	-0.1476243
21	0xbd9d1092	-0.07669176
22	0x3b797bdb	0.0038068208
23	0x3da913b0	0.08255708
24	0x3daea0b4	0.085267454
25	0x3e126f0e	0.14300177
26	0xbe2fd763	-0.17172007
27	0x3b5f5a1f	0.0034080816
28	0xbdc4e66e	-0.096142635
29	0x3e10ebcf	0.14152454
30	0xbe4b8e4a	-0.19878498
31	0xbadc022b	-0.0016785314
32	0x3c4429e3	0.011972877
33	0x3c73c904	0.014879469
34	0x3e128867	0.14309846
35	0xbe18102e	-0.14849922
36	0xbd8869d0	-0.06660807
37	0x3e2c72dc	0.1684069
38	0x3e3e6f5c	0.18597168
39	0xbd49d1eb	-0.04927246
40	0x3ceb7437	0.028741939
41	0xbe20fcec	-0.15721482
42	0x3db41122	0.0879233
43	0xbde97764	-0.11399725
44	0xbe1d8b3e	-0.15385148
45	0xbdf4c7db	-0.11952182
46	0xbe4a7627	-0.19771634
47	0x3dc9a23b	0.09845396
48	0x3c869b14	0.016431369
49	0xbe395857	-0.18100105
50	0xbd606dee	-0.054792337
51	0x3c9f5087	0.019447578
52	0xbdce3f38	-0.10070652
53	0xbe26e155	-0.16296895
54	0x3e14c19f	0.14526986
55	0x3e33d05e	0.17559955
56	0x3d9807fe	0.074233994
57	0xbe3bff46	-0.18359098
58	0xba8b2ca0	-0.0010618158
59	0x3e15ff3d	0.14648147
60	0xbe047844	-0.12936503
61	0xbdf41783	-0.11918547
62	0x3dd2bc1f	0.102897875
63	0x3d957e9b	0.07299539
64	0x3ce6ef76	0.028190356
65	0xbd49933b	-0.049212676
66	0x3db604d9	0.08887643
67	0x3d2989d8	0.041391224
68	0xbe4a4b3d	-0.19755264
69	0x3d89446c	0.067025036
70	0xbe07c277	-0.13257776
71	0xbdf57213	-0.119846486
72	0x3c652f8e	0.013988389
73	0x3e1dddb3	0.15416603
74	0x3ca73e92	0.020415578
75	0xbe1230f0	-0.1427648
76	0xbd38b2e7	-0.04509249
77	0xbd528dda	-0.05140481
78	0xbdc8c91e	-0.09803985
79	0x3e41a254	0.1890958
80	0x3d935876	0.07194607
81	0x3dbf08d0	0.09327853
82	0x3d54592c	0.051842853
83	0x3a54716a	0.0008104058
84	0xbe3d664c	-0.18496054
85	0x3e0fdc83	0.14048962
86	0x3e216612	0.15761593
87	0x3e000375	0.12501319
88	0x3c80abbc	0.01570689
89	0xbe1fba7e	-0.15598485
90	0xbd82cbe3	-0.063865446
91	0xbdacf9f3	-0.084461115
92	0x3db4eae0	0.08833861
93	0x3e0ea5ca	0.13930431
94	0xbdca12a0	-0.09866834
95	0x3dae7332	0.085180655
96	0x3e3bb85f	0.1833205
97	0x3dffb18c	0.12485036
98	0x3d838ee6	0.0642374
99	0xbc97e129	-0.018539982
100	0x3e247a33	0.1606224
101	0xbe0c0e16	-0.13677248
102	0x3e1d8c34	0.15385514
103	0x3d26759e	0.040639512
104	0x3c4b9f3a	0.012428099
105	0xbd9eb812	-0.077499524
106	0xbe143e2e	-0.14476845
107	0xbe16cfda	-0.14727727
108	0x3dffc0cb	0.12487944
109	0xbcd686f0	-0.02618739
110	0x3e1fa5b2	0.15590551
111	0xbe3ff991	-0.18747546
112	0x3d88096c	0.06642422
113	0xbc8184c3	-0.015810376
114	0x3da95f8c	0.08270177
115	0x3e29d5b4	0.16585428
116	0x3e101822	0.14071706
117	0x3c877666	0.016535949
118	0xbda4d3b2	-0.0804819
119	0x3e3494b3	0.17634849
120	0x3e1e9c90	0.15489411
121	0xbd97cad3	-0.074117325
122	0x3df2ee44	0.11861852
123	0x3cc71241	0.024300696
124	0xbd2d2557	-0.04227194
125	0x3da8e689	0.08247096
126	0x3e3b7a93	0.18308477
127	0x3e240600	0.16017914
128	0x3d7d84f3	0.06189437
129	0x3d41c85d	0.047310222
130	0x3e2a47be	0.1662893
131	0x3dee4610	0.11634457
132	0xbdd9aaf0	-0.10628307
133	0xbd5cb99c	-0.05388795
134	0xbe2dd66b	-0.16976325
135	0x3e1fb615	0.15596803
136	0x3de2fa15	0.110828556
137	0x3ca00f58	0.019538566
138	0x3e2c023d	0.16797729
139	0xbc27b46e	-0.010235889
140	0xbcc08845	-0.023502478
141	0x3dcfbda9	0.10143597
142	0x3e4371a3	0.19086318
143	0x3e0682c0	0.13135815
144	0xbd7f84b2	-0.062382407
145	0x3d13a9f4	0.03605075
146	0xbd34cd0c	-0.04414086
147	0xbe133aef	-0.1437795
148	0x3e201802	0.15634158
149	0xbd612bc0	-0.054973364
150	0xbd96fe28	-0.07372695
151	0x3d28251a	0.041051008
152	0x3c423011	0.01185228
153	0xbdb5d87c	-0.08879182
154	0x3c4a3bb6	0.012343338
155	0xbe12bff3	-0.14331035
156	0xbe228be7	-0.15873681
157	0xbd8dd568	-0.0692547
158	0xbdffc3c6	-0.12488513
159	0x3cbd08b4	0.023075439
160	0x3d364202	0.044496544
161	0x3def3825	0.116806306
162	0x3dcf3f7b	0.1011953
163	0xbe36e001	-0.17858888
164	0xbe115070	-0.1419084
165	0xbe29a0fe	-0.1656532
166	0xbe312e38	-0.17302787
167	0x3cb91c19	0.022596406
168	0xbe0492e4	-0.1294666
169	0xbd2d6d9b	-0.042340856
170	0x3dcbe196	0.099551365
171	0xbe0c3eac	-0.13695782
172	0xbdb4686e	-0.08808981
173	0x3d69fd36	0.057126246
174	0xbd952ab9	-0.07283539
175	0xbc81ac48	-0.01582922
176	0xbe419a10	-0.18906426
177	0x3dec054a	0.11524446
178	0x3d7e4582	0.062078007
179	0x3e29b67a	0.16573516
180	0x3d9c96a3	0.07645919
181	0x3d154032	0.036438175
182	0xbd34f6fc	-0.044180855
183	0x3e40c6b4	0.18825799
184	0xbdfc67b3	-0.123244666
185	0x3d34cff0	0.044143617
186	0x3dbf4e36	0.093410894
187	0x3db4cb36	0.08827822
188	0xbd63aa78	-0.055582494
189	0x3da595df	0.08085226
190	0x3cae0ce0	0.021246374
191	0xbb38469d	-0.002811826
192	0xbdeb858e	-0.11500083
193	0x3e3d68c0	0.1849699
194	0x3e256202	0.16150668
195	0xbd769ee0	-0.06021011
196	0xbddcde04	-0.107845336
197	0x3d8f3b4a	0.0699373
198	0xbcc2d0d5	-0.02378122
199	0x3e40cfaa	0.18829218
200	0xbe492e16	-0.19646487
201	0x3e0d23a4	0.13783127
202	0x3d13e508	0.036107093
203	0xbae3daaf	-0.0017383898
204	0xbe4625b5	-0.19350322
205	0xbdeb4c82	-0.11489202
206	0xbe32772e	-0.17428276
207	0xbdf0265b	-0.11726066
208	0x3e1cf961	0.15329506
209	0x3e44dc63	0.19224696
210	0x3d8d2b7f	0.06893062
211	0xbe3ec1b2	-0.18628576
212	0x3d111de6	0.035428904
213	0xbda1517f	-0.07876872
214	0xbe24bbce	-0.16087267
215	0xbe1142eb	-0.14185683
216	0xbe463b6e	-0.19358608
217	0x3d0f6cd0	0.03501588
218	0x3d75f7bc	0.06005071
219	0xbd0a413e	-0.033753626
220	0xbd93e08f	-0.072205655
221	0x3d6c490d	0.057686854
222	0xbdf4bb4c	-0.119497865
223	0xbe254577	-0.1613978
224	0xbe2cbee3	-0.16869693
225	0xbd9dbf96	-0.07702558
226	0xbdfbb412	-0.12290205
227	0xbdfa34e2	-0.12217118
228	0xbd5e4ae0	-0.054270625
229	0xbe46913a	-0.19391337
230	0x3b9163be	0.004436939
231	0xbe4308f2	-0.19046381
232	0xbd91a6eb	-0.07111915
233	0xbd94c196	-0.07263486
234	0xbe101e54	-0.1407407
235	0xbe2e774c	-0.17037696
236	0xbe0db3dc	-0.13838142
237	0xbce8c7a3	-0.028415507
238	0x3c1d4538	0.009599023
239	0xbe0087c7	-0.12551795
240	0x3bb3b87e	0.0054846397
241	0xbd7ec2dc	-0.06219755
242	0xbdc20c56	-0.09475009
243	0xbdd7942e	-0.1052631
244	0x3e3cb735	0.18429263
245	0xbdc1d945	-0.09465269
246	0xbc78e061	-0.015190215
247	0x3cc74c6a	0.02432843
248	0xbdc926fc	-0.09821889
249	0x3e433de5	0.1906658
250	0x3c12fedf	0.008971899
251	0x3e19ab26	0.15006694
252	0x3df1e9d3	0.118121766
253	0x3d2f4a8f	0.042795714
254	0x3d8de1a7	0.069278054
255	0xbdd21404	-0.10257724

encoder.encoder_layer.encoderlayer.linear2.bias f4 [23]
0	0x3d1db29d	0.038500417
1	0x3da6fa7e	0.08153246
2	0x3d83ea0d	0.06441126
3	0x3cbca5fa	0.023028363
4	0x3d369737	0.044577803
5	0xbc1ca8b6	-0.009561708
6	0xbba3e308	-0.0050014295
7	0xbd86cd13	-0.065820836
8	0xbbc19632	-0.0059077973
9	0x3da812a2	0.08206679
10	0x3cdfff55	0.027343431
11	0xbd24e4ea	-0.040257372
12	0xbd4e0dd8	-0.05030617
13	0x3c870338	0.016481027
14	0x3d012c5b	0.03153644
15	0x3d7d3d57	0.061826076
16	0x3d42f644	0.04759814
17	0x3d030251	0.03198463
18	0xbcf897f0	-0.030345887
19	0xbda9dcc9	-0.082940646
20	0x3d045941	0.03231168
21	0xbb8659f0	-0.004100077
22	0xbd6b2222	-0.0574056

encoder.encoder_layer.encoderlayer.norm1.weight f4 [23]
0	0x3f800000	1.0
1	0x3f800000	1.0
2	0x3f800000	1.0
3	0x3f800000	1.0
4	0x3f800000	1.0
5	0x3f800000	1.0
6	0x3f800000	1.0
7	0x3f800000	1.0
8	0x3f800000	1.0
9	0x3f800000	1.0
10	0x3f800000	1.0
11	0x3f800000	1.0
12	0x3f800000	1.0
13	0x3f800000	1.0
14	0x3f800000	1.0
15	0x3f800000	1.0
16	0x3f800000	1.0
17	0x3f800000	1.0
18	0x3f800000	1.0
19	0x3f800000	1.0
20	0x3f800000	1.0
21	0x3f800000	1.0
22	0x3f800000	1.0

encoder.encoder_layer.encoderlayer.norm1.bias f4 [23]
0	0x00000000	0.0
1	0x00000000	0.0
2	0x00000000	0.0
3	0x00000000	0.0
4	0x00000000	0.0
5	0x00000000	0.0
6	0x00000000	0.0
7	0x00000000	0.0
8	0x00000000	0.0
9	0x00000000	0.0
10	0x00000000	0.0
11	0x00000000	0.0
12	0x00000000	0.0
13	0x00000000	0.0
14	0x00000000	0.0
15	0x00000000	0.0
16	0x00000000	0.0
17	0x00000000	0.0
18	0x00000000	0.0
19	0x00000000	0.0
20	0x00000000	0.0
21	0x00000000	0.0
22	0x00000000	0.0

encoder.encoder_layer.encoderlayer.norm2.weight f4 [23]
0	0x3f800000	1.0
1	0x3f800000	1.0
2	0x3f800000	1.0
3	0x3f800000	1.0
4	0x3f800000	1.0
5	0x3f800000	1.0
6	0x3f800000	1.0
7	0x3f800000	1.0
8	0x3f800000	1.0
9	0x3f800000	1.0
10	0x3f800000	1.0
11	0x3f800000	1.0
12	0x3f800000	1.0
13	0x3f800000	1.0
14	0x3f800000	1.0
15	0x3f800000	1.0
16	0x3f800000	1.0
17	0x3f800000	1.0
18	0x3f800000	1.0
19	0x3f800000	1.0
20	0x3f800000	1.0
21	0x3f800000	1.0
22	0x3f800000	1.0

encoder.encoder_layer.encoderlayer.norm2.bias f4 [23]
0	0x00000000	0.0
1	0x00000000	0.0
2	0x00000000	0.0
3	0x00000000	0.0
4	0x00000000	0.0
5	0x00000000	0.0
6	0x00000000	0.0
7	0x00000000	0.0
8	0x00000000	0.0
9	0x00000000	0.0
10	0x00000000	0.0
11	0x00000000	0.0
12	0x00000000	0.0
13	0x00000000	0.0
14	0x00000000	0.0
15	0x00000000	0.0
16	0x00000000	0.0
17	0x00000000	0.0
18	0x00000000	0.0
19	0x00000000	0.0
20	0x00000000	0.0
21	0x00000000	0.0
22	0x00000000	0.0

encoder.transformer_encoder.layers.0.encoderlayer.self_attn.in_proj_weight f4 [69, 23]
0	0x3e485f90	0.19567704
1	0x3d7730df	0.06034934
2	0x3e531498	0.20613325
3	0x3e127ada	0.14304677
4	0xbe4b1d41	-0.19835378
5	0xbda9b1ca	-0.08285864
6	0x3e0c18ac	0.13681287
7	0xbe39d6dc	-0.18148369
8	0x3e5e6ccd	0.21721192
9	0xbe43a5fb	-0.19106285
10	0x3e8c80e2	0.2744208
11	0xbd6cd4e9	-0.057820234
12	0x3dab37c1	0.083602436
13	0x3e26146b	0.16218726
14	0xbe2779bc	-0.16355032
15	0x3e90becb	0.28270563
16	0x3e47581c	0.19467205
17	0xbd5e20c5	-0.05423047
18	0xbdb55caa	-0.08855565
19	0xbe62a1fe	-0.22132108
20	0x3dc23229	0.094822235
21	0xbd91dfa7	-0.071227364
22	0x3e69d7b3	0.22836189
23	0x3a9b238e	0.0011836158
24	0xbe33d0f9	-0.17560185
25	0x3dedfae5	0.1162012
26	0x3cd88368	0.026429847
27	0xbd9c188f	-0.07621872
28	0x3dedc3ce	0.116096124
29	0x3dec0014	0.115234524
30	0xbe2bb846	-0.16769513
31	0x3dc89a69	0.097950764
32	0x3d54ddb1	0.051969234
33	0x3dc4142b	0.09574159
34	0xbdb30eee	-0.08743082
35	0x3d7b8884	0.06140949
36	0xbd09153c	-0.033467516
37	0xbd830cce	-0.06398927
38	0xbdcad834	-0.09904519
39	0xbeaca465	-0.33719173
40	0xbe1418a1	-0.1446252
41	0x3e460b68	0.19340289
42	0xbe48efca	-0.19622722
43	0x3dd21b43	0.10259106
44	0xbd8798ea	-0.06620963
45	0x3e0248a6	0.12723026
46	0x3e96d2a7	0.2945759
47	0x3e56c412	0.20973232
48	0x3e7d8f85	0.2476178
49	0xbe2091f9	-0.15680684
50	0x3e150767	0.14553605
51	0x3e599029	0.21246399
52	0xbe053184	-0.1300717
53	0xbe052d38	-0.13005531
54	0x3d414fd0	0.047195256
55	0xbca2a313	-0.01985315
56	0xbe0bdfe5	-0.13659628
57	0x3dc5b9bf	0.09654569
58	0x3e1b56c5	0.15169819
59	0x3dff5e14	0.12469116
60	0xbcbb44aa	-0.02285989
61	0x3e826f14	0.2547537
62	0x3f178d2b	0.5919978
63	0x3d00732f	0.031359848
64	0xbdadfb78	-0.084952295
65	0xbe0a1571	-0.13484742
66	0xbd911559	-0.0708415
67	0x3e91b947	0.28461668
68	0xbc6c6f19	-0.014430785
69	0xbeacc8a3	-0.33746824
70	0xbebf7bef	-0.3739924
71	0xbd05cdb0	-0.032666862
72	0xbe4c8f09	-0.19976439
73	0xbe3690dd	-0.17828698
74	0x3dc0b727	0.094099335
75	0x3d5486d4	0.051886395
76	0x3c2739db	0.010206665
77	0x3e28d983	0.16489224
78	0x3e4a7eab	0.19774882
79	0x3e3e9e37	0.18615042
80	0x3d28de96	0.0412279
81	0xbc721620	-0.014775783
82	0x3d633df0	0.05547899
83	0xbe224203	-0.15845494
84	0xbde29be7	-0.11064892
85	0xbe4c9e9d	-0.19982381
86	0xbe51155d	-0.20418306
87	0xbe453de9	-0.19261898
88	0x3d0a2621	0.03372777
89	0xbb154c4c	-0.0022781072
90	0xbe8c9f20	-0.27465153
91	0x3d9335d6	0.07188003
92	0xbdece1b7	-0.11566489
93	0xbe325683	-0.17415814
94	0xbd9532a2	-0.07285048
95	0x3df7a531	0.12092055
96	0xbe35918d	-0.17731304
97	0x3d990a4b	0.07472666
98	0xbe15ff10	-0.1464808
99	0xbe904aa9	-0.2818196
100	0x3dec6a8c	0.1154376
101	0x3d087384	0.03331329
102	0x3cb7fb53	0.022458708
103	0xbe8d6507	-0.2761614
104	0x3e4f1605	0.20223244
105	0xbb4d00d6	-0.0031281016
106	0x3d8de4f1	0.06928433
107	0x3d50101b	0.05079661
108	0xbee3612a	-0.44410068
109	0x3dfb3245	0.122654475
110	0x3d8c08c5	0.0683761
111	0xbdd02cd3	-0.101647995
112	0x3e76ba39	0.24094476
113	0xbd511c8a	-0.051052608
114	0x3e40b7bd	0.1882009
115	0x3e3e4d1f	0.18584107
116	0x3d598938	0.053109378
117	0x3d4e70ea	0.050400652
118	0xbe7801d0	-0.24219441
119	0xbda65e23	-0.08123424
120	0x3df129be	0.1177554
121	0xbda0b288	-0.07846552
122	0x3c9ef619	0.019404458
123	0xbce27395	-0.027643004
124	0x3e0bc345	0.13648708
125	0x3d4b4591	0.04962689
126	0xbd3ae961	-0.045632724
127	0xbde4448d	-0.111458875
128	0xbe0143a4	-0.12623459
129	0x3e037f18	0.12841451
130	0xbb8bda8f	-0.0042679976
131	0xbd86619f	-0.065615885
132	0x3e024d6a	0.12724844
133	0x3dfb7a46	0.12279181
134	0xbd2671c4	-0.04063584
135	0x3e0d0ee3	0.1377521
136	0x3c2329bc	0.009958681
137	0xbe050cb7	-0.12993132
138	0x3e916677	0.28398487
139	0xbdc8adb2	-0.09798755
140	0x3e27d416	0.16389498
141	0x3ca92a7d	0.020650143
142	0xbe4bd129	-0.19904007
143	0x3e7847ad	0.24246092
144	0x3e902cdd	0.28159228
145	0xbe1592ef	-0.14606832
146	0xbd763653	-0.0601104
147	0x3daf40ca	0.085572794
148	0x3cbb99a6	0.022900414
149	0xbca933bc	-0.020654552
150	0xbdeae023	-0.11468532
151	0xb9500b21	-0.00019840572
152	0xbdffe7aa	-0.12495358
153	0xbe196843	-0.14981179
154	0x3f003781	0.5008469
155	0x3dad73cf	0.08469354
156	0x3c6811f9	0.014164441
157	0xbdb4fa07	-0.088367514
158	0xbdadad9c	-0.08480379
159	0xbd2d8fde	-0.04237353
160	0x3be3863e	0.006943493
161	0xbd551073	-0.05201764
162	0x3d548534	0.051884845
163	0xbe1dccd6	-0.1541017
164	0xbe421fab	-0.18957393
165	0xbe223e4b	-0.15844075
166	0xbe4926fa	-0.19643775
167	0xbe3ac6b3	-0.1823986
168	0x3d813f3c	0.06310889
169	0x3d72be44	0.059263483
170	0xbde94f98	-0.113921344
171	0xbe19af5b	-0.15008299
172	0xbda44844	-0.08021596
173	0xbe1b1352	-0.15144089
174	0xbe7763e6	-0.24159202
175	0xbc67a483	-0.014138344
176	0x3dc06244	0.09393743
177	0xbee0d992	-0.43915993
178	0xbe87ff7c	-0.26562107
179	0x3e344234	0.1760338
180	0x3e46d5d8	0.19417512
181	0xbdfdff96	-0.12402265
182	0xbe2ac8dd	-0.16678186
183	0x3e38f7b2	0.18063238
184	0x3e2642e3	0.16236453
185	0x3e0f125b	0.13971846
186	0xbe73e56e	-0.23817989
187	0xbdf43295	-0.1192371
188	0xbe4e30ac	-0.20135754
189	0x3e80dfc2	0.25170714
190	0x3e17fb68	0.14841998
191	0xbdafad3f	-0.08577966
192	0x3dab3d10	0.08361256
193	0x3da0a731	0.07844389
194	0xbc8690bb	-0.016426435
195	0x3cc5e409	0.024156587
196	0xbd0d9471	-0.034565393
197	0x3db558f5	0.08854858
198	0x3e050155	0.1298879
199	0x3e4d6053	0.20056276
200	0x3e7ccc4d	0.2468731
201	0x3e334fc3	0.17510895
202	0x3dd21fec	0.10259995
203	0x3d1ec655	0.038763363
204	0x3de93484	0.1138697
205	0x3e2b2db3	0.16716652
206	0x3e6d87d8	0.23196352
207	0x3d843e1a	0.064571574
208	0x3cd9a041	0.026565673
209	0x3e840e5d	0.25792208
210	0xbe159ecd	-0.14611359
211	0x3dd460f8	0.10370058
212	0x3df1de23	0.11809947
213	0x3e6106ee	0.219753
214	0x3e2f9728	0.17147505
215	0x3d99f888	0.07518107
216	0xbe0073cb	-0.12544172
217	0xbe717cc8	-0.23582757
218	0xbe1e1e2d	-0.15441199
219	0x3cce458e	0.02517965
220	0xbd90c0c3	-0.070680164
221	0x3e502aac	0.20328778
222	0x3e8b226a	0.27174693
223	0x3e8c72b1	0.27431253
224	0xbe1f572f	-0.15560602
225	0x3e782b88	0.24235356
226	0x3e660a6e	0.22464916
227	0x3e2744df	0.16334866
228	0xbdd84b6e	-0.10561262
229	0x3e394c49	0.18095507
230	0xbe812076	-0.25220078
231	0xbe9c7f50	-0.30565882
232	0x3dbcaa7e	0.09212206
233	0xbd60a065	-0.054840464
234	0xbda6580c	-0.08122262
235	0xbe87219d	-0.26392832
236	0x3d9bba75	0.07603923
237	0xbe2b9766	-0.16756973
238	0xbe203e77	-0.15648828
239	0xbd987331	-0.07443846
240	0x3db308ce	0.08741914
241	0xbe12e07c	-0.14343446
242	0xbe6d72b5	-0.23188289
243	0xbe4cea7b	-0.20011322
244	0xbe502dc5	-0.2032996
245	0xbe81fbf4	-0.25387537
246	0xbdf0b87c	-0.117539376
247	0xbe84e55b	-0.25956234
248	0xbcf6b7e2	-0.030116979
249	0xbe319ae4	-0.17344242
250	0xbe1a228e	-0.15052244
251	0xbd68c4a0	-0.05682814
252	0xbe4bce30	-0.19902873
253	0x3de62a63	0.112385534
254	0xbe5ed748	-0.21761811
255	0x3e660f28	0.22466719

encoder.transformer_encoder.layers.0.encoderlayer.self_attn.in_proj_bias f4 [69]
0	0x3d8ab9cc	0.06773719
1	0xbcd8a633	-0.026446437
2	0x3e3052b8	0.17219055
3	0xbe21ee34	-0.15813524
4	0xbdfa8e48	-0.12234169
5	0x3d0a8cca	0.033825673
6	0x3df5a38d	0.119940855
7	0xbe100bfb	-0.1406707
8	0x3dc666cf	0.09687578
9	0x3dd787d0	0.10523951
10	0xbdefdf57	-0.117125206
11	0xbcb326da	-0.021869112
12	0x3daa9033	0.08328285
13	0x3e04a7c3	0.12954621
14	0x3e258768	0.16164935
15	0x3e1962c8	0.14979088
16	0x3d570ff7	0.05250546
17	0xbe1e27a3	-0.15444808
18	0x3d96419a	0.07336731
19	0x3cea3ac8	0.028592482
20	0x3e0be5b0	0.13661838
21	0xbde56eeb	-0.112027965
22	0xbdfa2d08	-0.1221562
23	0x38e67667	0.00010989309
24	0xb8453310	-4.7016016e-05
25	0x37cd00c6	2.4438265e-05
26	0xb993787c	-0.00028127793
27	0xb95d35aa	-0.00021096194
28	0xb91e1711	-0.00015076647
29	0xb73bc385	-1.11915915e-05
30	0xb991bd32	-0.00027797517
31	0xb90ed04a	-0.00013619769
32	0x38ae6e44	8.317505e-05
33	0xba8069bc	-0.0009797136
34	0x36ae12e9	5.1878055e-06
35	0x39b191e6	0.00033868774
36	0x3935cd51	0.00017337991
37	0xb96a791d	-0.00022361097
38	0x3a010218	0.00049212715
39	0xb7e3e118	-2.7165326e-05
40	0x39f99485	0.00047603637
41	0xb86a1cd1	-5.5816785e-05
42	0x37043cd4	7.881976e-06
43	0xb9dd5841	-0.0004221816
44	0x358b7067	1.038902e-06
45	0xb8e9066a	-0.000111115005
46	0x3cb3b783	0.021938091
47	0xbbf344ba	-0.0074239643
48	0xbd00440a	-0.031314887
49	0xbd50dd43	-0.05099226
50	0xbca2ca47	-0.019871844
51	0xbce23126	-0.027611326
52	0xbd11eaa9	-0.03562418
53	0x3d824853	0.06361451
54	0x3d4b0065	0.049560923
55	0xbd4cf6d8	-0.050040096
56	0x3d6bf97c	0.057610974
57	0xbd0fcfeb	-0.035110395
58	0xbc49f6db	-0.012326921
59	0x3c42ca99	0.011889123
60	0x3cc81977	0.024426205
61	0xbbb31109	-0.0054646772
62	0x3d34b233	0.044115257
63	0x3c3ad2df	0.011402815
64	0xbcc2db21	-0.02378613
65	0xbd1746d2	-0.036932774
66	0xbd6dac79	-0.05802581
67	0xbc0cf88e	-0.008604182
68	0x3cf82b20	0.030294001

encoder.transformer_encoder.layers.0.encoderlayer.self_attn.out_proj.weight f4 [23, 23]
0	0xbe66e19c	-0.22547
1	0x3e026558	0.12733972
2	0xbe8074a7	-0.25089
3	0x3e2db4d2	0.16963509
4	0x3d3fea55	0.046854336
5	0x3e0fdc10	0.14048791
6	0x3e171654	0.14754611
7	0x3d63aae0	0.05558288
8	0x3e2307ce	0.15920946
9	0x3e8caab2	0.2747398
10	0x3ea5272e	0.32256454
11	0xbc9c3771	-0.019069405
12	0x3e3c8f0c	0.18413943
13	0x3d42131f	0.047381517
14	0xbe4609b2	-0.19339636
15	0x3d66d55d	0.056355823
16	0xbe08f5ce	-0.13375017
17	0xbda86a25	-0.082233705
18	0xbe5cb780	-0.21554375
19	0x3d8371aa	0.06418164
20	0x3e14582c	0.1448676
21	0xbd7b09c3	-0.061288606
22	0x3d00e119	0.03146467
23	0x3b764414	0.0037577199
24	0xbd26f579	-0.040761445
25	0xbea3ed58	-0.32017016
26	0xbe1f060f	-0.15529655
27	0x3df34fd8	0.11880463
28	0x3d7b441b	0.061344247
29	0x3de71f9c	0.11285326
30	0x3e24e584	0.16103178
31	0xbcf323e1	-0.029680194
32	0x3e01c2ae	0.1267192
33	0xbe67af3a	-0.22625437
34	0xbec1ee63	-0.37877187
35	0x3e46fb96	0.1943191
36	0xbe9f95f0	-0.3116908
37	0x3e0210a9	0.12701668
38	0x3daad2d3	0.08340993
39	0xbe924813	-0.28570613
40	0x3e590237	0.21192251
41	0x3caa2b91	0.020772727
42	0x3e979d13	0.29612026
43	0xbe355089	-0.17706503
44	0x3d4251fb	0.047441464
45	0xbeac7f68	-0.33690953
46	0x3d400e45	0.04688861
47	0xbe8dbc64	-0.27682793
48	0x3e9603fe	0.2929992
49	0x3e8dbe78	0.2768438
50	0xbda93d83	-0.082636856
51	0x3d324902	0.043526657
52	0xbe2e28a8	-0.17007697
53	0xbde29e7b	-0.11065384
54	0x3e890d02	0.26767737
55	0xbd866618	-0.065624416
56	0x3e319535	0.17342074
57	0xbe9002ed	-0.28127232
58	0x3e3c80ac	0.1840846
59	0x3e169a4c	0.14707297
60	0x3e69cc4f	0.22831844
61	0x3ec6edaa	0.38853198
62	0xbe29beae	-0.16576645
63	0x3d8d0485	0.06885628
64	0x3e7c69cf	0.24649738
65	0x3e188df6	0.14897904
66	0x3df5912e	0.119905815
67	0xbe7f28d6	-0.24917921
68	0xbe96677e	-0.29375833
69	0xbe27aead	-0.16375227
70	0xbdd82506	-0.10553937
71	0x3e0ad9b6	0.13559613
72	0x3e94e6e4	0.29082406
73	0x3dc3aefe	0.095548615
74	0xbd3feb05	-0.04685499
75	0xbe217f53	-0.15771227
76	0x3ce7b4cc	0.028284453
77	0xbe51e9df	-0.20499371
78	0x3e1089d9	0.14115085
79	0xbdc54942	-0.096331134
80	0xbe917205	-0.28407302
81	0x3e7263dd	0.23670907
82	0xbd94d7f2	-0.07267751
83	0xbe7c1e08	-0.24620831
84	0xbdf6c73b	-0.12049719
85	0xbd33c0d4	-0.043885067
86	0x3d349155	0.044083912
87	0xbe29622c	-0.16541356
88	0x3e33d5a1	0.17561962
89	0xbd5432d6	-0.051806293
90	0x3d1e24ff	0.0386095
91	0xbd0126c5	-0.031531114
92	0x3ea54097	0.3227584
93	0xbead69e4	-0.3386985
94	0x3e6f8f34	0.23394471
95	0x3d433381	0.04765654
96	0xbd67b2a5	-0.056566853
97	0xbebf00bc	-0.37305248
98	0xbd4a5ffa	-0.049407937
99	0xbdb7d99e	-0.08977054
100	0x3ddeea56	0.1088454
101	0x3e992482	0.29910666
102	0xbea0f950	-0.3144021
103	0x3e2c9470	0.168535
104	0x3e2837dd	0.1642756
105	0x3d4c0252	0.0498069
106	0xbda1dc5d	-0.07903359
107	0xbe72a7ba	-0.23696795
108	0x3dcf264e	0.10114728
109	0x3ecc1e92	0.39867073
110	0x3eafb40e	0.34317058
111	0x3d4a6cd5	0.049420197
112	0x3e006d8b	0.12541787
113	0xbdcd04ef	-0.10010707
114	0x3e80264b	0.25029215
115	0xbe6bacee	-0.23015186
116	0xbe47c5fd	-0.1950912
117	0xbea81c2b	-0.3283399
118	0x3ea85095	0.3287398
119	0x3e5bb3cd	0.21455307
120	0x3cc1995b	0.023632696
121	0x3dfa7a67	0.12230378
122	0xbdd8ad93	-0.10579982
123	0x3e2cb379	0.16865338
124	0xbc41bac4	-0.011824314
125	0x3d4fa30b	0.0506926
126	0xbdfbc7cc	-0.122939676
127	0xbda5fd80	-0.08104992
128	0x3e81b117	0.2533042
129	0xbe71e298	-0.23621595
130	0xbe876052	-0.26440674
131	0xbe8d5eea	-0.27611476
132	0xbe4f28ac	-0.20230359
133	0xbe57c766	-0.21072158
134	0x3e883913	0.26606044
135	0xbe1e3b90	-0.15452409
136	0xbe17d642	-0.14827827
137	0xbea6ce5b	-0.32579312
138	0xbc45edaf	-0.012080594
139	0x3e57e8b6	0.21084866
140	0xbe1a30ec	-0.15057725
141	0xbd815111	-0.0631429
142	0xbe03a9db	-0.12857763
143	0x3e2657c4	0.16244417
144	0xbde497fa	-0.111618
145	0x3e2b8eec	0.16753739
146	0xbd5afa0c	-0.05346112
147	0x3e29fe9c	0.16601032
148	0xbdfdeeff	-0.123991005
149	0xbe6d8f5c	-0.23199219
150	0x3de98aef	0.114034526
151	0xbd744588	-0.059636623
152	0xbe5500fc	-0.20801157
153	0x3d813bdb	0.06310245
154	0x3cd6448d	0.026155734
155	0x3dd0f173	0.10202303
156	0x3d7686b2	0.06018705
157	0xbe4d43b6	-0.20045361
158	0xbe441503	-0.1914864
159	0x3e396fde	0.1810908
160	0xbdc809e7	-0.09767514
161	0xbeb5fd67	-0.35544893
162	0xbe2362cf	-0.15955661
163	0x3d399a70	0.0453133
164	0x3e61b33c	0.22041029
165	0xbd78134f	-0.06056529
166	0x3dc476a9	0.09592945
167	0xbd87cbe1	-0.06630684
168	0x3e0d3639	0.13790216
169	0x3d354523	0.044255387
170	0xbe3786db	-0.17922537
171	0x3e84bfc4	0.25927556
172	0x3e80f0aa	0.25183612
173	0x3c103f25	0.008804117
174	0xbe07f519	-0.13277091
175	0x3de0ee0b	0.10982903
176	0x3cba4dca	0.02274217
177	0x3eb145b1	0.34623483
178	0x3e8785ca	0.2646926
179	0xbeac4801	-0.33648685
180	0x3ce90514	0.028444804
181	0xbe3d8498	-0.18507612
182	0x3c31e3ae	0.010857506
183	0xbe9f83e0	-0.311553
184	0xbdc5641b	-0.09638234
185	0xbeac345a	-0.3363369
186	0x3e05823f	0.13037966
187	0x3e8bcd3c	0.2730502
188	0x3d26a62d	0.04068582
189	0x3ec03f2b	0.37548193
190	0x3ddb29e3	0.10701349
191	0xbe6ce0ca	-0.23132625
192	0xbea75116	-0.3267905
193	0x3d7acf0e	0.06123262
194	0xbe58791a	-0.21139947
195	0xbde07033	-0.109589
196	0xbcad6023	-0.021164006
197	0x3da11443	0.07865193
198	0xbdbdbdda	-0.09264727
199	0x3e8f0f27	0.27941248
200	0x3d95e3ae	0.07318817
201	0xbe34e2a9	-0.17664589
202	0x3d22d0e4	0.039749995
203	0xbe8efebd	-0.27928725
204	0xbea00b71	-0.3125873
205	0x3e488b35	0.19584353
206	0x3e92455c	0.28568542
207	0xbe5c5465	-0.21516569
208	0x3e0e525c	0.13898605
209	0xbde2ec15	-0.11080185
210	0x3e71a984	0.23599821
211	0xbce6c887	-0.02817179
212	0xbd69dc85	-0.05709507
213	0x3e6becd4	0.23039562
214	0xbe300349	-0.17188753
215	0xbe6198ea	-0.22030988
216	0xbcf11da5	-0.02943308
217	0xbdb7effe	-0.08981322
218	0xbea060c6	-0.31323832
219	0x3e81ea64	0.25374138
220	0xbe69b423	-0.22822623
221	0xbc830997	-0.015995784
222	0x3e3baad3	0.18326883
223	0x3e80795b	0.25092587
224	0xbe0e652e	-0.13905784
225	0x3d2d7938	0.04235193
226	0xbe9a7b64	-0.30172265
227	0x3e88e2f9	0.26735666
228	0xbe9973b1	-0.29971078
229	0x3ce9eb34	0.028554536
230	0xbe19d466	-0.1502243
231	0x3e7a2dd9	0.24431552
232	0x3dcd7176	0.100314066
233	0xbe636f9b	-0.22210543
234	0xbe14d070	-0.14532638
235	0xbc8c9714	-0.017161883
236	0xbce9f0ad	-0.028557146
237	0xbdf7cf90	-0.12100136
238	0x3e5c24d7	0.21498428
239	0x3df10d01	0.117700584
240	0x3ea0a8b5	0.31378713
241	0xbe76f1ba	-0.24115649
242	0xbe429115	-0.19000657
243	0x3e1b91ad	0.1519229
244	0xbeae19e5	-0.3400413
245	0x3df38a56	0.1189162
246	0x3dbb50dc	0.09146282
247	0xbe61f4d1	-0.22066046
248	0xbe2e509a	-0.17022935
249	0xbd8be000	-0.06829834
250	0x3e9c09f1	0.30476335
251	0xbe9d8c61	-0.30771163
252	0x3e26f838	0.16305625
253	0xbd70333f	-0.058642622
254	0x3e93fdb9	0.28904513
255	0xbe3af9d5	-0.18259366

encoder.transformer_encoder.layers.0.encoderlayer.self_attn.out_proj.bias f4 [23]
0	0xbcfbebab	-0.030752024
1	0xbbd05dcd	-0.006358838
2	0x3b8fe585	0.0043913745
3	0xbca437c0	-0.020046115
4	0x3c89cc63	0.016821092
5	0x39a5924a	0.00031580246
6	0x3be4ff0d	0.0069884122
7	0xbc2faeff	-0.010722875
8	0x3caa1f1a	0.020766784
9	0x3bbc9ed6	0.0057562394
10	0x3cf47714	0.029841937
11	0xba63e332	-0.00086932175
12	0xbb4d47a0	-0.003132321
13	0xbc480437	-0.012208036
14	0xbc807aa2	-0.015683476
15	0xbc9c04db	-0.019045284
16	0xbc8d6812	-0.017261539
17	0x3d087b2d	0.033320595
18	0xbc835568	-0.016031936
19	0x3d861516	0.065469906
20	0xbc0e562c	-0.008687537
21	0xba8e9e05	-0.0010880834
22	0xbc054af8	-0.00813555
