Final_exp/FL_001/3stacks_3nhead_120lwin_0_0005lr_128dff_64batch_50epcs_0_1dropout/server_models/aggregated_transformer_r9.pt (torch, 79631 bytes, 49 tensors)

encoder.encoder_layer.encoderlayer.self_attn.in_proj_weight f4 [48, 16]
0	0x3ce6b950	0.028164536
1	0xbcf4bb38	-0.02987443
2	0x3d954ce2	0.07290055
3	0x3e5039dd	0.20334573
4	0x3d2e24b8	0.042515486
5	0xbd63072a	-0.055426754
6	0xbe485052	-0.1956189
7	0xbe9bb82d	-0.30413952
8	0x3e2da31d	0.16956754
9	0x3d664deb	0.056226652
10	0xbe61b564	-0.22041851
11	0xbe6e803b	-0.23291104
12	0xbe0e78ef	-0.1391332
13	0xbd941f40	-0.07232523
14	0x3e20f897	0.1571983
15	0x3db058d8	0.086106956
16	0xbe0f55d1	-0.1399758
17	0x3d5ee4de	0.054417484
18	0x3da4279f	0.080153696
19	0xbe40057e	-0.18752095
20	0xbd31f6f1	-0.043448392
21	0xbe335b22	-0.17515233
22	0x3e04e2a6	0.12977085
23	0xbdf6d5c6	-0.12052493
24	0x3e11e749	0.14248385
25	0x3e79a4a7	0.24379216
26	0x3e198f4a	0.14996067
27	0xbdf04a62	-0.117329374
28	0x3e6dcfe9	0.23223843
29	0xbe61d6c2	-0.2205458
30	0x3e85f99c	0.26167
31	0x3e369f71	0.1783426
32	0x3e333258	0.17499673
33	0x3d2f7670	0.04283756
34	0xbd4fbd24	-0.050717488
35	0xbe17438a	-0.14771858
36	0xbd2bc0f4	-0.04193206
37	0xbd68e999	-0.0568634
38	0x3e8dd764	0.27703393
39	0x3e44a7db	0.19204657
40	0x3e13eb95	0.14445336
41	0x3e7ec37c	0.24879259
42	0x3e2c23ce	0.16810533
43	0x3ced45d6	0.028963964
44	0xbd2bb453	-0.041920017
45	0x3e7d2b30	0.24723506
46	0xbe270d0f	-0.16313575
47	0x3e198024	0.14990288
48	0xbda9b179	-0.08285803
49	0xbd1a8a04	-0.03772928
50	0xbdb1eb62	-0.08687474
51	0xbe973c7e	-0.2953834
52	0x3e844a03	0.25837716
53	0x3e7177d8	0.23580873
54	0x3e601ac4	0.2188521
55	0xbe5f9684	-0.21834761
56	0xbe5b5dc0	-0.21422482
57	0x3e3194d4	0.1734193
58	0xbe8bc97e	-0.27302164
59	0x3d8d392b	0.068956695
60	0x3e55edb4	0.20891458
61	0x3dc64cbf	0.09682607
62	0xba1ab840	-0.0005902089
63	0x3de8af9f	0.11361622
64	0x3de929be	0.11384915
65	0xbdb85b03	-0.09001734
66	0xbe846413	-0.258576
67	0xbdbde471	-0.09272087
68	0x3d5f65bb	0.054540377
69	0xbdec28b8	-0.11531204
70	0xbd4737e0	-0.04863727
71	0x3e1cabd5	0.15299924
72	0x3c86a784	0.0164373
73	0xbe967b96	-0.29391164
74	0xbd96fc4d	-0.07372341
75	0xbe8ad810	-0.27117968
76	0x3e57815d	0.21045442
77	0xbd08f8cb	-0.033440392
78	0xbbe0f248	-0.0068648197
79	0xbd0550d2	-0.03254778
80	0xbdae6a07	-0.08516317
81	0xbb3d55e4	-0.0028890306
82	0xbe1c30a9	-0.15252937
83	0xbe85c64e	-0.26127857
84	0xbe800cac	-0.25009668
85	0xbcafd9cc	-0.021466158
86	0x3e9a6f2b	0.3016294
87	0xbe54b900	-0.20773697
88	0x3e84497e	0.2583732
89	0x3e79100c	0.24322528
90	0x3e40689a	0.18789902
91	0xbe9bd408	-0.30435205
92	0xbe6985ee	-0.22804996
93	0xbe465fcd	-0.19372483
94	0xbd5620b6	-0.05227729
95	0xbe6733d2	-0.22578362
96	0x3e836608	0.2566378
97	0x3e8b7c18	0.27243114
98	0xbe65f27e	-0.22455785
99	0x3dccab3d	0.099935986
100	0x3dd86af6	0.10567276
101	0xbce44ee6	-0.027869653
102	0x3dcce7a2	0.10005118
103	0xbdcf5184	-0.1012297
104	0xbe56f75e	-0.209928
105	0xbe3c36e4	-0.18380314
106	0x3e8a73c2	0.2704144
107	0x3e376234	0.17908555
108	0xbd484e14	-0.048902586
109	0xbe62e641	-0.22158147
110	0xbe50c644	-0.20388132
111	0xbd72aef2	-0.059248872
112	0x3e439bb0	0.19102359
113	0xbdf2483d	-0.118301846
114	0xbdff1852	-0.124558106
115	0x3d936afc	0.0719814
116	0x3ced4772	0.028964732
117	0x3bb0af0e	0.005391962
118	0xbe9cbd01	-0.3061295
119	0x3d8c3fef	0.06848132
120	0xbdac7120	-0.084200144
121	0x3e346898	0.17618024
122	0xbe242bd0	-0.16032338
123	0x3dc9d9ec	0.098560184
124	0xbe97fcc4	-0.29685032
125	0xbe609524	-0.21931893
126	0x3e8b1178	0.27161765
127	0x3e09ef9e	0.13470313
128	0xbe5717dd	-0.21005197
129	0xbd10249c	-0.035191163
130	0x3e848dee	0.25889534
131	0x3e63789a	0.22213975
132	0x3e7482ef	0.23878072
133	0x3e8f30e8	0.27967
134	0x3e816c0f	0.25277755
135	0x3e1617f1	0.1465757
136	0x3e9153af	0.28384158
137	0x3e93c9fa	0.28865033
138	0x3d82800e	0.06372081
139	0xbe978282	-0.29591757
140	0xbe49810f	-0.19678138
141	0x3d8bcb1b	0.06825849
142	0xbe56f86a	-0.209932
143	0x3da9f71c	0.082990855
144	0xbe1020d4	-0.14075023
145	0x3e24da3e	0.16098878
146	0xbe96a748	-0.294245
147	0xbd7c873e	-0.061652415
148	0xbe3b16d9	-0.18270434
149	0xbddcbee1	-0.10778595
150	0x3e5ff552	0.21870926
151	0xbe858747	-0.2607977
152	0x3e50e8a6	0.20401248
153	0xbe91168a	-0.28337508
154	0xbe1f092e	-0.15530846
155	0xbe98abee	-0.29818672
156	0xbd300515	-0.042973597
157	0xbe3c1707	-0.18368159
158	0x3e688db0	0.227103
159	0x3e0ac3dd	0.13551278
160	0xbe71df78	-0.23620403
161	0xbe2b1de2	-0.16710618
162	0x3bd097cc	0.006365752
163	0x3dec4bd2	0.11537899
164	0xbe8d71ae	-0.27625793
165	0xbd56fb91	-0.052486006
166	0x3e0be293	0.1366065
167	0xbd9b838a	-0.075934485
168	0x3e35ed43	0.1776629
169	0x3cb6632e	0.02226409
170	0x3d6fdd0a	0.05856041
171	0xbe1db4c2	-0.15400985
172	0x3dfb4d0a	0.122705534
173	0xbd7c3e90	-0.0615831
174	0x3d91868f	0.07105743
175	0xbe7e20d4	-0.2481721
176	0x3cebc395	0.028779784
177	0xbba1c363	-0.004936622
178	0x3d62f356	0.055407844
179	0x3e69cb60	0.22831488
180	0xbd775bca	-0.06039027
181	0xbe0d8223	-0.13819174
182	0x3e3a575e	0.1819739
183	0x3da19117	0.07889002
184	0xbd7bf9e6	-0.06151762
185	0x3ceab12a	0.028648932
186	0x3e8537b4	0.2601906
187	0x3e754cc4	0.23955065
188	0xbd5d112c	-0.053971455
189	0xbe87facd	-0.26558533
190	0xbe3c1a35	-0.18369372
191	0x3d86b713	0.065778874
192	0xbe0620f0	-0.13098502
193	0xbe7e7ae6	-0.2485157
194	0xbe311179	-0.17291822
195	0xbd550f5d	-0.052016605
196	0x3c9826cb	0.018573185
197	0xbd6ad78d	-0.05733447
198	0x3d11718c	0.035508677
199	0x3c16890f	0.009187951
200	0xbdfc6e98	-0.123257816
201	0xbe98f5b3	-0.29874954
202	0xbe4c033d	-0.1992311
203	0x3e8c889a	0.2744797
204	0xbc5f92f0	-0.0136458725
205	0xbe6b19d8	-0.22959077
206	0x3e7d3132	0.24725798
207	0x3e749652	0.23885468
208	0xbe940227	-0.28907892
209	0xbe940476	-0.28909653
210	0x3d05bec7	0.032652643
211	0x3dbfe369	0.09369547
212	0x3d0bb84b	0.034111302
213	0x3e8ed0aa	0.27893573
214	0x3e4d8103	0.20068745
215	0xbe99dd60	-0.30051708
216	0xbe8cce16	-0.2750098
217	0x3e25504c	0.16143912
218	0x3e9344b8	0.28763366
219	0xbe96d586	-0.2945978
220	0xbb44c798	-0.0030026194
221	0xbd11449d	-0.035465825
222	0x3e970644	0.29496968
223	0xbcd9b404	-0.026575096
224	0xbd457c35	-0.048214156
225	0xbe46149c	-0.193438
226	0x3df88e92	0.12136568
227	0xbd99a0cc	-0.07501373
228	0x3d354d8c	0.044263408
229	0xbe8af9d6	-0.27143735
230	0xbe8acf35	-0.2711121
231	0x3e1e4e44	0.15459543
232	0xbd83390d	-0.06407366
233	0x3e7a693c	0.24454206
234	0x3e9c6c95	0.30551592
235	0x3d90bf4a	0.070677355
236	0xbdeddb16	-0.11614053
237	0xbe68a6c1	-0.22719862
238	0xbe01110e	-0.12604162
239	0x3e89439c	0.26809394
240	0x3dab60f7	0.08368104
241	0x3e3e2a28	0.18570769
242	0x3d84b5cc	0.064799875
243	0x3d1c00fb	0.038086873
244	0xbe933ff7	-0.2875974
245	0x3dd199f3	0.102344416
246	0xbdc7f7c0	-0.097640514
247	0x3e1630f4	0.14667112
248	0x3b58ea8c	0.0033098785
249	0xbe5fdc2a	-0.2186133
250	0x3e8b65e6	0.2722618
251	0xbe6290b7	-0.22125517
252	0x3df0bcce	0.11754762
253	0xbe5244a7	-0.20534001
254	0x3d8e1b0f	0.06938755
255	0x3e567c8a	0.20945945

encoder.encoder_layer.encoderlayer.self_attn.in_proj_bias f4 [48]
0	0x00000000	0.0
1	0x00000000	0.0
2	0x00000000	0.0
3	0x00000000	0.0
4	0x00000000	0.0
5	0x00000000	0.0
6	0x00000000	0.0
7	0x00000000	0.0
8	0x00000000	0.0
9	0x00000000	0.0
10	0x00000000	0.0
11	0x00000000	0.0
12	0x00000000	0.0
13	0x00000000	0.0
14	0x00000000	0.0
15	0x00000000	0.0
16	0x00000000	0.0
17	0x00000000	0.0
18	0x00000000	0.0
19	0x00000000	0.0
20	0x00000000	0.0
21	0x00000000	0.0
22	0x00000000	0.0
23	0x00000000	0.0
24	0x00000000	0.0
25	0x00000000	0.0
26	0x00000000	0.0
27	0x00000000	0.0
28	0x00000000	0.0
29	0x00000000	0.0
30	0x00000000	0.0
31	0x00000000	0.0
32	0x00000000	0.0
33	0x00000000	0.0
34	0x00000000	0.0
35	0x00000000	0.0
36	0x00000000	0.0
37	0x00000000	0.0
38	0x00000000	0.0
39	0x00000000	0.0
40	0x00000000	0.0
41	0x00000000	0.0
42	0x00000000	0.0
43	0x00000000	0.0
44	0x00000000	0.0
45	0x00000000	0.0
46	0x00000000	0.0
47	0x00000000	0.0

encoder.encoder_layer.encoderlayer.self_attn.out_proj.weight f4 [16, 16]
0	0xbebb988f	-0.3663983
1	0xbd9f496e	-0.077776775
2	0x3c987cf6	0.018614274
3	0xbe911124	-0.2833339
4	0x3eaa877f	0.333065
5	0x3e42336c	0.18964928
6	0xbe9a89ea	-0.30183345
7	0xbdaf4767	-0.08558541
8	0xbe8e57bb	-0.27801308
9	0x3ebe7055	0.37195078
10	0xbed8d089	-0.423466
11	0xbe442b72	-0.19157198
12	0xbe478b56	-0.19486746
13	0xbe9750b5	-0.29553762
14	0x3dcbcda6	0.09951334
15	0x3e2d3c92	0.16917637
16	0x3ea313fa	0.31851178
17	0x3e8ac132	0.2710052
18	0xbe471bab	-0.19444148
19	0xbe63ccac	-0.22246045
20	0x3dd9f320	0.106420755
21	0x3d9f5820	0.077804804
22	0x3ed2b00c	0.41149938
23	0xbed0513a	-0.4068697
24	0xbed4a926	-0.415353
25	0xbeb798eb	-0.35858855
26	0xbe1f7f7d	-0.15575977
27	0x3d5e5670	0.054281652
28	0x3dd0c1f8	0.101932466
29	0x3d89f55b	0.06736251
30	0x3db38874	0.08766261
31	0xbe068abc	-0.1313886
32	0x3d3a9000	0.045547485
33	0xbe84f083	-0.25964746
34	0x3eb4c8eb	0.35309538
35	0x3ea5066b	0.3223146
36	0x3e8de59e	0.27714247
37	0xbd8cace2	-0.06868912
38	0xbe4b310c	-0.19842929
39	0x3d34845c	0.04407154
40	0xbebd3d50	-0.3696084
41	0xbce4fba2	-0.02795202
42	0xbeda1a4a	-0.42598182
43	0x3e876370	0.26443052
44	0xbedbd675	-0.42937055
45	0x3e6e400b	0.23266618
46	0xbec2e0ac	-0.38062036
47	0xbebcd8c2	-0.36884123
48	0xbe975366	-0.29555815
49	0x3d1c4311	0.038149897
50	0xbe9bc8a9	-0.3042653
51	0xbeade2bc	-0.33962047
52	0xbce24cc6	-0.027624499
53	0xbdf365aa	-0.11884625
54	0xbd8b6e52	-0.06808151
55	0x3e8d7242	0.27626234
56	0x3e96d454	0.29458869
57	0xbc820cf0	-0.01587531
58	0x3d968364	0.073492795
59	0xbd5e9468	-0.05434075
60	0xbedc9b52	-0.4308725
61	0x3ea9ceca	0.3316558
62	0xbe9f5e78	-0.3112676
63	0xbd866aca	-0.06563337
64	0xbec70fa1	-0.3887911
65	0x3ed4e4d6	0.41580838
66	0x3e9c6ab8	0.3055017
67	0x3e2bc22e	0.16773292
68	0xbe9f97b1	-0.3117042
69	0x3d9c0772	0.076186076
70	0xbc6d295c	-0.014475193
71	0xbe79d810	-0.24398828
72	0x3da813d9	0.08206911
73	0x3e3c2afa	0.1837577
74	0xbe0e5cf6	-0.1390265
75	0xbe5bf7fd	-0.21481319
76	0x3e6bf2d2	0.23041847
77	0x3e1d46d5	0.15359052
78	0xbdab11b8	-0.08352989
79	0xbe4c2358	-0.19935358
80	0xbe3f3494	-0.186724
81	0x3ed4b5b5	0.4154488
82	0x3e90c5fa	0.28276044
83	0xbe247a1a	-0.16062203
84	0xbea0eb87	-0.31429693
85	0x3ec01803	0.3751832
86	0xbd96ba62	-0.073597685
87	0xbea34084	-0.3188516
88	0xbe597917	-0.21237598
89	0x3d3b7e44	0.045774713
90	0x3d634868	0.055488974
91	0xbcab89e0	-0.020939767
92	0x3e8d6fa6	0.27624243
93	0xbdfd57f1	-0.12370289
94	0x3deaea7c	0.114705056
95	0xbe97a6c5	-0.29619423
96	0xbedc5a8a	-0.43037826
97	0xbe4e9693	-0.20174627
98	0xbed00685	-0.40629974
99	0x3e6fd0f2	0.2341955
100	0xbe1a9064	-0.15094143
101	0xbe5596a8	-0.20858252
102	0x3e023e88	0.12719166
103	0x3e0d2fdb	0.13787787
104	0xbdf67239	-0.12033505
105	0x3bc8db64	0.006129669
106	0xbe577676	-0.21041283
107	0xbe37507c	-0.17901796
108	0xbe87a7ae	-0.26495117
109	0xbe7adfcc	-0.24499434
110	0xbe8d4f08	-0.2759936
111	0xbe84023f	-0.25782964
112	0xbe5a6bdd	-0.21330209
113	0x3d5a1bbe	0.053249113
114	0x3eae21f3	0.34010276
115	0xbe6afa1d	-0.22946973
116	0xbd05d1b1	-0.03267068
117	0x3e2bd16b	0.16779105
118	0xbec63ab7	-0.3871667
119	0xbeaade32	-0.33372647
120	0x3e62b79e	0.22140357
121	0x3d8ad8d2	0.067796364
122	0xbda7aa54	-0.081867844
123	0x3e9ab71c	0.30217826
124	0x3bfb8a31	0.007676386
125	0x3e80fb2c	0.2519163
126	0xbe390314	-0.1806758
127	0x3e0698c8	0.13144219
128	0xbea51bd0	-0.32247782
129	0xbdd2eced	-0.10299096
130	0xbd49c5a6	-0.049260758
131	0xbe699232	-0.22809675
132	0xbec96111	-0.39331868
133	0x3e60c125	0.21948679
134	0xbbe347ea	-0.006936063
135	0xbe09bedd	-0.13451715
136	0xbcf5f95b	-0.030026129
137	0xbe79fcb1	-0.244128
138	0xbe71d890	-0.23617768
139	0xbd3e3046	-0.046432756
140	0x3d59323d	0.053026427
141	0x3e7df1e0	0.24799299
142	0x3decf0c6	0.115693614
143	0xbeda912a	-0.42688876
144	0xbe077af7	-0.13230501
145	0xbe828787	-0.25494024
146	0xbe180df6	-0.14849076
147	0x3e5945f6	0.21218094
148	0xbdb9b6af	-0.09068047
149	0x3d8ee428	0.06977111
150	0xbc76031a	-0.015015388
151	0xbe788e8a	-0.24273124
152	0xbe2a3668	-0.16622317
153	0x3e76576e	0.2405679
154	0x3e70a79d	0.2350144
155	0xbebe9ab8	-0.37227416
156	0xbecf2bd0	-0.40463114
157	0xbe58aeb9	-0.21160401
158	0x3e8e6860	0.27814007
159	0x3eda67e0	0.42657375
160	0xbe3a099a	-0.18167725
161	0x3dab5b0e	0.08366977
162	0x3c606804	0.013696674
163	0xbd03a1ce	-0.03213673
164	0xbcb4f5c2	-0.022089843
165	0x3e656c74	0.22404653
166	0xbdcce660	-0.10004878
167	0x3ea9a887	0.3313639
168	0x3eadd7d8	0.33953738
169	0xbe5e08e4	-0.21683079
170	0xbddffbf2	-0.10936727
171	0x3eb9f5da	0.36320382
172	0x3ed0557c	0.4069022
173	0x3ebb904a	0.3663352
174	0x3e3a2a42	0.18180183
175	0xbe0e1425	-0.13874872
176	0xbe2e4bce	-0.17021105
177	0x3edb6736	0.4285218
178	0x3d829479	0.06375975
179	0x3eb4dd41	0.35325053
180	0xbe5b4f2b	-0.21416919
181	0x3dde372e	0.108503684
182	0x3ec4c41a	0.38430864
183	0x3e13872a	0.1440703
184	0xbea5671d	-0.32305232
185	0x3d0e3d9b	0.03472672
186	0xbed6ea81	-0.41975787
187	0xbeb0ad5e	-0.3450727
188	0xbe958be7	-0.292083
189	0x3ddc6472	0.10761346
190	0x3ecc05e9	0.3984826
191	0x3d396b67	0.045268442
192	0x3e8ee366	0.27907866
193	0x3c5ec512	0.01359679
194	0xbed3eda9	-0.41392258
195	0x3e4a59be	0.19760796
196	0xbe13a808	-0.14419568
197	0xbeb5d1cc	-0.35511625
198	0x3e5507f6	0.20803818
199	0x3ec2f1b3	0.38075027
200	0x3cebfd12	0.028807197
201	0x3ed476bd	0.4149684
202	0x3e6d691c	0.23184627
203	0xbeacc5c7	-0.33744642
204	0xbeaada92	-0.3336988
205	0xbe10caea	-0.14139906
206	0x3e2b0852	0.16702393
207	0xbddec790	-0.10877907
208	0x3ec85c87	0.39133093
209	0xbe8352f3	-0.25649223
210	0xbe095d20	-0.1341443
211	0x3e9cef26	0.30651206
212	0x3e33c199	0.1755432
213	0x3e7e0312	0.24805859
214	0x3e3305ff	0.17482756
215	0x3ec4be6e	0.38426536
216	0xbe26548c	-0.1624319
217	0x3e69c53d	0.22829147
218	0x3e0a9e8e	0.13537046
219	0xbe581625	-0.21102197
220	0x3e0f57fc	0.13998407
221	0xbea8a4b1	-0.3293815
222	0x3dfdb36a	0.12387736
223	0xbe27d9c9	-0.16391672
224	0x3e9a1b86	0.30099124
225	0xbd405686	-0.046957515
226	0x3e7901a0	0.24317026
227	0x3dcc7810	0.099838376
228	0x3e995f53	0.2995554
229	0x3ea4868b	0.32133898
230	0xbe86ce90	-0.2632947
231	0xbe167b1c	-0.146954
232	0xbcb2f7fe	-0.021846768
233	0x3e8fe558	0.28104663
234	0x3e77c06d	0.24194498
235	0xbe486be5	-0.19572408
236	0x3c99f1c9	0.01879205
237	0x3e56e82c	0.20987004
238	0xbed55884	-0.41669095
239	0xbe1adb5e	-0.15122744
240	0x3eac74e0	0.3368292
241	0xbd2fb76a	-0.042899527
242	0x3e0fa867	0.14029084
243	0xbeb9958e	-0.36246914
244	0x3e07b534	0.13252717
245	0xbe77ef35	-0.24212344
246	0x3e10a2da	0.14124623
247	0x3db1088b	0.086442076
248	0xbe14a9da	-0.14517918
249	0x3d4db468	0.050220877
250	0xbe7defa4	-0.24798447
251	0x3db5e16c	0.088808864
252	0xbe5b5702	-0.2141991
253	0xbebe0a14	-0.37117064
254	0x3ea2b9a8	0.3178227
255	0xbe8d9116	-0.27649754

encoder.encoder_layer.encoderlayer.self_attn.out_proj.bias f4 [16]
0	0x00000000	0.0
1	0x00000000	0.0
2	0x00000000	0.0
3	0x00000000	0.0
4	0x00000000	0.0
5	0x00000000	0.0
6	0x00000000	0.0
7	0x00000000	0.0
8	0x00000000	0.0
9	0x00000000	0.0
10	0x00000000	0.0
11	0x00000000	0.0
12	0x00000000	0.0
13	0x00000000	0.0
14	0x00000000	0.0
15	0x00000000	0.0

encoder.encoder_layer.encoderlayer.linear1.weight f4 [64, 16]
0	0xbd7beb26	-0.061503552
1	0x3d93524b	0.071934305
2	0x3da477c2	0.080306545
3	0xbd022037	-0.031769004
4	0x3de2ac3c	0.11068007
5	0xbd871458	-0.06595677
6	0x3dd84841	0.10560656
7	0xbe58787c	-0.21139711
8	0x3c3edf6d	0.011649949
9	0xbe546648	-0.20742142
10	0x3d9b4e30	0.075832725
11	0xbe06a9f5	-0.13150771
12	0x3e4f3c06	0.20237741
13	0xbe4e7ed2	-0.20165566
14	0xbe7ad47c	-0.24495119
15	0xbd8b09b8	-0.06788963
16	0x3d50d465	0.050983805
17	0xbe4e69cf	-0.2015755
18	0xbe80ef1c	-0.25182426
19	0x3dfd34a5	0.12363557
20	0x3e32962e	0.17440102
21	0x3e1d0256	0.15332922
22	0x3e48d6f2	0.19613245
23	0x3d97ddbe	0.07415341
24	0xbd9ccfc1	-0.076568134
25	0x3e3f6a15	0.18692811
26	0x3e4c5ca8	0.1995722
27	0xbc5d10e3	-0.013492796
28	0xbd06da19	-0.032922838
29	0x3e463eb0	0.19359851
30	0x3e81b580	0.25333786
31	0xbe82ffb0	-0.255857
32	0xbe1fcafc	-0.15604776
33	0x3e3c7a7b	0.18406098
34	0xbd4ead5a	-0.05045829
35	0x3de541f2	0.11194219
36	0xbe677b47	-0.2260562
37	0xbe59a522	-0.212544
38	0xbdd148d6	-0.102189705
39	0x3bc9d266	0.0061591147
40	0xbd809ffc	-0.062805146
41	0xbe22c4a7	-0.1589533
42	0xbd229a94	-0.0396982
43	0xbdafb819	-0.08580036
44	0xbe7f6081	-0.24939157
45	0x3da9d3e4	0.08292368
46	0xbe0fd6d1	-0.1404679
47	0xbe1da2e4	-0.15394169
48	0x3df908d6	0.121598884
49	0xbe5b9b39	-0.21445931
50	0xbe136764	-0.14394909
51	0x3dbd0ef0	0.09231365
52	0xbe46c885	-0.1941243
53	0x3e25cd6e	0.16191646
54	0x3e63afc8	0.22235024
55	0xbe3020d5	-0.17200024
56	0x3d0c1d7f	0.034207817
57	0x3e0d39c6	0.1379157
58	0xbe0e86a8	-0.13918555
59	0xbe1d6193	-0.15369253
60	0x3dbcbda0	0.092158556
61	0x3ca25b2d	0.019818867
62	0x3e6045ec	0.21901673
63	0x3e8a1724	0.2697078
64	0x3dd337d7	0.10313385
65	0x3e16a111	0.1470988
66	0xbe5d911b	-0.21637385
67	0xbcf46fbc	-0.029838435
68	0xbd969e33	-0.07354393
69	0x3e09cd1c	0.1345715
70	0xbe4e4f6f	-0.20147489
71	0x3dd12cd7	0.10213631
72	0xbe05393d	-0.13010116
73	0x3e8ab22a	0.27089053
74	0x3d78efe6	0.06077566
75	0xbd3db11d	-0.046311487
76	0xbe19e654	-0.1502927
77	0xbe1b5211	-0.15168025
78	0xbdd79979	-0.105273195
79	0xbd8dabcb	-0.069175325
80	0xbd32bb9d	-0.043635953
81	0x3e1e51aa	0.1546084
82	0xbe62af56	-0.22137198
83	0xbe0af3ae	-0.13569519
84	0x3e57c4bc	0.21071142
85	0xbc80e08c	-0.015732072
86	0xbe44ef87	-0.19231997
87	0xbdd497df	-0.103805296
88	0xbdfd63c4	-0.123725444
89	0xbd64adc2	-0.05582977
90	0x3e7bf0ca	0.24603572
91	0xbda5e05e	-0.08099435
92	0x3dd834c5	0.1055694
93	0x3e0b17d9	0.13583316
94	0xbd97c6b0	-0.074109435
95	0x3e86c205	0.263199
96	0x3e24feca	0.1611282
97	0x3da7cd51	0.08193458
98	0xbd626a43	-0.05527712
99	0x3c7686c9	0.015046784
100	0x3e50aea3	0.20379119
101	0xbe62f41e	-0.22163436
102	0x3e0cde7e	0.13756749
103	0x3c4c787a	0.012479896
104	0x3e410e25	0.18853052
105	0xbd4871c4	-0.04893662
106	0x3e5caccc	0.21550292
107	0xbe707252	-0.2348111
108	0xbde887ca	-0.11354025
109	0xbe56e016	-0.2098392
110	0x3e637918	0.22214162
111	0x3d09a613	0.033605646
112	0xbe847d58	-0.2587688
113	0xbe505bca	-0.20347515
114	0xbe7e707d	-0.24847598
115	0x3dc9adfe	0.098476395
116	0x3e5453b8	0.20735061
117	0xbdcc07f1	-0.09962452
118	0xbdb89e2b	-0.09014543
119	0xbccbeae4	-0.024892278
120	0x3d8da618	0.069164455
121	0xbdb207c6	-0.08692889
122	0xbe7b202c	-0.24523991
123	0x3dd581ca	0.10425146
124	0x3daa02a8	0.08301288
125	0xbd77cfef	-0.060501035
126	0x3e82d915	0.25556245
127	0x3c2ad344	0.010426346
128	0xbe897fe0	-0.26855373
129	0xbe61cd54	-0.22050983
130	0xbde6c667	-0.11268311
131	0xbb6d34e8	-0.0036194865
132	0x3e570108	0.20996487
133	0xbdaa2ea9	-0.08309681
134	0x3dcaeff7	0.09909051
135	0xbe0addae	-0.13561127
136	0xbc80d087	-0.015724434
137	0x3e2139fc	0.15744776
138	0x3d190a41	0.037363295
139	0xbda320f4	-0.0796527
140	0xbe3575cd	-0.17720719
141	0xbe5e7eb3	-0.2172802
142	0xbe514eec	-0.20440263
143	0xbe880ab3	-0.26570663
144	0xbe1e984e	-0.15487787
145	0xbe8244fd	-0.2544326
146	0x3e7c077a	0.24612227
147	0xbe862f3f	-0.2620792
148	0x3e85761b	0.2606667
149	0xbe327d25	-0.17430551
150	0x3c85a85e	0.016315635
151	0xbcf3f1c2	-0.029778365
152	0x3d52ad14	0.05143459
153	0x3da894d8	0.08231515
154	0x3dc52434	0.09626046
155	0xbcff37c6	-0.031154525
156	0x3d96f799	0.07371444
157	0xbd28838e	-0.041141085
158	0x3e83ebd8	0.25765872
159	0x3e84f57c	0.2596854
160	0x3e826d70	0.2547412
161	0x3e79cd74	0.2439478
162	0x3ded9a26	0.11601667
163	0xbe518dce	-0.2046425
164	0xbcc266e6	-0.023730706
165	0xbe10dac9	-0.1414596
166	0xbe125751	-0.14291121
167	0x3e84ed19	0.2596214
168	0xbbf7d7a3	-0.0075635477
169	0xbe5acc86	-0.21367082
170	0x3dcd611b	0.10028287
171	0x3da423af	0.080146186
172	0x3d7b916e	0.06141799
173	0x3d92b8ae	0.07164131
174	0x3e31da74	0.1736849
175	0x3d3c5d53	0.04598744
176	0x3e7fe280	0.24988747
177	0x3e3fca66	0.18729553
178	0x3e1db20c	0.1539995
179	0xbdd8bec7	-0.10583263
180	0x3e8b59a2	0.27216822
181	0x3e89bda6	0.26902503
182	0xbdcde69a	-0.100537494
183	0x3cf8415a	0.0303046
184	0xbe609370	-0.21931243
185	0x3df29847	0.11845451
186	0xbcb4c83a	-0.022068132
187	0xbe6ee813	-0.23330717
188	0x3b4a4f8d	0.003087017
189	0xbe31599b	-0.17319338
190	0xbe173070	-0.14764571
191	0xbe807d4d	-0.25095597
192	0xbe4e5333	-0.20148925
193	0x3e178e60	0.14800406
194	0x3cc12ffe	0.023582455
195	0x3e68ec92	0.22746494
196	0x3e09b56d	0.13448115
197	0xbdc37b27	-0.09544974
198	0x3e807876	0.25091904
199	0xbe2b2982	-0.16715053
200	0x3e5a5911	0.21323039
201	0xbdc1ee84	-0.09469321
202	0xbdbdba22	-0.09264018
203	0xbe0a0073	-0.13476734
204	0xbc9b2c55	-0.018942038
205	0x3e177d0a	0.14793792
206	0xbdc45310	-0.095861554
207	0x3e3fa46b	0.18715064
208	0xbe08939f	-0.13337563
209	0x3e56015d	0.20898958
210	0x3e7ab4e6	0.2448307
211	0xbe294d7c	-0.16533464
212	0x3ce9f1d6	0.0285577
213	0x3e5ae65d	0.21376939
214	0xbcf419e0	-0.029797494
215	0xbe5975f4	-0.21236402
216	0xbb0391a8	-0.0020075832
217	0xbe3f5e79	-0.18688382
218	0xbd4ce01a	-0.050018407
219	0x3e661fce	0.2247307
220	0x3e46054c	0.19337958
221	0x3e3a9706	0.18221673
222	0xbe270e80	-0.16314125
223	0xbe18fbe0	-0.14939833
224	0x3bfa4ac8	0.007638309
225	0x3e32dc46	0.1746684
226	0xbe4b4788	-0.19851506
227	0xbe13c586	-0.14430818
228	0xbe88dffb	-0.26733384
229	0x3e0489f6	0.12943253
230	0xbe36cfe2	-0.17852738
231	0x3dab713c	0.08371207
232	0xbe3de2a7	-0.18543492
233	0xbd9a219c	-0.07525942
234	0xbe87a4e4	-0.2649299
235	0xbe3fa6f4	-0.18716031
236	0xbd25efca	-0.040511884
237	0xbded017d	-0.115725495
238	0x3d9b0ab7	0.07570403
239	0xbe234936	-0.15945897
240	0x3d0ea28b	0.03482298
241	0xbce1d8fa	-0.027569283
242	0x3aacc8fa	0.0013182454
243	0x3e066676	0.13125023
244	0xbe390ed6	-0.18072066
245	0xbdb01361	-0.08597446
246	0xbe12e468	-0.14344943
247	0x3d4d6f9a	0.05015526
248	0x3e12d4b8	0.14338958
249	0xbe245583	-0.16048245
250	0x3e223b5e	0.1584296
251	0x3db68e4b	0.08913859
252	0x3de5088e	0.11183272
253	0xbe7e207e	-0.24817082
254	0xbe600bfa	-0.21879569
255	0xbcca0d7f	-0.024664639

encoder.encoder_layer.encoderlayer.linear1.bias f4 [64]
0	0x3d9a2fd8	0.07528657
1	0xbe055a88	-0.13022816
2	0x3dcf4cf8	0.101221025
3	0x3d9bdc24	0.07610348
4	0x3e4cc087	0.19995318
5	0x3c8d1ad0	0.0172247
6	0x3b91e7c0	0.0044526756
7	0xbe0fb678	-0.1403445
8	0xbdca89f4	-0.09889594
9	0x3e1ade6a	0.15123907
10	0x3e2ca014	0.1685794
11	0xbd21e8b0	-0.03952855
12	0x3e57f69a	0.21090165
13	0x3ddf87c9	0.10914571
14	0x3e592cdc	0.21208519
15	0x3e775300	0.24152756
16	0x3e1f434e	0.15553018
17	0xbe7d73ee	-0.24751255
18	0x3e1ec7a0	0.15505838
19	0x3e6fe61e	0.23427626
20	0xbdd89b74	-0.10576525
21	0xbd29cc60	-0.041454673
22	0x3e65edd2	0.22454002
23	0xbe5e03b0	-0.21681094
24	0xbd7d72f8	-0.06187722
25	0x3d934f10	0.07192814
26	0x3e49fad3	0.19724588
27	0x3e5a8fee	0.21343967
28	0xbe6bf853	-0.23043947
29	0xbd7dc120	-0.061951756
30	0x3c491320	0.012272626
31	0x3e01f5be	0.126914
32	0xbdb1a608	-0.08674246
33	0xbe1c46ca	-0.15261379
34	0x3e1a33c8	0.15058815
35	0xbe7bb9e4	-0.2458263
36	0x3d84f900	0.064928055
37	0xbd5be558	-0.053685516
38	0xbe47f20f	-0.19525932
39	0xbe710886	-0.23538408
40	0x3d409188	0.04701379
41	0xbe54add6	-0.20769438
42	0x3c52e5e0	0.012872189
43	0xbdb9f084	-0.09079078
44	0x3c653d60	0.013991684
45	0xbd22e0e0	-0.03976524
46	0xbde2670e	-0.11054812
47	0xbe4d3350	-0.20039105
48	0x3de3b7c8	0.11119038
49	0xbda80f24	-0.08206013
50	0xbe56526b	-0.20929877
51	0xbd027918	-0.031853765
52	0x3d43e570	0.04782623
53	0x3e5ebf25	0.21752603
54	0x3df65092	0.12027086
55	0x3e2a3164	0.16620404
56	0x3bbec140	0.005821377
57	0xbd858b24	-0.065206796
58	0xbe44295a	-0.191564
59	0x3dc084e8	0.0940035
60	0xbe069a22	-0.13144735
61	0xbe125d7a	-0.14293471
62	0xbe26a9be	-0.16275689
63	0x3dfd8e1c	0.12380621

encoder.encoder_layer.encoderlayer.linear2.weight f4 [16, 64]
0	0x3d41a610	0.04727751
1	0xbd6f0560	-0.058354735
2	0x3e0e3823	0.13888602
3	0xbe81c26c	-0.25343645
4	0x3e554b15	0.20829423
5	0xbd094483	-0.033512603
6	0xbe59aac5	-0.2125655
7	0xbd89ea02	-0.067340866
8	0x3d3486c8	0.04407385
9	0x3e875ee2	0.26439577
10	0x3d9d8d5e	0.07692979
11	0x3e3bbf23	0.18334632
12	0xbdd71ff5	-0.10504142
13	0xbe575fae	-0.21032593
14	0xbe6f3cd7	-0.23363052
15	0xbe5bd8b6	-0.21469387
16	0x3e149fc5	0.14514072
17	0x3dc7261a	0.09724064
18	0x3e543d03	0.20726399
19	0xbbb09114	-0.0053883884
20	0x3db6110d	0.08889971
21	0x3db1b68a	0.08677395
22	0x3d897b21	0.06712938
23	0x3e284265	0.16431578
24	0x3d0208a9	0.03174654
25	0xbe0e8ea8	-0.13921607
26	0xbe16e0ce	-0.14734194
27	0x3e377d15	0.17918809
28	0x3e8118a4	0.25214112
29	0x3e27da76	0.1639193
30	0xbe179c5e	-0.14805743
31	0xbcfa1cb3	-0.030531263
32	0xbe1dc25c	-0.15406173
33	0x3d93cc2e	0.072166786
34	0xbcd171ef	-0.025567023
35	0xbdf5b820	-0.1199801
36	0xbde099ba	-0.10966821
37	0xbdbb2c24	-0.091392785
38	0xbde0c1a0	-0.10974431
39	0x3e72102b	0.2363898
40	0xbd5bdab6	-0.053675376
41	0xbddb2d27	-0.107019715
42	0x3e7f824d	0.2495205
43	0xbdd7d078	-0.10537809
44	0x3e7fd0f4	0.24982053
45	0xbe12a04c	-0.14318961
46	0x3ca5cb06	0.02023841
47	0x3e7a392d	0.24435873
48	0xbe3e0b2d	-0.1855895
49	0x3e61256c	0.21986932
50	0xbda096c2	-0.07841255
51	0xbe2d0678	-0.16896999
52	0xbdf8ee5c	-0.121548384
53	0x3e7bb412	0.2458041
54	0xbd47cccd	-0.048779298
55	0x3e5ac1d4	0.21363002
56	0xbcba045f	-0.022707162
57	0xbe04f482	-0.12983897
58	0xbe53d07a	-0.20684996
59	0xbe57fda6	-0.21092853
60	0x3e03eced	0.12883349
61	0x3e4c6728	0.19961226
62	0xbe51dcf8	-0.20494449
63	0xbe800986	-0.25007266
64	0x3db39e10	0.087703824
65	0x3cf80b1f	0.03027874
66	0x3e16e436	0.14735493
67	0x3e0cf67f	0.13765906
68	0xbc786819	-0.015161538
69	0xbc19ad22	-0.009379657
70	0x3e6ca726	0.23110637
71	0x3e4637e1	0.19357254
72	0x3dc543d5	0.096320786
73	0xbe336d53	-0.17522173
74	0x3d4cef3b	0.050032835
75	0xbe0336e2	-0.12813905
76	0xbdd100e5	-0.10205249
77	0xbe42522f	-0.18976663
78	0x3e4e8464	0.2016769
79	0x3d0aaf00	0.0338583
80	0xbe3cd493	-0.18440466
81	0x3d0c6e98	0.034285158
82	0x3e30a295	0.1724952
83	0x3d947d7d	0.072504975
84	0x3e097258	0.13422525
85	0xbe75b722	-0.23995641
86	0xbcc87d72	-0.02447388
87	0x3e1b9c72	0.15196398
88	0xbe7f6bf2	-0.24943522
89	0xbd977044	-0.0739446
90	0x3e113a9b	0.14182512
91	0xbe62f95d	-0.22165437
92	0x3d5296dd	0.051413406
93	0xbe72404c	-0.2365734
94	0x3e1f4474	0.15553457
95	0xbe85438d	-0.260281
96	0xbcfae9c2	-0.030629043
97	0x3d88dece	0.066831216
98	0x3dd595a8	0.10428935
99	0x3df4d740	0.11955118
100	0x3ddaccc4	0.10683587
101	0xbd860421	-0.06543756
102	0x3dcedb1a	0.10100384
103	0xbdcd4ffe	-0.10025023
104	0xbe6f8146	-0.23389158
105	0x3dac8856	0.084244415
106	0xbc47ee9f	-0.012202888
107	0x3de034ea	0.109475926
108	0x3e767098	0.24066389
109	0x3e859a64	0.26094353
110	0xbe843157	-0.25818893
111	0x3e821e46	0.25413722
112	0xbd459833	-0.04824085
113	0x3e13c404	0.14430243
114	0x3e3ff45c	0.1874556
115	0xbdf5fa6a	-0.12010653
116	0x3d9ac23f	0.07556581
117	0x3e119eb1	0.14220692
118	0x3dd85330	0.10562742
119	0x3d5e6ae3	0.054301154
120	0xbe0251e5	-0.12726553
121	0x3e823e93	0.25438365
122	0xbe5e8552	-0.21730545
123	0x3d21cc38	0.0395014
124	0xbe3ecc44	-0.18632609
125	0xbe07d979	-0.13266553
126	0xbe1be574	-0.15224248
127	0x3e822bed	0.25424138
128	0x3e216d4f	0.15764354
129	0x3e74e73a	0.23916331
130	0xbe19ca4e	-0.1501858
131	0xbd13f232	-0.036119647
132	0x3e535258	0.2063688
133	0x3ba612c6	0.005068156
134	0xbd872ded	-0.066005565
135	0xbdac61b0	-0.0841707
136	0xbb2f0ad4	-0.0026709335
137	0xbd81eac2	-0.063436046
138	0xbcb1805e	-0.021667656
139	0xbcfd5d3e	-0.03092825
140	0x3e3f1362	0.18659738
141	0xbe5e6765	-0.2171913
142	0x3c700a17	0.014650843
143	0x3c084984	0.008318309
144	0x3e83957f	0.25699994
145	0xbdb6de89	-0.08929164
146	0xbe6eefd8	-0.2333368
147	0xbe80e568	-0.25175023
148	0xbe69d5b0	-0.22835422
149	0xbe866cb0	-0.26254797
150	0xbe84f756	-0.25969952
151	0xbcb9917c	-0.02265238
152	0x3dd9761e	0.10618232
153	0xbe4468fa	-0.1918067
154	0xbd56a890	-0.052406847
155	0x3dd961d0	0.106143594
156	0x3e74eaca	0.2391769
157	0xbe553bb3	-0.20823555
158	0x3e065250	0.13117337
159	0xbd24cfdc	-0.040237293
160	0xbd64902d	-0.05580156
161	0x3e4b3f1f	0.19848298
162	0x3dafab05	0.08577541
163	0x3e89d1a5	0.2691776
164	0x3e4f8670	0.20266128
165	0xbdb03715	-0.08604256
166	0x3e0a56c9	0.13509668
167	0xbe2da9e4	-0.1695934
168	0xbdd58ecf	-0.10427629
169	0xbe3e5cc2	-0.18590072
170	0x3e0a13ca	0.13484111
171	0x3e599610	0.2124865
172	0xbdab0ff6	-0.08352654
173	0xbcbc9592	-0.02302054
174	0x3e81ff6d	0.25390187
175	0x3cd13023	0.025535649
176	0x3de6b4c1	0.11264945
177	0x3e82b903	0.25531778
178	0x3e3140ca	0.17309871
179	0x3bb8a0e6	0.005634415
180	0x3e7ce79a	0.24697724
181	0x3d9ecf2c	0.07754359
182	0xbe358420	-0.17726183
183	0xbe11aafc	-0.14225382
184	0x3cae2d00	0.021261692
185	0x3e5590d6	0.20856032
186	0x3d4bf422	0.04979337
187	0xbe573972	-0.21018007
188	0x3db36a08	0.08760458
189	0x3d4c1b06	0.04983046
190	0x3e779dc6	0.2418128
191	0x3db39ad4	0.087697655
192	0xbe868b37	-0.26278087
193	0xbd5481b0	-0.051881492
194	0xbe7152e2	-0.23566774
195	0x3e1aeda3	0.15129714
196	0xbdccf7bd	-0.1000819
197	0xbe652969	-0.22379078
198	0xbe7d51b2	-0.24738196
199	0x3e7ed622	0.24886373
200	0x3c741b96	0.014899155
201	0x3e016c68	0.1263901
202	0x3e2148d8	0.15750444
203	0xbe8760ac	-0.26440942
204	0x3e3656a2	0.17806485
205	0x3dd4608d	0.10369978
206	0x3d6e0b6a	0.058116354
207	0xbdf22b55	-0.11824671
208	0xbd42a776	-0.047522984
209	0xbe147eb0	-0.14501452
210	0x3e770a66	0.2412506
211	0xbe87b505	-0.26505294
212	0x3e70db9f	0.23521279
213	0x3e062f19	0.13103904
214	0xbc820205	-0.015870104
215	0x3e6a4e00	0.22881317
216	0x3dd27a20	0.102772
217	0x3dd40841	0.10353137
218	0x3d0094c2	0.031391867
219	0xbe24aab3	-0.16080742
220	0x3d4b5494	0.049641207
221	0x3e2d3642	0.16915229
222	0x3de30458	0.11084813
223	0x3e0ee3fa	0.13954154
224	0xbdb79da3	-0.08965614
225	0xbdd180fa	-0.102296785
226	0xbbe55e99	-0.0069998023
227	0x3e0521e2	0.13001207
228	0x3e1e6059	0.15466441
229	0x3e8692f6	0.26283997
230	0x3e7b98e0	0.24570036
231	0x3e812086	0.25220126
232	0x3d413e33	0.04717846
233	0x3e5c4460	0.21510458
234	0x3deeae12	0.11654295
235	0xbe0b7d62	-0.13622048
236	0x3e3bcebf	0.18340586
237	0xbde9d661	-0.11417843
238	0xbda0a2b8	-0.07843536
239	0xbce2876e	-0.027652469
240	0xbe3677b2	-0.17819098
241	0xbe230a12	-0.1592181
242	0x3dd6f83d	0.104965664
243	0xbc0d6df8	-0.008632176
244	0xbd5d17c6	-0.05397775
245	0xbe4559c9	-0.19272532
246	0xbe0bd2a3	-0.1365457
247	0xbd84c3d4	-0.06482664
248	0xbe2bcc61	-0.16777183
249	0x3e5789d1	0.21048667
250	0xbd54925c	-0.05189739
251	0x3da25dc2	0.07928039
252	0xbe0cef7d	-0.13763233
253	0x3d820f40	0.06350565
254	0xbd9e993d	-0.07744072
255	0xbd174fa0	-0.03694117

encoder.encoder_layer.encoderlayer.linear2.bias f4 [16]
0	0x3dc555a8	0.09635478
1	0xbdbe51c6	-0.09292941
2	0xbd9cb182	-0.076510444
3	0x3b447240	0.0029975325
4	0xbcf48cf0	-0.02985236
5	0x3d733c34	0.059383586
6	0x3dcacd5e	0.09902452
7	0xbcfd9cb0	-0.030958503
8	0xbcb255d8	-0.02176945
9	0x3b986840	0.0046510994
10	0xbdef1b6a	-0.11675151
11	0x3cae0160	0.02124089
12	0x3d85b864	0.0652931
13	0x3c5ffcd0	0.013671115
14	0xbcf53080	-0.029930353
15	0xbceca028	-0.028884962

encoder.encoder_layer.encoderlayer.norm1.weight f4 [16]
0	0x3f800000	1.0
1	0x3f800000	1.0
2	0x3f800000	1.0
3	0x3f800000	1.0
4	0x3f800000	1.0
5	0x3f800000	1.0
6	0x3f800000	1.0
7	0x3f800000	1.0
8	0x3f800000	1.0
9	0x3f800000	1.0
10	0x3f800000	1.0
11	0x3f800000	1.0
12	0x3f800000	1.0
13	0x3f800000	1.0
14	0x3f800000	1.0
15	0x3f800000	1.0

encoder.encoder_layer.encoderlayer.norm1.bias f4 [16]
0	0x00000000	0.0
1	0x00000000	0.0
2	0x00000000	0.0
3	0x00000000	0.0
4	0x00000000	0.0
5	0x00000000	0.0
6	0x00000000	0.0
7	0x00000000	0.0
8	0x00000000	0.0
9	0x00000000	0.0
10	0x00000000	0.0
11	0x00000000	0.0
12	0x00000000	0.0
13	0x00000000	0.0
14	0x00000000	0.0
15	0x00000000	0.0

encoder.encoder_layer.encoderlayer.norm2.weight f4 [16]
0	0x3f800000	1.0
1	0x3f800000	1.0
2	0x3f800000	1.0
3	0x3f800000	1.0
4	0x3f800000	1.0
5	0x3f800000	1.0
6	0x3f800000	1.0
7	0x3f800000	1.0
8	0x3f800000	1.0
9	0x3f800000	1.0
10	0x3f800000	1.0
11	0x3f800000	1.0
12	0x3f800000	1.0
13	0x3f800000	1.0
14	0x3f800000	1.0
15	0x3f800000	1.0

encoder.encoder_layer.encoderlayer.norm2.bias f4 [16]
0	0x00000000	0.0
1	0x00000000	0.0
2	0x00000000	0.0
3	0x00000000	0.0
4	0x00000000	0.0
5	0x00000000	0.0
6	0x00000000	0.0
7	0x00000000	0.0
8	0x00000000	0.0
9	0x00000000	0.0
10	0x00000000	0.0
11	0x00000000	0.0
12	0x00000000	0.0
13	0x00000000	0.0
14	0x00000000	0.0
15	0x00000000	0.0

encoder.transformer_encoder.layers.0.encoderlayer.self_attn.in_proj_weight f4 [48, 16]
0	0xbe524b2e	-0.20536491
1	0xbdfa3488	-0.12217051
2	0xbe3009b4	-0.17191201
3	0xbd2d45b0	-0.042302787
4	0xbc1a1eaa	-0.009406725
5	0xbec90110	-0.39258623
6	0xbef72edb	-0.48277935
7	0xbf0c5b05	-0.54826385
8	0xbe1399b2	-0.14414099
9	0xbeb454c8	-0.35220933
10	0xbebf9b30	-0.37423086
11	0xbf0bfd2c	-0.54683185
12	0xbedcba9b	-0.4311112
13	0xbef44236	-0.47706765
14	0xbc8310ba	-0.015999187
15	0x3d9fb9ab	0.07799085
16	0x3e23abd0	0.1598351
17	0x3e8929ed	0.267898
18	0x3f1f30a4	0.62183595
19	0x3f1312ca	0.57450545
20	0x3efda8c8	0.49542832
21	0xbd48f48a	-0.049061336
22	0x3e296b35	0.16544802
23	0x3f0a6ec7	0.5407528
24	0x3e3bc945	0.18338497
25	0x3edd78cd	0.43256226
26	0x3f2df9c7	0.67959255
27	0x3e3e4f18	0.1858486
28	0x3ef162d7	0.4714572
29	0x3e93a032	0.28833157
30	0x3eacec51	0.33774045
31	0x3df4a3a8	0.119452775
32	0xbe62b304	-0.22138602
33	0x3e82f7a9	0.25579575
34	0xbefdb11c	-0.49549186
35	0xbe593cbe	-0.21214578
36	0xbec488c0	-0.38385582
37	0xbdefd8b3	-0.11711254
38	0xbdd9a9ef	-0.106281154
39	0xbde39569	-0.11112482
40	0xbedb999e	-0.42890638
41	0x3e6c03fb	0.23048393
42	0xbd483a0c	-0.048883483
43	0xbea1967c	-0.31560123
44	0xbd2629fe	-0.04056739
45	0x3db3dc07	0.08782201
46	0x3e086a7a	0.13321868
47	0xbe4fb771	-0.20284821
48	0xbe3e87a6	-0.18606433
49	0xbdc59f48	-0.09649521
50	0xbea55d72	-0.32297856
51	0xbe8b7aa1	-0.27241996
52	0xbddcfd76	-0.10790531
53	0xbf10c04f	-0.5654344
54	0xbed2890d	-0.41120186
55	0xbee69b76	-0.45040482
56	0xbf161add	-0.5863474
57	0xbef12be0	-0.47103786
58	0xbedd0670	-0.43168974
59	0xbe842746	-0.25811213
60	0xbe2afa16	-0.16696963
61	0xbf0f163a	-0.5589329
62	0xbf25d692	-0.64780533
63	0xbf2307c3	-0.6368372
64	0x3e026f4f	0.12737773
65	0x3e82a5d1	0.25517133
66	0xbe72f2f4	-0.23725492
67	0xbdd8d854	-0.10588136
68	0xbe0b9d56	-0.13634238
69	0x3dabac6f	0.083824985
70	0xbea75195	-0.3267943
71	0x3def1d70	0.11675537
72	0xbe919988	-0.28437448
73	0x3e4ec180	0.20191002
74	0xbe9243d2	-0.28567368
75	0x3cd62756	0.026141804
76	0xbdf2a413	-0.11847701
77	0x3ce2fbe6	0.027708005
78	0x3e15e8b2	0.14639547
79	0x3e953297	0.2914016
80	0x3f37c778	0.7178874
81	0x3f477140	0.7790718
82	0x3e8a6c6d	0.27035847
83	0x3e935a7c	0.28779972
84	0x3edbf734	0.4296204
85	0x3f67d902	0.905655
86	0x3e8a168d	0.2697033
87	0x3ea19d48	0.3156531
88	0x3ee9b242	0.45643812
89	0x3f6799b8	0.9046893
90	0x3eb32b4d	0.34993973
91	0x3e9d80a1	0.307622
92	0x3ebf6e0d	0.3738865
93	0x3ef66093	0.48120555
94	0x3f708b51	0.9396258
95	0x3f20b329	0.62773377
96	0xbeafaaba	-0.34309942
97	0xbf3052e8	-0.68876505
98	0xbf2982a4	-0.66214967
99	0xbecd89f2	-0.40144306
100	0xbf2a78c6	-0.66590536
101	0xbf25230e	-0.64506614
102	0xbf0bf61f	-0.54672426
103	0xbed30beb	-0.4122003
104	0xbf3af5eb	-0.7303149
105	0xbee8735b	-0.4540051
106	0xbf35328e	-0.70780265
107	0xbf11b758	-0.56920385
108	0xbf23a392	-0.63921463
109	0xbecef43c	-0.4042071
110	0xbf356dde	-0.7087077
111	0xbf16735c	-0.58769774
112	0x3ec26a2e	0.37971634
113	0x3f06e281	0.5268937
114	0x3ef68b9e	0.48153394
115	0x3ebc64f9	0.36795786
116	0x3db6acd3	0.08919682
117	0x3f068fc3	0.5256311
118	0x3f27d894	0.65564847
119	0x3f173688	0.59067583
120	0x3ec7547e	0.3893165
121	0x3eddecf0	0.4334483
122	0x3f2f5580	0.6848984
123	0x3f0d5a49	0.5521589
124	0x3f14edd2	0.58175385
125	0x3eacf084	0.3377725
126	0xbba7b3a7	-0.005117852
127	0x3d451f16	0.04812535
128	0xbdcc199d	-0.09965823
129	0x3eda8ff9	0.42687967
130	0x3efef510	0.49796343
131	0x3ecc50b7	0.3990533
132	0xbd2c02a3	-0.041994702
133	0x3ec7cd74	0.39023936
134	0x3e9d13fe	0.30679315
135	0x3e09ccab	0.13456981
136	0xbd580163	-0.052735697
137	0x3f0181b0	0.5058851
138	0x3eb13b49	0.34615543
139	0x3d9f1f3e	0.07769631
140	0x3cb322fe	0.021867272
141	0x3ed61dde	0.41819662
142	0x3ee85600	0.45378113
143	0x3d33d8e0	0.043908
144	0x3c68caeb	0.014208536
145	0xbecc144f	-0.39859244
146	0xbea89985	-0.32929626
147	0xbe0da400	-0.13832092
148	0xbd3290f0	-0.043595254
149	0xbeaa7d52	-0.33298737
150	0xbeaef9c8	-0.34174943
151	0xbf27735e	-0.6541041
152	0x3d7ebeee	0.062193803
153	0xbe99ccb9	-0.30039003
154	0x3d7b6e70	0.06138462
155	0xbf1a6e10	-0.6032419
156	0xbe841678	-0.25798392
157	0xbead6016	-0.3386237
158	0xbde88609	-0.1135369
159	0xbeb6b5f5	-0.35685697
160	0xbe9692b8	-0.29408813
161	0xbef7f35e	-0.48427862
162	0xbeee3a1e	-0.46528715
163	0xbe45480c	-0.19265765
164	0xbe2be89a	-0.16787949
165	0xbd8c069d	-0.06837199
166	0xbe98c0fc	-0.29834735
167	0xbf259247	-0.64676327
168	0x3d590c8e	0.05299049
169	0xbed459a6	-0.41474646
170	0x3d92840e	0.07154094
171	0xbf0b9b8e	-0.5453423
172	0xbef1ea9e	-0.4724931
173	0xbeaf1f3f	-0.34203526
174	0xbe7c2604	-0.24623877
175	0xbe4c5587	-0.19954501
176	0x3e20dcf8	0.15709293
177	0x3e9c9f16	0.30590123
178	0x3d485c88	0.04891637
179	0x3eeafb7c	0.45894992
180	0x3edb42d4	0.42824423
181	0x3e96aad4	0.29427207
182	0x3e252ff2	0.16131571
183	0x3f0dc868	0.5538392
184	0x3e2a2fd2	0.16619805
185	0x3e8bb067	0.27283022
186	0x3e8a7eb0	0.2704978
187	0x3ef3a8c9	0.4758971
188	0xbd36029f	-0.044436093
189	0x3eabff71	0.33593324
190	0x3f0b3e0e	0.5439156
191	0x3ed8621c	0.42262352
192	0xbedb7285	-0.4286081
193	0xbec97557	-0.39347336
194	0xbef51300	-0.47866058
195	0xbee0fbe0	-0.43942165
196	0xbf06f853	-0.5272266
197	0xbee1de34	-0.4411484
198	0xbeb8e060	-0.36108685
199	0xbe7e24ec	-0.24818772
200	0xbd82ef12	-0.06393255
201	0xbf1a713d	-0.6032904
202	0xbdb35bf3	-0.08757772
203	0x3cc1e5e4	0.02366919
204	0xbd9534ee	-0.07285486
205	0xbe9e7a67	-0.3095276
206	0xbec2a28c	-0.38014638
207	0xbf0c9d54	-0.54927564
208	0xbeadf8d6	-0.3397891
209	0x3dc95b76	0.09831898
210	0xbd71b065	-0.059006114
211	0xbde81120	-0.11331391
212	0xbea61476	-0.32437485
213	0xbec3e7af	-0.38262698
214	0xbe333fcc	-0.17504805
215	0xbf179c49	-0.5922285
216	0xbef7c80a	-0.48394805
217	0xbde7457c	-0.1129255
218	0xbe644418	-0.222916
219	0xbf25ece2	-0.6481458
220	0xbdb99f88	-0.09063631
221	0xbeae64c2	-0.34061247
222	0xbd30145c	-0.042988166
223	0x3e065966	0.1312004
224	0xbd02abc7	-0.0319021
225	0xbd5c2804	-0.0537491
226	0xbe97959b	-0.29606327
227	0xbd859885	-0.065232314
228	0xbd315e70	-0.043302953
229	0x3d6e76c2	0.058218725
230	0xbecc06bc	-0.39848888
231	0xbe1eed0d	-0.15520115
232	0x3d48b3fe	0.04899978
233	0xbd8c70af	-0.0685743
234	0xbe9def9c	-0.3084687
235	0xbe63f1f9	-0.22260274
236	0xbeb0fbd3	-0.34567127
237	0xbe937a58	-0.28804278
238	0xbde8ea7f	-0.113728516
239	0x3c21e98d	0.009882343
240	0xbe9317dc	-0.2872914
241	0xbe888b13	-0.26668605
242	0xbe056b9a	-0.13029328
243	0xbe852d67	-0.26011202
244	0xbe2b6836	-0.16738972
245	0xbf06b084	-0.5261309
246	0xbe5fbe68	-0.21849978
247	0xbed57a7a	-0.41695005
248	0xbe94bbb6	-0.29049462
249	0xbe56d4c8	-0.20979607
250	0xbee2f17c	-0.44324863
251	0xbef0da2e	-0.47041458
252	0xbd89359a	-0.06699677
253	0xbe2f742a	-0.17134157
254	0xbeddda59	-0.4333065
255	0xbdbb427c	-0.0914354

encoder.transformer_encoder.layers.0.encoderlayer.self_attn.in_proj_bias f4 [48]
0	0xbe621d30	-0.22081447
1	0x3ea27b0a	0.31734496
2	0xbdc134c9	-0.09433896
3	0xbec6d69c	-0.3883561
4	0x3df01fec	0.117248386
5	0x3f217076	0.63062227
6	0xbf08f75f	-0.5350246
7	0x3ea14c20	0.3150339
8	0x3e5dddfd	0.21666713
9	0xbe4fc045	-0.20288189
10	0xbe798c45	-0.24369915
11	0x3e86e0aa	0.2634328
12	0xbe94165c	-0.2892331
13	0xbe17ff1c	-0.1484341
14	0xbe022268	-0.12708437
15	0xbe9a17e4	-0.30096352
16	0xb8862c6b	-6.3978914e-05
17	0xb87ed6b8	-6.075829e-05
18	0xb81687fe	-3.588944e-05
19	0x39253c43	0.00015758075
20	0xb7a8958e	-2.0096802e-05
21	0xb958e7f8	-0.0002068578
22	0x3835d86e	4.335533e-05
23	0xb8c59e3a	-9.423164e-05
24	0x38e4df24	0.000109134504
25	0xb9287ff5	-0.00016069396
26	0xb84db45d	-4.9043785e-05
27	0x3971b126	0.00023049544
28	0xb981ca6f	-0.00024755622
29	0xb8f6e6ed	-0.000117732074
30	0x37b76d2e	2.186614e-05
31	0xb8bc5424	-8.980211e-05
32	0xbd5cea8e	-0.053934626
33	0x3cdb7a62	0.026791755
34	0x3cbb237c	0.022844069
35	0x3d269e4a	0.0406783
36	0xba928346	-0.0011178039
37	0x3ad9734b	0.0016590146
38	0xbc7e5d43	-0.015525165
39	0x3c744870	0.014909849
40	0x3d3a4650	0.04547721
41	0xbd1505a7	-0.036382344
42	0x3cf4d03f	0.029884456
43	0x3c97d6ad	0.018534983
44	0x3d1f8b2d	0.038951088
45	0x3cb56300	0.022141933
46	0xbbb03b76	-0.005378182
47	0xbc2c6af8	-0.01052355

encoder.transformer_encoder.layers.0.encoderlayer.self_attn.out_proj.weight f4 [16, 16]
0	0xbdbef036	-0.0932316
1	0xbea70097	-0.32617638
2	0x3c90fbea	0.017698247
3	0xbd620113	-0.055176806
4	0x3eebfc48	0.46090913
5	0x3df0dbe1	0.117606886
6	0xbe9846e6	-0.2974159
7	0xbed08c8d	-0.40732232
8	0x3eca835e	0.3955335
9	0x39c3758a	0.00037280872
10	0x3e40c714	0.18825942
11	0x3e1bf7b4	0.1523121
12	0x3c044b36	0.008074572
13	0xbe8820df	-0.2658758
14	0x3e9e548f	0.30923888
15	0x3eda6e7c	0.42662418
16	0x3bacbba9	0.0052713943
17	0xbde9134c	-0.11380634
18	0xbdb44f8e	-0.08804236
19	0x3bcb2b3e	0.006200223
20	0xbe50e05e	-0.2039809
21	0xbf1d4e9e	-0.61448085
22	0xbea8aeeb	-0.32945952
23	0xbd190a12	-0.03736312
24	0xbebbbc5b	-0.3666714
25	0xbd8c048a	-0.06836803
26	0x3e28fce3	0.16502719
27	0xbd610a66	-0.054941557
28	0xbe637dbd	-0.22215934
29	0xbe77a527	-0.24184094
30	0x3e85a6b6	0.26103753
31	0xbc92bdd5	-0.017912785
32	0x3e66acdc	0.22526878
33	0x3e89ea61	0.2693663
34	0xbc8775a3	-0.016535586
35	0x3ec71dbf	0.38889882
36	0x3eb0c675	0.3452641
37	0xbec0931b	-0.37612233
38	0xbdd4b35d	-0.10385773
39	0xbdda948f	-0.106728666
40	0x3da14418	0.07874316
41	0x3c6eea5e	0.014582245
42	0xbdc00c55	-0.09377352
43	0xbe9edf96	-0.31029958
44	0x3e6c027c	0.23047823
45	0xbe09cd2a	-0.1345717
46	0xbe689d16	-0.22716174
47	0xbe3234b0	-0.17402911
48	0x3e719d0a	0.23595062
49	0xbe630da4	-0.22173172
50	0x3ebce638	0.36894393
51	0x3c867af7	0.016416056
52	0x3e3c1132	0.18365934
53	0xbecffb5f	-0.40621468
54	0x3d99e7d8	0.07514924
55	0x3da9e528	0.08295661
56	0xbe4c0d41	-0.19926931
57	0xbdfe332e	-0.124121055
58	0x3e83fbc3	0.25778016
59	0xbe93cd9b	-0.28867802
60	0x3e877816	0.26458806
61	0xbe9ad8b2	-0.3024345
62	0xbe86cc87	-0.26327917
63	0xbd8fa866	-0.07014541
64	0xbe60294d	-0.21890755
65	0xbeb28e54	-0.34874213
66	0xbc939ec2	-0.018020038
67	0x3c8b4824	0.017002173
68	0x3e8f294a	0.2796119
69	0x3ead2150	0.33814478
70	0x3e093bb8	0.13401687
71	0xbeb97358	-0.36220813
72	0x3e9f2f69	0.3109086
73	0xbef76587	-0.48319647
74	0xbda0b99a	-0.07847901
75	0xbb739e6a	-0.003717328
76	0x3c56ae30	0.013103053
77	0xbe3cbc2a	-0.18431154
78	0x3e9a2195	0.30103746
79	0x3e82526a	0.25453502
80	0x3ee955aa	0.4557317
81	0x3eb9851a	0.3623436
82	0x3ec8120e	0.39076275
83	0x3e8d4d9e	0.2759828
84	0xbea978b6	-0.33099908
85	0xbd0ee2ed	-0.034884382
86	0xbc5fae2f	-0.013652368
87	0x3edbe094	0.42944777
88	0x3ca306e2	0.019900743
89	0xbdedd527	-0.11612921
90	0x3ec677ad	0.3876318
91	0xbe8647e9	-0.26226738
92	0x3e02b37a	0.12763777
93	0x3d444b96	0.047923647
94	0x3e541a1a	0.20713082
95	0x3eb275aa	0.34855396
96	0x3e143e17	0.1447681
97	0x3e7c1986	0.24619111
98	0xbe9014d2	-0.28140885
99	0x3d979c6c	0.07402882
100	0xbeac700c	-0.33679235
101	0x3e265a2c	0.16245335
102	0x3cb9b2c2	0.022668246
103	0xbec2e0fc	-0.38062274
104	0xbeb37730	-0.3505187
105	0xbe9dff2f	-0.30858752
106	0x3e06e4ad	0.1317317
107	0xbe7604e4	-0.24025303
108	0xbd9b38a0	-0.0757916
109	0x3db8296a	0.08992274
110	0xbe746e5e	-0.23870227
111	0xbe855c23	-0.26046857
112	0x3eaac49c	0.33353126
113	0xbea48d95	-0.3213927
114	0x3e9df1a6	0.30848426
115	0x3eaef0d0	0.341681
116	0xbba44238	-0.0050127767
117	0xbeccf624	-0.4003154
118	0xbee52426	-0.44754142
119	0x3e4602e4	0.1933704
120	0x3e80ac8e	0.2513165
121	0x3df0ed02	0.11763956
122	0x3de4616a	0.11151393
123	0x3c97bc3d	0.018522376
124	0x3cb1c262	0.021699134
125	0x3ee1b47b	0.44083008
126	0xbe00d50b	-0.1258127
127	0x3e9a840a	0.30178863
128	0x3e4801e6	0.19531974
129	0xbdbbbc94	-0.09166828
130	0x3dc4e739	0.09614415
131	0xbda3ebe8	-0.0800398
132	0xbcd3a438	-0.025835142
133	0xbe9af685	-0.30266204
134	0xbec58668	-0.38579106
135	0xbe446c9e	-0.19182059
136	0xbdf353ee	-0.11881243
137	0x3dcb1116	0.09915368
138	0xbea506f6	-0.32231873
139	0xbd093aa5	-0.033503193
140	0x3e4f185b	0.20224135
141	0xbe80423b	-0.2505053
142	0x3eb805f4	0.35942042
143	0xbe3d06c5	-0.18459614
144	0xbeb447c0	-0.3521099
145	0xbea34de1	-0.31895354
146	0xbec3de3a	-0.38255483
147	0xbebf7448	-0.37393403
148	0x3ea5ec9a	0.32407075
149	0x3cb4b3ff	0.022058485
150	0x3eccb527	0.39981958
151	0x3ef8620c	0.48512304
152	0xbdb5cd81	-0.088770874
153	0x3e837ac0	0.25679588
154	0x3e41706f	0.18890546
155	0x3ec710e4	0.38880074
156	0x3e4c70d7	0.1996492
157	0xbe4e136a	-0.20124593
158	0x3e6cf6b7	0.23140989
159	0xbd1a919e	-0.037736528
160	0xbeada173	-0.33912238
161	0xbcbbb0ad	-0.022911394
162	0x3e59496b	0.21219413
163	0x3ea6be98	0.32567286
164	0x3eb14159	0.3462017
165	0xbe338436	-0.17530903
166	0x3dc0fa08	0.0942269
167	0x3dcc51b2	0.0997652
168	0x3e70b798	0.23507535
169	0xbe26d46a	-0.16291967
170	0xbc8f9951	-0.017529162
171	0xbc37ebcc	-0.011225652
172	0xbed56c84	-0.41684353
173	0x3e0c7a4f	0.13718532
174	0xbe62ce98	-0.22149122
175	0x3dcc5cc2	0.0997863
176	0x3d41a0a2	0.047272332
177	0x3e524f1d	0.20537992
178	0xbeccf9aa	-0.4003423
179	0x3bab861e	0.005234494
180	0x3e24aeb7	0.16082273
181	0x3e8b941f	0.27261445
182	0x3e8874b0	0.26651525
183	0xbdb05e30	-0.08611715
184	0x3e913722	0.28362375
185	0xbe0eb097	-0.13934551
186	0x3e684678	0.22683132
187	0xbe3de1f6	-0.18543229
188	0x3e74e530	0.23915553
189	0xb9dfa3e0	-0.0004265597
190	0xbe975817	-0.29559395
191	0x3ded9220	0.11600137
192	0x3e1aa4d3	0.15101938
193	0x3d54a787	0.05191758
194	0xbeaa2e5a	-0.33238488
195	0xbe8578a3	-0.260686
196	0x3ccf447a	0.025301207
197	0xbe144d2c	-0.14482564
198	0x3e0ec323	0.13941626
199	0xbef24a3b	-0.47322258
200	0x3e62eb84	0.22160155
201	0xbe242424	-0.16029412
202	0x3e72498e	0.23660871
203	0x3e1b120e	0.15143606
204	0x3d4100d0	0.047119915
205	0x3cc5e848	0.024158612
206	0x3e505b24	0.20347267
207	0x3d0fb45e	0.03508412
208	0xbeb2643e	-0.34842104
209	0x3ec2cd76	0.3804738
210	0xbe88d05b	-0.26721463
211	0x3e93365c	0.2875241
212	0xbd5607de	-0.052253596
213	0x3e832a5a	0.2561825
214	0x3eb04cd1	0.34433606
215	0x3e151463	0.14558558
216	0xbe72acd6	-0.23698744
217	0xbe6a13d4	-0.22859126
218	0x3e4299a6	0.19003925
219	0xbd9aea74	-0.0756425
220	0xbdd0372a	-0.10166772
221	0x3d13ae77	0.036055055
222	0xbda39e6c	-0.07989201
223	0x3e6798cc	0.22616881
224	0xbe96a622	-0.29423624
225	0x3eb1d31b	0.34731373
226	0xbc054cee	-0.008136017
227	0xbe28d75f	-0.16488408
228	0xbe2a2533	-0.16615753
229	0xbdb2be26	-0.08727674
230	0xbd8aee2c	-0.06783709
231	0x3ef57602	0.47941595
232	0x3d5e2848	0.054237634
233	0xbeb3a40c	-0.35086095
234	0xbd8debfa	-0.069297746
235	0x3e23e216	0.16004214
236	0x3e408e9f	0.18804406
237	0xbe1b313d	-0.15155502
238	0xbdd446e4	-0.10365084
239	0x3e6bf1f8	0.23041523
240	0xbeafebc1	-0.34359553
241	0xbeba1494	-0.36343825
242	0x3d6f29e5	0.058389563
243	0x3d92cabb	0.07167574
244	0xbd50e078	-0.05099532
245	0x3e9c79fa	0.3056181
246	0xbe912865	-0.2835113
247	0x3f09b740	0.5379524
248	0xbedde27d	-0.4333686
249	0xbe996838	-0.29962325
250	0x3e8efeae	0.2792868
251	0xbeab2e0c	-0.33433568
252	0xbeaaa6c2	-0.3333035
253	0xbce22e4a	-0.027609963
254	0xbe9799f1	-0.29609635
255	0xbe54dd8c	-0.20787638

encoder.transformer_encoder.layers.0.encoderlayer.self_attn.out_proj.bias f4 [16]
0	0x3d0fc51f	0.0351001
1	0xbcce9dbb	-0.025221696
2	0x3d171d5e	0.03689324
3	0x3ba736e3	0.0051029786
4	0xbb4a2d30	-0.0030849688
5	0xbc55debf	-0.013053595
6	0xba94ea74	-0.0011361376
7	0xbac10d0c	-0.001472862
8	0xbc207eae	-0.009795828
9	0xbd11aeaa	-0.035566963
10	0x3d0fc5d8	0.035100788
11	0x3bd6033d	0.0065311478
12	0x3d05d00e	0.03266912
13	0x3cd00c19	0.025396394
14	0xbc6302fc	-0.013855692
15	0x3c72f026	0.014827764
