Final_exp/FL_003/3stacks_3nhead_100lwin_0_0005lr_128dff_64batch_50epcs_0_1dropout/checkpoints/client2/model__lr_0.0005_l_win_100_dff_128.pt (torch, 126223 bytes, 49 tensors)

encoder.encoder_layer.encoderlayer.self_attn.in_proj_weight f4 [54, 18]
0.047240593 -0.03817483 -0.1190749 0.26343098 -0.27643076 0.0039952523 -0.2715194 0.0819291
-0.22986792 -0.02931998 -0.24420409 0.19074093 0.019467503 -0.22967553 0.13619667 -0.024299571
-0.2222696 0.2173283 -0.28414744 -0.055234984 -0.20363265 0.25253472 0.14493251 -0.061373055
-0.09191204 0.20199683 -0.1540634 0.15623847 -0.09858439 0.050513037 -0.07844271 -0.16789451
0.23805198 0.2655775 0.23574585 -0.13706952 -0.055641644 -0.2240385 0.123851925 -0.16497827
0.09564675 0.17111012 0.124783166 -0.0360964 -0.026835034 -0.22860049 -0.00905131 -0.23565343
0.2571818 0.14468874 0.12689574 0.28644243 -0.072024114 -0.2836452 -0.1722088 0.2851078
-0.28224114 -0.022113087 -0.09646797 0.18943173 -0.26158038 0.11514877 0.07112549 -0.22746958
0.20599459 -0.14940408 0.23270929 -0.26280707 -0.2411971 -0.24682471 0.030163987 -0.20119679
0.07298165 0.05329379 0.2399261 0.15944713 0.18402521 -0.08064007 0.21213679 -0.14245746
-0.11967531 -0.08812174 -0.0815274 0.18838872 0.13085465 -0.04566469 -0.12125755 -0.1528496
-0.11056084 0.028933696 -0.1803543 -0.010503909 -0.21716724 0.105118275 -0.24827869 0.1512322
-0.15625745 0.2230663 -0.0036555293 0.19706245 -0.16630691 0.022039443 0.15264109 0.26058915
-0.13755843 -0.22353384 -0.012237348 0.16947338 -0.179519 0.033842742 0.24132638 -0.060101256
0.018271247 0.24977468 -0.19410546 -0.01422207 -0.15501973 0.1734665 -0.16705897 0.15065272
0.20027691 -0.010646618 0.23794353 -0.080184825 0.06673732 -0.26506186 0.02451816 -0.13933676
-0.012971269 -0.1685636 0.09429487 -0.20250015 -0.23499155 -0.10414316 -0.15020686 -0.13923024
-0.12462102 0.20530166 -0.24686542 -0.07332508 0.11158639 0.1850643 -0.06608385 -0.071430214
-0.17363088 0.06996909 0.20113039 0.18613088 0.087852016 0.19801763 -0.22876455 -0.15193576
0.1193378 0.08785136 -0.27102196 0.16053163 -0.20569459 -0.14751947 -0.013002344 -0.26651227
0.22156279 -0.2635568 0.25839955 -0.0021103967 -0.23285337 0.23229563 0.08978946 -0.14540377
0.0748366 -0.028357454 0.07758804 0.15410414 0.023427723 -0.207429 -0.26848468 0.27908948
0.09363777 0.27114666 -0.18634292 -0.13534348 -0.13812579 -0.09051058 -0.02336344 0.018657392
0.21140529 0.18905301 -0.24483117 -0.027074857 0.20137912 -0.08142405 0.080978245 -0.15185165
0.07038703 0.078572206 0.18068495 -0.28745502 0.041519027 0.092983514 -0.14332432 -0.23293878
-0.09576399 -0.03628801 -0.16167894 0.13017996 -0.124204725 -0.28211433 -0.2644866 0.04848981
-0.076302856 0.16415405 -0.20400609 0.17177042 0.26026702 0.23109291 0.038651824 -0.05428516
0.11930583 -0.10649059 0.118549734 0.032447755 0.19150545 0.044042546 -0.16345344 -0.1359993
-0.10297292 -0.10920197 0.05114104 0.28383565 -0.08220095 -0.055072594 0.09673922 -0.21529455
-0.054866493 -0.26789638 0.21364841 -0.27663875 0.11834791 0.23895276 -0.09570814 0.10630331
0.03457656 -0.028169079 -0.1008321 -0.25983936 -0.2473523 0.11163258 -0.23629864 0.010928597
0.0018988615 -0.042667553 0.054245763 0.28727886 0.046964433 0.2737627 -0.04911743 0.026575148
00000000: 5a7f 413d 365d 1cbd 8bdd f3bd 6de0 863e
00000010: 5588 8dbe 9bea 823b 9704 8bbe 72ca a73d
00000020: 7f62 6bbe 7430 f0bc a310 7abe 9751 433e
00000030: 507a 9f3c 1030 6bbe 2477 0b3e e50f c7bc
00000040: a49a 63be 4f8b 5e3e c67b 91be 143e 62bd
00000050: 1485 50be 3b4c 813e 3069 143e 5062 7bbd
00000060: 613c bcbd 42d8 4e3e ccc2 1dbe fafc 1f3e
00000070: 9de6 c9bd c2e6 4e3d 92a6 a0bd 8aec 2bbe
00000080: e6c3 733e c6f9 873e 5c67 713e f45b 0cbe
00000090: 7ee8 63bd 596a 65be 14a6 fd3d 10f0 28be
000000a0: 71e2 c33d 7e37 2f3e 518e ff3d d2d9 13bd
000000b0: 25d5 dbbc 3f16 6abe f24b 14bc 224f 71be
000000c0: 55ad 833e 4929 143e f5f0 013e 95a8 923e
000000d0: 6181 93bd f239 91be 8157 30be a6f9 913e
000000e0: e981 90be 8126 b5bc 0091 c5bd 64fa 413e
000000f0: dded 85be 1ed3 eb3d 3eaa 913d c9ed 68be
00000100: 3ff0 523e 62fd 18be 584b 6e3e a68e 86be
00000110: 5ffc 76be 9ebf 7cbe 771a f73c 8806 4ebe
00000120: 6777 953d 974a 5a3d 30af 753e 1c46 233e
00000130: 1b71 3c3e 9f26 a5bd 633a 593e 5ee0 11be
00000140: 5418 f5bd 2c79 b4bd d6f7 a6bd f9e8 403e
00000150: c3fe 053e e60a 3bbd e155 f8bd 9b84 1cbe
00000160: b96d e2bd 5c06 ed3c ccae 38be 9618 2cbc
00000170: 1761 5ebe 4048 d73d c53c 7ebe 9ddc 1a3e
00000180: f401 20be 7e6b 643e 9b91 6fbb bdca 493e
00000190: 5c4c 2abe 108c b43c f24d 1c3e f16b 853e
000001a0: 1edc 0cbe 0ee6 64be 287f 48bc 6e8a 2d3e
000001b0: d4d3 37be b09e 0a3d 431e 773e bc2c 76bd
000001c0: 95ad 953c efc4 7f3e 95c3 46be af03 69bc
000001d0: 7ebd 1ebe 34a1 313e 8211 2bbe b544 1a3e
000001e0: 6415 4d3e 276f 2ebc 78a7 733e f137 a4bd
000001f0: 93ad 883d 30b6 87be 4fda c83c 4cae 0ebe
00000200: 7285 54bc f09b 2cbe ab1d c13d 335c 4fbe
00000210: a0a1 70be 0249 d5bd d4cf 19be 5f92 0ebe
00000220: 4e39 ffbd 993a 523e 4aca 7cbe 762b 96bd
00000230: 6887 e43d 7f81 3d3e f856 87bd 014a 92bd
00000240: 4bcc 31be f44b 8f3d 20f5 4d3e 1899 3e3e
00000250: c2eb b33d 22c5 4a3e 4141 6abe 0c95 1bbe
00000260: 6067 f43d 6aeb b33d 64c3 8abe 6762 243e
00000270: 9aa1 52be 580f 17be c907 55bc 4c74 88be
00000280: 5be1 623e ebf0 86be f24c 843e 954e 0abb
00000290: 1d71 6ebe e8de 6d3e 89e3 b73d bae4 14be
000002a0: ee43 993d e44d e8bc 7ae6 9e3d 7acd 1d3e
000002b0: 7feb bf3c 4568 54be d376 89be d1e4 8e3e
000002c0: 29c5 bf3d bcd3 8a3e aed0 3ebe 7b97 0abe
000002d0: d970 0dbe 9c5d b9bd af64 bfbc 63d7 983c
000002e0: a17a 583e 1d97 413e 06b5 7abe 17cc ddbc
000002f0: 5436 4e3e a7c1 a6bd ecd7 a53d 007f 1bbe
00000300: 1327 903d 77ea a03d 7a05 393e 4e2d 93be
00000310: db0f 2a3d 246e be3d 9cc3 12be 8187 6ebe
00000320: e91f c4bd bda2 14bd 2a8f 25be e54d 053e
00000330: 0c5f febd 4a71 90be ca6a 87be 409d 463d
00000340: ac44 9cbd 0018 283e f9e6 50be 96e4 2f3e
00000350: b841 853e 9fa3 6c3e 6051 1e3d 1e5a 5ebd
00000360: 9d56 f43d bd17 dabd 34ca f23d f0e7 043d
00000370: 011a 443e f565 343d 5760 27be 6743 0bbe
00000380: 77e3 d2bd 48a5 dfbd 4479 513d e852 913e
00000390: f958 a8bd cd93 61bd 361f c63d 2d76 5cbe
000003a0: b0bb 60bd b729 89be a6c6 5a3e 98a3 8dbe
000003b0: 6460 f23d 08b0 743e a102 c4bd 8db5 d93d
000003c0: 27a0 0d3d d7c2 e6bc 0f81 cebd aa09 85be
000003d0: ec49 7dbe 9f9f e43d 45f8 71be dc0d 333c
000003e0: 38e3 f83a 2cc4 2ebd ce30 5e3d 3716 933e
000003f0: c75d 403d a02a 8c3e 5c2f 49bd 20b4 d93c

encoder.encoder_layer.encoderlayer.self_attn.in_proj_bias f4 [54]
0.0 0.0 0.0 0.0 0.0 0.0 0.0 0.0
0.0 0.0 0.0 0.0 0.0 0.0 0.0 0.0
0.0 0.0 0.0 0.0 0.0 0.0 0.0 0.0
0.0 0.0 0.0 0.0 0.0 0.0 0.0 0.0
0.0 0.0 0.0 0.0 0.0 0.0 0.0 0.0
0.0 0.0 0.0 0.0 0.0 0.0 0.0 0.0
0.0 0.0 0.0 0.0 0.0 0.0
00000000: 0000 0000 0000 0000 0000 0000 0000 0000
00000010: 0000 0000 0000 0000 0000 0000 0000 0000
00000020: 0000 0000 0000 0000 0000 0000 0000 0000
00000030: 0000 0000 0000 0000 0000 0000 0000 0000
00000040: 0000 0000 0000 0000 0000 0000 0000 0000
00000050: 0000 0000 0000 0000 0000 0000 0000 0000
00000060: 0000 0000 0000 0000 0000 0000 0000 0000
00000070: 0000 0000 0000 0000 0000 0000 0000 0000
00000080: 0000 0000 0000 0000 0000 0000 0000 0000
00000090: 0000 0000 0000 0000 0000 0000 0000 0000
000000a0: 0000 0000 0000 0000 0000 0000 0000 0000
000000b0: 0000 0000 0000 0000 0000 0000 0000 0000
000000c0: 0000 0000 0000 0000 0000 0000 0000 0000
000000d0: 0000 0000 0000 0000

encoder.encoder_layer.encoderlayer.self_attn.out_proj.weight f4 [18, 18]
-0.39810625 -0.17417304 0.38186336 -0.13127808 -0.17380714 -0.35287985 -0.0892245 0.1273327
0.24804202 -0.10075195 -0.38506204 -0.17088518 0.10767181 -0.15155144 0.06667548 -0.011005164
0.11440529 0.08892248 -0.0009357688 -0.31837216 0.27060384 -0.2711241 0.16702268 -0.24649079
-0.17501482 0.358583 -0.04987528 -0.27733994 -0.2695855 -0.3424664 -0.05862372 -0.024732126
-0.005409336 -0.24611352 0.3394345 0.3508526 -0.027385011 -0.26051256 -0.20560084 -0.061835498
-0.060219947 -0.4059902 -0.0079887835 0.093194455 0.20203891 0.0361733 -0.34021902 -0.24808276
0.10068991 0.2561967 0.07667129 0.09420805 -0.3022355 0.112147674 0.082827955 -0.33991465
-0.21341154 -0.15894197 -0.023657508 -0.006787001 0.072841346 0.2480258 0.11925052 -0.17820816
-0.21565628 -0.15927732 -0.37367743 -0.27228114 0.26816007 -0.19327126 0.29225713 0.19204088
0.39654702 -0.05678805 0.15591599 -0.20316419 0.13287544 0.17339523 0.010672233 0.33471856
0.123902455 -0.03927402 -0.26795238 -0.030908551 0.30727473 0.027826617 0.02628533 -0.00038198722
-0.13292131 -0.2761159 0.04582815 -0.014689985 0.40094608 -0.022349924 -0.3482 -0.38260666
0.40813145 -0.14399828 0.19123352 0.1388735 0.04133122 -0.18099064 0.29593217 0.38184813
-0.030470055 -0.12449239 -0.1028315 0.04373055 -0.1611869 -0.2905212 -0.32835838 -0.33719957
-0.3725775 0.39078453 0.15232198 -0.11115554 -0.29162517 -0.06860473 0.37413225 -0.0026376536
0.2151357 0.30047897 0.017002448 0.40675232 0.30760565 -0.38755375 -0.077292815 -0.057065345
0.093912646 -0.03410627 -0.056511957 -0.24448243 0.26608476 -0.14329727 -0.23511194 -0.19972625
0.24525163 -0.18826187 0.35432923 0.027163967 0.14534868 -0.37368205 0.08316138 0.10356248
-0.19686781 -0.17992283 0.24226388 -0.2619879 0.2616912 -0.35579464 -0.22545514 -0.065397434
-0.19160111 -0.35144764 -0.037612915 0.027098266 0.29809782 0.38395438 0.140612 -0.40138835
0.30543077 -0.31342787 -0.06494454 -0.02272841 0.007598085 -0.20159064 0.34860814 0.2261864
0.40749806 0.3603016 0.37361556 0.24548666 -0.32389143 0.19868124 -0.04625038 0.38415167
0.0034701023 -0.045728866 0.37362787 -0.24624996 0.103369325 0.0025929285 0.22258806 0.34033653
0.11852251 0.2693483 -0.28219318 0.09948564 -0.3223819 -0.028109178 -0.015603852 -0.38303867
-0.32610947 -0.3756354 0.10134038 -0.2417541 -0.09433011 0.15418574 -0.24969463 -0.24620941
0.34662083 -0.34842172 0.29045585 0.29088727 0.01890737 -0.35072434 -0.40250206 0.19733547
0.2552325 0.071375735 0.11993371 0.013980516 0.05030687 0.372141 -0.125759 0.27619284
0.22429018 -0.09971404 0.08246456 -0.09783696 -0.005192621 -0.37004045 -0.31535617 -0.12964337
-0.11646483 0.03874004 -0.31696248 -0.03976594 0.19494048 -0.2521021 0.3452151 -0.17428908
-0.34834212 -0.32484078 -0.40102252 -0.39017206 0.32869446 0.2541576 0.3673281 0.38418832
-0.099457465 0.32042912 0.17270228 0.35157642 0.15544811 -0.27366793 0.2543082 -0.015446514
-0.3874804 0.06364207 0.25565082 0.3603234 0.28698117 -0.12241309 0.021333901 0.008273924
00000000: 95d4 cbbe 6b5a 32be 9883 c33e c36d 06be
00000010: 80fa 31be abac b4be 56bb b6bd 8163 023e
00000020: bafe 7d3e 0a57 cebd da26 c5be 86fc 2ebe
00000030: 0a83 dc3d 4d30 1bbe 278d 883d 014f 34bc
00000040: 524d ea3d fd1c b63d 624e 75ba ad01 a3be
00000050: 968c 8a3e c7d0 8abe fe07 2b3e 1568 7cbe
00000060: 1637 33be 3198 b73e 064a 4cbd 80ff 8dbe
00000070: 1c07 8abe c257 afbe 6d1f 70bd 079b cabc
00000080: cd40 b1bb 2f05 7cbe 5cca ad3e f4a2 b33e
00000090: 8856 e0bc e761 85be 0789 52be 3847 7dbd
000000a0: 31a9 76bd f3dd cfbe 63e3 02bc bcdc be3d
000000b0: 4ae3 4e3e 742a 143d 3031 aebe 6809 7ebe
000000c0: 8336 ce3d 372c 833e d605 9d3d 26f0 c03d
000000d0: 9dbe 9abe aead e53d b4a1 a93d 4b09 aebe
000000e0: 8e88 5abe afc1 22be 64cd c1bc 7e65 debb
000000f0: d82d 953d 7afa 7d3e 9e39 f43d 337c 36be
00000100: 00d5 5cbe 9819 23be a652 bfbe 6f68 8bbe
00000110: 474c 893e e7e8 45be baa2 953e 5da6 443e
00000120: 3608 cb3e 969a 68bd 71a8 1f3e 460a 50be
00000130: 8010 083e 858e 313e 97da 2e3c 3b60 ab3e
00000140: 92c0 fd3d cbdd 20bd 0e31 89be ee33 fdbc
00000150: 1d53 9d3e a5f4 e33c 5554 d73c 7545 c8b9
00000160: 861c 08be 105f 8dbe 4cb6 3b3d 43ae 70bc
00000170: ce48 cd3e 3017 b7bc 4547 b2be 05e5 c3be
00000180: 9bf6 d03e 4974 13be b8d2 433e db34 0e3e
00000190: ed4a 293d 9c55 39be 6c84 973e 9981 c33e
000001a0: 569c f9bc def5 febd 5299 d2bd ce1e 333d
000001b0: 2e0e 25be 32bf 94be 971e a8be 6ca5 acbe
000001c0: 7ac2 bebe e914 c83e 4bfa 1b3e 84a5 e3bd
000001d0: e54f 95be a380 8cbd 438e bf3e 7cdc 2cbb
000001e0: 884c 5c3e 61d8 993e b848 8b3c d741 d03e
000001f0: 7d7e 9d3e 726d c6be b24b 9ebd 5abd 69bd
00000200: 4655 c03d 04b3 0bbd 1579 67bd 9a59 7abe
00000210: 433c 883e 85bc 12be 2fc1 70be 0a85 4cbe
00000220: 3e23 7b3e b8c7 40be a46a b53e f886 de3c
00000230: 49d6 143e 4153 bfbe 8350 aa3d 9118 d43d
00000240: b797 49be b13d 38be 0614 783e 4723 86be
00000250: 64fc 853e b72a b6be b6dd 66be 17ef 85bd
00000260: 1533 44be f2f0 b3be 0010 1abd 2ffd dd3c
00000270: 47a0 983e ab95 c43e 98fc 0f3e c682 cdbe
00000280: 6c61 9c3e 9e79 a0be a501 85bd ee30 babc
00000290: 5bf9 f83b c76d 4ebe c47c b23e 689d 673e
000002a0: 96a3 d03e 7479 b83e 8a4a bf3e db60 7b3e
000002b0: 19d5 a5be 1873 4b3e 0a71 3dbd 87af c43e
000002c0: a86a 633b 314e 3bbd 274c bf3e f328 7cbe
000002d0: 4cb3 d33d 1fee 293b 20ee 633e 9740 ae3e
000002e0: eebb f23d 05e8 893e a07b 90be 21bf cb3d
000002f0: 3e0f a5be 3845 e6bc 4da7 7fbc a51d c4be
00000300: d2f7 a6be 4853 c0be 8c8b cf3d 638e 77be
00000310: 2530 c1bd dee2 1d3e f3af 7fbe 521e 7cbe
00000320: 4978 b13e 5564 b2be a1b6 943e 2def 943e
00000330: a1e3 9a3c 2492 b3be c014 cebe 4f12 4a3e
00000340: d6ad 823e 712d 923d ce9f f53d 890e 653c
00000350: 940e 4e3d 4489 be3e f8c6 00be 2669 8d3e
00000360: 53ac 653e e036 ccbd 2ee3 a83d be5e c8bd
00000370: dd26 aabb f175 bdbe 5d76 a1be 3bc1 04be
00000380: 1d85 eebd e0ad 1e3d e848 a2be 9ce1 22bd
00000390: 7a9e 473e 8713 81be 09c0 b03e d678 32be
000003a0: e659 b2be 8851 a6be d352 cdbe a2c4 c7be
000003b0: a44a a83e f220 823e 6e12 bc3e 55b4 c43e
000003c0: 5bb0 cbbd 490f a43e ded8 303e d301 b43e
000003d0: ca2d 1f3e 341e 8cbe af34 823e 6013 7dbc
000003e0: d563 c6be c656 823d aae4 823e 4f7c b83e
000003f0: 32ef 923e b7b3 fabd 6fc4 ae3c 5a8f 073c

encoder.encoder_layer.encoderlayer.self_attn.out_proj.bias f4 [18]
0.0 0.0 0.0 0.0 0.0 0.0 0.0 0.0
0.0 0.0 0.0 0.0 0.0 0.0 0.0 0.0
0.0 0.0
00000000: 0000 0000 0000 0000 0000 0000 0000 0000
00000010: 0000 0000 0000 0000 0000 0000 0000 0000
00000020: 0000 0000 0000 0000 0000 0000 0000 0000
00000030: 0000 0000 0000 0000 0000 0000 0000 0000
00000040: 0000 0000 0000 0000

encoder.encoder_layer.encoderlayer.linear1.weight f4 [128, 18]
0.0702606 0.0023422656 -0.016208716 0.09759161 -0.1868274 -0.17834385 0.04216767 0.061742526
-0.042287316 0.16969135 -0.15636942 0.20067175 -0.19671978 -0.06335639 0.14392932 -0.14562844
-0.1586017 -0.019409874 -0.112260334 -0.09986367 0.09558695 -0.07903855 -0.119975165 -0.15912509
0.030629225 -0.085762255 0.028186355 -0.19568494 0.15020481 0.095269285 -0.12019937 -0.0035426274
-0.07490871 0.06530562 -0.11262545 -0.155231 -0.123944595 -0.09957235 0.0019357409 0.07183201
-0.11818127 -0.006003163 -0.056028247 -0.013937233 0.029234132 -0.14626962 -0.03570112 0.16120082
0.10047529 0.1109084 -0.117572755 0.02499259 0.0008258333 -0.1045007 0.1788262 0.030903922
-0.114162624 -0.071242124 -0.03861919 0.09948982 -0.10138179 -0.19766901 -0.09206508 0.20058754
-0.12194194 0.07997884 0.03937787 0.106547214 -0.024351677 0.068031505 -0.046875156 -0.12309511
0.109871596 0.09394826 0.04447018 -0.14372763 -0.12300781 -0.124469675 -0.13669418 -0.09231206
-0.10522399 -0.11509438 0.10584177 0.11057476 -0.14414857 0.016525028 -0.07007515 -0.19429833
-0.14456862 -0.015628895 -0.0966868 0.13654765 0.019320073 0.108140975 -0.019474132 0.018923504
0.00834596 0.060980584 0.13859022 0.12902567 0.0079223495 0.19006266 -0.11549494 0.18520826
0.08750872 -0.19008805 0.13780053 0.1579497 0.042022817 0.17512417 0.13302204 0.043358847
0.11128457 0.17104723 0.120110855 0.07214907 0.056001104 -0.050649658 -0.025595153 0.10208717
-0.14485326 0.096675396 -0.08393936 -0.19089991 -0.0167447 0.1363033 -0.118389666 0.044108797
0.060901415 -0.009468797 -0.19304892 0.05038081 0.009861377 0.07015881 -0.024889087 0.07946888
-0.022749867 -0.012780419 -0.024402428 -0.09468072 -0.103330225 -0.11684486 -0.14074142 0.1985911
0.011058984 -0.109335326 -0.12844652 0.105059154 0.1089077 0.0012728365 -0.12564588 -0.17113933
0.046214983 -0.14774653 0.18519928 0.019955983 0.1916407 -0.06846734 0.090907894 -0.13612404
0.15529025 -0.030970477 -0.031602908 0.16517314 -0.08801037 0.16332579 0.11907322 -0.2011015
-0.10587338 0.00879579 0.03275941 -0.17581576 -0.09848296 -0.16196916 -0.11460225 -0.09315425
-0.1599192 0.12690727 -0.15122366 0.19472495 -0.091973364 -0.09985429 -0.13983217 -0.1751509
-0.122988 0.20053262 0.041717354 0.10553227 -0.045571335 -0.11612734 0.19861947 -0.1420552
0.15590517 -0.06982396 -0.1940319 0.12194709 -0.059061375 0.0169178 -0.041685987 0.09236469
0.04799303 0.19890468 -0.09436085 0.18063408 -0.13230261 0.08629749 0.018800763 0.08971907
-0.17114905 0.0736515 -0.15796542 0.10684329 0.16042987 -0.04545945 0.03626576 0.11938363
-0.13783392 -0.108106785 0.15230554 0.056464806 0.14874277 0.09908682 0.17329447 -0.10520557
0.08528739 0.17682162 0.119037345 0.13333775 -0.01417307 -0.18146801 -0.10424257 -0.08887149
0.10274473 0.032465667 -0.030369774 -0.12325733 0.10886147 0.09081962 -0.032169294 0.029866297
0.18135816 -0.132282 -0.1435876 -0.00408545 0.18862566 0.11668438 -0.080875814 0.08880074
0.033070743 0.18655348 0.18776454 -0.17910524 0.09588663 0.18745197 0.079320855 0.026033675
00000000: cae4 8f3d b280 193b 24c8 84bc 1cde c73d
00000010: af4f 3fbe c59f 36be 02b8 2c3d bbe5 7c3d
00000020: 7735 2dbd 92c3 2d3e 4e1f 20be e57c 4d3e
00000030: e970 49be ffc0 81bd 3562 133e 9f1f 15be
00000040: 7c68 22be 7501 9fbc bfe8 e5bd 5385 ccbd
00000050: 17c3 c33d f7de a1bd 8ab5 f5bd b0f1 22be
00000060: 24ea fa3c 1fa4 afbd 12e7 e63c a261 48be
00000070: 4acf 193e 8b1c c33d 162b f6bd 6d2b 68bb
00000080: bd69 99bd f4be 853d 2ca8 e6bd e0f4 1ebe
00000090: aad6 fdbd 97ec cbbd b0b8 fd3a a91c 933d
000000a0: 0609 f2bd 2eb6 c4bb e07d 65bd fe58 64bc
000000b0: 6b7c ef3c b4c7 15be 563b 12bd d411 253e
000000c0: fdc5 cd3d f123 e33d fcc9 f0bd 43bd cc3c
000000d0: bc7c 583a 7704 d6bd 371e 373e 392a fd3c
000000e0: 18ce e9bd 64e7 91bd 282f 1ebd 52c1 cb3d
000000f0: 42a1 cfbd bf69 4abe 9e8c bcbd d266 4d3e
00000100: b2bc f9bd f2cb a33d b04a 213d 6d35 da3d
00000110: 2b7d c7bc 1a54 8b3d 2a00 40bd 4a19 fcbd
00000120: 5c04 e13d f267 c03d 5d26 363d 562d 13be
00000130: 85eb fbbd f5e9 febd 8ff9 0bbe 1b0e bdbd
00000140: ad7f d7bd 9ab6 ebbd 92c3 d83d 0575 e23d
00000150: af9b 13be 7f5f 873c 8f83 8fbd 24f6 46be
00000160: cc09 14be 2b08 80bc bb03 c6bd 26d3 0b3e
00000170: 2145 9e3c 0479 dd3d 3788 9fbc 7705 9b3c
00000180: 7ebd 083c c7c6 793d 98ea 0d3e 4e1f 043e
00000190: becc 013c c99f 423e 9c88 ecbd 3ca7 3d3e
000001a0: c637 b33d 71a6 42be 951b 0d3e 91bd 213e
000001b0: 1e20 2c3d c053 333e ee36 083e 0c99 313d
000001c0: 2ae9 e33d 0127 2f3e aefc f53d e4c2 933d
000001d0: 6a61 653d 0476 4fbd edac d1bc 1413 d13d
000001e0: 6a54 14be c0fd c53d 66e8 abbd 447b 43be
000001f0: 2e2c 89bc 1893 0b3e 4876 f2bd 6dab 343d
00000200: c373 793d 0323 1bbc 9eae 45be 1c5c 4e3d
00000210: 9d91 213c 6caf 8f3d 33e4 cbbc 95c0 a23d
00000220: ee5d babc f664 51bc 9ae7 c7bc f7e7 c1bd
00000230: cc9e d3bd 5c4c efbd 851e 10be 775b 4b3e
00000240: be30 353c 33eb dfbd 7c87 03be 4129 d73d
00000250: 000b df3d 4ed5 a63a 50a9 00be 263f 2fbe
00000260: ec4b 3d3d de4a 17be e1a4 3d3e bb7a a33c
00000270: 763d 443e 9b38 8cbd eb2d ba3d 1a64 0bbe
00000280: 6804 1f3e ccb5 fdbc 0d72 01bd 2623 293e
00000290: c83e b4bd e03e 273e a9dc f33d 8ded 4dbe
000002a0: 25d4 d8bd 381c 103c bb2e 063d 0c09 34be
000002b0: 6fb1 c9bd 3edb 25be 96b4 eabd a8c7 bebd
000002c0: dcc1 23be fbf3 013e 60da 1abe fa65 473e
000002d0: 885c bcbd 6880 ccbd 2a30 0fbe c25a 33be
000002e0: 22e1 fbbd 6c58 4d3e d1df 2a3d 4e21 d83d
000002f0: 02a9 3abd 2cd4 edbd e762 4b3e eb76 11be
00000300: 9ba5 1f3e ddff 8ebd 4cb0 46be 65bf f93d
00000310: 57ea 71bd 3397 8a3c edbe 2abd b329 bd3d
00000320: 5794 443d abad 4b3e 4340 c1bd 24f8 383e
00000330: 567a 07be bdbc b03d 0f04 9a3c a2be b73d
00000340: b241 2fbe 99d6 963d b0c1 21be a8d0 da3d
00000350: ba47 243e b033 3abd 688b 143d 687f f43d
00000360: 5624 0dbe 1767 ddbd fcf5 1b3e a447 673d
00000370: 0650 183e 08ee ca3d 1b74 313e 0576 d7bd
00000380: 28ab ae3d ba10 353e dac9 f33d b189 083e
00000390: 2a36 68bc c0d2 39be 217d d5bd 4102 b6bd
000003a0: d46b d23d b8fa 043d 08ca f8bc 576e fcbd
000003b0: c3f2 de3d a3ff b93d f3c3 03bd 2aaa f43c
000003c0: f4b5 393e ef74 07be a108 13be 3ddf 85bb
000003d0: 1627 413e 38f8 ee3d 38a2 a5bd 2add b53d
000003e0: 3075 073d e007 3f3e 5945 403e 5d67 37be
000003f0: 3660 c43d 69f3 3f3e f972 a23d 9344 d53c

encoder.encoder_layer.encoderlayer.linear1.bias f4 [128]
0.060480334 0.19251944 -0.18084814 0.08676637 -0.0437287 -0.18262996 -0.21575236 0.13107361
0.07810724 -0.1502383 0.017528761 -0.21425101 0.08517206 0.22445562 0.012756867 -0.08416958
0.12539405 0.18562716 0.08648952 -0.043835476 -0.07457211 0.068390146 0.01850463 0.14866401
0.044973865 0.17545117 -0.15578142 0.07891682 -0.20545097 0.19884983 0.0480315 -0.21770069
0.09422841 0.15621285 -0.11979887 0.13862692 -0.048324898 0.23091376 0.00152403 0.0991842
0.18688218 -0.22948141 0.1422144 -0.16988483 0.12792684 -0.025817022 -0.14457886 -0.0010552447
-0.11575505 -0.15921186 -0.14855045 0.1302786 0.058245823 0.21439858 -0.03186383 0.098572485
0.17969587 -0.18879138 0.050380968 -0.23100173 -0.03417626 -0.1794691 0.17205773 0.10048685
-0.18266329 -0.041279353 0.16273451 0.07059364 0.20115261 -0.18966967 0.0352934 -0.095687576
0.1358085 -0.15201163 0.040275976 0.03368303 -0.15074427 -0.1855964 0.010849639 -0.0058596204
-0.1553987 -0.23041207 -0.18482806 -0.19742236 0.13478483 0.18460457 -0.056461856 0.11396727
-0.22617999 0.16089964 -0.16506526 0.20350772 0.1565278 0.09152613 0.11920088 -0.034374688
0.21419194 -0.11176187 -0.07732463 0.10830594 0.15025431 0.053534813 -0.10056974 -0.12892494
-0.23549807 0.21630925 -0.13158375 0.1544065 -0.21975262 0.12517951 0.021713495 0.12946357
0.09572741 -0.16067311 0.10072534 0.02714864 0.016934464 -0.027262434 0.19014277 0.1140885
0.0048141815 0.0032900393 -0.1762367 -0.21790087 0.06771849 -0.15916845 -0.1394492 0.17685999
00000000: 3aba 773d d123 453e 4130 39be 91b2 b13d
00000010: de1c 33bd 5903 3bbe 30ee 5cbe 2938 063e
00000020: b0f6 9f3d 12d8 19be 7a98 8f3c 9e64 5bbe
00000030: b06e ae3d b2d7 653e 2e02 513c 1a61 acbd
00000040: 4c67 003e 0c15 3e3e 6b21 b13d d48c 33bd
00000050: 43b9 98bd 2210 8c3d 0697 973c 613b 183e
00000060: 8436 383d 79a9 333e 2a85 1fbe 249f a13d
00000070: bd61 52be 4a9f 4b3e aebc 443d eeec 5ebe
00000080: d3fa c03d 43f6 1f3e 1c59 f5bd 37f4 0d3e
00000090: 54f0 45bd a874 6c3e f6c1 c73a 1621 cb3d
000000a0: 0b5e 3f3e 2dfd 6abe a7a0 113e 4af6 2dbe
000000b0: 41ff 023e 387e d3bc 7b0c 14be 2350 8aba
000000c0: fc10 edbd 6f08 23be 9c1d 18be c167 053e
000000d0: 2c93 6e3d 4d8b 5b3e a683 02bd 5fe0 c93d
000000e0: 3202 383e 8752 41be 465c 4e3d b88b 6cbe
000000f0: 68fc 0bbd bfc6 37be e72f 303e 0dcc cd3d
00000100: 160c 3bbe 8a14 29bd e0a3 263e 6693 903d
00000110: f3fa 4d3e c438 42be d08f 103d d9f7 c3bd
00000120: 6211 0b3e f0a8 1bbe 6cf8 243d 38f7 093d
00000130: b55c 1abe fc0c 3ebe afc2 313c 0f02 c0bb
00000140: d620 1fbe 24f1 6bbe 9143 3dbe 1629 4abe
00000150: 0905 0a3e fb08 3d3e 8c44 67bd ac67 e93d
00000160: ba9b 67be e0c2 243e de06 29be 5464 503e
00000170: d348 203e 0d72 bb3d 971f f43d 79cc 0cbd
00000180: 2255 5b3e 68e3 e4bd 605c 9ebd 81cf dd3d
00000190: 44dc 193e 5247 5b3d 82f7 cdbd e604 04be
000001a0: 6826 71be 2c80 5d3e e4bd 06be bd1c 1e3e
000001b0: d506 61be 0f2f 003e 80e0 b13c 1992 043e
000001c0: bb0c c43d 7e87 24be 1649 ce3d d366 de3c
000001d0: 25ba 8a3c 7855 dfbc c9b4 423e 3ba7 e93d
000001e0: 48c0 9d3b b39d 573b 6577 34be 6821 5fbe
000001f0: feaf 8a3d 0efd 22be c5cb 0ebe c91a 353e

encoder.encoder_layer.encoderlayer.linear2.weight f4 [18, 128]
0.07283974 -0.155709 0.14056382 -0.029416393 -0.1445681 0.058659535 -0.07678435 -0.20096505
0.12438195 -0.081498094 0.08125108 0.07371867 -0.07185377 -0.1444548 -0.105030105 -0.04018688
0.12677893 0.12375595 0.18895464 0.06718585 0.17426555 0.026734106 0.09189457 -0.04946916
-0.09028235 0.032015596 -0.1639523 0.1687144 0.039345097 0.0057002627 -0.047083296 0.12555291
-0.06590864 0.19188799 0.07520752 0.17388871 0.17842287 -0.08956334 -0.15188465 0.17307168
0.072356224 -0.13389643 0.18313664 -0.018356152 0.08443567 0.16562097 0.18402487 -0.1044952
0.18222739 0.052396856 -0.049684484 -0.11422988 0.12919377 0.19366927 0.09571526 -0.11197807
-0.20162205 0.086848505 0.06203585 -0.1253409 0.031177582 -0.05668714 0.009527447 0.12812807
0.17706013 -0.17198193 -0.04271264 0.10114705 -0.08835034 0.14403547 -0.045733422 -0.086988986
0.043364283 0.18361378 -0.04381472 -0.07172853 0.16826816 0.12282775 -0.039157037 -0.10246017
0.014636603 0.17967483 0.19649875 -0.1735241 0.12181951 -0.176546 0.18258487 -0.15323952
0.13122158 -0.09462494 0.11184567 0.1795896 -0.07124767 0.11954617 -0.02989776 0.0030005781
-0.14049105 -0.12888539 0.0041377936 0.0339922 0.11112219 -0.0076421183 0.08232141 0.19158658
-0.17048591 0.1254568 -0.17318633 -0.010240303 0.14046764 0.18075691 -0.20177732 0.12407513
0.15488423 -0.041140288 0.15942968 -0.17014346 -0.011228003 0.02415581 -0.07100842 -0.115449265
0.0547925 -0.13986133 0.15580355 -0.1200852 0.19235587 -0.052365534 -0.14996018 -0.18519318
-0.08413266 -0.041741062 0.0756792 0.08494693 0.0101457415 0.076000854 0.06578694 0.07678437
0.083070785 0.14861387 0.13832876 -0.17236392 0.20032349 -0.14137098 0.10554689 0.019937592
-0.09151875 0.1673836 -0.09933325 0.19093676 -0.003728031 0.027037902 -0.091387555 0.10113448
0.19727461 -0.05196904 0.12510216 -0.06961912 -0.11241809 0.010938491 -0.0040268707 0.021915622
-0.11935767 0.015885081 0.07136902 -0.052876 -0.078345515 -0.06689798 -0.10513827 -0.08646409
-0.03969442 0.10919088 0.048374645 -0.12848373 -0.18746597 0.13827378 0.08889137 -0.10986998
0.17816302 -0.010967708 -0.015724255 -0.12641439 0.16481116 -0.16610757 -0.039360493 -0.06112232
-0.15926327 0.035563007 -0.17169431 0.042844467 -0.14049917 -0.14119981 -0.018042862 -0.14774065
-0.07837902 0.06877278 0.16786359 0.07708505 -0.15617974 -0.100318894 -0.18299145 0.12648913
-0.0722133 -0.10863333 0.14683828 0.07330866 -0.060938537 -0.17437473 0.07963899 0.16371274
0.16764878 0.19639207 0.013535276 -0.12965593 -0.027002497 -0.12964806 0.04517085 0.07212031
-0.0031427965 -0.057585225 -0.04190324 -0.14735484 0.016185733 0.11773921 0.12111095 0.08156994
0.022288196 -0.13681622 -0.14587136 0.19555774 -0.12245557 0.123892345 -0.17122713 -0.1353878
-0.17867437 0.10718692 0.20228246 -0.08976379 -0.052016236 0.09143511 0.18475506 -0.1730517
0.061662897 -0.01589673 -0.080031276 0.14061455 0.038874436 -0.18747354 -0.105847865 0.09715746
-0.12628241 -0.1060572 -0.086786486 -0.103065774 -0.033505492 0.157182 -0.020811662 0.05520949
00000000: 002d 953d 2e72 1fbe f6ef 0f3e a6fa f0bc
00000010: a909 14be fb44 703d 1d41 9dbd c8c9 4dbe
00000020: f7bb fe3d 79e8 a6bd f766 a63d d0f9 963d
00000030: 1228 93bd f6eb 13be 061a d7bd ff9a 24bd
00000040: 56d2 013e c273 fd3d 537d 413e bc98 893d
00000050: ab72 323e 7c01 db3c 3833 bc3d 2da0 4abd
00000060: f4e5 b8bd c922 033d 1de3 27be 78c3 2c3e
00000070: 5328 213d 45c9 ba3b 6ada 40bd f190 003e
00000080: 1cfb 86bd 497e 443e 6606 9a3d e20f 323e
00000090: 7cb4 363e fc6c b7bd a687 1bbe b439 313e
000000a0: 802f 943d 251c 09be 2c88 3b3e a45f 96bc
000000b0: 9cec ac3d 8b98 293e 0471 3c3e 9401 d6bd
000000c0: d199 3a3e 169e 563d f581 4bbd 5bf1 e9bd
000000d0: 5f4b 043e 3d51 463e 5d06 c43d c254 e5bd
000000e0: 0376 4ebe a1dd b13d 4e19 7e3d 5d59 00be
000000f0: 2168 ff3c c630 68bd 0219 1c3c 0134 033e
00000100: 404f 353e 081c 30be 73f3 2ebd 2f26 cf3d
00000110: 06f1 b4bd 097e 133e f852 3bbd 4827 b2bd
00000120: bf9e 313d 4005 3c3e 1077 33bd 68e6 92bd
00000130: 7d4e 2c3e 1e8d fb3d 2163 20bd a3d6 d1bd
00000140: 5dce 6f3c aefc 373e f836 493e 4db0 31be
00000150: 827c f93d 7ac8 34be 87f7 3a3e d2ea 1cbe
00000160: f35e 063e b8ca c1bd 580f e53d 56e6 373e
00000170: 4cea 91bd 9fd4 f43d 26ec f4bc 59a5 443b
00000180: e3dc 0fbe 88fa 03be 5496 873b 683b 0b3d
00000190: 0894 e33d bc6a fabb 2198 a83d 462f 443e
000001a0: dc93 2ebe bf77 003e c257 31be f2c6 27bc
000001b0: c0d6 0f3e 5718 393e b79e 4ebe 1a1b fe3d
000001c0: f999 1e3e b882 28bd 8941 233e 163a 2ebe
000001d0: a8f5 37bc 68e2 c53c dd6c 91bd aa70 ecbd
000001e0: 1a6e 603d cf37 0fbe f78a 1f3e 3bef f5bd
000001f0: f0f8 443e 3e7d 56bd 298f 19be 48a3 3dbe
00000200: be4d acbd adf8 2abd b2fd 9a3d a8f8 ad3d
00000210: 533a 263c 56a6 9b3d 4ebb 863d 2041 9d3d
00000220: 0421 aa3d 3c2e 183e 0ea6 0d3e 2b80 30be
00000230: 9a21 4d3e 8ec3 10be f828 d83d 2954 a33c
00000240: 2f6e bbbd 9b66 2b3e 3b6f cbbd ed84 433e
00000250: fb51 74bb 977e dd3c 6629 bbbd 981f cf3d
00000260: 5b02 4a3e 7ddd 54bd c81a 003e 7894 8ebd
00000270: 753b e6bd 5b37 333c d7f3 83bb 6488 b33c
00000280: cb71 f4bd 6e21 823c ec29 923d 8194 58bd
00000290: 9d73 a0bd cf01 89bd bc52 d7bd 1614 b1bd
000002a0: 9e96 22bd 789f df3d 7e24 463d 3d91 03be
000002b0: 14f7 3fbe a497 0d3e ae0c b63d 8303 e1bd
000002c0: 5e70 363e e7b1 33bc 27d0 80bc c672 01be
000002d0: 42c4 283e 1a18 2abe 7838 21bd 665b 7abd
000002e0: e915 23be 84aa 113d a2d0 2fbe ae7d 2f3d
000002f0: 04df 0fbe af96 10be a0ce 93bc 5349 17be
00000300: 2e85 a0bd bed8 8c3d 6fe4 2b3e c4de 9d3d
00000310: 95ed 1fbe fe73 cdbd 1c62 3bbe 5e86 013e
00000320: 91e4 93bd 277b debd c65c 163e da22 963d
00000330: b09a 79bd 4a8f 32be c419 a33d 50a4 273e
00000340: 1fac 2b3e 011b 493e 10c3 5d3c 86c4 04be
00000350: 5734 ddbc 76c2 04be 1205 393d d0b3 933d
00000360: 60f7 4dbb 7cde 6bbd bba2 2bbd 30e4 16be
00000370: f197 843c 4121 f13d 0509 f83d 240e a73d
00000380: bc95 b63c 8d19 0cbe 4d5f 15be 4a40 483e
00000390: fcc9 fabd 45bb fd3d 2a56 2fbe 19a3 0abe
000003a0: 6af6 36be d184 db3d 2223 4f3e 14d6 b7bd
000003b0: fa0e 55bd 5542 bb3d 6e30 3d3e 7734 31be
000003c0: 3c92 7c3d dc39 82bc 70e7 a3bd 43fd 0f3e
000003d0: cd3a 1f3d 10f9 3fbe c4c6 d8bd 7efa c63d
000003e0: 2d50 01be 8434 d9bd 1dbd b1bd 2614 d3bd
000003f0: 0e3d 09bd 51f4 203e 387d aabc 5923 623d

encoder.encoder_layer.encoderlayer.linear2.bias f4 [18]
0.026025373 0.008106325 -0.017970225 0.06282141 -0.044262737 0.06052334 -0.014623068 0.034639914
-0.032723404 0.033795618 -0.0070807547 -0.08204168 0.0073054917 -0.087784156 -0.046662673 0.019704957
0.07590879 0.07494863
00000000: 2a33 d53c 64d0 043c 4b36 93bc 83a8 803d
00000010: d84c 35bd 52e7 773d 9895 6fbc 95e2 0d3d
00000020: fa08 06bd 466d 0a3d ad05 e8bb 7805 a8bd
00000030: e862 ef3b 2ec8 b3bd 5c21 3fbd 4a6c a13c
00000040: 1176 9b3d ab7e 993d

encoder.encoder_layer.encoderlayer.norm1.weight f4 [18]
1.0 1.0 1.0 1.0 1.0 1.0 1.0 1.0
1.0 1.0 1.0 1.0 1.0 1.0 1.0 1.0
1.0 1.0
00000000: 0000 803f 0000 803f 0000 803f 0000 803f
00000010: 0000 803f 0000 803f 0000 803f 0000 803f
00000020: 0000 803f 0000 803f 0000 803f 0000 803f
00000030: 0000 803f 0000 803f 0000 803f 0000 803f
00000040: 0000 803f 0000 803f

encoder.encoder_layer.encoderlayer.norm1.bias f4 [18]
0.0 0.0 0.0 0.0 0.0 0.0 0.0 0.0
0.0 0.0 0.0 0.0 0.0 0.0 0.0 0.0
0.0 0.0
00000000: 0000 0000 0000 0000 0000 0000 0000 0000
00000010: 0000 0000 0000 0000 0000 0000 0000 0000
00000020: 0000 0000 0000 0000 0000 0000 0000 0000
00000030: 0000 0000 0000 0000 0000 0000 0000 0000
00000040: 0000 0000 0000 0000

encoder.encoder_layer.encoderlayer.norm2.weight f4 [18]
1.0 1.0 1.0 1.0 1.0 1.0 1.0 1.0
1.0 1.0 1.0 1.0 1.0 1.0 1.0 1.0
1.0 1.0
00000000: 0000 803f 0000 803f 0000 803f 0000 803f
00000010: 0000 803f 0000 803f 0000 803f 0000 803f
00000020: 0000 803f 0000 803f 0000 803f 0000 803f
00000030: 0000 803f 0000 803f 0000 803f 0000 803f
00000040: 0000 803f 0000 803f

encoder.encoder_layer.encoderlayer.norm2.bias f4 [18]
0.0 0.0 0.0 0.0 0.0 0.0 0.0 0.0
0.0 0.0 0.0 0.0 0.0 0.0 0.0 0.0
0.0 0.0
00000000: 0000 0000 0000 0000 0000 0000 0000 0000
00000010: 0000 0000 0000 0000 0000 0000 0000 0000
00000020: 0000 0000 0000 0000 0000 0000 0000 0000
00000030: 0000 0000 0000 0000 0000 0000 0000 0000
00000040: 0000 0000 0000 0000

encoder.transformer_encoder.layers.0.encoderlayer.self_attn.in_proj_weight f4 [54, 18]
0.80893284 0.53779155 0.6286858 0.79433817 0.7328917 0.62680274 0.4793188 0.58490777
0.36215952 0.51701933 0.5081202 0.16155007 0.729984 0.69917876 0.6419464 0.80119383
0.49362653 0.31772304 -0.26584306 -0.37226665 -0.59707594 -0.49815628 -0.5615938 -0.5954082
-0.31023628 -0.29368272 -0.65089476 -0.4400081 -0.52400637 -0.6218591 -0.28260294 -0.52019423
-0.6513467 -0.2553094 -0.7206404 -0.71040183 -0.5368044 -0.5047209 -0.34172323 -0.24016741
-0.46521738 -0.810088 -0.30822438 -0.25727275 -0.43674776 -0.6167829 -0.2576469 -0.30860546
-0.6512371 -0.3676308 -0.54591405 -0.28512624 -0.3702716 -0.60996324 -0.2811881 -0.53658944
-0.26527464 -0.71818745 -0.41865158 -0.7727469 -0.2138601 -0.30835122 -0.5617307 -0.29023257
-0.4391547 -0.3593421 -0.6259568 -0.41689044 -0.6476858 -0.4737087 -0.248071 -0.50369996
-0.68467 -0.7427509 -0.9455497 -0.89334077 -0.7960486 -0.74893755 -0.47543684 -0.9313277
-0.6084442 -0.5102545 -0.65041745 -0.62138844 -0.97723335 -0.7323205 -0.70619875 -1.0799966
-0.8425393 -0.55246544 0.62828654 0.481367 0.38770875 0.7760018 0.58364403 0.55143243
0.6422465 0.32533354 0.47625032 0.59505343 0.5521821 0.4289507 0.36657083 0.39897794
0.6755427 0.8130135 0.48178622 0.773323 0.6177096 0.50478 0.48047206 0.64128745
0.8508081 0.48218086 0.7593565 0.87854725 0.60261834 0.44405812 0.8105336 0.52945983
0.8940363 0.6066636 0.73753214 0.7115717 0.8151223 0.7722387 -0.7217204 -0.3509219
-0.4871756 -0.6087056 -0.3577912 -0.28049076 -0.6079661 -0.23423131 -0.50904703 -0.49919572
-0.71112555 -0.49351797 -0.54993856 -0.6660812 -0.2577384 -0.609888 -0.47920704 -0.44676605
-0.5424701 -0.38881204 -0.7375125 -0.43071792 -0.6989493 -0.6708809 -0.526724 -0.665568
-0.4793346 -0.43999815 -0.7040919 -0.54603416 -0.34843406 -0.344153 -0.73161083 -0.700066
-0.3811898 -0.25164533 -0.68669194 -0.35073438 -0.5407716 -0.7201171 -0.44219714 -0.27950788
-0.47995803 -0.4735132 -0.33376476 -0.631066 -0.41125798 -0.5595109 -0.5061121 -0.6541451
-0.56804115 -0.54991776 -0.52143514 -0.7413577 -0.35768637 -0.25407952 -0.3897687 -0.5634051
-0.33696494 -0.6124496 -0.49280858 -0.56985635 -0.13190438 -0.2701663 -0.15343946 -0.46288764
-0.35883304 -0.45843035 -0.40105683 -0.37612638 -0.16221622 -0.57286114 -1.0400792 -0.9975165
-0.67595625 -1.0763634 -0.66800064 -0.86692244 -0.8168796 -0.89943546 -0.63539314 -0.96872175
-0.6732533 -0.7528954 -0.659928 -0.884861 -1.0031034 -0.8442983 -0.7430031 -0.9234276
-0.37176868 -0.7385099 -0.5186879 -0.59221685 -0.6366709 -0.46189097 -0.09782858 -0.6082966
-0.4635049 -0.28471497 -0.49715164 -0.37852573 -0.5213412 -0.58502954 -0.3333898 -0.6029797
-0.40651217 -0.43994814 -0.36642453 -0.46588537 -0.2396368 -0.39530793 -0.25393483 -0.2925184
-0.18846215 -0.5338824 -0.40848258 -0.4655689 -0.17722249 -0.39236882 -0.36912447 -0.5259024
-0.49707827 -0.31881276 -0.6835304 -0.63809973 0.013496896 0.004233076 -0.3975633 -0.29726404
00000000: 3916 4f3f b5ac 093f 8df1 203f bf59 4b3f
00000010: ca9e 3b3f 2576 203f 4669 f53e 84bc 153f
00000020: f96c b93e 615b 043f 2a14 023f 626d 253e
00000030: 3be0 3a3f 61fd 323f 9956 243f 0a1b 4d3f
00000040: 9ebc fc3e 98ac a23e 951c 88be bc99 bebe
00000050: f8d9 18bf 570e ffbe 9cc4 0fbf ac6c 18bf
00000060: 4ad7 9ebe 955d 96be 0aa1 26bf be48 e1be
00000070: 4825 06bf 2832 1fbf 55b1 90be 732b 05bf
00000080: a8be 26bf eab7 82be e47b 38bf e5dc 35bf
00000090: 036c 09bf 6435 01bf 59f6 aebe 72ee 75be
000000a0: f930 eebe ed61 4fbf 96cf 9dbe 41b9 83be
000000b0: 679d dfbe 7ce5 1dbf 4bea 83be 8901 9ebe
000000c0: 79b7 26bf 1b3a bcbe 06c1 0bbf 11fc 91be
000000d0: 3d94 bdbe 8d26 1cbf e3f7 8fbe ed5d 09bf
000000e0: 14d2 87be 22db 37bf 8059 d6be bed2 45bf
000000f0: 24fe 5abe 36e0 9dbe 95cd 0fbf 5d99 94be
00000100: e3d8 e0be b0fb b7be b43e 20bf aa72 d5be
00000110: bdce 25bf f289 f2be 5306 7ebe 7bf2 00bf
00000120: 8846 2fbf ec24 3ebf 8c0f 72bf fbb1 64bf
00000130: d7c9 4bbf 5fba 3fbf 756c f3be 7e6b 6ebf
00000140: 00c3 1bbf 0aa0 02bf c281 26bf 5013 1fbf
00000150: f72b 7abf 5b79 3bbf 71c9 34bf 543d 8abf
00000160: a8b0 57bf 606e 0dbf 63d7 203f bc75 f63e
00000170: c381 c63e 0ea8 463f b269 153f ad2a 0d3f
00000180: 446a 243f 1e92 a63e 15d7 f33e 6c55 183f
00000190: ce5b 0d3f 6d9f db3e 2caf bb3e d646 cc3e
000001a0: 5ef0 2c3f a721 503f afac f63e 7ff8 453f
000001b0: 3722 1e3f 4339 013f 6f00 f63e 6a2b 243f
000001c0: 8fce 593f 69e0 f63e 3065 423f 79e8 603f
000001d0: 3245 1a3f 965b e33e 217f 4f3f ae8a 073f
000001e0: 90df 643f 4e4e 1b3f e8ce 3c3f 9029 363f
000001f0: dbab 503f 6fb1 453f abc2 38bf 09ac b3be
00000200: 156f f9be 21d4 1bbf 6830 b7be 7c9c 8fbe
00000210: aba3 1bbf 55da 6fbe e850 02bf 9596 ffbe
00000220: 530c 36bf 63ae fcbe c6c8 0cbf 4c84 2abf
00000230: 4af6 83be 9f21 1cbf a05a f5be 85be e4be
00000240: 52df 0abf 5f12 c7be 9fcd 3cbf 0f87 dcbe
00000250: 57ee 32bf dabe 2bbf 62d7 06bf aa62 2abf
00000260: 586b f5be 7047 e1be 5e3f 34bf e5c8 0bbf
00000270: f365 b2be d234 b0be d94a 3bbf 8637 33bf
00000280: 4f2b c3be a8d7 80be 0bcb 2fbf 7593 b3be
00000290: 0270 0abf 9859 38bf aa67 e2be a81b 8fbe
000002a0: 0fbd f5be 5270 f2be 37e3 aabe 8b8d 21bf
000002b0: 6890 d2be 1b3c 0fbf 9090 01bf 0e76 27bf
000002c0: 256b 11bf 69c7 0cbf c67c 05bf 9ec9 3dbf
000002d0: ab22 b7be b616 82be c38f c7be 513b 10bf
000002e0: ab86 acbe 7fc9 1cbf 6851 fcbe 1be2 11bf
000002f0: f111 07be 3d53 8abe 3c1f 1dbe 9cff ecbe
00000300: f7b8 b7be 62b7 eabe 5257 cdbe a393 c0be
00000310: 021c 26be 07a7 12bf 5121 85bf 3e5d 7fbf
00000320: 780b 2dbf 47c6 89bf 1702 2bbf a1ee 5dbf
00000330: 051f 51bf 6741 66bf 20a9 22bf 26fe 77bf
00000340: 545a 2cbf c1bd 40bf 0bf1 28bf 4086 62bf
00000350: b165 80bf ef23 58bf 7335 3ebf c065 6cbf
00000360: 7758 bebe fc0e 3dbf bbc8 04bf 869b 17bf
00000370: ddfc 22bf f97c ecbe 5a5a c8bd 53b9 1bbf
00000380: 8450 edbe 29c6 91be a98a febe 20ce c1be
00000390: 9e76 05bf 7fc4 15bf 11b2 aabe e15c 1abf
000003a0: 5d22 d0be e240 e1be ff9b bbbe 8788 eebe
000003b0: 5963 75be cd65 cabe bf03 82be f9c4 95be
000003c0: 39fc 40be 84ac 08bf a124 d1be 0c5f eebe
000003d0: d079 35be 91e4 c8be e2fd bcbe 8aa1 06bf
000003e0: 0b81 febe 6d3b a3be d9fb 2ebf 815a 23bf
000003f0: 1622 5d3c 9db5 8a3b 6b8d cbbe fe32 98be

encoder.transformer_encoder.layers.0.encoderlayer.self_attn.in_proj_bias f4 [54]
0.5859035 -0.52049696 -0.49730107 -0.48237902 -0.81585395 0.56545067 0.64337826 -0.4547742
-0.45170283 -0.46979532 -0.31291226 -0.87849414 -0.5285791 -0.5060101 -0.17589799 0.37624514
-0.5596236 -0.6835401 0.00021075482 -0.00022676101 -4.1714044e-05 0.00030783287 0.00082979543 -0.0007539362
-4.004574e-06 -0.00019950033 -0.000343412 -0.00013231928 -4.5644097e-06 0.00030931 -0.0005392245 -0.0005750551
-5.696201e-05 -0.000105492916 -0.0010296803 -0.00042001522 0.05428113 0.0808958 -0.043181654 0.041160922
0.008515109 -0.035029877 0.050838698 0.0026738574 0.0007130839 0.019269286 0.009858684 0.029304562
-0.03912857 -0.016409043 -0.018990774 0.02745595 0.04212906 -0.032274466
00000000: c6fd 153f 4a3f 05bf 3f9e febe 62fa f6be
00000010: cedb 50bf 60c1 103f 70b4 243f 2ad8 e8be
00000020: 9845 e7be 0389 f0be 0936 a0be fee4 60bf
00000030: f650 07bf e189 01bf 9a1e 34be 34a3 c03e
00000040: 7e43 0fbf 7cfc 2ebf 11fe 5c39 b2c6 6db9
00000050: 1df6 2eb8 a164 a139 a186 593a cda3 45ba
00000060: 075f 86b6 f630 51b9 fa0b b4b9 30bf 0ab9
00000070: fb27 99b6 e32a a239 be5a 0dba 4bbf 16ba
00000080: 7eea 6eb8 143c ddb8 56f6 86ba 7d35 dcb9
00000090: e455 5e3d b2ac a53d 3fdf 30bd 5b98 283d
000000a0: f582 0b3c 7d7b 0fbd 3d3c 503d e23b 2f3b
000000b0: 40ee 3a3a 9fda 9d3c 5186 213c 1f10 f03c
000000c0: 4845 20bd 426c 86bc 8a92 9bbc 4deb e03c
000000d0: 858f 2c3d 3b32 04bd

encoder.transformer_encoder.layers.0.encoderlayer.self_attn.out_proj.weight f4 [18, 18]
0.20286526 -0.08180999 -0.25404343 0.15942425 -0.346409 -0.03190598 -0.067719616 0.18463369
-0.018126735 -0.063374065 0.11646633 -0.2773279 0.12147414 -0.09225704 -0.3206368 0.025350003
0.25360546 -0.161501 -0.1257071 0.23421422 -0.11681065 0.061156902 0.25393113 -0.1787691
-0.30186236 -0.060732402 0.5767626 0.089088395 0.31185442 -0.11670046 0.009770036 -0.11460159
0.31893256 -0.23818575 -0.052243877 -0.30062908 -0.11800802 0.07068133 0.113991454 -0.03756339
-0.016888734 -0.40587702 0.3835111 -0.025456779 -0.093081795 -0.22013961 -0.21482241 -0.28276914
-0.15374556 0.13457407 0.30258104 0.31091627 0.13424653 -0.22450781 0.24130581 0.14138746
0.064975314 -0.27983153 0.25070098 0.177624 0.19554706 0.13141593 0.17795755 0.23565994
0.1704711 -0.25968328 0.28964803 0.0044380603 0.20070721 -0.21150258 -0.27384323 -0.06740641
0.34674516 -0.020702425 0.3156369 -0.09018396 -0.1191509 0.09287778 0.053452317 -0.25587484
-0.043115698 -0.39246953 0.20795663 -0.025312738 0.3961028 -0.44430494 0.12723275 0.0018794142
0.028154131 0.15834674 -0.35475272 -0.1241247 0.18478732 -0.041970678 -0.23151118 -0.05360706
0.20589682 -0.3714001 -0.2611782 -0.059492633 0.35656416 0.07475398 -0.07966989 -0.2931755
-0.19727199 0.2612715 0.3089332 -0.47386843 -0.29109526 -0.37172508 -0.1519722 0.28759113
0.18696177 -0.053817388 0.10791801 0.20471017 0.062232163 0.4189805 0.15562314 0.29727522
-0.30357525 -0.37765113 -0.3095873 0.30666244 0.19218501 -0.21172962 0.22513819 0.09333432
-0.22931305 0.3794127 0.100185335 0.17844519 -0.26071408 0.06922632 -0.057241485 0.051941033
-0.16712907 0.330437 -0.15406242 -0.02008889 -0.19738542 0.34426242 0.13489068 0.21766199
-0.15409938 0.26396325 0.22536851 -0.08307025 0.22572792 0.015468201 0.38005313 0.3804364
-0.22605065 0.17248592 0.26793617 0.35026127 -0.30718687 -0.08165555 0.0058364766 -0.23852831
0.18783872 -0.27082086 0.28688422 -0.18809986 0.3225208 -0.022914909 0.2849247 0.001768936
0.015035026 -0.053207874 -0.043458913 -0.09040689 0.3103967 0.26456037 0.05735806 -0.026409417
-0.11513587 0.062248103 0.35932577 0.29338112 0.1148916 -0.20779619 0.073609106 0.28374666
-0.22268043 0.0895286 -0.27287188 -0.20195287 0.31586543 0.3135417 -0.31777966 0.1384656
-0.16707858 -0.25200078 0.013624685 -0.22815114 0.09494934 0.15860921 0.13577557 0.16048433
0.1692033 0.11456751 -0.35780627 -0.0013990703 -0.23414403 0.29707593 0.39279002 0.030056793
0.18352892 0.17225039 -0.24936226 -0.4179566 -0.2785213 -0.01627315 0.31104293 0.28409037
0.090410315 -0.14162749 0.054801464 0.1374001 -0.24187678 -0.24946244 0.04469294 -0.018966645
-0.16918378 -0.2762758 0.01726665 -0.30345306 0.09531527 0.2630011 0.11531318 0.24621458
-0.061297163 -0.29489696 -0.32718664 -0.1870658 -0.2362447 -0.18821006 0.08637618 0.2642937
-0.017720655 -0.03350375 0.22208959 -0.17646012 -0.22818945 0.025209978 0.228098 -0.4148188
0.30717328 -0.3901629 0.35768083 -0.2294227 -0.32233796 0.07889282 -0.121617205 -0.09358124
00000000: e9bb 4f3e ff8b a7bd fb11 82be 1c40 233e
00000010: 855c b1be d8af 02bd 95b0 8abd 9d10 3d3e
00000020: 857e 94bc 43ca 81bd e685 ee3d ecfd 8dbe
00000030: 6fc7 f83d 42f1 bcbd 822a a4be cfaa cf3c
00000040: 93d8 813e 8560 25be 5db9 00be dad5 6f3e
00000050: 6c3a efbd a97f 7a3d 4303 823e 3f0f 37be
00000060: b48d 9abe 8ac2 78bd b7a6 133f fa73 b63d
00000070: 62ab 9f3e a700 efbd 8012 203c 3db4 eabd
00000080: 214b a33e f7e6 73be adfd 55bd 0eec 99be
00000090: 30ae f1bd 60c1 903d 5a74 e93d 12dc 19bd
000000a0: 3e5a 8abc 1dcf cfbe 915b c43e bc8a d0bc
000000b0: aba1 bebd 476c 61be 68fa 5bbe 1ec7 90be
000000c0: 7a6f 1dbe c9cd 093e e7eb 9a3e 6b30 9f3e
000000d0: ec77 093e 60e5 65be df18 773e e0c7 103e
000000e0: c711 853d 1446 8fbe e15b 803e 11e3 353e
000000f0: 7d3d 483e e691 063e 813a 363e d750 713e
00000100: fa8f 2e3e 35f5 84be bf4c 943e 266d 913b
00000110: 3186 4d3e 2294 58be 2e35 8cbe 5f0c 8abd
00000120: 9588 b13e 2298 a9bc 299b a13e 5eb2 b8bd
00000130: 6305 f4bd b536 be3d d1f0 5a3d 0702 83be
00000140: 169a 30bd c4f1 c8be 95f2 543e a95c cfbc
00000150: fccd ca3e f07b e3be 4d49 023e ad56 f63a
00000160: 7ea3 e63c a625 223e 26a2 b5be 1735 febd
00000170: e338 3d3e 72e9 2bbd 4411 6dbe 1493 5bbd
00000180: 9ed6 523e 2728 bebe 26b9 85be 8cae 73bd
00000190: 948f b63e 9d18 993d f829 a3bd 191b 96be
000001a0: ab01 4abe 61c5 853e 7e2c 9e3e e29e f2be
000001b0: 700a 95be c052 bebe 9a9e 1bbe 253f 933e
000001c0: e872 3f3e 9f6f 5cbd 1e04 dd3d 8b9f 513e
000001d0: 27e7 7e3d 9d84 d63e ac5b 1f3e 7534 983e
000001e0: 376e 9bbe 7d5b c1be 3a82 9ebe dc02 9d3e
000001f0: 26cc 443e a6cf 58be a08a 663e 1026 bf3d
00000200: 0ad1 6abe 6242 c23e f82d cd3d 56ba 363e
00000210: 517c 85be 87c6 8d3d 0c76 6abd 1fc0 543d
00000220: e223 2bbe 0a2f a93e 8ac2 1dbe 7591 a4bc
00000230: 671f 4abe 2a43 b03e c820 0a3e c9e2 5e3e
00000240: 3acc 1dbe 3126 873e 01c7 663e bc20 aabd
00000250: 3825 673e 566e 7d3c 5396 c23e 8fc8 c23e
00000260: d279 67be 26a0 303e ee2e 893e 7255 b33e
00000270: 9947 9dbe 063b a7bd ea3f bf3b c440 74be
00000280: cb58 403e 08a9 8abe 7de2 923e 409d 40be
00000290: 7221 a53e 0cb8 bbbc a6e1 913e a5db e73a
000002a0: 7855 763c 80f0 59bd f901 32bd 3f27 b9bd
000002b0: 51ec 9e3e 7574 873e 49f0 6a3d 9058 d8bc
000002c0: 5bcc ebbd def7 7e3d 8cf9 b73e 0d36 963e
000002d0: 4a4c eb3d 86c8 54be 5fc0 963d 3e47 913e
000002e0: 5706 64be c55a b73d ddb5 8bbe bccc 4ebe
000002f0: 1db9 a13e 8a88 a03e 04b4 a2be edc9 0d3e
00000300: a616 2bbe 3f06 81be 123a 5f3c 74a0 69be
00000310: cd74 c23d 746a 223e c008 0b3e 0156 243e
00000320: a143 2d3e 5fa2 ea3d 6232 b7be 0261 b7ba
00000330: 74c3 6fbe 561a 983e c61b c93e aa39 f63c
00000340: 01ef 3b3e 6862 303e d258 7fbe 68fe d5be
00000350: 589a 8ebe 454f 85bc 0541 9f3e 4b74 913e
00000360: 0b29 b93d cc06 11be 8077 603d 9db2 0c3e
00000370: 8cae 77be 1573 7fbe f20f 373d f05f 9bbc
00000380: 833e 2dbe 0674 8dbe ca72 8d3c 335e 9bbe
00000390: a734 c33d 15a8 863e 5129 ec3d ad1f 7c3e
000003a0: bc12 7bbd bcfc 96be 0285 a7be 2d8e 3fbe
000003b0: 21ea 71be 23ba 40be ffe5 b03d 8151 873e
000003c0: e82a 91bc 3a3b 09bd 746b 633e f6b1 34be
000003d0: 7faa 69be 2885 ce3c 8692 693e 2163 d4be
000003e0: d145 9d3e 6ec3 c7be f121 b73e c9ed 6abe
000003f0: 7b09 a5be 8f92 a13d 7112 f9bd 85a7 bfbd

encoder.transformer_encoder.layers.0.encoderlayer.self_attn.out_proj.bias f4 [18]
0.018644007 -0.009863175 0.0256297 0.012654405 -0.011388255 -0.009039411 0.03408535 0.039750334
0.0014230511 -0.026989397 -0.015328385 -0.0066245557 -0.06998012 -0.016743578 -0.048867557 0.004460117
0.014628549 0.031793617
00000000: 51bb 983c 2899 21bc 60f5 d13c 6c54 4f3c
00000010: ce95 3abc 0a1a 14bc 149d 0b3d 3fd1 223d
00000020: ac85 ba3a de18 ddbc e823 7bbc cd12 d9bb
00000030: bd51 8fbd d429 89bc 5929 48bd 2c26 923b
00000040: 95ac 6f3c 063a 023d
