Final_exp/FL_001/3stacks_3nhead_120lwin_0_0005lr_128dff_64batch_50epcs_0_1dropout/checkpoints/client4/model__lr_0.0005_l_win_120_dff_64.pt (torch, 80335 bytes, 49 tensors)

encoder.encoder_layer.encoderlayer.self_attn.in_proj_weight f4 [48, 16]
00000000: 50b9 e63c 38bb f4bc e24c 953d dd39 503e
00000010: b824 2e3d 2a07 63bd 5250 48be 2db8 9bbe
00000020: 1da3 2d3e eb4d 663d 64b5 61be 3b80 6ebe
00000030: ef78 0ebe 401f 94bd 97f8 203e d858 b03d
00000040: d155 0fbe dee4 5e3d 9f27 a43d 7e05 40be
00000050: f1f6 31bd 225b 33be a6e2 043e c6d5 f6bd
00000060: 49e7 113e a7a4 793e 4a8f 193e 624a f0bd
00000070: e9cf 6d3e c2d6 61be 9cf9 853e 719f 363e
00000080: 5832 333e 7076 2f3d 24bd 4fbd 8a43 17be
00000090: f4c0 2bbd 99e9 68bd 64d7 8d3e dba7 443e
000000a0: 95eb 133e 7cc3 7e3e ce23 2c3e d645 ed3c
000000b0: 53b4 2bbd 302b 7d3e 0f0d 27be 2480 193e
000000c0: 79b1 a9bd 048a 1abd 62eb b1bd 7e3c 97be
000000d0: 034a 843e d877 713e c41a 603e 8496 5fbe
000000e0: c05d 5bbe d494 313e 7ec9 8bbe 2b39 8d3d
000000f0: b4ed 553e bf4c c63d 40b8 1aba 9faf e83d
00000100: be29 e93d 035b b8bd 1364 84be 71e4 bdbd
00000110: bb65 5f3d b828 ecbd e037 47bd d5ab 1c3e
00000120: 84a7 863c 967b 96be 4dfc 96bd 10d8 8abe
00000130: 5d81 573e cbf8 08bd 48f2 e0bb d250 05bd
00000140: 076a aebd e455 3dbb a930 1cbe 4ec6 85be
00000150: ac0c 80be ccd9 afbc 2b6f 9a3e 00b9 54be
00000160: 7e49 843e 0c10 793e 9a68 403e 08d4 9bbe
00000170: ee85 69be cd5f 46be b620 56bd d233 67be
00000180: 0866 833e 187c 8b3e 7ef2 65be 3dab cc3d
00000190: f66a d83d e64e e4bc a2e7 cc3d 8451 cfbd
000001a0: 5ef7 56be e436 3cbe c273 8a3e 3462 373e
000001b0: 144e 48bd 41e6 62be 44c6 50be f2ae 72bd
000001c0: b09b 433e 3d48 f2bd 5218 ffbd fc6a 933d
000001d0: 7247 ed3c 0eaf b03b 01bd 9cbe ef3f 8c3d
000001e0: 2071 acbd 9868 343e d02b 24be ecd9 c93d
000001f0: c4fc 97be 2495 60be 7811 8b3e 9eef 093e
00000200: dd17 57be 9c24 10bd ee8d 843e 9a78 633e
00000210: ef82 743e e830 8f3e 0f6c 813e f117 163e
00000220: af53 913e fac9 933e 0e80 823d 8282 97be
00000230: 0f81 49be 1bcb 8b3d 6af8 56be 1cf7 a93d
00000240: d420 10be 3eda 243e 48a7 96be 3e87 7cbd
00000250: d916 3bbe e1be dcbd 52f5 5f3e 4787 85be
00000260: a6e8 503e 8a16 91be 2e09 1fbe eeab 98be
00000270: 1505 30bd 0717 3cbe b08d 683e ddc3 0a3e
00000280: 78df 71be e21d 2bbe cc97 d03b d24b ec3d
00000290: ae71 8dbe 91fb 56bd 93e2 0b3e 8a83 9bbd
000002a0: 43ed 353e 2e63 b63c 0add 6f3d c2b4 1dbe
000002b0: 0a4d fb3d 903e 7cbd 8f86 913d d420 7ebe
000002c0: 95c3 eb3c 63c3 a1bb 56f3 623d 60cb 693e
000002d0: ca5b 77bd 2382 0dbe 5e57 3a3e 1791 a13d
000002e0: e6f9 7bbd 2ab1 ea3c b437 853e c44c 753e
000002f0: 2c11 5dbd cdfa 87be 351a 3cbe 13b7 863d
00000300: f020 06be e67a 7ebe 7911 31be 5d0f 55bd
00000310: cb26 983c 8dd7 6abd 8c71 113d 0f89 163c
00000320: 986e fcbd b3f5 98be 3d03 4cbe 9a88 8c3e
00000330: f092 5fbc d819 6bbe 3231 7d3e 5296 743e
00000340: 2702 94be 7604 94be c7be 053d 69e3 bf3d
00000350: 4bb8 0b3d aad0 8e3e 0381 4d3e 60dd 99be
00000360: 16ce 8cbe 4c50 253e b844 933e 86d5 96be
00000370: 98c7 44bb 9d44 11bd 4406 973e 04b4 d9bc
00000380: 357c 45bd 9c14 46be 928e f83d cca0 99bd
00000390: 8c4d 353d d6f9 8abe 35cf 8abe 444e 1e3e
000003a0: 0d39 83bd 3c69 7a3e 956c 9c3e 4abf 903d
000003b0: 16db edbd c1a6 68be 0e11 01be 9c43 893e
000003c0: f760 ab3d 282a 3e3e ccb5 843d fb00 1c3d
000003d0: f73f 93be f399 d13d c0f7 c7bd f430 163e
000003e0: 8cea 583b 2adc 5fbe e665 8b3e b790 62be
000003f0: cebc f03d a744 52be 0f1b 8e3d 8a7c 563e
0.028164536 -0.02987443 0.07290055 0.20334573 0.042515486 -0.055426754 -0.1956189 -0.30413952
0.16956754 0.056226652 -0.22041851 -0.23291104 -0.1391332 -0.07232523 0.1571983 0.086106956
-0.1399758 0.054417484 0.080153696 -0.18752095 -0.043448392 -0.17515233 0.12977085 -0.12052493
0.14248385 0.24379216 0.14996067 -0.117329374 0.23223843 -0.2205458 0.26167 0.1783426
0.17499673 0.04283756 -0.050717488 -0.14771858 -0.04193206 -0.0568634 0.27703393 0.19204657
0.14445336 0.24879259 0.16810533 0.028963964 -0.041920017 0.24723506 -0.16313575 0.14990288
-0.08285803 -0.03772928 -0.08687474 -0.2953834 0.25837716 0.23580873 0.2188521 -0.21834761
-0.21422482 0.1734193 -0.27302164 0.068956695 0.20891458 0.09682607 -0.0005902089 0.11361622
0.11384915 -0.09001734 -0.258576 -0.09272087 0.054540377 -0.11531204 -0.04863727 0.15299924
0.0164373 -0.29391164 -0.07372341 -0.27117968 0.21045442 -0.033440392 -0.0068648197 -0.03254778
-0.08516317 -0.0028890306 -0.15252937 -0.26127857 -0.25009668 -0.021466158 0.3016294 -0.20773697
0.2583732 0.24322528 0.18789902 -0.30435205 -0.22804996 -0.19372483 -0.05227729 -0.22578362
0.2566378 0.27243114 -0.22455785 0.099935986 0.10567276 -0.027869653 0.10005118 -0.1012297
-0.209928 -0.18380314 0.2704144 0.17908555 -0.048902586 -0.22158147 -0.20388132 -0.059248872
0.19102359 -0.118301846 -0.124558106 0.0719814 0.028964732 0.005391962 -0.3061295 0.06848132
-0.084200144 0.17618024 -0.16032338 0.098560184 -0.29685032 -0.21931893 0.27161765 0.13470313
-0.21005197 -0.035191163 0.25889534 0.22213975 0.23878072 0.27967 0.25277755 0.1465757
0.28384158 0.28865033 0.06372081 -0.29591757 -0.19678138 0.06825849 -0.209932 0.082990855
-0.14075023 0.16098878 -0.294245 -0.061652415 -0.18270434 -0.10778595 0.21870926 -0.2607977
0.20401248 -0.28337508 -0.15530846 -0.29818672 -0.042973597 -0.18368159 0.227103 0.13551278
-0.23620403 -0.16710618 0.006365752 0.11537899 -0.27625793 -0.052486006 0.1366065 -0.075934485
0.1776629 0.02226409 0.05856041 -0.15400985 0.122705534 -0.0615831 0.07105743 -0.2481721
0.028779784 -0.004936622 0.055407844 0.22831488 -0.06039027 -0.13819174 0.1819739 0.07889002
-0.06151762 0.028648932 0.2601906 0.23955065 -0.053971455 -0.26558533 -0.18369372 0.065778874
-0.13098502 -0.2485157 -0.17291822 -0.052016605 0.018573185 -0.05733447 0.035508677 0.009187951
-0.123257816 -0.29874954 -0.1992311 0.2744797 -0.0136458725 -0.22959077 0.24725798 0.23885468
-0.28907892 -0.28909653 0.032652643 0.09369547 0.034111302 0.27893573 0.20068745 -0.30051708
-0.2750098 0.16143912 0.28763366 -0.2945978 -0.0030026194 -0.035465825 0.29496968 -0.026575096
-0.048214156 -0.193438 0.12136568 -0.07501373 0.044263408 -0.27143735 -0.2711121 0.15459543
-0.06407366 0.24454206 0.30551592 0.070677355 -0.11614053 -0.22719862 -0.12604162 0.26809394
0.08368104 0.18570769 0.064799875 0.038086873 -0.2875974 0.102344416 -0.097640514 0.14667112
0.0033098785 -0.2186133 0.2722618 -0.22125517 0.11754762 -0.20534001 0.06938755 0.20945945

encoder.encoder_layer.encoderlayer.self_attn.in_proj_bias f4 [48]
00000000: 0000 0000 0000 0000 0000 0000 0000 0000
00000010: 0000 0000 0000 0000 0000 0000 0000 0000
00000020: 0000 0000 0000 0000 0000 0000 0000 0000
00000030: 0000 0000 0000 0000 0000 0000 0000 0000
00000040: 0000 0000 0000 0000 0000 0000 0000 0000
00000050: 0000 0000 0000 0000 0000 0000 0000 0000
00000060: 0000 0000 0000 0000 0000 0000 0000 0000
00000070: 0000 0000 0000 0000 0000 0000 0000 0000
00000080: 0000 0000 0000 0000 0000 0000 0000 0000
00000090: 0000 0000 0000 0000 0000 0000 0000 0000
000000a0: 0000 0000 0000 0000 0000 0000 0000 0000
000000b0: 0000 0000 0000 0000 0000 0000 0000 0000
0.0 0.0 0.0 0.0 0.0 0.0 0.0 0.0
0.0 0.0 0.0 0.0 0.0 0.0 0.0 0.0
0.0 0.0 0.0 0.0 0.0 0.0 0.0 0.0
0.0 0.0 0.0 0.0 0.0 0.0 0.0 0.0
0.0 0.0 0.0 0.0 0.0 0.0 0.0 0.0
0.0 0.0 0.0 0.0 0.0 0.0 0.0 0.0

encoder.encoder_layer.encoderlayer.self_attn.out_proj.weight f4 [16, 16]
00000000: 8f98 bbbe 6e49 9fbd f67c 983c 2411 91be
00000010: 7f87 aa3e 6c33 423e ea89 9abe 6747 afbd
00000020: bb57 8ebe 5570 be3e 89d0 d8be 722b 44be
00000030: 568b 47be b550 97be a6cd cb3d 923c 2d3e
00000040: fa13 a33e 32c1 8a3e ab1b 47be accc 63be
00000050: 20f3 d93d 2058 9f3d 0cb0 d23e 3a51 d0be
00000060: 26a9 d4be eb98 b7be 7d7f 1fbe 7056 5e3d
00000070: f8c1 d03d 5bf5 893d 7488 b33d bc8a 06be
00000080: 0090 3a3d 83f0 84be ebc8 b43e 6b06 a53e
00000090: 9ee5 8d3e e2ac 8cbd 0c31 4bbe 5c84 343d
000000a0: 503d bdbe a2fb e4bc 4a1a dabe 7063 873e
000000b0: 75d6 dbbe 0b40 6e3e ace0 c2be c2d8 bcbe
000000c0: 6653 97be 1143 1c3d a9c8 9bbe bce2 adbe
000000d0: c64c e2bc aa65 f3bd 526e 8bbd 4272 8d3e
000000e0: 54d4 963e f00c 82bc 6483 963d 6894 5ebd
000000f0: 529b dcbe cace a93e 785e 9fbe ca6a 86bd
00000100: a10f c7be d6e4 d43e b86a 9c3e 2ec2 2b3e
00000110: b197 9fbe 7207 9c3d 5c29 6dbc 10d8 79be
00000120: d913 a83d fa2a 3c3e f65c 0ebe fdf7 5bbe
00000130: d2f2 6b3e d546 1d3e b811 abbd 5823 4cbe
00000140: 9434 3fbe b5b5 d43e fac5 903e 1a7a 24be
00000150: 87eb a0be 0318 c03e 62ba 96bd 8440 a3be
00000160: 1779 59be 447e 3b3d 6848 633d e089 abbc
00000170: a66f 8d3e f157 fdbd 7cea ea3d c5a6 97be
00000180: 8a5a dcbe 9396 4ebe 8506 d0be f2d0 6f3e
00000190: 6490 1abe a896 55be 883e 023e db2f 0d3e
000001a0: 3972 f6bd 64db c83b 7676 57be 7c50 37be
000001b0: aea7 87be ccdf 7abe 084f 8dbe 3f02 84be
000001c0: dd6b 5abe be1b 5a3d f321 ae3e 1dfa 6abe
000001d0: b1d1 05bd 6bd1 2b3e b73a c6be 32de aabe
000001e0: 9eb7 623e d2d8 8a3d 54aa a7bd 1cb7 9a3e
000001f0: 318a fb3b 2cfb 803e 1403 39be c898 063e
00000200: d01b a5be edec d2bd a6c5 49bd 3292 69be
00000210: 1161 c9be 25c1 603e ea47 e3bb ddbe 09be
00000220: 5bf9 f5bc b1fc 79be 90d8 71be 4630 3ebd
00000230: 3d32 593d e0f1 7d3e c6f0 ec3d 2a91 dabe
00000240: f77a 07be 8787 82be f60d 18be f645 593e
00000250: afb6 b9bd 28e4 8e3d 1a03 76bc 8a8e 78be
00000260: 6836 2abe 6e57 763e 9da7 703e b89a bebe
00000270: d02b cfbe b9ae 58be 6068 8e3e e067 da3e
00000280: 9a09 3abe 0e5b ab3d 0468 603c cea1 03bd
00000290: c2f5 b4bc 746c 653e 60e6 ccbd 87a8 a93e
000002a0: d8d7 ad3e e408 5ebe f2fb dfbd daf5 b93e
000002b0: 7c55 d03e 4a90 bb3e 422a 3a3e 2514 0ebe
000002c0: ce4b 2ebe 3667 db3e 7994 823d 41dd b43e
000002d0: 2b4f 5bbe 2e37 de3d 1ac4 c43e 2a87 133e
000002e0: 1d67 a5be 9b3d 0e3d 81ea d6be 5ead b0be
000002f0: e78b 95be 7264 dc3d e905 cc3e 676b 393d
00000300: 66e3 8e3e 12c5 5e3c a9ed d3be be59 4a3e
00000310: 08a8 13be ccd1 b5be f607 553e b3f1 c23e
00000320: 12fd eb3c bd76 d43e 1c69 6d3e c7c5 acbe
00000330: 92da aabe eaca 10be 5208 2b3e 90c7 debd
00000340: 875c c83e f352 83be 205d 09be 26ef 9c3e
00000350: 99c1 333e 1203 7e3e ff05 333e 6ebe c43e
00000360: 8c54 26be 3dc5 693e 8e9e 0a3e 2516 58be
00000370: fc57 0f3e b1a4 a8be 6ab3 fd3d c9d9 27be
00000380: 861b 9a3e 8656 40bd a001 793e 1078 cc3d
00000390: 535f 993e 8b86 a43e 90ce 86be 1c7b 16be
000003a0: fef7 b2bc 58e5 8f3e 6dc0 773e e56b 48be
000003b0: c9f1 993c 2ce8 563e 8458 d5be 5edb 1abe
000003c0: e074 ac3e 6ab7 2fbd 67a8 0f3e 8e95 b9be
000003d0: 34b5 073e 35ef 77be daa2 103e 8b08 b13d
000003e0: daa9 14be 68b4 4d3d a4ef 7dbe 6ce1 b53d
000003f0: 0257 5bbe 140a bebe a8b9 a23e 1691 8dbe
-0.3663983 -0.077776775 0.018614274 -0.2833339 0.333065 0.18964928 -0.30183345 -0.08558541
-0.27801308 0.37195078 -0.423466 -0.19157198 -0.19486746 -0.29553762 0.09951334 0.16917637
0.31851178 0.2710052 -0.19444148 -0.22246045 0.106420755 0.077804804 0.41149938 -0.4068697
-0.415353 -0.35858855 -0.15575977 0.054281652 0.101932466 0.06736251 0.08766261 -0.1313886
0.045547485 -0.25964746 0.35309538 0.3223146 0.27714247 -0.06868912 -0.19842929 0.04407154
-0.3696084 -0.02795202 -0.42598182 0.26443052 -0.42937055 0.23266618 -0.38062036 -0.36884123
-0.29555815 0.038149897 -0.3042653 -0.33962047 -0.027624499 -0.11884625 -0.06808151 0.27626234
0.29458869 -0.01587531 0.073492795 -0.05434075 -0.4308725 0.3316558 -0.3112676 -0.06563337
-0.3887911 0.41580838 0.3055017 0.16773292 -0.3117042 0.076186076 -0.014475193 -0.24398828
0.08206911 0.1837577 -0.1390265 -0.21481319 0.23041847 0.15359052 -0.08352989 -0.19935358
-0.186724 0.4154488 0.28276044 -0.16062203 -0.31429693 0.3751832 -0.073597685 -0.3188516
-0.21237598 0.045774713 0.055488974 -0.020939767 0.27624243 -0.12370289 0.114705056 -0.29619423
-0.43037826 -0.20174627 -0.40629974 0.2341955 -0.15094143 -0.20858252 0.12719166 0.13787787
-0.12033505 0.006129669 -0.21041283 -0.17901796 -0.26495117 -0.24499434 -0.2759936 -0.25782964
-0.21330209 0.053249113 0.34010276 -0.22946973 -0.03267068 0.16779105 -0.3871667 -0.33372647
0.22140357 0.067796364 -0.081867844 0.30217826 0.007676386 0.2519163 -0.1806758 0.13144219
-0.32247782 -0.10299096 -0.049260758 -0.22809675 -0.39331868 0.21948679 -0.006936063 -0.13451715
-0.030026129 -0.244128 -0.23617768 -0.046432756 0.053026427 0.24799299 0.115693614 -0.42688876
-0.13230501 -0.25494024 -0.14849076 0.21218094 -0.09068047 0.06977111 -0.015015388 -0.24273124
-0.16622317 0.2405679 0.2350144 -0.37227416 -0.40463114 -0.21160401 0.27814007 0.42657375
-0.18167725 0.08366977 0.013696674 -0.03213673 -0.022089843 0.22404653 -0.10004878 0.3313639
0.33953738 -0.21683079 -0.10936727 0.36320382 0.4069022 0.3663352 0.18180183 -0.13874872
-0.17021105 0.4285218 0.06375975 0.35325053 -0.21416919 0.108503684 0.38430864 0.1440703
-0.32305232 0.03472672 -0.41975787 -0.3450727 -0.292083 0.10761346 0.3984826 0.045268442
0.27907866 0.01359679 -0.41392258 0.19760796 -0.14419568 -0.35511625 0.20803818 0.38075027
0.028807197 0.4149684 0.23184627 -0.33744642 -0.3336988 -0.14139906 0.16702393 -0.10877907
0.39133093 -0.25649223 -0.1341443 0.30651206 0.1755432 0.24805859 0.17482756 0.38426536
-0.1624319 0.22829147 0.13537046 -0.21102197 0.13998407 -0.3293815 0.12387736 -0.16391672
0.30099124 -0.046957515 0.24317026 0.099838376 0.2995554 0.32133898 -0.2632947 -0.146954
-0.021846768 0.28104663 0.24194498 -0.19572408 0.01879205 0.20987004 -0.41669095 -0.15122744
0.3368292 -0.042899527 0.14029084 -0.36246914 0.13252717 -0.24212344 0.14124623 0.086442076
-0.14517918 0.050220877 -0.24798447 0.088808864 -0.2141991 -0.37117064 0.3178227 -0.27649754

encoder.encoder_layer.encoderlayer.self_attn.out_proj.bias f4 [16]
00000000: 0000 0000 0000 0000 0000 0000 0000 0000
00000010: 0000 0000 0000 0000 0000 0000 0000 0000
00000020: 0000 0000 0000 0000 0000 0000 0000 0000
00000030: 0000 0000 0000 0000 0000 0000 0000 0000
0.0 0.0 0.0 0.0 0.0 0.0 0.0 0.0
0.0 0.0 0.0 0.0 0.0 0.0 0.0 0.0

encoder.encoder_layer.encoderlayer.linear1.weight f4 [64, 16]
00000000: 26eb 7bbd 4b52 933d c277 a43d 3720 02bd
00000010: 3cac e23d 5814 87bd 4148 d83d 7c78 58be
00000020: 6ddf 3e3c 4866 54be 304e 9b3d f5a9 06be
00000030: 063c 4f3e d27e 4ebe 7cd4 7abe b809 8bbd
00000040: 65d4 503d cf69 4ebe 1cef 80be a534 fd3d
00000050: 2e96 323e 5602 1d3e f2d6 483e bedd 973d
00000060: c1cf 9cbd 156a 3f3e a85c 4c3e e310 5dbc
00000070: 19da 06bd b03e 463e 80b5 813e b0ff 82be
00000080: fcca 1fbe 7b7a 3c3e 5aad 4ebd f241 e53d
00000090: 477b 67be 22a5 59be d648 d1bd 66d2 c93b
000000a0: fc9f 80bd a7c4 22be 949a 22bd 19b8 afbd
000000b0: 8160 7fbe e4d3 a93d d1d6 0fbe e4a2 1dbe
000000c0: d608 f93d 399b 5bbe 6467 13be f00e bd3d
000000d0: 85c8 46be 6ecd 253e c8af 633e d520 30be
000000e0: 7f1d 0c3d c639 0d3e a886 0ebe 9361 1dbe
000000f0: a0bd bc3d 2d5b a23c ec45 603e 2417 8a3e
00000100: d737 d33d 11a1 163e 1b91 5dbe bc6f f4bc
00000110: 339e 96bd 1ccd 093e 6f4f 4ebe d72c d13d
00000120: 3d39 05be 2ab2 8a3e e6ef 783d 1db1 3dbd
00000130: 54e6 19be 1152 1bbe 7999 d7bd cbab 8dbd
00000140: 9dbb 32bd aa51 1e3e 56af 62be aef3 0abe
00000150: bcc4 573e 8ce0 80bc 87ef 44be df97 d4bd
00000160: c463 fdbd c2ad 64bd caf0 7b3e 5ee0 a5bd
00000170: c534 d83d d917 0b3e b0c6 97bd 05c2 863e
00000180: cafe 243e 51cd a73d 436a 62bd c986 763c
00000190: a3ae 503e 1ef4 62be 7ede 0c3e 7a78 4c3c
000001a0: 250e 413e c471 48bd ccac 5c3e 5272 70be
000001b0: ca87 e8bd 16e0 56be 1879 633e 13a6 093d
000001c0: 587d 84be ca5b 50be 7d70 7ebe fead c93d
000001d0: b853 543e f107 ccbd 2b9e b8bd e4ea cbbc
000001e0: 18a6 8d3d c607 b2bd 2c20 7bbe ca81 d53d
000001f0: a802 aa3d efcf 77bd 15d9 823e 44d3 2a3c
00000200: e07f 89be 54cd 61be 67c6 e6bd e834 6dbb
00000210: 0801 573e a92e aabd f7ef ca3d aedd 0abe
00000220: 87d0 80bc fc39 213e 410a 193d f420 a3bd
00000230: cd75 35be b37e 5ebe ec4e 51be b30a 88be
00000240: 4e98 1ebe fd44 82be 7a07 7c3e 3f2f 86be
00000250: 1b76 853e 257d 32be 5ea8 853c c2f1 f3bc
00000260: 14ad 523d d894 a83d 3424 c53d c637 ffbc
00000270: 99f7 963d 8e83 28bd d8eb 833e 7cf5 843e
00000280: 706d 823e 74cd 793e 269a ed3d ce8d 51be
00000290: e666 c2bc c9da 10be 5157 12be 19ed 843e
000002a0: a3d7 f7bb 86cc 5abe 1b61 cd3d af23 a43d
000002b0: 6e91 7b3d aeb8 923d 74da 313e 535d 3c3d
000002c0: 80e2 7f3e 66ca 3f3e 0cb2 1d3e c7be d8bd
000002d0: a259 8b3e a6bd 893e 9ae6 cdbd 5a41 f83c
000002e0: 7093 60be 4798 f23d 3ac8 b4bc 13e8 6ebe
000002f0: 8d4f 4a3b 9b59 31be 7030 17be 4d7d 80be
00000300: 3353 4ebe 608e 173e fe2f c13c 92ec 683e
00000310: 6db5 093e 277b c3bd 7678 803e 8229 2bbe
00000320: 1159 5a3e 84ee c1bd 22ba bdbd 7300 0abe
00000330: 552c 9bbc 0a7d 173e 1053 c4bd 6ba4 3f3e
00000340: 9f93 08be 5d01 563e e6b4 7a3e 7c4d 29be
00000350: d6f1 e93c 5de6 5a3e e019 f4bc f475 59be
00000360: a891 03bb 795e 3fbe 1ae0 4cbd ce1f 663e
00000370: 4c05 463e 0697 3a3e 800e 27be e0fb 18be
00000380: c84a fa3b 46dc 323e 8847 4bbe 86c5 13be
00000390: fbdf 88be f689 043e e2cf 36be 3c71 ab3d
000003a0: a7e2 3dbe 9c21 9abd e4a4 87be f4a6 3fbe
000003b0: caef 25bd 7d01 edbd b70a 9b3d 3649 23be
000003c0: 8ba2 0e3d fad8 e1bc fac8 ac3a 7666 063e
000003d0: d60e 39be 6113 b0bd 68e4 12be 9a6f 4d3d
000003e0: b8d4 123e 8355 24be 5e3b 223e 4b8e b63d
000003f0: 8e08 e53d 7e20 7ebe fa0b 60be 7f0d cabc
-0.061503552 0.071934305 0.080306545 -0.031769004 0.11068007 -0.06595677 0.10560656 -0.21139711
0.011649949 -0.20742142 0.075832725 -0.13150771 0.20237741 -0.20165566 -0.24495119 -0.06788963
0.050983805 -0.2015755 -0.25182426 0.12363557 0.17440102 0.15332922 0.19613245 0.07415341
-0.076568134 0.18692811 0.1995722 -0.013492796 -0.032922838 0.19359851 0.25333786 -0.255857
-0.15604776 0.18406098 -0.05045829 0.11194219 -0.2260562 -0.212544 -0.102189705 0.0061591147
-0.062805146 -0.1589533 -0.0396982 -0.08580036 -0.24939157 0.08292368 -0.1404679 -0.15394169
0.121598884 -0.21445931 -0.14394909 0.09231365 -0.1941243 0.16191646 0.22235024 -0.17200024
0.034207817 0.1379157 -0.13918555 -0.15369253 0.092158556 0.019818867 0.21901673 0.2697078
0.10313385 0.1470988 -0.21637385 -0.029838435 -0.07354393 0.1345715 -0.20147489 0.10213631
-0.13010116 0.27089053 0.06077566 -0.046311487 -0.1502927 -0.15168025 -0.105273195 -0.069175325
-0.043635953 0.1546084 -0.22137198 -0.13569519 0.21071142 -0.015732072 -0.19231997 -0.103805296
-0.123725444 -0.05582977 0.24603572 -0.08099435 0.1055694 0.13583316 -0.074109435 0.263199
0.1611282 0.08193458 -0.05527712 0.015046784 0.20379119 -0.22163436 0.13756749 0.012479896
0.18853052 -0.04893662 0.21550292 -0.2348111 -0.11354025 -0.2098392 0.22214162 0.033605646
-0.2587688 -0.20347515 -0.24847598 0.098476395 0.20735061 -0.09962452 -0.09014543 -0.024892278
0.069164455 -0.08692889 -0.24523991 0.10425146 0.08301288 -0.060501035 0.25556245 0.010426346
-0.26855373 -0.22050983 -0.11268311 -0.0036194865 0.20996487 -0.08309681 0.09909051 -0.13561127
-0.015724434 0.15744776 0.037363295 -0.0796527 -0.17720719 -0.2172802 -0.20440263 -0.26570663
-0.15487787 -0.2544326 0.24612227 -0.2620792 0.2606667 -0.17430551 0.016315635 -0.029778365
0.05143459 0.08231515 0.09626046 -0.031154525 0.07371444 -0.041141085 0.25765872 0.2596854
0.2547412 0.2439478 0.11601667 -0.2046425 -0.023730706 -0.1414596 -0.14291121 0.2596214
-0.0075635477 -0.21367082 0.10028287 0.080146186 0.06141799 0.07164131 0.1736849 0.04598744
0.24988747 0.18729553 0.1539995 -0.10583263 0.27216822 0.26902503 -0.100537494 0.0303046
-0.21931243 0.11845451 -0.022068132 -0.23330717 0.003087017 -0.17319338 -0.14764571 -0.25095597
-0.20148925 0.14800406 0.023582455 0.22746494 0.13448115 -0.09544974 0.25091904 -0.16715053
0.21323039 -0.09469321 -0.09264018 -0.13476734 -0.018942038 0.14793792 -0.095861554 0.18715064
-0.13337563 0.20898958 0.2448307 -0.16533464 0.0285577 0.21376939 -0.029797494 -0.21236402
-0.0020075832 -0.18688382 -0.050018407 0.2247307 0.19337958 0.18221673 -0.16314125 -0.14939833
0.007638309 0.1746684 -0.19851506 -0.14430818 -0.26733384 0.12943253 -0.17852738 0.08371207
-0.18543492 -0.07525942 -0.2649299 -0.18716031 -0.040511884 -0.115725495 0.07570403 -0.15945897
0.03482298 -0.027569283 0.0013182454 0.13125023 -0.18072066 -0.08597446 -0.14344943 0.05015526
0.14338958 -0.16048245 0.1584296 0.08913859 0.11183272 -0.24817082 -0.21879569 -0.024664639

encoder.encoder_layer.encoderlayer.linear1.bias f4 [64]
00000000: d82f 9a3d 885a 05be f84c cf3d 24dc 9b3d
00000010: 87c0 4c3e d01a 8d3c c0e7 913b 78b6 0fbe
00000020: f489 cabd 6ade 1a3e 14a0 2c3e b0e8 21bd
00000030: 9af6 573e c987 df3d dc2c 593e 0053 773e
00000040: 4e43 1f3e ee73 7dbe a0c7 1e3e 1ee6 6f3e
00000050: 749b d8bd 60cc 29bd d2ed 653e b003 5ebe
00000060: f872 7dbd 104f 933d d3fa 493e ee8f 5a3e
00000070: 53f8 6bbe 20c1 7dbd 2013 493c bef5 013e
00000080: 08a6 b1bd ca46 1cbe c833 1a3e e4b9 7bbe
00000090: 00f9 843d 58e5 5bbd 0ff2 47be 8608 71be
000000a0: 8891 403d d6ad 54be e0e5 523c 84f0 b9bd
000000b0: 603d 653c e0e0 22bd 0e67 e2bd 5033 4dbe
000000c0: c8b7 e33d 240f a8bd 6b52 56be 1879 02bd
000000d0: 70e5 433d 25bf 5e3e 9250 f63d 6431 2a3e
000000e0: 40c1 be3b 248b 85bd 5a29 44be e884 c03d
000000f0: 229a 06be 7a5d 12be bea9 26be 1c8e fd3d
0.07528657 -0.13022816 0.101221025 0.07610348 0.19995318 0.0172247 0.0044526756 -0.1403445
-0.09889594 0.15123907 0.1685794 -0.03952855 0.21090165 0.10914571 0.21208519 0.24152756
0.15553018 -0.24751255 0.15505838 0.23427626 -0.10576525 -0.041454673 0.22454002 -0.21681094
-0.06187722 0.07192814 0.19724588 0.21343967 -0.23043947 -0.061951756 0.012272626 0.126914
-0.08674246 -0.15261379 0.15058815 -0.2458263 0.064928055 -0.053685516 -0.19525932 -0.23538408
0.04701379 -0.20769438 0.012872189 -0.09079078 0.013991684 -0.03976524 -0.11054812 -0.20039105
0.11119038 -0.08206013 -0.20929877 -0.031853765 0.04782623 0.21752603 0.12027086 0.16620404
0.005821377 -0.065206796 -0.191564 0.0940035 -0.13144735 -0.14293471 -0.16275689 0.12380621

encoder.encoder_layer.encoderlayer.linear2.weight f4 [16, 64]
00000000: 10a6 413d 6005 6fbd 2338 0e3e 6cc2 81be
00000010: 154b 553e 8344 09bd c5aa 59be 02ea 89bd
00000020: c886 343d e25e 873e 5e8d 9d3d 23bf 3b3e
00000030: f51f d7bd ae5f 57be d73c 6fbe b6d8 5bbe
00000040: c59f 143e 1a26 c73d 033d 543e 1491 b0bb
00000050: 0d11 b63d 8ab6 b13d 217b 893d 6542 283e
00000060: a908 023d a88e 0ebe cee0 16be 157d 373e
00000070: a418 813e 76da 273e 5e9c 17be b31c fabc
00000080: 5cc2 1dbe 2ecc 933d ef71 d1bc 20b8 f5bd
00000090: ba99 e0bd 242c bbbd a0c1 e0bd 2b10 723e
000000a0: b6da 5bbd 272d dbbd 4d82 7f3e 78d0 d7bd
000000b0: f4d0 7f3e 4ca0 12be 06cb a53c 2d39 7a3e
000000c0: 2d0b 3ebe 6c25 613e c296 a0bd 7806 2dbe
000000d0: 5cee f8bd 12b4 7b3e cdcc 47bd d4c1 5a3e
000000e0: 5f04 babc 82f4 04be 7ad0 53be a6fd 57be
000000f0: edec 033e 2867 4c3e f8dc 51be 8609 80be
00000100: 109e b33d 1f0b f83c 36e4 163e 7ff6 0c3e
00000110: 1968 78bc 22ad 19bc 26a7 6c3e e137 463e
00000120: d543 c53d 536d 33be 3bef 4c3d e236 03be
00000130: e500 d1bd 2f52 42be 6484 4e3e 00af 0a3d
00000140: 93d4 3cbe 986e 0c3d 95a2 303e 7d7d 943d
00000150: 5872 093e 22b7 75be 727d c8bc 729c 1b3e
00000160: f26b 7fbe 4470 97bd 9b3a 113e 5df9 62be
00000170: dd96 523d 4c40 72be 7444 1f3e 8d43 85be
00000180: c2e9 fabc cede 883d a895 d53d 40d7 f43d
00000190: c4cc da3d 2104 86bd 1adb ce3d fe4f cdbd
000001a0: 4681 6fbe 5688 ac3d 9fee 47bc ea34 e03d
000001b0: 9870 763e 649a 853e 5731 84be 461e 823e
000001c0: 3398 45bd 04c4 133e 5cf4 3f3e 6afa f5bd
000001d0: 3fc2 9a3d b19e 113e 3053 d83d e36a 5e3d
000001e0: e551 02be 933e 823e 5285 5ebe 38cc 213d
000001f0: 44cc 3ebe 79d9 07be 74e5 1bbe ed2b 823e
00000200: 4f6d 213e 3ae7 743e 4eca 19be 32f2 13bd
00000210: 5852 533e c612 a63b ed2d 87bd b061 acbd
00000220: d40a 2fbb c2ea 81bd 5e80 b1bc 3e5d fdbc
00000230: 6213 3f3e 6567 5ebe 170a 703c 8449 083c
00000240: 7f95 833e 89de b6bd d8ef 6ebe 68e5 80be
00000250: b0d5 69be b06c 86be 56f7 84be 7c91 b9bc
00000260: 1e76 d93d fa68 44be 90a8 56bd d061 d93d
00000270: caea 743e b33b 55be 5052 063e dccf 24bd
00000280: 2d90 64bd 1f3f 4b3e 05ab af3d a5d1 893e
00000290: 7086 4f3e 1537 b0bd c956 0a3e e4a9 2dbe
000002a0: cf8e d5bd c25c 3ebe ca13 0a3e 1096 593e
000002b0: f60f abbd 9295 bcbc 6dff 813e 2330 d13c
000002c0: c1b4 e63d 03b9 823e ca40 313e e6a0 b83b
000002d0: 9ae7 7c3e 2ccf 9e3d 2084 35be fcaa 11be
000002e0: 002d ae3c d690 553e 22f4 4b3d 7239 57be
000002f0: 086a b33d 061b 4c3d c69d 773e d49a b33d
00000300: 378b 86be b081 54bd e252 71be a3ed 1a3e
00000310: bdf7 ccbd 6929 65be b251 7dbe 22d6 7e3e
00000320: 961b 743c 686c 013e d848 213e ac60 87be
00000330: a256 363e 8d60 d43d 6a0b 6e3d 552b f2bd
00000340: 76a7 42bd b07e 14be 660a 773e 05b5 87be
00000350: 9fdb 703e 192f 063e 0502 82bc 004e 6a3e
00000360: 207a d23d 4108 d43d c294 003d b3aa 24be
00000370: 9454 4b3d 4236 2d3e 5804 e33d fae3 0e3e
00000380: a39d b7bd fa80 d1bd 995e e5bb e221 053e
00000390: 5960 1e3e f692 863e e098 7b3e 8620 813e
000003a0: 333e 413d 6044 5c3e 12ae ee3d 627d 0bbe
000003b0: bfce 3b3e 61d6 e9bd b8a2 a0bd 6e87 e2bc
000003c0: b277 36be 120a 23be 3df8 d63d f86d 0dbc
000003d0: c617 5dbd c959 45be a3d2 0bbe d4c3 84bd
000003e0: 61cc 2bbe d189 573e 5c92 54bd c25d a23d
000003f0: 7def 0cbe 400f 823d 3d99 9ebd a04f 17bd
0.04727751 -0.058354735 0.13888602 -0.25343645 0.20829423 -0.033512603 -0.2125655 -0.067340866
0.04407385 0.26439577 0.07692979 0.18334632 -0.10504142 -0.21032593 -0.23363052 -0.21469387
0.14514072 0.09724064 0.20726399 -0.0053883884 0.08889971 0.08677395 0.06712938 0.16431578
0.03174654 -0.13921607 -0.14734194 0.17918809 0.25214112 0.1639193 -0.14805743 -0.030531263
-0.15406173 0.072166786 -0.025567023 -0.1199801 -0.10966821 -0.091392785 -0.10974431 0.2363898
-0.053675376 -0.107019715 0.2495205 -0.10537809 0.24982053 -0.14318961 0.02023841 0.24435873
-0.1855895 0.21986932 -0.07841255 -0.16896999 -0.121548384 0.2458041 -0.048779298 0.21363002
-0.022707162 -0.12983897 -0.20684996 -0.21092853 0.12883349 0.19961226 -0.20494449 -0.25007266
0.087703824 0.03027874 0.14735493 0.13765906 -0.015161538 -0.009379657 0.23110637 0.19357254
0.096320786 -0.17522173 0.050032835 -0.12813905 -0.10205249 -0.18976663 0.2016769 0.0338583
-0.18440466 0.034285158 0.1724952 0.072504975 0.13422525 -0.23995641 -0.02447388 0.15196398
-0.24943522 -0.0739446 0.14182512 -0.22165437 0.051413406 -0.2365734 0.15553457 -0.260281
-0.030629043 0.066831216 0.10428935 0.11955118 0.10683587 -0.06543756 0.10100384 -0.10025023
-0.23389158 0.084244415 -0.012202888 0.109475926 0.24066389 0.26094353 -0.25818893 0.25413722
-0.04824085 0.14430243 0.1874556 -0.12010653 0.07556581 0.14220692 0.10562742 0.054301154
-0.12726553 0.25438365 -0.21730545 0.0395014 -0.18632609 -0.13266553 -0.15224248 0.25424138
0.15764354 0.23916331 -0.1501858 -0.036119647 0.2063688 0.005068156 -0.066005565 -0.0841707
-0.0026709335 -0.063436046 -0.021667656 -0.03092825 0.18659738 -0.2171913 0.014650843 0.008318309
0.25699994 -0.08929164 -0.2333368 -0.25175023 -0.22835422 -0.26254797 -0.25969952 -0.02265238
0.10618232 -0.1918067 -0.052406847 0.106143594 0.2391769 -0.20823555 0.13117337 -0.040237293
-0.05580156 0.19848298 0.08577541 0.2691776 0.20266128 -0.08604256 0.13509668 -0.1695934
-0.10427629 -0.18590072 0.13484111 0.2124865 -0.08352654 -0.02302054 0.25390187 0.025535649
0.11264945 0.25531778 0.17309871 0.005634415 0.24697724 0.07754359 -0.17726183 -0.14225382
0.021261692 0.20856032 0.04979337 -0.21018007 0.08760458 0.04983046 0.2418128 0.087697655
-0.26278087 -0.051881492 -0.23566774 0.15129714 -0.1000819 -0.22379078 -0.24738196 0.24886373
0.014899155 0.1263901 0.15750444 -0.26440942 0.17806485 0.10369978 0.058116354 -0.11824671
-0.047522984 -0.14501452 0.2412506 -0.26505294 0.23521279 0.13103904 -0.015870104 0.22881317
0.102772 0.10353137 0.031391867 -0.16080742 0.049641207 0.16915229 0.11084813 0.13954154
-0.08965614 -0.102296785 -0.0069998023 0.13001207 0.15466441 0.26283997 0.24570036 0.25220126
0.04717846 0.21510458 0.11654295 -0.13622048 0.18340586 -0.11417843 -0.07843536 -0.027652469
-0.17819098 -0.1592181 0.104965664 -0.008632176 -0.05397775 -0.19272532 -0.1365457 -0.06482664
-0.16777183 0.21048667 -0.05189739 0.07928039 -0.13763233 0.06350565 -0.07744072 -0.03694117

encoder.encoder_layer.encoderlayer.linear2.bias f4 [16]
00000000: a855 c53d c651 bebd 82b1 9cbd 4072 443b
00000010: f08c f4bc 343c 733d 5ecd ca3d b09c fdbc
00000020: d855 b2bc 4068 983b 6a1b efbd 6001 ae3c
00000030: 64b8 853d d0fc 5f3c 8030 f5bc 28a0 ecbc
0.09635478 -0.09292941 -0.076510444 0.0029975325 -0.02985236 0.059383586 0.09902452 -0.030958503
-0.02176945 0.0046510994 -0.11675151 0.02124089 0.0652931 0.013671115 -0.029930353 -0.028884962

encoder.encoder_layer.encoderlayer.norm1.weight f4 [16]
00000000: 0000 803f 0000 803f 0000 803f 0000 803f
00000010: 0000 803f 0000 803f 0000 803f 0000 803f
00000020: 0000 803f 0000 803f 0000 803f 0000 803f
00000030: 0000 803f 0000 803f 0000 803f 0000 803f
1.0 1.0 1.0 1.0 1.0 1.0 1.0 1.0
1.0 1.0 1.0 1.0 1.0 1.0 1.0 1.0

encoder.encoder_layer.encoderlayer.norm1.bias f4 [16]
00000000: 0000 0000 0000 0000 0000 0000 0000 0000
00000010: 0000 0000 0000 0000 0000 0000 0000 0000
00000020: 0000 0000 0000 0000 0000 0000 0000 0000
00000030: 0000 0000 0000 0000 0000 0000 0000 0000
0.0 0.0 0.0 0.0 0.0 0.0 0.0 0.0
0.0 0.0 0.0 0.0 0.0 0.0 0.0 0.0

encoder.encoder_layer.encoderlayer.norm2.weight f4 [16]
00000000: 0000 803f 0000 803f 0000 803f 0000 803f
00000010: 0000 803f 0000 803f 0000 803f 0000 803f
00000020: 0000 803f 0000 803f 0000 803f 0000 803f
00000030: 0000 803f 0000 803f 0000 803f 0000 803f
1.0 1.0 1.0 1.0 1.0 1.0 1.0 1.0
1.0 1.0 1.0 1.0 1.0 1.0 1.0 1.0

encoder.encoder_layer.encoderlayer.norm2.bias f4 [16]
00000000: 0000 0000 0000 0000 0000 0000 0000 0000
00000010: 0000 0000 0000 0000 0000 0000 0000 0000
00000020: 0000 0000 0000 0000 0000 0000 0000 0000
00000030: 0000 0000 0000 0000 0000 0000 0000 0000
0.0 0.0 0.0 0.0 0.0 0.0 0.0 0.0
0.0 0.0 0.0 0.0 0.0 0.0 0.0 0.0

encoder.transformer_encoder.layers.0.encoderlayer.self_attn.in_proj_weight f4 [48, 16]
00000000: b0aa 4dbe 24b7 dbbd a0b4 28be a683 06bd
00000010: 1f09 91bb 7db9 c7be 20b2 f4be 47dc 0bbf
00000020: 33c2 0fbe 4657 b5be c8dd babe e4ff 09bf
00000030: da22 dabe 7ae1 f2be 0b8e febb 84a8 ae3d
00000040: 3e90 1a3e 0148 803e 4820 1d3f 768a 103f
00000050: eb73 fc3e bdcc 78bd db10 263e d412 0d3f
00000060: 2630 3c3e 5f27 d73e b26d 2c3f 24b2 3f3e
00000070: efa0 ee3e b169 913e c17a a43e 130c d13d
00000080: ce5b 57be 78f9 8c3e cdc5 f7be 3ca6 4abe
00000090: bd04 c2be 8b10 dcbd 93b1 cebd 3f48 e2bd
000000a0: cdee dabe e8ba 793e dcde 16bd 0413 9fbe
000000b0: f6c3 00bd aed5 c63d 2a99 173e 4ea1 3fbe
000000c0: 550c 3fbe 55e8 b5bd a656 a4be 812c 8abe
000000d0: 1de6 ddbd 5b46 11bf 9281 d4be 0db9 e7be
000000e0: c526 17bf e850 f4be 5d8b ddbe 7476 81be
000000f0: 83ac 2abe 0f18 10bf e486 25bf abdf 22bf
00000100: 5e48 0a3e 9934 8a3e 9e49 67be cc46 bcbd
00000110: 6d44 02be 02b8 b63d 38ff 9fbe 0030 ff3d
00000120: 00df 8cbe 4c02 4f3e e003 89be a972 1f3d
00000130: 6b64 debd 7b63 123d 5c0c 1f3e d8ed 993e
00000140: b6ae 3a3f dc56 453f 4944 983e 47b2 9c3e
00000150: 8113 e83e afe5 663f d764 9b3e b0e8 b73e
00000160: 1ed8 fc3e 1e56 653f 1231 c63e 0c66 af3e
00000170: dbc2 ca3e 2ddd 003f ba30 6e3f 5738 1e3f
00000180: f330 b8be 347a 31bf 828e 2ebf 6610 d5be
00000190: 82c8 2fbf 5a85 28bf e4c3 11bf 8b50 e2be
000001a0: 64e8 40bf 8333 f0be c591 3bbf 7c55 18bf
000001b0: 5ce9 27bf 11c4 dbbe 250a 37bf edbc 18bf
000001c0: 20f2 c23e 1919 053f ac7f f53e 0494 ba3e
000001d0: c520 b43d 4fc7 063f 6d4f 283f 33d8 173f
000001e0: 3213 c83e 8cb3 e03e 412d 2f3f f76b 0c3f
000001f0: 6ce5 143f 6523 ae3e 21b2 2bbc 3992 2e3d
00000200: 23a2 cfbd a215 dc3e 0ba9 ff3e 5d4d cc3e
00000210: f8e8 22bd 5714 c53e 4b88 a13e ce12 113e
00000220: 4974 40bd 87da ff3e 53d2 b83e ec34 a93d
00000230: 23c8 c83c 86d5 d93e 237a e43e d584 0d3d
00000240: d902 573c 12cc c7be d352 a8be 211f 0dbe
00000250: 5ef4 34bd 1c9f aabe 2c39 b1be 83f5 28bf
00000260: 4268 703d 359b 98be 7e70 6d3d 4b09 1bbf
00000270: 5a20 84be 9cad b0be f221 e4bd a761 b5be
00000280: b994 97be 9c22 f7be 0dd5 eebe 418d 45be
00000290: 0c21 2fbe a1b4 8abd d7d7 9cbe d212 28bf
000002a0: bf6b 423d 2ebc d3be a8b8 843d e81e 0dbf
000002b0: 42d9 f2be 034e b3be 1bc7 79be adf1 48be
000002c0: a909 213e 9c0a 983e bd8f 443d 8818 eb3e
000002d0: cf62 dc3e 3abf 933e 27d2 293e 1fbe 0f3f
000002e0: 39f9 2e3e 28ce 873e 0f09 8e3e b3bf f53e
000002f0: bc26 37bd aa86 af3e a881 093f b772 d43e
00000300: d498 dbbe 4b6d cdbe b690 f4be 1abf e0be
00000310: 2a7c 07bf a017 dfbe 6392 babe 954d 82be
00000320: 774b 87bd 8c28 19bf 5488 c3bd 4db1 9a3c
00000330: 341b 97bd 5acf 9fbe 5d1a bfbe c358 0bbf
00000340: 1ec6 afbe 07a4 d63d 19bb 71bd 33d6 e8bd
00000350: 358d a6be df0e c7be f116 38be aef0 18bf
00000360: 8d5c fabe d7aa ecbd 4223 68be 8b6c 26bf
00000370: 5db2 b9bd 1fec b1be 94b7 3cbd 2975 043e
00000380: d423 16bd ed92 50bd 07d0 98be 9ed9 8abd
00000390: c47b 3abd 276c 563d 32a3 cfbe bc36 23be
000003a0: a408 383d 2cb4 93bd 66ad a0be 0f25 65be
000003b0: 8611 b2be 167f 97be d0df f1bd 3be8 d43b
000003c0: 8cfd 97be ad85 8abe 6a2b 0abe ae40 88be
000003d0: 6975 32be a617 0abf 3144 6bbe d74b ddbe
000003e0: b995 99be 3506 62be efd8 e8be 4397 f6be
000003f0: 6324 95bd 8b3c 3bbe 941f e3be c9c4 cebd
-0.20084643 -0.10728291 -0.16475153 -0.032840393 -0.004426136 -0.39008704 -0.4779215 -0.5463299
-0.14038925 -0.35418147 -0.3649733 -0.53906083 -0.42604715 -0.4743765 -0.0077683977 0.085282356
0.15094087 0.25054935 0.6137738 0.56461275 0.49307188 -0.06074213 0.16217367 0.55106854
0.18377742 0.42022225 0.6735488 0.18720299 0.46607158 0.2840095 0.32124904 0.10207381
-0.21031114 0.2753408 -0.48393098 -0.19789976 -0.3789424 -0.10745343 -0.10092463 -0.11048936
-0.42760316 0.24387705 -0.03683363 -0.31069195 -0.031436883 0.09708725 0.14804521 -0.18713877
-0.18657048 -0.088822044 -0.32097358 -0.2698708 -0.10834906 -0.5674798 -0.41505104 -0.4525837
-0.5904353 -0.47717977 -0.43270388 -0.25285685 -0.1666737 -0.5628671 -0.6465895 -0.6362254
0.13504168 0.26993254 -0.22586676 -0.09193191 -0.12721415 0.089218155 -0.31249404 0.12460327
-0.27513885 0.2021572 -0.2676077 0.038927708 -0.10858997 0.035739403 0.15532058 0.30064273
0.7292284 0.7708566 0.29739597 0.30604765 0.4532738 0.9019422 0.30350372 0.35919714
0.49383634 0.8958453 0.38709313 0.34257543 0.39601788 0.5033749 0.930431 0.6180472
-0.35974845 -0.6932709 -0.681862 -0.41614074 -0.68665326 -0.6582848 -0.5693953 -0.44202074
-0.753546 -0.469143 -0.732693 -0.5950544 -0.65590453 -0.42923024 -0.71499854 -0.5966328
0.38075352 0.5199142 0.47948968 0.36441052 0.08795313 0.5264787 0.65746194 0.5931427
0.39077145 0.43886983 0.68428427 0.5485224 0.5816257 0.3401138 -0.010479481 0.042619918
-0.10138347 0.42985255 0.49933657 0.39902773 -0.039772958 0.3849208 0.31549296 0.1416733
-0.0469859 0.4997141 0.36097965 0.08262047 0.024509495 0.42545718 0.44624433 0.034550507
0.0131232375 -0.3902288 -0.3287569 -0.13781406 -0.04417836 -0.33324516 -0.3461393 -0.6599962
0.058693178 -0.29805914 0.05796861 -0.60561055 -0.25805932 -0.34507453 -0.11139287 -0.35426065
-0.29605654 -0.48268592 -0.4664692 -0.19292165 -0.1710245 -0.067727335 -0.30633423 -0.6565372
0.047466036 -0.41354507 0.06480533 -0.55125284 -0.4743138 -0.35020456 -0.24392359 -0.19623442
0.15726341 0.29695594 0.047988642 0.45917153 0.43044135 0.28856832 0.16584073 0.56149477
0.17087258 0.26524472 0.27741286 0.47997817 -0.044714674 0.34282428 0.53713465 0.4149377
-0.42890036 -0.40122446 -0.47766656 -0.438958 -0.52923834 -0.43572712 -0.3643981 -0.25449815
-0.06606191 -0.59827495 -0.09547487 0.018883372 -0.073782355 -0.31212884 -0.373248 -0.54432315
-0.3433084 0.104805045 -0.05901632 -0.1136898 -0.32529607 -0.38878533 -0.17977501 -0.5974225
-0.48898736 -0.115560226 -0.226697 -0.65009373 -0.09067223 -0.3475046 -0.04607351 0.12935318
-0.036655262 -0.05092137 -0.29846212 -0.067797884 -0.04552819 0.052349236 -0.40554196 -0.15938848
0.044930115 -0.072120994 -0.31382293 -0.22377418 -0.34778994 -0.29589146 -0.11810267 0.0064974106
-0.29685628 -0.27055112 -0.13493124 -0.26611847 -0.17427601 -0.53942335 -0.22975232 -0.43221924
-0.29997042 -0.2207268 -0.45478007 -0.4816228 -0.07282331 -0.18284814 -0.4436003 -0.100961275

encoder.transformer_encoder.layers.0.encoderlayer.self_attn.in_proj_bias f4 [48]
00000000: a3df 5dbe 1b14 9e3e c9fa acbd 8205 c7be
00000010: c9a9 fe3d ca04 223f 10a6 0cbf f7e8 a03e
00000020: ddf4 5a3e cf4a 50be c75b 7bbe 17f6 853e
00000030: 5828 92be 08a8 1bbe 0d34 07be 637b 9fbe
00000040: 2c1c b839 ee77 4539 4d3e b1b8 9785 6eb9
00000050: bf9b 1739 4ccd 0fb8 4afa 2939 81f2 ca38
00000060: 1d96 5139 ffba 68b7 f1c7 03ba 0783 1439
00000070: b5ae abb9 7f70 6237 0b5f 36b7 d0fc 0039
00000080: 25ca 57bd 370e d13c 1a8f af3c a250 223d
00000090: 3c57 ab3a 3f24 0c3b 8282 6abc a69c 673c
000000a0: 4ccb 363d 88bb 1abd e372 d33c 79fc 903c
000000b0: 8930 153d c2ca ad3c fed3 babb c994 f2bb
-0.21667342 0.30874714 -0.08446271 -0.3887139 0.12434728 0.6328856 -0.5494089 0.31427738
0.2138247 -0.20341037 -0.24546729 0.26164314 -0.28546405 -0.15200818 -0.1320345 -0.31148824
0.00035116205 0.00018832061 -8.451622e-05 -0.00022747215 0.00014458502 -3.4285054e-05 0.00016210336 9.6772805e-05
0.00019987715 -1.3871816e-05 -0.0005027047 0.00014163191 -0.00032745829 1.3496842e-05 -1.0870174e-05 0.00012301211
-0.052683014 0.025519473 0.02143054 0.03962768 0.0013072263 0.002138391 -0.014313342 0.014136469
0.044627473 -0.0377765 0.025811618 0.017698513 0.03642324 0.021214847 -0.005701541 -0.0074029905

encoder.transformer_encoder.layers.0.encoderlayer.self_attn.out_proj.weight f4 [16, 16]
00000000: 7abd bbbd 9b1d a8be 3dae 8d3c ed81 5dbd
00000010: 4ea9 eb3e e5e9 de3d d5f1 98be 8356 ccbe
00000020: 6ed1 c93e 5c23 12bc 99e9 383e 81db 123e
00000030: 7690 a73b 3e48 83be 5169 9a3e 1bb9 dc3e
00000040: ab9d 03bb 0dac d6bd 940a aebd c0d2 7d3c
00000050: 469b 58be 25f5 1dbf 0966 acbe 1d18 4abd
00000060: 9975 b9be 965a 68bd 5da2 2e3e 727b 7bbd
00000070: 8332 62be 00a9 7ebe de70 893e 8161 c0bc
00000080: 8dae 683e dafe 873e e865 6cbc deaf c53e
00000090: c2b5 b13e 6e91 cfbe 4035 d3bd 9ded c0bd
000000a0: 2f47 9d3d ff0b 8bbc 3192 cabd 59d3 a1be
000000b0: 8792 6f3e 0c2b 13be b489 72be 4ded 2dbe
000000c0: d47f 743e 97d0 64be 0bed bc3e acb5 793c
000000d0: d9d9 393e d0ab c0be 30d1 a23d 7cbe 963d
000000e0: ee11 4ebe a7e7 f2bd d770 833e aeb6 93be
000000f0: 35a8 853e 22da 9bbe 7941 84be 9f53 8cbd
00000100: 935a 60be 4316 b3be f1f0 a2bc 04ea ab3c
00000110: 1ffa 913e be2f a53e 855a 083e 37e2 bdbe
00000120: b203 a03e 365c efbe 223a 9fbd e25c bfbb
00000130: a848 2f3c 85b0 36be cf34 9d3e fabe 813e
00000140: 4501 e93e de8d ba3e 4341 ca3e 1e2e 893e
00000150: 45b4 aabe 8a60 29bc e44f 90bc 3dcf e53e
00000160: 6d42 a83c d1db 03be 66bd c73e 6f89 85be
00000170: 7a9f 083e d920 de3c 80c9 4e3e 52b1 b13e
00000180: e387 103e e5d8 803e c2ac 90be 5dbf a63d
00000190: ec5c adbe 3658 093e 142b 9d3c e8d2 c5be
000001a0: df74 b4be d4f0 a2be 3fb1 013e cbd4 73be
000001b0: 3e61 a2bd e3e2 d43d eb75 76be 5bc2 84be
000001c0: 24ab ad3e 9d95 a6be 802b 9e3e 9ca3 ab3e
000001d0: caf8 c2bb c43c c3be 2997 e2be 1e0d 463e
000001e0: 14ff 813e dbf0 043e 4767 ed3d ff62 a83c
000001f0: 3810 c33c 924a e33e cce9 02be b4f2 993e
00000200: 8d81 4a3e d6fa bfbd 4583 be3d 231c a3bd
00000210: a4ff bcbc c226 a3be 498e c3be 4ade 4bbe
00000220: 92ab f5bd 46e1 dd3d 8249 a6be 39a0 16bd
00000230: 3de3 4a3e afe4 7cbe 97f2 ba3e ae3b 3bbe
00000240: 3120 b5be b9d0 a3be 6a6b c3be 4d8d c1be
00000250: 328a a63e 3b0a 0e3d 41e5 cc3e 0ec8 fb3e
00000260: 1fbc b7bd fa8a 7d3e 63c5 433e 5d6b cc3e
00000270: 58af 4f3e 4fc0 52be bcb5 6d3e bd6a 1dbd
00000280: d067 aebe b3c7 60bc c5b9 5c3e b1cd a63e
00000290: e794 ae3e eac2 39be c573 b63d 454b e93d
000002a0: 1d31 713e 428f 3bbe abc9 aebc 3f0d 5cbc
000002b0: 2929 d4be dd49 083e 6771 70be 3c32 cd3d
000002c0: 45dc 413d eacc 4d3e a9a8 cebe 6ca9 3f3c
000002d0: b6d5 293e adae 8a3e f05d 893e e960 e0bd
000002e0: 2910 943e cc96 10be a0dd 6b3e b3d7 43be
000002f0: 1473 7a3e fa02 023c 1908 96be d5a3 e83d
00000300: 94ef 163e ef7c 603d 5187 abbe 3bbd 84be
00000310: 2ef4 ef3c 3112 f7bd 4e60 0b3e fcf4 fbbe
00000320: a117 603e 0316 16be 8449 723e bc32 183e
00000330: 1b4f 3d3d 11df 933c 06d2 523e 2668 103d
00000340: ee4f b0be a295 bf3e 68ac 89be 9208 923e
00000350: 91b9 55bd 581e 823e b421 b43e 76d4 143e
00000360: 96db 77be 47bd 66be d3ce 3f3e 3e94 9ebd
00000370: 5996 dabd ba5e db3c b3a7 a2bd 73e4 6c3e
00000380: 3605 95be 2527 b43e 56d9 f5bb a1bb 2cbe
00000390: ecac 31be 49b1 bbbd b706 8bbd 8428 fa3e
000003a0: 652a 6a3d 56bc b2be 559e 90bd 00ac 1d3e
000003b0: 17b4 3e3e 73e4 1abe bad2 cdbd 01a3 693e
000003c0: d83b b1be 533d bcbe f766 7f3d 5d11 9a3d
000003d0: 6986 62bd c596 953e 054d 93be 7070 0a3f
000003e0: f924 ddbe d5e5 9cbe 7d23 913e e3b2 a7be
000003f0: a431 a8be 1fe5 15bd 7e57 96be 8328 56be
-0.09166999 -0.32835087 0.017294997 -0.054078985 0.46027607 0.108844556 -0.29872003 -0.39909753
0.39417595 -0.008919563 0.1805786 0.14341547 0.0051136566 -0.25641054 0.30158475 0.43109974
-0.002008299 -0.10482035 -0.08498111 0.015492141 -0.21152982 -0.61702186 -0.33671597 -0.049339402
-0.36222532 -0.056727014 0.17054124 -0.061397023 -0.22089581 -0.24869156 0.26843923 -0.023483993
0.22722836 0.26561624 -0.014428593 0.3861074 0.34708983 -0.40540642 -0.10312891 -0.09420321
0.07679593 -0.016973494 -0.09891165 -0.31606558 0.2339574 -0.1437189 -0.23685342 -0.16985054
0.23876888 -0.22345196 0.368996 0.015241068 0.18149509 -0.37631083 0.079500556 0.07360551
-0.20124027 -0.118605904 0.25672027 -0.2885031 0.26104894 -0.3043986 -0.25831202 -0.06851887
-0.21909551 -0.34977922 -0.01989028 0.02098561 0.2851114 0.32262987 0.1331578 -0.3708665
0.3125282 -0.4675004 -0.0777476 -0.00583993 0.010698475 -0.17840774 0.30704352 0.25341016
0.4550878 0.3643636 0.39502916 0.26792997 -0.3334066 -0.010337958 -0.01761622 0.44884673
0.020539487 -0.12876822 0.39011687 -0.26081416 0.13342085 0.027115272 0.20194054 0.34705597
0.14114337 0.25165477 -0.28256804 0.081419684 -0.33859956 0.13412556 0.01918558 -0.3863747
-0.35245416 -0.31824362 0.1266527 -0.23811643 -0.07928704 0.10394838 -0.2406842 -0.2592953
0.33919632 -0.3253602 0.30892563 0.33523262 -0.005950068 -0.38132298 -0.4425595 0.19340941
0.25389922 0.12982504 0.11591964 0.020555018 0.023811445 0.4439283 -0.12784499 0.3006798
0.19775982 -0.09374015 0.093023814 -0.07964351 -0.023071118 -0.31865507 -0.38194492 -0.19909015
-0.11995615 0.10833983 -0.32477957 -0.036773894 0.19813247 -0.24696611 0.36513206 -0.18284485
-0.35376123 -0.3199518 -0.38167888 -0.37803116 0.3252731 0.034677725 0.40018657 0.49176067
-0.08971428 0.24760047 0.19118266 0.39925662 0.20281732 -0.20581172 0.23213857 -0.03843187
-0.34063578 -0.013719487 0.2155524 0.32578805 0.34097978 -0.1814076 0.089088 0.1139131
0.23553891 -0.18316367 -0.021336397 -0.0134308925 -0.41437653 0.13309427 -0.2348076 0.10019347
0.047329206 0.200977 -0.40363052 0.011698108 0.1658543 0.27086392 0.2682948 -0.10955984
0.2891858 -0.14120024 0.23033762 -0.19125251 0.24457961 0.00793528 -0.29303053 0.113593735
0.1473983 0.054806646 -0.33501676 -0.2592562 0.029291239 -0.120640166 0.13610956 -0.49210346
0.21884014 -0.14656834 0.23660856 0.14863104 0.04621802 0.018050702 0.2058793 0.035255574
-0.34435982 0.37418848 -0.26889348 0.28522164 -0.052178923 0.25413775 0.35181963 0.14534172
-0.24204859 -0.22533141 0.18731241 -0.07743119 -0.10673208 0.026778568 -0.07942142 0.23134021
-0.29105538 0.35186115 -0.007502715 -0.1686845 -0.1735112 -0.09164674 -0.0678839 0.48859036
0.057169337 -0.34909314 -0.070614494 0.15397644 0.18623386 -0.15126209 -0.100499585 0.22816087
-0.3461597 -0.36765537 0.062354054 0.07522843 -0.055303965 0.2921659 -0.287697 0.54077816
-0.4319227 -0.30644098 0.28347388 -0.32753667 -0.32850373 -0.03659546 -0.29363626 -0.20913891

encoder.transformer_encoder.layers.0.encoderlayer.self_attn.out_proj.bias f4 [16]
00000000: bacd 163d 4fdb debc 10b0 123d 33b8 b73b
00000010: 36ac 37bb 4bf7 5dbc a493 c4ba 05bb 5fba
00000020: 2e63 08bc 11bd 17bd ba5b 113d db7f b33b
00000030: f90c 0c3d 5f9d e13c 4961 3cbc c851 593c
0.03681729 -0.027204184 0.035812438 0.005606675 -0.002802623 -0.013547729 -0.0014997614 -0.0008534643
-0.0083244275 -0.037045542 0.035487868 0.005477888 0.03419206 0.02754086 -0.011497804 0.013264127

encoder.transformer_encoder.layers.0.encoderlayer.linear1.weight f4 [64, 16]
00000000: a15c 05bc 4c20 1fbe 8369 18be a33d 39be
00000010: 251c 2abe 69f0 80bd e400 d83d 9886 41be
00000020: 9321 a63d 133f a63d e2d5 ccbd 19c1 6e3d
00000030: da47 e8bd f4b9 153e 777c 01be a8f3 aabe
00000040: 2680 4abe 225b e7bd b7a7 29bb 7762 0e3d
00000050: 6434 9ebe 83cc 44be 67e3 4bbe 96c4 50bc
00000060: c5da 763e fbc2 3dbd 655d 36bc 7191 403e
00000070: 55ea 423e 40fe 783e 45cd 2fbe a96f 0a3e
00000080: 2c83 bcbc 2600 27bd ea4b ec3c 6b8e 153d
00000090: 6b21 ecbc dc2a 15be 9f18 0dbe 1105 793e
000000a0: 329a f0bd d6e5 0ebe b224 a3be 35c2 c33e
000000b0: 0f12 42be eb2f ee3d e92f a0bd 2e86 563e
000000c0: 04f8 a7bd d6a5 093d 4c32 0abe 9d49 7abe
000000d0: f55c 4a3e c8fa 6e3d c8a6 833e b25c d4bd
000000e0: 18fb aebd 79f6 55be 38c3 2dbe 9a35 5a3c
000000f0: 0794 00be 56fb 9ebd 9918 5f3d 8daa 743d
00000100: dfb9 e5bd 2d0d b8bc adb8 54be fc91 8ebe
00000110: 9eaf 97be fcbd 33bd dfad 36bd 052b 903e
00000120: 3592 29be 3879 d93d 7eb9 f83d cb31 443e
00000130: 8e01 29be 6090 b9bd 376d 613d 7cc1 f53d
00000140: 5c7a f23d e43f 7c3e 955e 12be 9ffe 7c3e
00000150: f0cb aa3c b447 8ebe f514 703e 2b50 713e
00000160: 8b5c 9fbd 111f 513e 641d 503e 1568 803d
00000170: e30b 443e 5526 c13e e387 073e 60c8 f43d
00000180: 245c eabd 5c2a 04bd abc1 38be 6700 7ebd
00000190: 493a 78be 27f3 083e 07bf 953c 68d3 1abe
000001a0: e1f9 f3bd c116 c43d c0be 4cbc 0266 453e
000001b0: a962 d3bd 4eb9 4bbe 6cc1 4ebe 2b53 8c3c
000001c0: 3b3f 5d3d eb12 c6bc b4d4 8fbd 8a43 853d
000001d0: 86b0 cb3d 30be 653d c22c 85bd 3f0d 0dbd
000001e0: 6943 e1bd 3b68 0fbe 9f22 a5be 0643 db3e
000001f0: f2f0 29bd 8dff afbd 5785 3abe ad38 eb3d
00000200: 4746 c03d d84f 0f3d 234d d2bd bf8f fbbd
00000210: 2711 c53d 09bc 41be f79f 913e c3e5 57bd
00000220: a1eb 843e f4ed f4bd 28e4 363e 1284 8cbe
00000230: 4ce9 843e 51a6 b039 7e5c edbd 7228 503e
00000240: 1f35 0dbe 70a0 b03d 4c67 103e 3ae2 72be
00000250: b5ee 24bd ae44 6fbc a522 503e d0ff 2ebe
00000260: 6131 e6bd ca07 9ebe 0eac 12bd 11e6 ecbc
00000270: 2b1e 1bbd 8e4e 88bd 4cdd 99be 2bcf 1f3e
00000280: 3469 1abe a851 03be c8be 7abd e02c 99be
00000290: edee 16be 37ac 583e 6d7f f83d 7e2d 243e
000002a0: 210a 77be 6873 17be c19e 9f3e 5aa9 5bbe
000002b0: d5cd 9d3e 4b3d a1bd 6c73 8bbe 11aa 563d
000002c0: 08fc 4e3d 325a 243e 883f e4bd a7b3 1f3c
000002d0: 210c 00be 07b6 883e 2737 27be e00d 973e
000002e0: be9d 97be 63ed d83d e8ef f0bc eaf2 523e
000002f0: 065e 67be 237a b73d 4fe9 69be 7905 af3d
00000300: 8075 1b3e 3076 183d e3d8 d83d 8696 a03d
00000310: 43bb 66be d802 9fbe 1fbd 553e e01c ef3d
00000320: 6284 7c3e d223 523e e721 983e cec6 ebbd
00000330: 4f32 51bc 1118 1b3e e8a1 d03d ccc2 583e
00000340: ecf9 f8bd 1b20 87bd f0d4 4fbe 1f52 06be
00000350: 4ea8 313e d5de 09bd 3f9c abbd 95d4 8cbd
00000360: d464 c93d 1f23 463d 0895 a3bd a50e 143e
00000370: 3aa1 7e3e 380f a3bd f613 16be 7fe5 b1bd
00000380: b038 713e 2459 0c3e 7238 ccbd 5cba 843b
00000390: 65d1 f93d 6802 a03d d7a3 903e 17ac a1bd
000003a0: 5211 643e 570f b53d 58d9 5c3e c55a 1b3e
000003b0: 82e7 2f3d 4719 6d3e a70d 40bd 3683 bb3d
000003c0: 583e 87bd 9f02 4c3c 1b12 42be 91d2 38be
000003d0: 4c21 ba3d e3b5 11bd dd82 50bd 22de 3a3e
000003e0: 1501 27be da53 5dbd 5e5f ffbc 007f ae3e
000003f0: afd9 423e 2990 0fbe b9cb cd3d d76a 243e
-0.00813976 -0.15539664 -0.14884 -0.18089919 -0.16612299 -0.062958546 0.10547045 -0.18899
0.081118725 0.08117499 -0.100017324 0.05828962 -0.113418296 0.14621717 -0.12645136 -0.3338902
-0.19775447 -0.11296679 -0.002588732 0.034761872 -0.30899346 -0.1921864 -0.19910966 -0.012742182
0.24106891 -0.046328526 -0.011130665 0.18805481 0.19034703 0.24315739 -0.17168148 0.13519157
-0.023011766 -0.040771626 0.028844792 0.036512773 -0.028824529 -0.14567131 -0.13778923 0.24318339
-0.117481604 -0.13954863 -0.31863934 0.38234106 -0.18952201 0.116302334 -0.07821638 0.20949623
-0.08201602 0.03360542 -0.13495749 -0.24442144 0.19762023 0.058344632 0.25713181 -0.10369243
-0.08543986 -0.20894803 -0.16969001 0.013318444 -0.12556468 -0.07762782 0.054466818 0.059732962
-0.11217093 -0.02246722 -0.20773573 -0.27845752 -0.29626173 -0.043882355 -0.04459941 0.2815782
-0.1655968 0.10618824 0.12144755 0.1915962 -0.165045 -0.090607405 0.055035796 0.11999795
0.118397444 0.24633747 -0.14293893 0.24706505 0.020849198 -0.2778908 0.23445494 0.23565738
-0.07781323 0.20422007 0.20323712 0.06269852 0.1914516 0.37724558 0.1323543 0.11952281
-0.11443356 -0.03226696 -0.18042628 -0.062012102 -0.24240984 0.13374005 0.018279565 -0.15119708
-0.11912895 0.095746525 -0.01249665 0.19277194 -0.10321552 -0.19894907 -0.20190972 0.017129501
0.05401538 -0.024178943 -0.07022992 0.06507023 0.099457785 0.05608958 -0.065026775 -0.03443646
-0.109991856 -0.14004605 -0.32252976 0.42824572 -0.04148955 -0.08593664 -0.18214928 0.114854194
0.09388404 0.034988254 -0.10268619 -0.12283277 0.09622412 -0.18919386 0.28442356 -0.052709352
0.2596102 -0.119594485 0.17860472 -0.27444512 0.2595924 0.0003369325 -0.11589907 0.20327929
-0.13789795 0.08624351 0.14101905 -0.23719111 -0.04026671 -0.014603777 0.20325716 -0.17089772
-0.11239887 -0.30865318 -0.035808615 -0.028918298 -0.037870567 -0.06655608 -0.3005165 0.15606372
-0.15079194 -0.12824118 -0.0612171 -0.2991705 -0.1473958 0.21159445 0.121336795 0.16032979
-0.24124958 -0.14790118 0.31175807 -0.21451321 0.308211 -0.07873019 -0.27236497 0.05240828
0.050533324 0.16050032 -0.1114493 0.009747422 -0.12504627 0.26701376 -0.16329633 0.29502773
-0.29612535 0.10592153 -0.029411271 0.20600477 -0.22594461 0.089588426 -0.22842906 0.08545966
0.15181541 0.037222087 0.10588243 0.0784121 -0.22532372 -0.31056857 0.20872925 0.11675429
0.24659875 0.20521477 0.29713365 -0.11512528 -0.012768342 0.151459 0.10187131 0.21168059
-0.12157044 -0.065979205 -0.20296073 -0.13117264 0.1734936 -0.033659775 -0.08379411 -0.06876484
0.098336846 0.048373338 -0.0798741 0.14458711 0.2486619 -0.07961887 -0.14656052 -0.08686351
0.23556781 0.1370588 -0.099717036 0.004050536 0.12198142 0.07812959 0.2825 -0.07894152
0.22272232 0.088408165 0.21567285 0.15171345 0.042945392 0.23154174 -0.04688802 0.09155886
-0.06603688 0.012451797 -0.18952219 -0.18049075 0.09088382 -0.03557385 -0.05090605 0.182488
-0.16309007 -0.054035045 -0.031173404 0.34081268 0.19028352 -0.14019836 0.10048623 0.16056381
