Final_exp/FL_001/3stacks_3nhead_120lwin_0_0005lr_128dff_64batch_50epcs_0_1dropout/checkpoints/client3/model__lr_0.0005_l_win_120_dff_64.pt (torch, 80335 bytes, 49 tensors)

encoder.encoder_layer.encoderlayer.self_attn.in_proj_weight f4 [48, 16]
00000000: 50b9 e63c 38bb f4bc e24c 953d dd39 503e
00000010: b824 2e3d 2a07 63bd 5250 48be 2db8 9bbe
00000020: 1da3 2d3e eb4d 663d 64b5 61be 3b80 6ebe
00000030: ef78 0ebe 401f 94bd 97f8 203e d858 b03d
00000040: d155 0fbe dee4 5e3d 9f27 a43d 7e05 40be
00000050: f1f6 31bd 225b 33be a6e2 043e c6d5 f6bd
00000060: 49e7 113e a7a4 793e 4a8f 193e 624a f0bd
00000070: e9cf 6d3e c2d6 61be 9cf9 853e 719f 363e
00000080: 5832 333e 7076 2f3d 24bd 4fbd 8a43 17be
00000090: f4c0 2bbd 99e9 68bd 64d7 8d3e dba7 443e
000000a0: 95eb 133e 7cc3 7e3e ce23 2c3e d645 ed3c
000000b0: 53b4 2bbd 302b 7d3e 0f0d 27be 2480 193e
000000c0: 79b1 a9bd 048a 1abd 62eb b1bd 7e3c 97be
000000d0: 034a 843e d877 713e c41a 603e 8496 5fbe
000000e0: c05d 5bbe d494 313e 7ec9 8bbe 2b39 8d3d
000000f0: b4ed 553e bf4c c63d 40b8 1aba 9faf e83d
00000100: be29 e93d 035b b8bd 1364 84be 71e4 bdbd
00000110: bb65 5f3d b828 ecbd e037 47bd d5ab 1c3e
00000120: 84a7 863c 967b 96be 4dfc 96bd 10d8 8abe
00000130: 5d81 573e cbf8 08bd 48f2 e0bb d250 05bd
00000140: 076a aebd e455 3dbb a930 1cbe 4ec6 85be
00000150: ac0c 80be ccd9 afbc 2b6f 9a3e 00b9 54be
00000160: 7e49 843e 0c10 793e 9a68 403e 08d4 9bbe
00000170: ee85 69be cd5f 46be b620 56bd d233 67be
00000180: 0866 833e 187c 8b3e 7ef2 65be 3dab cc3d
00000190: f66a d83d e64e e4bc a2e7 cc3d 8451 cfbd
000001a0: 5ef7 56be e436 3cbe c273 8a3e 3462 373e
000001b0: 144e 48bd 41e6 62be 44c6 50be f2ae 72bd
000001c0: b09b 433e 3d48 f2bd 5218 ffbd fc6a 933d
000001d0: 7247 ed3c 0eaf b03b 01bd 9cbe ef3f 8c3d
000001e0: 2071 acbd 9868 343e d02b 24be ecd9 c93d
000001f0: c4fc 97be 2495 60be 7811 8b3e 9eef 093e
00000200: dd17 57be 9c24 10bd ee8d 843e 9a78 633e
00000210: ef82 743e e830 8f3e 0f6c 813e f117 163e
00000220: af53 913e fac9 933e 0e80 823d 8282 97be
00000230: 0f81 49be 1bcb 8b3d 6af8 56be 1cf7 a93d
00000240: d420 10be 3eda 243e 48a7 96be 3e87 7cbd
00000250: d916 3bbe e1be dcbd 52f5 5f3e 4787 85be
00000260: a6e8 503e 8a16 91be 2e09 1fbe eeab 98be
00000270: 1505 30bd 0717 3cbe b08d 683e ddc3 0a3e
00000280: 78df 71be e21d 2bbe cc97 d03b d24b ec3d
00000290: ae71 8dbe 91fb 56bd 93e2 0b3e 8a83 9bbd
000002a0: 43ed 353e 2e63 b63c 0add 6f3d c2b4 1dbe
000002b0: 0a4d fb3d 903e 7cbd 8f86 913d d420 7ebe
000002c0: 95c3 eb3c 63c3 a1bb 56f3 623d 60cb 693e
000002d0: ca5b 77bd 2382 0dbe 5e57 3a3e 1791 a13d
000002e0: e6f9 7bbd 2ab1 ea3c b437 853e c44c 753e
000002f0: 2c11 5dbd cdfa 87be 351a 3cbe 13b7 863d
00000300: f020 06be e67a 7ebe 7911 31be 5d0f 55bd
00000310: cb26 983c 8dd7 6abd 8c71 113d 0f89 163c
00000320: 986e fcbd b3f5 98be 3d03 4cbe 9a88 8c3e
00000330: f092 5fbc d819 6bbe 3231 7d3e 5296 743e
00000340: 2702 94be 7604 94be c7be 053d 69e3 bf3d
00000350: 4bb8 0b3d aad0 8e3e 0381 4d3e 60dd 99be
00000360: 16ce 8cbe 4c50 253e b844 933e 86d5 96be
00000370: 98c7 44bb 9d44 11bd 4406 973e 04b4 d9bc
00000380: 357c 45bd 9c14 46be 928e f83d cca0 99bd
00000390: 8c4d 353d d6f9 8abe 35cf 8abe 444e 1e3e
000003a0: 0d39 83bd 3c69 7a3e 956c 9c3e 4abf 903d
000003b0: 16db edbd c1a6 68be 0e11 01be 9c43 893e
000003c0: f760 ab3d 282a 3e3e ccb5 843d fb00 1c3d
000003d0: f73f 93be f399 d13d c0f7 c7bd f430 163e
000003e0: 8cea 583b 2adc 5fbe e665 8b3e b790 62be
000003f0: cebc f03d a744 52be 0f1b 8e3d 8a7c 563e
0.028164536 -0.02987443 0.07290055 0.20334573 0.042515486 -0.055426754 -0.1956189 -0.30413952
0.16956754 0.056226652 -0.22041851 -0.23291104 -0.1391332 -0.07232523 0.1571983 0.086106956
-0.1399758 0.054417484 0.080153696 -0.18752095 -0.043448392 -0.17515233 0.12977085 -0.12052493
0.14248385 0.24379216 0.14996067 -0.117329374 0.23223843 -0.2205458 0.26167 0.1783426
0.17499673 0.04283756 -0.050717488 -0.14771858 -0.04193206 -0.0568634 0.27703393 0.19204657
0.14445336 0.24879259 0.16810533 0.028963964 -0.041920017 0.24723506 -0.16313575 0.14990288
-0.08285803 -0.03772928 -0.08687474 -0.2953834 0.25837716 0.23580873 0.2188521 -0.21834761
-0.21422482 0.1734193 -0.27302164 0.068956695 0.20891458 0.09682607 -0.0005902089 0.11361622
0.11384915 -0.09001734 -0.258576 -0.09272087 0.054540377 -0.11531204 -0.04863727 0.15299924
0.0164373 -0.29391164 -0.07372341 -0.27117968 0.21045442 -0.033440392 -0.0068648197 -0.03254778
-0.08516317 -0.0028890306 -0.15252937 -0.26127857 -0.25009668 -0.021466158 0.3016294 -0.20773697
0.2583732 0.24322528 0.18789902 -0.30435205 -0.22804996 -0.19372483 -0.05227729 -0.22578362
0.2566378 0.27243114 -0.22455785 0.099935986 0.10567276 -0.027869653 0.10005118 -0.1012297
-0.209928 -0.18380314 0.2704144 0.17908555 -0.048902586 -0.22158147 -0.20388132 -0.059248872
0.19102359 -0.118301846 -0.124558106 0.0719814 0.028964732 0.005391962 -0.3061295 0.06848132
-0.084200144 0.17618024 -0.16032338 0.098560184 -0.29685032 -0.21931893 0.27161765 0.13470313
-0.21005197 -0.035191163 0.25889534 0.22213975 0.23878072 0.27967 0.25277755 0.1465757
0.28384158 0.28865033 0.06372081 -0.29591757 -0.19678138 0.06825849 -0.209932 0.082990855
-0.14075023 0.16098878 -0.294245 -0.061652415 -0.18270434 -0.10778595 0.21870926 -0.2607977
0.20401248 -0.28337508 -0.15530846 -0.29818672 -0.042973597 -0.18368159 0.227103 0.13551278
-0.23620403 -0.16710618 0.006365752 0.11537899 -0.27625793 -0.052486006 0.1366065 -0.075934485
0.1776629 0.02226409 0.05856041 -0.15400985 0.122705534 -0.0615831 0.07105743 -0.2481721
0.028779784 -0.004936622 0.055407844 0.22831488 -0.06039027 -0.13819174 0.1819739 0.07889002
-0.06151762 0.028648932 0.2601906 0.23955065 -0.053971455 -0.26558533 -0.18369372 0.065778874
-0.13098502 -0.2485157 -0.17291822 -0.052016605 0.018573185 -0.05733447 0.035508677 0.009187951
-0.123257816 -0.29874954 -0.1992311 0.2744797 -0.0136458725 -0.22959077 0.24725798 0.23885468
-0.28907892 -0.28909653 0.032652643 0.09369547 0.034111302 0.27893573 0.20068745 -0.30051708
-0.2750098 0.16143912 0.28763366 -0.2945978 -0.0030026194 -0.035465825 0.29496968 -0.026575096
-0.048214156 -0.193438 0.12136568 -0.07501373 0.044263408 -0.27143735 -0.2711121 0.15459543
-0.06407366 0.24454206 0.30551592 0.070677355 -0.11614053 -0.22719862 -0.12604162 0.26809394
0.08368104 0.18570769 0.064799875 0.038086873 -0.2875974 0.102344416 -0.097640514 0.14667112
0.0033098785 -0.2186133 0.2722618 -0.22125517 0.11754762 -0.20534001 0.06938755 0.20945945

encoder.encoder_layer.encoderlayer.self_attn.in_proj_bias f4 [48]
00000000: 0000 0000 0000 0000 0000 0000 0000 0000
00000010: 0000 0000 0000 0000 0000 0000 0000 0000
00000020: 0000 0000 0000 0000 0000 0000 0000 0000
00000030: 0000 0000 0000 0000 0000 0000 0000 0000
00000040: 0000 0000 0000 0000 0000 0000 0000 0000
00000050: 0000 0000 0000 0000 0000 0000 0000 0000
00000060: 0000 0000 0000 0000 0000 0000 0000 0000
00000070: 0000 0000 0000 0000 0000 0000 0000 0000
00000080: 0000 0000 0000 0000 0000 0000 0000 0000
00000090: 0000 0000 0000 0000 0000 0000 0000 0000
000000a0: 0000 0000 0000 0000 0000 0000 0000 0000
000000b0: 0000 0000 0000 0000 0000 0000 0000 0000
0.0 0.0 0.0 0.0 0.0 0.0 0.0 0.0
0.0 0.0 0.0 0.0 0.0 0.0 0.0 0.0
0.0 0.0 0.0 0.0 0.0 0.0 0.0 0.0
0.0 0.0 0.0 0.0 0.0 0.0 0.0 0.0
0.0 0.0 0.0 0.0 0.0 0.0 0.0 0.0
0.0 0.0 0.0 0.0 0.0 0.0 0.0 0.0

encoder.encoder_layer.encoderlayer.self_attn.out_proj.weight f4 [16, 16]
00000000: 8f98 bbbe 6e49 9fbd f67c 983c 2411 91be
00000010: 7f87 aa3e 6c33 423e ea89 9abe 6747 afbd
00000020: bb57 8ebe 5570 be3e 89d0 d8be 722b 44be
00000030: 568b 47be b550 97be a6cd cb3d 923c 2d3e
00000040: fa13 a33e 32c1 8a3e ab1b 47be accc 63be
00000050: 20f3 d93d 2058 9f3d 0cb0 d23e 3a51 d0be
00000060: 26a9 d4be eb98 b7be 7d7f 1fbe 7056 5e3d
00000070: f8c1 d03d 5bf5 893d 7488 b33d bc8a 06be
00000080: 0090 3a3d 83f0 84be ebc8 b43e 6b06 a53e
00000090: 9ee5 8d3e e2ac 8cbd 0c31 4bbe 5c84 343d
000000a0: 503d bdbe a2fb e4bc 4a1a dabe 7063 873e
000000b0: 75d6 dbbe 0b40 6e3e ace0 c2be c2d8 bcbe
000000c0: 6653 97be 1143 1c3d a9c8 9bbe bce2 adbe
000000d0: c64c e2bc aa65 f3bd 526e 8bbd 4272 8d3e
000000e0: 54d4 963e f00c 82bc 6483 963d 6894 5ebd
000000f0: 529b dcbe cace a93e 785e 9fbe ca6a 86bd
00000100: a10f c7be d6e4 d43e b86a 9c3e 2ec2 2b3e
00000110: b197 9fbe 7207 9c3d 5c29 6dbc 10d8 79be
00000120: d913 a83d fa2a 3c3e f65c 0ebe fdf7 5bbe
00000130: d2f2 6b3e d546 1d3e b811 abbd 5823 4cbe
00000140: 9434 3fbe b5b5 d43e fac5 903e 1a7a 24be
00000150: 87eb a0be 0318 c03e 62ba 96bd 8440 a3be
00000160: 1779 59be 447e 3b3d 6848 633d e089 abbc
00000170: a66f 8d3e f157 fdbd 7cea ea3d c5a6 97be
00000180: 8a5a dcbe 9396 4ebe 8506 d0be f2d0 6f3e
00000190: 6490 1abe a896 55be 883e 023e db2f 0d3e
000001a0: 3972 f6bd 64db c83b 7676 57be 7c50 37be
000001b0: aea7 87be ccdf 7abe 084f 8dbe 3f02 84be
000001c0: dd6b 5abe be1b 5a3d f321 ae3e 1dfa 6abe
000001d0: b1d1 05bd 6bd1 2b3e b73a c6be 32de aabe
000001e0: 9eb7 623e d2d8 8a3d 54aa a7bd 1cb7 9a3e
000001f0: 318a fb3b 2cfb 803e 1403 39be c898 063e
00000200: d01b a5be edec d2bd a6c5 49bd 3292 69be
00000210: 1161 c9be 25c1 603e ea47 e3bb ddbe 09be
00000220: 5bf9 f5bc b1fc 79be 90d8 71be 4630 3ebd
00000230: 3d32 593d e0f1 7d3e c6f0 ec3d 2a91 dabe
00000240: f77a 07be 8787 82be f60d 18be f645 593e
00000250: afb6 b9bd 28e4 8e3d 1a03 76bc 8a8e 78be
00000260: 6836 2abe 6e57 763e 9da7 703e b89a bebe
00000270: d02b cfbe b9ae 58be 6068 8e3e e067 da3e
00000280: 9a09 3abe 0e5b ab3d 0468 603c cea1 03bd
00000290: c2f5 b4bc 746c 653e 60e6 ccbd 87a8 a93e
000002a0: d8d7 ad3e e408 5ebe f2fb dfbd daf5 b93e
000002b0: 7c55 d03e 4a90 bb3e 422a 3a3e 2514 0ebe
000002c0: ce4b 2ebe 3667 db3e 7994 823d 41dd b43e
000002d0: 2b4f 5bbe 2e37 de3d 1ac4 c43e 2a87 133e
000002e0: 1d67 a5be 9b3d 0e3d 81ea d6be 5ead b0be
000002f0: e78b 95be 7264 dc3d e905 cc3e 676b 393d
00000300: 66e3 8e3e 12c5 5e3c a9ed d3be be59 4a3e
00000310: 08a8 13be ccd1 b5be f607 553e b3f1 c23e
00000320: 12fd eb3c bd76 d43e 1c69 6d3e c7c5 acbe
00000330: 92da aabe eaca 10be 5208 2b3e 90c7 debd
00000340: 875c c83e f352 83be 205d 09be 26ef 9c3e
00000350: 99c1 333e 1203 7e3e ff05 333e 6ebe c43e
00000360: 8c54 26be 3dc5 693e 8e9e 0a3e 2516 58be
00000370: fc57 0f3e b1a4 a8be 6ab3 fd3d c9d9 27be
00000380: 861b 9a3e 8656 40bd a001 793e 1078 cc3d
00000390: 535f 993e 8b86 a43e 90ce 86be 1c7b 16be
000003a0: fef7 b2bc 58e5 8f3e 6dc0 773e e56b 48be
000003b0: c9f1 993c 2ce8 563e 8458 d5be 5edb 1abe
000003c0: e074 ac3e 6ab7 2fbd 67a8 0f3e 8e95 b9be
000003d0: 34b5 073e 35ef 77be daa2 103e 8b08 b13d
000003e0: daa9 14be 68b4 4d3d a4ef 7dbe 6ce1 b53d
000003f0: 0257 5bbe 140a bebe a8b9 a23e 1691 8dbe
-0.3663983 -0.077776775 0.018614274 -0.2833339 0.333065 0.18964928 -0.30183345 -0.08558541
-0.27801308 0.37195078 -0.423466 -0.19157198 -0.19486746 -0.29553762 0.09951334 0.16917637
0.31851178 0.2710052 -0.19444148 -0.22246045 0.106420755 0.077804804 0.41149938 -0.4068697
-0.415353 -0.35858855 -0.15575977 0.054281652 0.101932466 0.06736251 0.08766261 -0.1313886
0.045547485 -0.25964746 0.35309538 0.3223146 0.27714247 -0.06868912 -0.19842929 0.04407154
-0.3696084 -0.02795202 -0.42598182 0.26443052 -0.42937055 0.23266618 -0.38062036 -0.36884123
-0.29555815 0.038149897 -0.3042653 -0.33962047 -0.027624499 -0.11884625 -0.06808151 0.27626234
0.29458869 -0.01587531 0.073492795 -0.05434075 -0.4308725 0.3316558 -0.3112676 -0.06563337
-0.3887911 0.41580838 0.3055017 0.16773292 -0.3117042 0.076186076 -0.014475193 -0.24398828
0.08206911 0.1837577 -0.1390265 -0.21481319 0.23041847 0.15359052 -0.08352989 -0.19935358
-0.186724 0.4154488 0.28276044 -0.16062203 -0.31429693 0.3751832 -0.073597685 -0.3188516
-0.21237598 0.045774713 0.055488974 -0.020939767 0.27624243 -0.12370289 0.114705056 -0.29619423
-0.43037826 -0.20174627 -0.40629974 0.2341955 -0.15094143 -0.20858252 0.12719166 0.13787787
-0.12033505 0.006129669 -0.21041283 -0.17901796 -0.26495117 -0.24499434 -0.2759936 -0.25782964
-0.21330209 0.053249113 0.34010276 -0.22946973 -0.03267068 0.16779105 -0.3871667 -0.33372647
0.22140357 0.067796364 -0.081867844 0.30217826 0.007676386 0.2519163 -0.1806758 0.13144219
-0.32247782 -0.10299096 -0.049260758 -0.22809675 -0.39331868 0.21948679 -0.006936063 -0.13451715
-0.030026129 -0.244128 -0.23617768 -0.046432756 0.053026427 0.24799299 0.115693614 -0.42688876
-0.13230501 -0.25494024 -0.14849076 0.21218094 -0.09068047 0.06977111 -0.015015388 -0.24273124
-0.16622317 0.2405679 0.2350144 -0.37227416 -0.40463114 -0.21160401 0.27814007 0.42657375
-0.18167725 0.08366977 0.013696674 -0.03213673 -0.022089843 0.22404653 -0.10004878 0.3313639
0.33953738 -0.21683079 -0.10936727 0.36320382 0.4069022 0.3663352 0.18180183 -0.13874872
-0.17021105 0.4285218 0.06375975 0.35325053 -0.21416919 0.108503684 0.38430864 0.1440703
-0.32305232 0.03472672 -0.41975787 -0.3450727 -0.292083 0.10761346 0.3984826 0.045268442
0.27907866 0.01359679 -0.41392258 0.19760796 -0.14419568 -0.35511625 0.20803818 0.38075027
0.028807197 0.4149684 0.23184627 -0.33744642 -0.3336988 -0.14139906 0.16702393 -0.10877907
0.39133093 -0.25649223 -0.1341443 0.30651206 0.1755432 0.24805859 0.17482756 0.38426536
-0.1624319 0.22829147 0.13537046 -0.21102197 0.13998407 -0.3293815 0.12387736 -0.16391672
0.30099124 -0.046957515 0.24317026 0.099838376 0.2995554 0.32133898 -0.2632947 -0.146954
-0.021846768 0.28104663 0.24194498 -0.19572408 0.01879205 0.20987004 -0.41669095 -0.15122744
0.3368292 -0.042899527 0.14029084 -0.36246914 0.13252717 -0.24212344 0.14124623 0.086442076
-0.14517918 0.050220877 -0.24798447 0.088808864 -0.2141991 -0.37117064 0.3178227 -0.27649754

encoder.encoder_layer.encoderlayer.self_attn.out_proj.bias f4 [16]
00000000: 0000 0000 0000 0000 0000 0000 0000 0000
00000010: 0000 0000 0000 0000 0000 0000 0000 0000
00000020: 0000 0000 0000 0000 0000 0000 0000 0000
00000030: 0000 0000 0000 0000 0000 0000 0000 0000
0.0 0.0 0.0 0.0 0.0 0.0 0.0 0.0
0.0 0.0 0.0 0.0 0.0 0.0 0.0 0.0

encoder.encoder_layer.encoderlayer.linear1.weight f4 [64, 16]
00000000: 26eb 7bbd 4b52 933d c277 a43d 3720 02bd
00000010: 3cac e23d 5814 87bd 4148 d83d 7c78 58be
00000020: 6ddf 3e3c 4866 54be 304e 9b3d f5a9 06be
00000030: 063c 4f3e d27e 4ebe 7cd4 7abe b809 8bbd
00000040: 65d4 503d cf69 4ebe 1cef 80be a534 fd3d
00000050: 2e96 323e 5602 1d3e f2d6 483e bedd 973d
00000060: c1cf 9cbd 156a 3f3e a85c 4c3e e310 5dbc
00000070: 19da 06bd b03e 463e 80b5 813e b0ff 82be
00000080: fcca 1fbe 7b7a 3c3e 5aad 4ebd f241 e53d
00000090: 477b 67be 22a5 59be d648 d1bd 66d2 c93b
000000a0: fc9f 80bd a7c4 22be 949a 22bd 19b8 afbd
000000b0: 8160 7fbe e4d3 a93d d1d6 0fbe e4a2 1dbe
000000c0: d608 f93d 399b 5bbe 6467 13be f00e bd3d
000000d0: 85c8 46be 6ecd 253e c8af 633e d520 30be
000000e0: 7f1d 0c3d c639 0d3e a886 0ebe 9361 1dbe
000000f0: a0bd bc3d 2d5b a23c ec45 603e 2417 8a3e
00000100: d737 d33d 11a1 163e 1b91 5dbe bc6f f4bc
00000110: 339e 96bd 1ccd 093e 6f4f 4ebe d72c d13d
00000120: 3d39 05be 2ab2 8a3e e6ef 783d 1db1 3dbd
00000130: 54e6 19be 1152 1bbe 7999 d7bd cbab 8dbd
00000140: 9dbb 32bd aa51 1e3e 56af 62be aef3 0abe
00000150: bcc4 573e 8ce0 80bc 87ef 44be df97 d4bd
00000160: c463 fdbd c2ad 64bd caf0 7b3e 5ee0 a5bd
00000170: c534 d83d d917 0b3e b0c6 97bd 05c2 863e
00000180: cafe 243e 51cd a73d 436a 62bd c986 763c
00000190: a3ae 503e 1ef4 62be 7ede 0c3e 7a78 4c3c
000001a0: 250e 413e c471 48bd ccac 5c3e 5272 70be
000001b0: ca87 e8bd 16e0 56be 1879 633e 13a6 093d
000001c0: 587d 84be ca5b 50be 7d70 7ebe fead c93d
000001d0: b853 543e f107 ccbd 2b9e b8bd e4ea cbbc
000001e0: 18a6 8d3d c607 b2bd 2c20 7bbe ca81 d53d
000001f0: a802 aa3d efcf 77bd 15d9 823e 44d3 2a3c
00000200: e07f 89be 54cd 61be 67c6 e6bd e834 6dbb
00000210: 0801 573e a92e aabd f7ef ca3d aedd 0abe
00000220: 87d0 80bc fc39 213e 410a 193d f420 a3bd
00000230: cd75 35be b37e 5ebe ec4e 51be b30a 88be
00000240: 4e98 1ebe fd44 82be 7a07 7c3e 3f2f 86be
00000250: 1b76 853e 257d 32be 5ea8 853c c2f1 f3bc
00000260: 14ad 523d d894 a83d 3424 c53d c637 ffbc
00000270: 99f7 963d 8e83 28bd d8eb 833e 7cf5 843e
00000280: 706d 823e 74cd 793e 269a ed3d ce8d 51be
00000290: e666 c2bc c9da 10be 5157 12be 19ed 843e
000002a0: a3d7 f7bb 86cc 5abe 1b61 cd3d af23 a43d
000002b0: 6e91 7b3d aeb8 923d 74da 313e 535d 3c3d
000002c0: 80e2 7f3e 66ca 3f3e 0cb2 1d3e c7be d8bd
000002d0: a259 8b3e a6bd 893e 9ae6 cdbd 5a41 f83c
000002e0: 7093 60be 4798 f23d 3ac8 b4bc 13e8 6ebe
000002f0: 8d4f 4a3b 9b59 31be 7030 17be 4d7d 80be
00000300: 3353 4ebe 608e 173e fe2f c13c 92ec 683e
00000310: 6db5 093e 277b c3bd 7678 803e 8229 2bbe
00000320: 1159 5a3e 84ee c1bd 22ba bdbd 7300 0abe
00000330: 552c 9bbc 0a7d 173e 1053 c4bd 6ba4 3f3e
00000340: 9f93 08be 5d01 563e e6b4 7a3e 7c4d 29be
00000350: d6f1 e93c 5de6 5a3e e019 f4bc f475 59be
00000360: a891 03bb 795e 3fbe 1ae0 4cbd ce1f 663e
00000370: 4c05 463e 0697 3a3e 800e 27be e0fb 18be
00000380: c84a fa3b 46dc 323e 8847 4bbe 86c5 13be
00000390: fbdf 88be f689 043e e2cf 36be 3c71 ab3d
000003a0: a7e2 3dbe 9c21 9abd e4a4 87be f4a6 3fbe
000003b0: caef 25bd 7d01 edbd b70a 9b3d 3649 23be
000003c0: 8ba2 0e3d fad8 e1bc fac8 ac3a 7666 063e
000003d0: d60e 39be 6113 b0bd 68e4 12be 9a6f 4d3d
000003e0: b8d4 123e 8355 24be 5e3b 223e 4b8e b63d
000003f0: 8e08 e53d 7e20 7ebe fa0b 60be 7f0d cabc
-0.061503552 0.071934305 0.080306545 -0.031769004 0.11068007 -0.06595677 0.10560656 -0.21139711
0.011649949 -0.20742142 0.075832725 -0.13150771 0.20237741 -0.20165566 -0.24495119 -0.06788963
0.050983805 -0.2015755 -0.25182426 0.12363557 0.17440102 0.15332922 0.19613245 0.07415341
-0.076568134 0.18692811 0.1995722 -0.013492796 -0.032922838 0.19359851 0.25333786 -0.255857
-0.15604776 0.18406098 -0.05045829 0.11194219 -0.2260562 -0.212544 -0.102189705 0.0061591147
-0.062805146 -0.1589533 -0.0396982 -0.08580036 -0.24939157 0.08292368 -0.1404679 -0.15394169
0.121598884 -0.21445931 -0.14394909 0.09231365 -0.1941243 0.16191646 0.22235024 -0.17200024
0.034207817 0.1379157 -0.13918555 -0.15369253 0.092158556 0.019818867 0.21901673 0.2697078
0.10313385 0.1470988 -0.21637385 -0.029838435 -0.07354393 0.1345715 -0.20147489 0.10213631
-0.13010116 0.27089053 0.06077566 -0.046311487 -0.1502927 -0.15168025 -0.105273195 -0.069175325
-0.043635953 0.1546084 -0.22137198 -0.13569519 0.21071142 -0.015732072 -0.19231997 -0.103805296
-0.123725444 -0.05582977 0.24603572 -0.08099435 0.1055694 0.13583316 -0.074109435 0.263199
0.1611282 0.08193458 -0.05527712 0.015046784 0.20379119 -0.22163436 0.13756749 0.012479896
0.18853052 -0.04893662 0.21550292 -0.2348111 -0.11354025 -0.2098392 0.22214162 0.033605646
-0.2587688 -0.20347515 -0.24847598 0.098476395 0.20735061 -0.09962452 -0.09014543 -0.024892278
0.069164455 -0.08692889 -0.24523991 0.10425146 0.08301288 -0.060501035 0.25556245 0.010426346
-0.26855373 -0.22050983 -0.11268311 -0.0036194865 0.20996487 -0.08309681 0.09909051 -0.13561127
-0.015724434 0.15744776 0.037363295 -0.0796527 -0.17720719 -0.2172802 -0.20440263 -0.26570663
-0.15487787 -0.2544326 0.24612227 -0.2620792 0.2606667 -0.17430551 0.016315635 -0.029778365
0.05143459 0.08231515 0.09626046 -0.031154525 0.07371444 -0.041141085 0.25765872 0.2596854
0.2547412 0.2439478 0.11601667 -0.2046425 -0.023730706 -0.1414596 -0.14291121 0.2596214
-0.0075635477 -0.21367082 0.10028287 0.080146186 0.06141799 0.07164131 0.1736849 0.04598744
0.24988747 0.18729553 0.1539995 -0.10583263 0.27216822 0.26902503 -0.100537494 0.0303046
-0.21931243 0.11845451 -0.022068132 -0.23330717 0.003087017 -0.17319338 -0.14764571 -0.25095597
-0.20148925 0.14800406 0.023582455 0.22746494 0.13448115 -0.09544974 0.25091904 -0.16715053
0.21323039 -0.09469321 -0.09264018 -0.13476734 -0.018942038 0.14793792 -0.095861554 0.18715064
-0.13337563 0.20898958 0.2448307 -0.16533464 0.0285577 0.21376939 -0.029797494 -0.21236402
-0.0020075832 -0.18688382 -0.050018407 0.2247307 0.19337958 0.18221673 -0.16314125 -0.14939833
0.007638309 0.1746684 -0.19851506 -0.14430818 -0.26733384 0.12943253 -0.17852738 0.08371207
-0.18543492 -0.07525942 -0.2649299 -0.18716031 -0.040511884 -0.115725495 0.07570403 -0.15945897
0.03482298 -0.027569283 0.0013182454 0.13125023 -0.18072066 -0.08597446 -0.14344943 0.05015526
0.14338958 -0.16048245 0.1584296 0.08913859 0.11183272 -0.24817082 -0.21879569 -0.024664639

encoder.encoder_layer.encoderlayer.linear1.bias f4 [64]
00000000: d82f 9a3d 885a 05be f84c cf3d 24dc 9b3d
00000010: 87c0 4c3e d01a 8d3c c0e7 913b 78b6 0fbe
00000020: f489 cabd 6ade 1a3e 14a0 2c3e b0e8 21bd
00000030: 9af6 573e c987 df3d dc2c 593e 0053 773e
00000040: 4e43 1f3e ee73 7dbe a0c7 1e3e 1ee6 6f3e
00000050: 749b d8bd 60cc 29bd d2ed 653e b003 5ebe
00000060: f872 7dbd 104f 933d d3fa 493e ee8f 5a3e
00000070: 53f8 6bbe 20c1 7dbd 2013 493c bef5 013e
00000080: 08a6 b1bd ca46 1cbe c833 1a3e e4b9 7bbe
00000090: 00f9 843d 58e5 5bbd 0ff2 47be 8608 71be
000000a0: 8891 403d d6ad 54be e0e5 523c 84f0 b9bd
000000b0: 603d 653c e0e0 22bd 0e67 e2bd 5033 4dbe
000000c0: c8b7 e33d 240f a8bd 6b52 56be 1879 02bd
000000d0: 70e5 433d 25bf 5e3e 9250 f63d 6431 2a3e
000000e0: 40c1 be3b 248b 85bd 5a29 44be e884 c03d
000000f0: 229a 06be 7a5d 12be bea9 26be 1c8e fd3d
0.07528657 -0.13022816 0.101221025 0.07610348 0.19995318 0.0172247 0.0044526756 -0.1403445
-0.09889594 0.15123907 0.1685794 -0.03952855 0.21090165 0.10914571 0.21208519 0.24152756
0.15553018 -0.24751255 0.15505838 0.23427626 -0.10576525 -0.041454673 0.22454002 -0.21681094
-0.06187722 0.07192814 0.19724588 0.21343967 -0.23043947 -0.061951756 0.012272626 0.126914
-0.08674246 -0.15261379 0.15058815 -0.2458263 0.064928055 -0.053685516 -0.19525932 -0.23538408
0.04701379 -0.20769438 0.012872189 -0.09079078 0.013991684 -0.03976524 -0.11054812 -0.20039105
0.11119038 -0.08206013 -0.20929877 -0.031853765 0.04782623 0.21752603 0.12027086 0.16620404
0.005821377 -0.065206796 -0.191564 0.0940035 -0.13144735 -0.14293471 -0.16275689 0.12380621

encoder.encoder_layer.encoderlayer.linear2.weight f4 [16, 64]
00000000: 10a6 413d 6005 6fbd 2338 0e3e 6cc2 81be
00000010: 154b 553e 8344 09bd c5aa 59be 02ea 89bd
00000020: c886 343d e25e 873e 5e8d 9d3d 23bf 3b3e
00000030: f51f d7bd ae5f 57be d73c 6fbe b6d8 5bbe
00000040: c59f 143e 1a26 c73d 033d 543e 1491 b0bb
00000050: 0d11 b63d 8ab6 b13d 217b 893d 6542 283e
00000060: a908 023d a88e 0ebe cee0 16be 157d 373e
00000070: a418 813e 76da 273e 5e9c 17be b31c fabc
00000080: 5cc2 1dbe 2ecc 933d ef71 d1bc 20b8 f5bd
00000090: ba99 e0bd 242c bbbd a0c1 e0bd 2b10 723e
000000a0: b6da 5bbd 272d dbbd 4d82 7f3e 78d0 d7bd
000000b0: f4d0 7f3e 4ca0 12be 06cb a53c 2d39 7a3e
000000c0: 2d0b 3ebe 6c25 613e c296 a0bd 7806 2dbe
000000d0: 5cee f8bd 12b4 7b3e cdcc 47bd d4c1 5a3e
000000e0: 5f04 babc 82f4 04be 7ad0 53be a6fd 57be
000000f0: edec 033e 2867 4c3e f8dc 51be 8609 80be
00000100: 109e b33d 1f0b f83c 36e4 163e 7ff6 0c3e
00000110: 1968 78bc 22ad 19bc 26a7 6c3e e137 463e
00000120: d543 c53d 536d 33be 3bef 4c3d e236 03be
00000130: e500 d1bd 2f52 42be 6484 4e3e 00af 0a3d
00000140: 93d4 3cbe 986e 0c3d 95a2 303e 7d7d 943d
00000150: 5872 093e 22b7 75be 727d c8bc 729c 1b3e
00000160: f26b 7fbe 4470 97bd 9b3a 113e 5df9 62be
00000170: dd96 523d 4c40 72be 7444 1f3e 8d43 85be
00000180: c2e9 fabc cede 883d a895 d53d 40d7 f43d
00000190: c4cc da3d 2104 86bd 1adb ce3d fe4f cdbd
000001a0: 4681 6fbe 5688 ac3d 9fee 47bc ea34 e03d
000001b0: 9870 763e 649a 853e 5731 84be 461e 823e
000001c0: 3398 45bd 04c4 133e 5cf4 3f3e 6afa f5bd
000001d0: 3fc2 9a3d b19e 113e 3053 d83d e36a 5e3d
000001e0: e551 02be 933e 823e 5285 5ebe 38cc 213d
000001f0: 44cc 3ebe 79d9 07be 74e5 1bbe ed2b 823e
00000200: 4f6d 213e 3ae7 743e 4eca 19be 32f2 13bd
00000210: 5852 533e c612 a63b ed2d 87bd b061 acbd
00000220: d40a 2fbb c2ea 81bd 5e80 b1bc 3e5d fdbc
00000230: 6213 3f3e 6567 5ebe 170a 703c 8449 083c
00000240: 7f95 833e 89de b6bd d8ef 6ebe 68e5 80be
00000250: b0d5 69be b06c 86be 56f7 84be 7c91 b9bc
00000260: 1e76 d93d fa68 44be 90a8 56bd d061 d93d
00000270: caea 743e b33b 55be 5052 063e dccf 24bd
00000280: 2d90 64bd 1f3f 4b3e 05ab af3d a5d1 893e
00000290: 7086 4f3e 1537 b0bd c956 0a3e e4a9 2dbe
000002a0: cf8e d5bd c25c 3ebe ca13 0a3e 1096 593e
000002b0: f60f abbd 9295 bcbc 6dff 813e 2330 d13c
000002c0: c1b4 e63d 03b9 823e ca40 313e e6a0 b83b
000002d0: 9ae7 7c3e 2ccf 9e3d 2084 35be fcaa 11be
000002e0: 002d ae3c d690 553e 22f4 4b3d 7239 57be
000002f0: 086a b33d 061b 4c3d c69d 773e d49a b33d
00000300: 378b 86be b081 54bd e252 71be a3ed 1a3e
00000310: bdf7 ccbd 6929 65be b251 7dbe 22d6 7e3e
00000320: 961b 743c 686c 013e d848 213e ac60 87be
00000330: a256 363e 8d60 d43d 6a0b 6e3d 552b f2bd
00000340: 76a7 42bd b07e 14be 660a 773e 05b5 87be
00000350: 9fdb 703e 192f 063e 0502 82bc 004e 6a3e
00000360: 207a d23d 4108 d43d c294 003d b3aa 24be
00000370: 9454 4b3d 4236 2d3e 5804 e33d fae3 0e3e
00000380: a39d b7bd fa80 d1bd 995e e5bb e221 053e
00000390: 5960 1e3e f692 863e e098 7b3e 8620 813e
000003a0: 333e 413d 6044 5c3e 12ae ee3d 627d 0bbe
000003b0: bfce 3b3e 61d6 e9bd b8a2 a0bd 6e87 e2bc
000003c0: b277 36be 120a 23be 3df8 d63d f86d 0dbc
000003d0: c617 5dbd c959 45be a3d2 0bbe d4c3 84bd
000003e0: 61cc 2bbe d189 573e 5c92 54bd c25d a23d
000003f0: 7def 0cbe 400f 823d 3d99 9ebd a04f 17bd
0.04727751 -0.058354735 0.13888602 -0.25343645 0.20829423 -0.033512603 -0.2125655 -0.067340866
0.04407385 0.26439577 0.07692979 0.18334632 -0.10504142 -0.21032593 -0.23363052 -0.21469387
0.14514072 0.09724064 0.20726399 -0.0053883884 0.08889971 0.08677395 0.06712938 0.16431578
0.03174654 -0.13921607 -0.14734194 0.17918809 0.25214112 0.1639193 -0.14805743 -0.030531263
-0.15406173 0.072166786 -0.025567023 -0.1199801 -0.10966821 -0.091392785 -0.10974431 0.2363898
-0.053675376 -0.107019715 0.2495205 -0.10537809 0.24982053 -0.14318961 0.02023841 0.24435873
-0.1855895 0.21986932 -0.07841255 -0.16896999 -0.121548384 0.2458041 -0.048779298 0.21363002
-0.022707162 -0.12983897 -0.20684996 -0.21092853 0.12883349 0.19961226 -0.20494449 -0.25007266
0.087703824 0.03027874 0.14735493 0.13765906 -0.015161538 -0.009379657 0.23110637 0.19357254
0.096320786 -0.17522173 0.050032835 -0.12813905 -0.10205249 -0.18976663 0.2016769 0.0338583
-0.18440466 0.034285158 0.1724952 0.072504975 0.13422525 -0.23995641 -0.02447388 0.15196398
-0.24943522 -0.0739446 0.14182512 -0.22165437 0.051413406 -0.2365734 0.15553457 -0.260281
-0.030629043 0.066831216 0.10428935 0.11955118 0.10683587 -0.06543756 0.10100384 -0.10025023
-0.23389158 0.084244415 -0.012202888 0.109475926 0.24066389 0.26094353 -0.25818893 0.25413722
-0.04824085 0.14430243 0.1874556 -0.12010653 0.07556581 0.14220692 0.10562742 0.054301154
-0.12726553 0.25438365 -0.21730545 0.0395014 -0.18632609 -0.13266553 -0.15224248 0.25424138
0.15764354 0.23916331 -0.1501858 -0.036119647 0.2063688 0.005068156 -0.066005565 -0.0841707
-0.0026709335 -0.063436046 -0.021667656 -0.03092825 0.18659738 -0.2171913 0.014650843 0.008318309
0.25699994 -0.08929164 -0.2333368 -0.25175023 -0.22835422 -0.26254797 -0.25969952 -0.02265238
0.10618232 -0.1918067 -0.052406847 0.106143594 0.2391769 -0.20823555 0.13117337 -0.040237293
-0.05580156 0.19848298 0.08577541 0.2691776 0.20266128 -0.08604256 0.13509668 -0.1695934
-0.10427629 -0.18590072 0.13484111 0.2124865 -0.08352654 -0.02302054 0.25390187 0.025535649
0.11264945 0.25531778 0.17309871 0.005634415 0.24697724 0.07754359 -0.17726183 -0.14225382
0.021261692 0.20856032 0.04979337 -0.21018007 0.08760458 0.04983046 0.2418128 0.087697655
-0.26278087 -0.051881492 -0.23566774 0.15129714 -0.1000819 -0.22379078 -0.24738196 0.24886373
0.014899155 0.1263901 0.15750444 -0.26440942 0.17806485 0.10369978 0.058116354 -0.11824671
-0.047522984 -0.14501452 0.2412506 -0.26505294 0.23521279 0.13103904 -0.015870104 0.22881317
0.102772 0.10353137 0.031391867 -0.16080742 0.049641207 0.16915229 0.11084813 0.13954154
-0.08965614 -0.102296785 -0.0069998023 0.13001207 0.15466441 0.26283997 0.24570036 0.25220126
0.04717846 0.21510458 0.11654295 -0.13622048 0.18340586 -0.11417843 -0.07843536 -0.027652469
-0.17819098 -0.1592181 0.104965664 -0.008632176 -0.05397775 -0.19272532 -0.1365457 -0.06482664
-0.16777183 0.21048667 -0.05189739 0.07928039 -0.13763233 0.06350565 -0.07744072 -0.03694117

encoder.encoder_layer.encoderlayer.linear2.bias f4 [16]
00000000: a855 c53d c651 bebd 82b1 9cbd 4072 443b
00000010: f08c f4bc 343c 733d 5ecd ca3d b09c fdbc
00000020: d855 b2bc 4068 983b 6a1b efbd 6001 ae3c
00000030: 64b8 853d d0fc 5f3c 8030 f5bc 28a0 ecbc
0.09635478 -0.09292941 -0.076510444 0.0029975325 -0.02985236 0.059383586 0.09902452 -0.030958503
-0.02176945 0.0046510994 -0.11675151 0.02124089 0.0652931 0.013671115 -0.029930353 -0.028884962

encoder.encoder_layer.encoderlayer.norm1.weight f4 [16]
00000000: 0000 803f 0000 803f 0000 803f 0000 803f
00000010: 0000 803f 0000 803f 0000 803f 0000 803f
00000020: 0000 803f 0000 803f 0000 803f 0000 803f
00000030: 0000 803f 0000 803f 0000 803f 0000 803f
1.0 1.0 1.0 1.0 1.0 1.0 1.0 1.0
1.0 1.0 1.0 1.0 1.0 1.0 1.0 1.0

encoder.encoder_layer.encoderlayer.norm1.bias f4 [16]
00000000: 0000 0000 0000 0000 0000 0000 0000 0000
00000010: 0000 0000 0000 0000 0000 0000 0000 0000
00000020: 0000 0000 0000 0000 0000 0000 0000 0000
00000030: 0000 0000 0000 0000 0000 0000 0000 0000
0.0 0.0 0.0 0.0 0.0 0.0 0.0 0.0
0.0 0.0 0.0 0.0 0.0 0.0 0.0 0.0

encoder.encoder_layer.encoderlayer.norm2.weight f4 [16]
00000000: 0000 803f 0000 803f 0000 803f 0000 803f
00000010: 0000 803f 0000 803f 0000 803f 0000 803f
00000020: 0000 803f 0000 803f 0000 803f 0000 803f
00000030: 0000 803f 0000 803f 0000 803f 0000 803f
1.0 1.0 1.0 1.0 1.0 1.0 1.0 1.0
1.0 1.0 1.0 1.0 1.0 1.0 1.0 1.0

encoder.encoder_layer.encoderlayer.norm2.bias f4 [16]
00000000: 0000 0000 0000 0000 0000 0000 0000 0000
00000010: 0000 0000 0000 0000 0000 0000 0000 0000
00000020: 0000 0000 0000 0000 0000 0000 0000 0000
00000030: 0000 0000 0000 0000 0000 0000 0000 0000
0.0 0.0 0.0 0.0 0.0 0.0 0.0 0.0
0.0 0.0 0.0 0.0 0.0 0.0 0.0 0.0

encoder.transformer_encoder.layers.0.encoderlayer.self_attn.in_proj_weight f4 [48, 16]
00000000: 1442 5abe 75c9 febd 8cb3 31be edff 2ebd
00000010: 01b0 21bc 8015 ccbe 53be f5be 1392 0cbf
00000020: 9683 14be 14b7 b7be a200 bfbe d786 0cbf
00000030: ae73 ddbe d354 f4be 5c6c b3bc 260f 913d
00000040: e0d7 313e d454 8e3e ab33 203f 412e 143f
00000050: 693c 003f 9438 08bd f0ce 283e c0ac 0d3f
00000060: adf7 3e3e bc38 e63e fde6 2e3f 0dec 4a3e
00000070: f893 f43e fda9 963e 7f1e b53e 95bd 093e
00000080: 5110 73be b6da 7a3e a215 00bf e90e 5ebe
00000090: 3bf1 c7be 3895 0bbe ed4b dbbd 81c4 f9bd
000000a0: 59b4 ddbe f049 583e 23d8 58bd c614 a8be
000000b0: 7b45 3fbd dd94 a43d 937d eb3d 692d 62be
000000c0: 095c 36be 253c adbd 9b08 9fbe 41eb 84be
000000d0: add6 c1bd e609 0ebf aa65 c9be c17b e2be
000000e0: 1b22 13bf bfe8 ebbe 6b46 d4be c379 7fbe
000000f0: 6206 1ebe 4478 0bbf 941d 23bf b59b 20bf
00000100: 52b1 e93d 32df 7f3e c1a5 7abe f961 e4bd
00000110: edd8 11be 752a 923d f5b1 a8be 660d e53d
00000120: 96e3 94be 1c4d 413e b291 94be 00de a13c
00000130: 4284 ffbd fc73 bb3c 86a9 083e 8ff9 8d3e
00000140: 9ef1 2f3f 752d 433f 8c37 783e 930a 853e
00000150: 6526 d23e 2a04 5f3f 5c60 7d3e ed26 983e
00000160: d87f de3e efe9 5d3f a52e a73e 415d 923e
00000170: 2bd1 b43e 9707 ed3e 4e00 683f 3a6f 183f
00000180: 56f6 a6be 62f7 2bbf 2f63 24bf f1e6 c3be
00000190: fe91 25bf d5da 1ebf e2a0 06bf 2457 cbbe
000001a0: 09c9 36bf 487f dbbe 5b08 30bf d5b1 0dbf
000001b0: 25bb 1fbf 5c15 c3be 52c7 2fbf 2583 10bf
000001c0: e136 c03e 81b9 043f 8866 f23e 5cad b73e
000001d0: e42a a43d 9a99 043f 04d4 243f 8c5c 153f
000001e0: 0c74 c33e ca04 da3e 9374 2c3f 7a8d 0b3f
000001f0: 84d1 123f 9933 a73e c5da 4dbc 66aa 2e3d
00000200: 7698 fcbd 077e d23e 6ce7 f13e 27c6 c03e
00000210: 5e10 8abd 8f14 bc3e 460b 8e3e c18f f33d
00000220: c68b a1bd 856a f73e 32e9 a23e b27a 793d
00000230: b1b1 a5bb 41f0 c83e f673 dd3e 84fc ab3c
00000240: 68ea c23c fa0e cdbe 2985 a4be e394 04be
00000250: 68ae 10bd cbb6 a7be 43a2 aabe f8ec 24bf
00000260: f248 913d ef22 97be ba23 903d db3e 18bf
00000270: 30f9 7fbe 252e a8be 48f4 dcbd ce37 b3be
00000280: 0193 8cbe e3df f2be e5fc e6be 6f10 35be
00000290: 5eff 1cbe 85d1 48bd bc4c 90be 8cfe 21bf
000002a0: 9561 8c3d ca24 cbbe 9e9d b53d 7e18 08bf
000002b0: 5127 eabe 9584 a6be 5c2e 69be a0d0 37be
000002c0: 23ae 143e 6841 9e3e 8da9 233d e899 e63e
000002d0: 4681 d73e 4898 923e 27b2 1a3e dd34 0c3f
000002e0: eec3 203e def5 873e db72 853e 02c6 f03e
000002f0: 41b7 59bd a6b9 a63e 4b87 093f add3 d33e
00000300: b71d d6be 8d04 c6be 353d edbe ec85 dbbe
00000310: 8b8c 03bf 81dd dbbe 494e b1be 4c8a 77be
00000320: 7e89 47bd 3256 17bf 0e85 94bd 7ee2 043d
00000330: 27ae 67bd 2e14 98be b5db bcbe 6ebc 09bf
00000340: 5a8e abbe 9314 c33d 556e 62bd 0997 ddbd
00000350: ddee a3be 7cec c2be 8490 2fbe 152c 15bf
00000360: aec8 f5be d70f e3bd 2caf 60be 0706 24bf
00000370: 0c17 b1bd 2198 abbe 7b2d 25bd de4f 0a3e
00000380: f94f f3bc cd58 6bbd 2b85 97be dbbe 7fbd
00000390: a518 2bbd 6428 683d 0dd6 cbbe 37a3 17be
000003a0: 6f06 4f3d c709 90bd 25a3 9dbe 1428 5fbe
000003b0: 87eb b0be dd2a 92be 8079 ebbd 2186 1e3c
000003c0: f9d2 8dbe 2774 85be 470e fcbd 2e37 7fbe
000003d0: 91e8 21be a98b 04bf b6e2 55be 6671 cebe
000003e0: 1f4a 90be 0632 4fbe d51c dfbe b1e1 eabe
000003f0: d8bd 6dbd 7282 25be 0307 dabe 9750 a8bd
-0.2131427 -0.12440769 -0.17353648 -0.04272454 -0.009868623 -0.39860153 -0.47996768 -0.5491039
-0.14503321 -0.35881865 -0.3730517 -0.5489325 -0.4325232 -0.47720966 -0.021902256 0.070829675
0.17367506 0.27799094 0.6257884 0.5788308 0.5009218 -0.033257082 0.1648519 0.5534172
0.18649168 0.4496516 0.6832121 0.19816609 0.4776914 0.29426566 0.3537483 0.13451226
-0.23736693 0.24497494 -0.5003301 -0.21685375 -0.39051232 -0.13631141 -0.10707841 -0.12195683
-0.43301657 0.21121955 -0.0529405 -0.3282835 -0.04669712 0.08036206 0.11498561 -0.22087635
-0.17808546 -0.08458737 -0.31061253 -0.25960734 -0.09464774 -0.55483854 -0.39335376 -0.44235042
-0.57473916 -0.4607601 -0.41459975 -0.24948792 -0.15432122 -0.54480386 -0.6371701 -0.6273759
0.11410774 0.24987486 -0.24477293 -0.11151499 -0.14242907 0.07137004 -0.3294827 0.11184196
-0.29079884 0.18877071 -0.29017407 0.019759178 -0.12476398 0.022882454 0.13345918 0.2772946
0.68728054 0.76241237 0.2423994 0.2598463 0.41044918 0.8711573 0.2474379 0.29717198
0.43456912 0.8668508 0.32652774 0.28586772 0.35315832 0.46294853 0.90625465 0.5954472
-0.32609814 -0.6717435 -0.6421384 -0.38262132 -0.6467589 -0.6205266 -0.5258924 -0.3971492
-0.71400505 -0.42870545 -0.6876275 -0.55349475 -0.62394935 -0.38102233 -0.68663514 -0.5645011
0.3754187 0.51845556 0.4734385 0.3587445 0.08015993 0.5179688 0.6438601 0.5834434
0.38174474 0.4258178 0.6736538 0.5451275 0.57350945 0.32656553 -0.012564366 0.042642973
-0.12333767 0.41111776 0.47246873 0.37651178 -0.06741403 0.36734435 0.27742976 0.11892653
-0.07887988 0.48323455 0.3181854 0.060908027 -0.005056583 0.392458 0.43252534 0.020994432
0.023793414 -0.4005049 -0.32132843 -0.12947421 -0.035322577 -0.32756647 -0.3332692 -0.64424086
0.07093991 -0.2951884 0.07038064 -0.5947091 -0.24997401 -0.32847705 -0.107887805 -0.35003513
-0.27455905 -0.47436437 -0.45114818 -0.1768205 -0.1533179 -0.04902794 -0.28183544 -0.6327903
0.0685455 -0.39676505 0.08867954 -0.5316237 -0.4573312 -0.32523027 -0.22771591 -0.17950678
0.14519553 0.30909276 0.039956618 0.45039296 0.42090815 0.28631806 0.15107022 0.5476816
0.15699741 0.2655477 0.2606419 0.47026068 -0.05315328 0.32563514 0.53722066 0.41372433
-0.41819546 -0.38675347 -0.4633576 -0.42875612 -0.51386327 -0.42942432 -0.3463004 -0.2417385
-0.048715107 -0.591159 -0.07251941 0.032442562 -0.05656257 -0.29702896 -0.36886373 -0.53803146
-0.33507043 0.095254086 -0.055281002 -0.10819823 -0.32018176 -0.38071048 -0.17144972 -0.5827039
-0.4800467 -0.110870056 -0.21941823 -0.64071697 -0.08646974 -0.33514503 -0.040326577 0.1350703
-0.02970122 -0.057457734 -0.29593787 -0.062437873 -0.04177155 0.056679145 -0.39811745 -0.14808355
0.050543245 -0.07033115 -0.30788532 -0.21792632 -0.34554693 -0.28548327 -0.11497784 0.0096755335
-0.27700022 -0.2606518 -0.12307411 -0.24923393 -0.15811373 -0.51775604 -0.20887265 -0.4032089
-0.2818155 -0.20233926 -0.43576685 -0.45875314 -0.058042377 -0.16163042 -0.42583475 -0.08218496

encoder.transformer_encoder.layers.0.encoderlayer.self_attn.in_proj_bias f4 [48]
00000000: 8aa5 65be 1bd2 a73e 93c1 dabd 7fbb c0be
00000010: b008 dc3d 5c8b 193f af34 03bf 8a45 9d3e
00000020: e632 443e 332d 48be 98a1 67be b577 823e
00000030: 0679 8dbe 4b63 14be cd1a 02be f48a 95be
00000040: 596c a138 6ae4 fab9 8792 3db9 6fcf 8e39
00000050: 6315 d837 54d3 d0b9 49f0 cc39 b52c f0b8
00000060: 3c52 5ab8 8800 1338 8621 acb9 9c2f 08b9
00000070: 47d9 c039 a02b d5b8 fd2c 8ab8 d620 a3b9
00000080: a8da 58bd af74 cc3c d25c b23c d277 253d
00000090: f05a 8cba d740 423b 05df 8cbc c1e2 7b3c
000000a0: dfa8 353d c7e3 15bd 72ed eb3c 2d05 963c
000000b0: 520b 153d 0474 bc3c 6572 cbbb b8ce 1dbc
-0.2242643 0.32777485 -0.106814526 -0.37643048 0.107438445 0.5997827 -0.51252264 0.30717117
0.19160041 -0.19548492 -0.22620237 0.25481954 -0.27631396 -0.14491002 -0.12705536 -0.29207575
7.6972596e-05 -0.00047853898 -0.0001807903 0.000272389 2.5759166e-05 -0.00039830303 0.00039088939 -0.00011452419
-5.2051837e-05 3.5048026e-05 -0.00032831373 -0.00012987707 0.00036782978 -0.00010164757 -6.5887325e-05 -0.00031114247
-0.0529429 0.024957983 0.021772776 0.040397473 -0.0010708254 0.0029640698 -0.017196188 0.015373887
0.0443505 -0.03659418 0.028799746 0.018313015 0.03638775 0.02300454 -0.0062087053 -0.009631805

encoder.transformer_encoder.layers.0.encoderlayer.self_attn.out_proj.weight f4 [16, 16]
00000000: a7ad babd 98a1 a7be 315d 623c e875 77bd
00000010: da0f ee3e 8f78 983d aad5 97be dd79 cbbe
00000020: 4f4b c83e 2aeb e5bb 6442 3b3e 80b0 0d3e
00000030: 9738 8f3b 7da1 89be 65aa 9c3e 5dff db3e
00000040: 1aed cb3b 7cd6 fdbd 7407 babd 8b0d 353b
00000050: 7834 49be 7463 25bf 7c8c a7be 76e8 16bd
00000060: 277c bdbe 7c63 95bd 84a5 243e ff61 7cbd
00000070: aff6 67be 5b18 67be 7651 833e d76b 66bc
00000080: 3510 643e 774b 8a3e d5f1 74bc 3274 cb3e
00000090: a1c7 b13e 4006 cbbe 5f77 d9bd 23da f9bd
000000a0: b381 a33d 7877 b23c a840 bebd a56e a0be
000000b0: 0fe1 6b3e 1762 0cbe 53e9 64be cbb3 33be
000000c0: 320b 703e 3edc 5cbe 5b79 be3e 2e7c b33c
000000d0: 3389 393e 514a d2be e6a4 933d b973 b23d
000000e0: 70b9 47be 7f30 eabd 2de6 863e 7970 90be
000000f0: 701b 893e 1d90 98be 6073 81be 701c 9bbd
00000100: 8ec9 5ebe 5f9a b2be b13a 89bc 6fa2 963c
00000110: 175a 8e3e 5776 ba3e fa02 083e cbc1 b9be
00000120: ea94 9f3e da13 fdbe c651 a2bd 0dfe b1bb
00000130: 44a2 823c 22cf 45be b78f 983e de79 823e
00000140: 9888 ea3e 6140 b93e ecc8 c63e 6b79 893e
00000150: 9aee a9be cc02 24bd 33af 05bc 96ad e23e
00000160: 5c30 8f3c 950b f5bd 852f c63e 5bcb 82be
00000170: 9c8c fe3d 88d2 5e3d 2d8d 533e f596 b33e
00000180: b174 163e 0932 803e 4b27 90be 5d0d 883d
00000190: aa28 aebe 1c83 3a3e 93ad cb3c fc2e bebe
000001a0: 51b0 b3be be58 9cbe 5d33 083e 0ccf 72be
000001b0: e374 9ebd e919 ab3d de50 75be 0b6e 86be
000001c0: dd25 a83e a968 a8be 2136 9d3e 2c82 b53e
000001d0: eae3 f83a f0c9 ddbe e472 e7be 8911 233e
000001e0: a3c6 813e b8fd fb3d ce61 e03d b825 173c
000001f0: 1c9a ac3c 41d0 e53e 9b82 fabd 2879 9b3e
00000200: 5ce8 4a3e 877a bebd ed2c c53d ec3a a3bd
00000210: 0741 d8bc 1b00 8fbe 685d c5be 71f7 41be
00000220: d5f4 f2bd 8d93 cc3d 7022 a5be 1e2e 0ebd
00000230: 0822 513e 8cfe 81be 7d5b b73e 8488 3dbe
00000240: 0115 b5be d3bf a1be 08a7 c4be 7b75 c1be
00000250: c673 a63e daab 0b3d 6aba cc3e afea f83e
00000260: fe9a b5bd 8f73 873e 3052 433e a2af c83e
00000270: aa68 4b3e 3081 4fbe d9c4 6f3e 06db 1ebd
00000280: 75a1 adbe b273 e6bc 837f 583e 4345 a53e
00000290: d33f b23e 01f5 64be 18a3 c53d 8622 d93d
000002a0: ccdd 6f3e cf71 28be 3b82 9cbc ed94 53bc
000002b0: a8a7 d7be b305 1b3e ec3b 65be cc2a ce3d
000002c0: 805c 3b3d ea9b 4d3e d963 cdbe 3b60 253c
000002d0: 5d17 273e 3d74 8f3e 5763 863e 1872 d6bd
000002e0: ffac 923e 2483 1abe cbab 663e 865c 43be
000002f0: d0a5 793e a34e 3ebc ff40 9bbe 617a f03d
00000300: ce47 193e 466b 6b3d 0a9e a8be 1952 86be
00000310: f78e ae3c d06b febd 22ba 0d3e 8f23 ecbe
00000320: ab3c 653e ec97 26be 12f6 743e 6398 1e3e
00000330: d694 4d3d 3b77 123d fadf 523e 8b5f 053d
00000340: cd96 b2be 850c c53e 1db5 87be 8930 953e
00000350: db7c 60bd cbec 863e 9284 af3e 96e2 173e
00000360: e18d 71be 9563 6ebe 977f 433e 85ab 96bd
00000370: 0f14 c9bd 0336 193d b063 9ebd ca61 663e
00000380: ef33 96be 560a b03e e7b6 27bc 0800 2abe
00000390: fcce 28be db7a 86bd fb7d 86bd 7510 f33e
000003a0: cf18 5b3d f767 abbe 8e3f 89bd 9308 233e
000003b0: e6b1 383e 4af3 16be 8204 cdbd 5b00 6a3e
000003c0: f33c b1be c1ce bbbe eebd 6a3d b2d5 963d
000003d0: ae7a 3fbd 4b47 9e3e 1732 92be c499 073f
000003e0: bf7e debe c036 8cbe c2d7 8f3e eebc a9be
000003f0: a545 adbe 734f c5bc af56 93be 9a39 54be
-0.09115153 -0.32740474 0.013816164 -0.06041518 0.4649647 0.0744487 -0.296552 -0.39741412
0.39119956 -0.007016559 0.18287045 0.1383686 0.0043707597 -0.26881018 0.3059875 0.42968264
0.006223333 -0.12394425 -0.09083453 0.002762648 -0.19648921 -0.6460488 -0.3272437 -0.036842786
-0.37008783 -0.07294366 0.16078764 -0.061616894 -0.22652696 -0.22567885 0.25648087 -0.014063797
0.22271807 0.270107 -0.014950235 0.39737087 0.34722617 -0.39653206 -0.10618471 -0.121998094
0.079837225 0.021785483 -0.09289676 -0.31334415 0.23035072 -0.13709293 -0.22354631 -0.17549054
0.2344177 -0.2156839 0.37201962 0.0219098 0.18118744 -0.41072324 0.07209186 0.087134786
-0.19504333 -0.11435031 0.26347485 -0.2821081 0.26778746 -0.2979745 -0.25283337 -0.075737834
-0.21756575 -0.348834 -0.016751619 0.018388001 0.27803108 0.3641841 0.13282385 -0.36280665
0.311683 -0.49429208 -0.07925753 -0.0054318965 0.015946515 -0.19317296 0.29797146 0.25483602
0.45807338 0.3618193 0.38825166 0.26850447 -0.3318985 -0.04004173 -0.0081594465 0.4427306
0.017479114 -0.119651 0.3870813 -0.25545773 0.12429163 0.054399997 0.20659323 0.3507611
0.14692952 0.25038174 -0.28154978 0.06643174 -0.340154 0.18214077 0.02486304 -0.3714522
-0.35095456 -0.30536455 0.13300844 -0.23711795 -0.07737138 0.08354551 -0.2395663 -0.2625583
0.32841387 -0.3289235 0.3070536 0.35450876 0.0018988822 -0.4331813 -0.45204842 0.15924658
0.2534686 0.123042524 0.10956155 0.009225301 0.021069579 0.44885448 -0.12231942 0.30365872
0.198152 -0.09300714 0.096277095 -0.07970223 -0.026398195 -0.27929768 -0.38547826 -0.18942048
-0.11863104 0.099890806 -0.32252836 -0.03471195 0.20423138 -0.25389516 0.35811988 -0.18509108
-0.35367587 -0.31591663 -0.38408685 -0.37784943 0.32510203 0.034099437 0.39985973 0.4861655
-0.08867453 0.26455352 0.19074321 0.39196497 0.19864145 -0.20264125 0.23414935 -0.038783096
-0.33912244 -0.02813134 0.21142392 0.32279405 0.3481432 -0.22359087 0.09650248 0.10602288
0.23424453 -0.16449665 -0.019105067 -0.012913925 -0.421201 0.15138893 -0.2238614 0.100667566
0.04574251 0.20079008 -0.4011524 0.010093744 0.16317506 0.2801837 0.26247665 -0.104709804
0.2864761 -0.15089089 0.22526471 -0.19078264 0.24379659 -0.011615428 -0.30323026 0.11742092
0.14968798 0.05747535 -0.32933074 -0.2623451 0.021308405 -0.12422907 0.13840535 -0.4612088
0.22386424 -0.16268891 0.23921993 0.15487818 0.05019077 0.03575824 0.20593253 0.03256182
-0.34880677 0.38486114 -0.26505366 0.29138592 -0.05480657 0.26352534 0.3428083 0.1483253
-0.23589279 -0.23280175 0.1909164 -0.073569335 -0.09818279 0.037405025 -0.07733858 0.22498241
-0.29336497 0.34382886 -0.010236478 -0.16601574 -0.16485208 -0.065664016 -0.065669976 0.47473493
0.053490456 -0.33477756 -0.06701575 0.1592124 0.18036613 -0.14741245 -0.100106254 0.22851698
-0.34616813 -0.36681178 0.057310037 0.07364978 -0.046747856 0.30913767 -0.2855384 0.52969
-0.43456075 -0.2738552 0.28094298 -0.33151954 -0.33842197 -0.024085736 -0.28777072 -0.20725098

encoder.transformer_encoder.layers.0.encoderlayer.self_attn.out_proj.bias f4 [16]
00000000: e2ec 1f3d 8d6a bdbc 5f43 143d 1cc7 583a
00000010: f764 48bb accd 4ebc ccd9 5db9 7cab b8ba
00000020: 934c 1bbc 28dc 10bd 6d9d 123d 8247 e63b
00000030: 65bd ec3c 148a bd3c a817 40bc ac41 863c
0.03904427 -0.023122096 0.036197063 0.00082694157 -0.0030577758 -0.012622278 -0.00021157338 -0.0014089192
-0.009478706 -0.035366207 0.035794664 0.0070275674 0.028898904 0.02313713 -0.01172439 0.016388737

encoder.transformer_encoder.layers.0.encoderlayer.linear1.weight f4 [64, 16]
00000000: c3d1 80bd dc73 16be aa2b febd 92c5 56be
00000010: 1a2d 1ebe 7c93 f0bc 4652 a03d 50dc 6bbe
00000020: c049 b83d 68a4 d13d 85ed 0bbe 5d98 9d3c
00000030: f816 f8bd 4311 1a3e 8a8f d4bd 5a09 65be
00000040: 4dda 44be 690c 46bd c6d1 183d 986b e43c
00000050: 7afc 94be a848 65be 793d 52be f360 82bc
00000060: 3944 6c3e 8c72 f3bd b2f2 81bd d588 373e
00000070: 1358 763e 2411 823e 22e0 53be 00d1 ae3d
00000080: 8b1f b9bd 5b7c 4fbd 2f6a 283d cfec 5a3d
00000090: ea91 74ba f211 0abe 7636 0fbe cfba 733e
000000a0: dbd3 11be 4503 f0bd 1aff a2be cb82 c13e
000000b0: c9f8 4ebe 85e1 383d 0a8e 90bc 32f4 543e
000000c0: 1a35 b03c 9d4e d73c 0c43 46be 278a 78be
000000d0: b5f2 3d3e 69a9 8d3d aeb9 7f3e d937 fdbd
000000e0: 70b3 15be 571a 5ebe 37c8 12be e63f 2f3b
000000f0: 50ef 58bd 951d 8dbd 90b3 a23d b383 f93c
00000100: 60c7 53bd d987 90bd 7272 54be c377 97be
00000110: 3c9a 85be ffcb 63bd 3830 e5bc 9c72 a03e
00000120: c46a 25be a25c c93d 5245 073e ffdb 5c3e
00000130: 02b3 35be b3ba 8fbd 2674 733d bccc c23d
00000140: 7dc0 db3d 53aa 863e 97e7 b0bd cad2 4b3e
00000150: 6eb5 3abc e20a 7fbe efd7 843e c84b 7f3e
00000160: 8636 ccbd 77b3 253e 7f6f 703e 68f4 9e3d
00000170: 7490 3f3e 05b6 b43e d6f6 813d 52fd a93d
00000180: 8737 babd 1d7d 74bd 0a24 75be 8e5a 2fbd
00000190: 6fcd 54be 8d2a 083e 8121 eb3c 85bc 1abe
000001a0: 6d8d 0cbe 5ca5 c43d 7914 55bc 935d 443e
000001b0: 52a5 f9bd 34ca 2ebe de44 39be 3ae1 583c
000001c0: e010 243d 39c4 3d3c bcb8 1bbd 3087 893d
000001d0: e8d0 f53d ef44 963d 7cd6 9cbd f95e 51bd
000001e0: 71f9 04be 8820 20be a9b8 a6be b5a7 d03e
000001f0: b308 22bd d01a 13bd 682c 27be 2f2c dc3d
00000200: dc99 253e 8a8d d73c f207 2fbe a1b2 f3bd
00000210: d56b 963d 9554 3fbe 1f66 943e 2e49 16bd
00000220: a55b 783e 9b17 25be 6457 423e 94e4 83be
00000230: 88ec 613e 2b65 70bc efbc a4bd bfe4 693e
00000240: edd9 5dbd cbf4 6c3d b07d f93d 0b38 18be
00000250: 025c a1bc 7597 45bd bdad 523e 1020 19be
00000260: ffaa 0dbe 09a7 c7be 3dd7 3bbc 34ef 1bbc
00000270: 66a2 38bd 284c dfbd e96b a3be 4b40 ef3d
00000280: f604 48be f75e 16be ff2e 42bd 940d 84be
00000290: 233d 06be 8d47 4b3e 0151 d33d 5483 233e
000002a0: b804 64be c53f 07be 560d ad3e 2466 5cbe
000002b0: be5e a93e df2b 83bd 5974 8fbe 881e b03c
000002c0: c18e 483d 1fb0 003e 3343 cfbd 9e24 873d
000002d0: bf6a 6abd 519b 9c3e 9285 43be 4167 943e
000002e0: e155 99be ab3a 063e ccbc 88bd ff83 4c3e
000002f0: a677 8cbe 7bf4 be3d 91ab 40be bcaf 8c3d
00000300: c143 493e 331b 7e3d e7a5 0e3e c900 0e3d
00000310: e580 85be 326e a2be 262e 603e 81d0 043e
00000320: 1bd6 833e dffc 433e edd0 9b3e 4970 acbd
00000330: a628 ffbc e9d4 b03d b336 013d 4d24 2f3e
00000340: a0e8 e2bd 5cd6 1bbe 9673 4cbe 8d48 a8bd
00000350: 5ec6 333e 5c22 31bd da56 9bbd c2a4 69bd
00000360: 3839 ce3d f9d5 c83c 6bc4 51bd 626d 243e
00000370: 9b64 703e 2c55 acbc 8385 18be b078 f4bd
00000380: 5547 9b3e 0209 0a3e 78c5 27be 7fa1 8ebc
00000390: dd8f 9d3d 8d5f d73d d0ee 873e 4ae4 a3bd
000003a0: 7751 4a3e e2f7 a23d b520 4a3e 8973 183e
000003b0: ad2d 403d 5a65 8b3e eb6d a3bc 327a b73d
000003c0: 4916 f3bc 2dd7 8cbd 0ab2 2dbe 335e 2cbe
000003d0: 03d1 e03d 0f9f aebc 174c 86bd ef7a 4f3e
000003e0: 6ba6 20be b03a 59bd 91ca a5bc 08d2 b93e
000003f0: f11e aa3d b23f 18be 9331 be3d 73ff 1f3e
-0.06290009 -0.14692634 -0.12410672 -0.20973805 -0.15446892 -0.029367201 0.078281924 -0.23033261
0.08998442 0.10236436 -0.13664825 0.019237692 -0.12113756 0.15045647 -0.103789404 -0.22366849
-0.192239 -0.04835168 0.03730943 0.027883336 -0.29098874 -0.22390997 -0.20531262 -0.01591537
0.230729 -0.118870825 -0.063451186 0.17923291 0.24057035 0.25403702 -0.20690969 0.08535957
-0.090392195 -0.050655704 0.04111689 0.053448495 -0.0009329604 -0.13483408 -0.13985619 0.2380173
-0.14240973 -0.117193736 -0.31835252 0.377951 -0.20212092 0.045136947 -0.017645855 0.20796278
0.021509696 0.026282603 -0.19361514 -0.24271451 0.18549617 0.06917078 0.24973175 -0.12364168
-0.14619231 -0.21689735 -0.14334188 0.0026740967 -0.0529626 -0.06890408 0.07944405 0.030458307
-0.05170381 -0.07057161 -0.20746782 -0.29583558 -0.26094234 -0.055614468 -0.027977094 0.3133744
-0.16154009 0.098321214 0.13210037 0.21568297 -0.17744067 -0.07018032 0.05943694 0.09511706
0.107300736 0.26301822 -0.08637922 0.19904628 -0.011395795 -0.24906495 0.25945994 0.24931252
-0.09971337 0.16181742 0.23480032 0.077614605 0.18707448 0.3529512 0.06345908 0.0830027
-0.09092622 -0.05968963 -0.23939529 -0.04281097 -0.20781492 0.13297482 0.0287025 -0.15110977
-0.13725825 0.09601852 -0.013005369 0.1917632 -0.121897355 -0.17069322 -0.18092677 0.013237292
0.040055156 0.011582428 -0.038017973 0.06715238 0.12002736 0.07337367 -0.07658097 -0.051115964
-0.1298578 -0.1563741 -0.3256276 0.4075295 -0.039559077 -0.035914242 -0.16325533 0.10750615
0.16171974 0.026312608 -0.17092875 -0.11899305 0.07344786 -0.18684609 0.28984162 -0.036690883
0.2425371 -0.16122286 0.1897865 -0.2576033 0.22062886 -0.014672558 -0.08043849 0.22841166
-0.05416291 0.05785064 0.12182176 -0.14865129 -0.019697193 -0.048240144 0.20574088 -0.14953637
-0.13834761 -0.38994625 -0.011464891 -0.00951748 -0.04507675 -0.109031975 -0.31918266 0.11682185
-0.19533142 -0.14684664 -0.0474081 -0.2579161 -0.1310926 0.19851513 0.10318185 0.15968066
-0.22267425 -0.1320792 0.33799237 -0.21523339 0.33080095 -0.06404852 -0.28018454 0.021498933
0.048964266 0.12567185 -0.10120239 0.06598781 -0.057230707 0.30587247 -0.19093922 0.28985026
-0.29948333 0.13108318 -0.06676635 0.19972228 -0.27435035 0.09323975 -0.18815447 0.06869456
0.19654752 0.062037658 0.13930474 0.034668718 -0.260749 -0.31724697 0.21892604 0.12970163
0.25749287 0.19139431 0.30432835 -0.08419854 -0.031147312 0.086343594 0.031546306 0.17103691
-0.11079526 -0.1521849 -0.19965968 -0.08216963 0.1755614 -0.04324566 -0.07584925 -0.05704189
0.10069507 0.024516093 -0.05121271 0.16057351 0.23475878 -0.021036707 -0.1489468 -0.11937082
0.3032786 0.13479999 -0.16383922 -0.017410992 0.07693455 0.10516272 0.26549387 -0.08002527
0.19757639 0.07957436 0.19739039 0.14887823 0.04691856 0.27225763 -0.019949874 0.08958854
-0.029673712 -0.06876979 -0.16962448 -0.16832809 0.10977366 -0.02131608 -0.06557482 0.20261739
-0.15688483 -0.053034484 -0.020238193 0.36293054 0.08306683 -0.14868048 0.09286799 0.1562479
