Final_exp/FL_002/3stacks_1nhead_120lwin_0_0005lr_128dff_64batch_40epcs_0_1dropout_5rounds/checkpoints/client2/model__lr_0.0005_l_win_120_dff_128.pt (torch, 164111 bytes, 49 tensors)

encoder.encoder_layer.encoderlayer.self_attn.in_proj_weight f4 [69, 23]
00000000: bbd1 3e3e 4f29 90bd 4ec8 d53b dcb0 d73d
00000010: f49e 68be 4a39 43be 0e16 933b a3a3 0cbe
00000020: cf70 233e 91dc 743d 00cf 103d 5872 cb3c
00000030: 4efd 7c3e 4ba5 ddbd 27c0 adbc d55f 8b3d
00000040: 6e58 fa3d 3ffe 093e b346 82bd 0a00 833c
00000050: 1d2e ad3d b6c8 adbd 0e7f bbbc f09b cbbd
00000060: 8e15 45bd d3e3 183e 06ba 48be 9cf9 37be
00000070: 04c3 703e fecc 253e 3721 f33d b44b 91bd
00000080: 83af 70be 4fa6 b5bd e194 49be 20cc 5abe
00000090: ba76 583e f33a 083d 6880 54be fe01 123b
000000a0: 35cc e33d ca4e fc3d 35dd 5f3d 1537 123d
000000b0: 7f62 41be f0a0 483e 593d 6abd 1978 db3d
000000c0: 735d 43be ac2a 843d cbbd 733e 962b 6b3b
000000d0: bc51 023e 01cb 443e fc9e ef3d 311d aebd
000000e0: be8c 503e 80a6 3a3e 809a 3fbe 17c0 e7bd
000000f0: c7d1 64be c21c 5c3e f482 0cbe 367f 5abe
00000100: ccbe 66bd 3728 82be 0d5f a83d 9a34 28be
00000110: e44d a93d c2f1 6b3c 7f9f 4c3e 1c1d 283e
00000120: 18f9 413d 1b87 1a3e 377b 0fbe 27bc e3bd
00000130: 29da 5dbe 9e8d 983d 0251 14be 5342 333e
00000140: a0f1 79be 134c 1b3e d808 3c3e 7075 d1bd
00000150: 638b 4ebe 1a84 483e 596d ce3c 4325 d6ba
00000160: 291a abbd 56bf 513e 00c2 673e 9c02 17be
00000170: b03f 0b3e 64ae 683d eea3 76be 6575 c2bc
00000180: 9674 3f3d 7d28 98bd 56eb bf3c cabe 32be
00000190: d0c8 043e 1b71 173e 074f 083d 799d e63c
000001a0: a3a9 60bd db7b 32bd 659c 783e 7569 34be
000001b0: 567b fbbd 9b42 0dbe dc6b b73d 4cb4 6c3d
000001c0: 36b9 02be bb4a 453d 2014 ea3d bed7 cf3d
000001d0: b04c 4c3e 8d8c 4f3e 75fd 7bbe 5da7 823e
000001e0: 7cb6 2dbe af96 96bb 6b09 7f3d 8250 663d
000001f0: 6c74 0bbd 63fa 043e 9bda 47bd 5901 da3d
00000200: 9e2a 673e 2898 21be b46b 2ebe c09a 9e3d
00000210: 51b1 5d3d 4368 443e e36d ccb9 cf4c 45bd
00000220: 302e d23d f710 713e b52a 7dbe 844c 133e
00000230: f94d 1a3e 0e3c 4e3d 37b1 adbc 6200 65be
00000240: 6739 bb3d 7f1c 6a3e be22 16bc a561 3dbe
00000250: af61 a83d fc7d 7ebe 61f0 603e 2c66 4fbe
00000260: 3208 173d 999a e93d c4e9 5bbe 4856 0d3e
00000270: e76b bf3d 1f6d 18bd 4af5 4b3d 5cb6 063d
00000280: 1f85 d8bd b169 4c3e 1abf 6e3e f83a 553e
00000290: d018 733c 269f 263e 515c 943d 1309 5abd
000002a0: 17ec 0f3e d39b eabd cec9 103e 0273 4c3e
000002b0: 134b 563e 584e 1bbe e448 793e b7d6 d8bd
000002c0: 0ce8 24bd e7e5 88bd c7b0 c2bc 6301 90bc
000002d0: a86d 72be 86bc 35be bc6f b4bd 5e0c e9bd
000002e0: dc3d b8bd 5453 c8bd 342c 5a3e 2544 633e
000002f0: 8b22 453d 6d94 7fbe 9eb1 8abd 4faa a73d
00000300: 0958 00be ec99 593d 3060 be3d 735e 34bd
00000310: b810 053e 8bc9 25bd 33ce 7c3d 7f79 58be
00000320: f258 13be d118 25be 82a8 1fbd a7eb c43d
00000330: e1b5 29bd 0f50 973d 7d9a 58be be02 cd3d
00000340: 3217 813e 18b4 423d fa5f c8bc 8e3e df3d
00000350: cef4 10be 7eea 803c f446 82be 0371 30be
00000360: 6370 363e c8bb 5abe d8b7 f13d fc52 c6ba
00000370: 5ca6 973d e2c9 3b3d 5998 ddbc 78a2 2f3e
00000380: d4db 2bbd 0a81 d43d 964c 0b3e b1b7 0bbe
00000390: 747b b53c 1f49 aa3d 7104 363e e248 da3c
000003a0: e63c 12be 92c9 233e 30f2 513d 569b 2a3c
000003b0: 89da 6e3d ddb3 14be c114 19be 51f1 ca3d
000003c0: 12d5 423d a6e5 113e 06b5 37be dd7e bf3d
000003d0: d3f8 52be da0f 273d 605f 043d 585c 0ebe
000003e0: 2dc2 00bd cdf0 b3bd 13c6 033e e328 e6bd
000003f0: d53a 763e e45e 0fbe e170 d83d 9cda f5bd
0.18634693 -0.07039129 0.0065241223 0.1053178 -0.22716886 -0.19064823 0.004488713 -0.13734297
0.15961002 0.05978066 0.03535366 0.024834797 0.24706003 -0.10822543 -0.02120979 0.06805388
0.12223898 0.13475893 -0.06361141 0.01599123 0.08456061 -0.08485548 -0.022887733 -0.09941852
-0.04811626 0.14930658 -0.19602212 -0.17966312 0.23511893 0.1619148 0.118715696 -0.07094517
-0.23504452 -0.088696115 -0.19685699 -0.2136693 0.2113904 0.033259343 -0.20752108 0.002227902
0.11122934 0.12319715 0.05465432 0.03569706 -0.1888523 0.19592643 -0.057187412 0.10716266
-0.19078617 0.064534515 0.23802869 0.0035884134 0.12726492 0.19218065 0.11700246 -0.085016616
0.20366189 0.18227577 -0.18711281 -0.11315935 -0.22345649 0.21495345 -0.1372183 -0.2133759
-0.0563343 -0.25421306 0.082212545 -0.16426316 0.082668096 0.014400901 0.19982718 0.16417354
0.047356695 0.15090601 -0.14011846 -0.111198716 -0.21665253 0.07448886 -0.14484027 0.1750577
-0.24408579 0.15165739 0.18362749 -0.102274776 -0.2017036 0.19581643 0.025198625 -0.0016338009
-0.08354599 0.20483145 0.22632599 -0.14747089 0.13598514 0.056806937 -0.24085972 -0.023737619
0.046742044 -0.074295975 0.023427647 -0.17455593 0.12967229 0.1478924 0.03327849 0.02815126
-0.05484928 -0.04357515 0.2427841 -0.17618354 -0.12279384 -0.13794939 0.089561194 0.057789132
-0.12765965 0.04816697 0.1142962 0.101485714 0.19951129 0.2026846 -0.24608405 0.25518313
-0.16964144 -0.0045955996 0.06226484 0.056229122 -0.034046575 0.1298614 -0.048792463 0.10644788
0.22574851 -0.15780699 -0.17033273 0.0774436 0.05412418 0.19180398 -0.00038991784 -0.048168954
0.10262716 0.23541628 -0.24723323 0.14384657 0.15068807 0.05035024 -0.021202667 -0.22363427
0.09141808 0.22862433 -0.009163557 -0.1849428 0.08221757 -0.24852747 0.21966697 -0.20253819
0.03687305 0.1140644 -0.21475893 0.13802445 0.093467526 -0.03721344 0.049794473 0.032888755
-0.10572266 0.19962193 0.23315087 0.20823276 0.014837459 0.16271648 0.072441705 -0.05323131
0.14054905 -0.11455502 0.14139482 0.19965747 0.20927076 -0.15166605 0.24344212 -0.105878286
-0.04026036 -0.066844754 -0.023765935 -0.017578786 -0.23674643 -0.17747697 -0.08810374 -0.11379312
-0.08996174 -0.097815186 0.21305925 0.22193964 0.048128646 -0.24958964 -0.06772159 0.08186781
-0.12533583 0.053125307 0.0929569 -0.044035386 0.12994659 -0.04047541 0.061720084 -0.21140097
-0.14389399 -0.16122748 -0.03897906 0.096152596 -0.04143322 0.07388317 -0.21152683 0.10010289
0.2521301 0.047535032 -0.024459828 0.10900603 -0.14155886 0.015736815 -0.25444758 -0.1723061
0.1781631 -0.21360695 0.118026435 -0.0015130932 0.074047774 0.045846827 -0.027050184 0.1715182
-0.04195769 0.10376175 0.13603434 -0.13644291 0.022153594 0.08314728 0.17775132 0.026646081
-0.14281043 0.15994862 0.05125636 0.010413012 0.05831388 -0.14521737 -0.14949323 0.09909309
0.04756648 0.1424776 -0.17940149 0.09350369 -0.20602731 0.0407866 0.03231752 -0.13902414
-0.03143518 -0.087861635 0.12868528 -0.11238267 0.2404588 -0.14001042 0.10568405 -0.12004587

encoder.encoder_layer.encoderlayer.self_attn.in_proj_bias f4 [69]
00000000: 0000 0000 0000 0000 0000 0000 0000 0000
00000010: 0000 0000 0000 0000 0000 0000 0000 0000
00000020: 0000 0000 0000 0000 0000 0000 0000 0000
00000030: 0000 0000 0000 0000 0000 0000 0000 0000
00000040: 0000 0000 0000 0000 0000 0000 0000 0000
00000050: 0000 0000 0000 0000 0000 0000 0000 0000
00000060: 0000 0000 0000 0000 0000 0000 0000 0000
00000070: 0000 0000 0000 0000 0000 0000 0000 0000
00000080: 0000 0000 0000 0000 0000 0000 0000 0000
00000090: 0000 0000 0000 0000 0000 0000 0000 0000
000000a0: 0000 0000 0000 0000 0000 0000 0000 0000
000000b0: 0000 0000 0000 0000 0000 0000 0000 0000
000000c0: 0000 0000 0000 0000 0000 0000 0000 0000
000000d0: 0000 0000 0000 0000 0000 0000 0000 0000
000000e0: 0000 0000 0000 0000 0000 0000 0000 0000
000000f0: 0000 0000 0000 0000 0000 0000 0000 0000
00000100: 0000 0000 0000 0000 0000 0000 0000 0000
00000110: 0000 0000
0.0 0.0 0.0 0.0 0.0 0.0 0.0 0.0
0.0 0.0 0.0 0.0 0.0 0.0 0.0 0.0
0.0 0.0 0.0 0.0 0.0 0.0 0.0 0.0
0.0 0.0 0.0 0.0 0.0 0.0 0.0 0.0
0.0 0.0 0.0 0.0 0.0 0.0 0.0 0.0
0.0 0.0 0.0 0.0 0.0 0.0 0.0 0.0
0.0 0.0 0.0 0.0 0.0 0.0 0.0 0.0
0.0 0.0 0.0 0.0 0.0 0.0 0.0 0.0
0.0 0.0 0.0 0.0 0.0

encoder.encoder_layer.encoderlayer.self_attn.out_proj.weight f4 [23, 23]
00000000: 8c8b 853e 85bf 513e fae4 1f3e 6b5b 3b3e
00000010: f24b 0ebe 11f3 e33d 1c63 323c 52d5 a9be
00000020: 7846 e5bd 2651 95be f7c5 17be 393d a2be
00000030: 6e89 903e 0cd5 903e 666f 87be d685 2a3c
00000040: 252d 2ebd 204d 763e c277 3f3d 0ec5 cbbd
00000050: fad8 33be c2e1 9d3e 7c01 563d d194 20be
00000060: f017 ddbd 0224 793e fa7f 5ebe 9c1e eb3d
00000070: c231 133e 1640 833e 829d 293e c1b6 87be
00000080: ead4 78be b03e abbe cc29 713e 9a1a bfbd
00000090: fc69 793e 18d3 fcbd e642 a2ba a75a 63be
000000a0: 5cb1 eabd 9ad9 f43c bdef 7dbe 1070 643e
000000b0: fb1f 62be 3dd9 4b3e 405f 083e a7f4 b4be
000000c0: df3f b6be 4ae5 893e 82a0 3dbe 80b5 a4be
000000d0: 78f5 6c3c cae4 8f3e de87 4abe dccb 313e
000000e0: 5c0a 923e 2307 173d 1f78 84be b4c2 9fbe
000000f0: a67e 72ba 9a9d 943c 2d0e f53d 8e8d 80be
00000100: ace7 1abe 9b4e 9b3e b143 a83e 7e37 7b3e
00000110: 73e1 4a3e 6777 45bc 6292 f5bd 0e57 95bb
00000120: f1f4 673d 0926 85be e4e5 8f3d cc3d 3c3e
00000130: 664b 8f3e 0b79 963e db2f 293e 4e8d d43d
00000140: cb4e a2be 8a7a b03e 7cc3 503e 9bde a43e
00000150: e897 c23d 66ea 743b 09e2 453e 7c9f a63d
00000160: 980b 96bd 408b 213c d275 e63d 3736 5f3e
00000170: 3658 a8b9 5724 3d3e fc7a 90be 7647 cf3d
00000180: fe44 173e 3729 83be c0f4 b73e 843e 83be
00000190: 051b 5dbe be19 ad3e 297c 463e c44e c0bd
000001a0: c04e af3e 5680 653e 9ff6 3a3e 4830 afbe
000001b0: a596 b63e b695 09bc 6a40 443e f95a 183e
000001c0: 0b39 273d d221 623e cde1 20be 2969 223e
000001d0: 18b4 5d3d 0bcf 6a3e 3fd5 513e 1dcf 923e
000001e0: 3d34 fe3d e4cf 9a3d 4e76 d4bd 1e88 57bd
000001f0: dba7 b63e cdd9 0cbe a3bf b13e a489 fc3c
00000200: b53f 03be a2ee de3d 8016 983e 53a1 38be
00000210: ed57 183e 9bf8 3f3d 91a1 cc3d c880 3f3e
00000220: e3c5 32bd 5e64 acbe 72a2 823d 81e4 b0be
00000230: c2cd 72be 9490 7d3e 2132 00be 1d4c af3e
00000240: ee32 47be 4b37 19be c630 9ebe bf1a 34be
00000250: 6cf2 a1be 3971 8dbe 3fb6 543d b1e9 9b3c
00000260: 8a14 a4be e1b3 9e3e 9659 8d3e 6a7e 8abe
00000270: d51f 9c3e 647c 763e a8ff 9d3e b7a4 323e
00000280: e016 963d f3b6 693e 833b 893e 1f53 a23e
00000290: 806c 7d3e 2a53 9d3e 7a42 a13b 5bee d2bd
000002a0: ce9c f23d 1c67 8b3d a7b5 94be 4423 57bc
000002b0: b057 91be a5ca 1ebe 1464 25bd 1ac5 aa3e
000002c0: febd 1e3d 3cb5 9ebe 22d3 9cbd 2ca5 7fbe
000002d0: ed33 96be d0fc 993e 6884 ef3d 62fe 393e
000002e0: d7c3 bdbd fec9 86be d2cb 14be 65da 513e
000002f0: da70 943e 03ba 8a3e c411 013d f193 8b3e
00000300: d7cd c73c aa4e 9bbe 5a7a 7f3e 4e31 653e
00000310: 094f 4abd 3e6d 4abe 0d38 243d ba1c 633d
00000320: 6a4b 48be 3db1 5d3d f038 8ebe d157 da3d
00000330: a416 013e 3198 103e 6352 383e 3a35 5bbe
00000340: 445f a8be c6db 2d3e fe31 8ebe c26c b4bd
00000350: 7ebf 483e 82ad 92be 2a5a e43d aab0 85be
00000360: 42eb 06bd c900 6c3e c64d d0bd 60ac 6bbe
00000370: ddfc 1b3e e955 3bbe ca23 88be a62b 4fbe
00000380: 4e52 083e bb7a 27be e229 59bd 187c 36bc
00000390: 226a 52be bae1 213e 29eb 4bbd bb64 98be
000003a0: d1ea 83be c225 85bd 3a65 9ebe 587f 4b3e
000003b0: a9e1 7ebd 8047 88be 1d33 033d dc9b 38bd
000003c0: da38 a93b 6ca5 b6bd 520d 1f3e 11d0 b83e
000003d0: 208b 603e 7e9d 3fbe 6e23 da3d a405 0b3d
000003e0: aaa7 863e 7000 0bbe 64bb 8ebe 060f 223d
000003f0: 6f16 c23c 0358 c1bd 47ac 6ebc 6795 95be
0.26083028 0.20483215 0.15614691 0.18296592 -0.13896158 0.111303456 0.010887887 -0.33170563
-0.111950815 -0.29163474 -0.14821611 -0.31687334 0.2822985 0.28287542 -0.26452178 0.010407886
-0.042523522 0.24052858 0.04674507 -0.099496946 -0.17563239 0.30836302 0.05224751 -0.15681769
-0.10795581 0.24330142 -0.21728507 0.11480448 0.1437445 0.2563483 0.1656399 -0.26506618
-0.2429997 -0.33446264 0.235511 -0.09331246 0.24356836 -0.123449504 -0.0012379556 -0.2220255
-0.1145961 0.029888917 -0.24798484 0.22308373 -0.22082512 0.19907089 0.13317585 -0.35342905
-0.35595605 0.26932746 -0.1851826 -0.32169724 0.014462821 0.2810424 -0.19778392 0.17362922
0.2852353 0.03687204 -0.25872895 -0.31203234 -0.00092504395 0.018141557 0.119655944 -0.25107998
-0.15127438 0.3033341 0.32864144 0.24532887 0.19812565 -0.0120523935 -0.11990811 -0.004557497
0.05663008 -0.2600558 0.0702627 0.18382949 0.27987212 0.29389223 0.16522162 0.10378514
-0.3170074 0.3446849 0.20387071 0.32201084 0.0950163 0.0037371158 0.19324507 0.08135888
-0.0732643 0.00985986 0.11252941 0.21798025 -0.0003210918 0.18470894 -0.2821883 0.10121052
0.14772412 -0.25617382 0.35928917 -0.25633633 -0.21592338 0.33808702 0.19383301 -0.09390023
0.3423977 0.22412238 0.18258141 -0.34216523 0.35661808 -0.00839751 0.19165197 0.14878453
0.040825885 0.22083214 -0.15711136 0.15860428 0.05412683 0.22930543 0.20491503 0.2867364
0.124123074 0.07559183 -0.10374127 -0.052620046 0.3567494 -0.1375496 0.3471652 0.03082735
-0.12817271 0.10885359 0.29704666 -0.1803029 0.14877291 0.046867948 0.09991754 0.1870147
-0.04364575 -0.33670324 0.0637864 -0.34549335 -0.23711303 0.24762183 -0.12519123 0.34237757
-0.19453022 -0.14962499 -0.30896586 -0.17588328 -0.31630266 -0.27625445 0.051931616 0.019032331
-0.3204692 0.30996612 0.2760741 -0.2704957 0.30493036 0.24070889 0.30859113 0.17445646
0.07328582 0.22823696 0.26803216 0.3170404 0.2474842 0.30727512 0.0049212547 -0.10299369
0.11846314 0.06806776 -0.2904484 -0.013130967 -0.28387213 -0.1550699 -0.040378645 0.33353502
0.03875541 -0.30997646 -0.07657458 -0.24965352 -0.2933649 0.30075693 0.11695176 0.18163446
-0.09265869 -0.26325983 -0.14530876 0.20493467 0.2899235 0.2709504 0.031511083 0.27261308
0.024390144 -0.30333453 0.24949017 0.2238209 -0.04939178 -0.19768235 0.040092517 0.055447318
-0.19560018 0.054124106 -0.27777815 0.10661281 0.12606293 0.14120556 0.18000178 -0.21407023
-0.32885182 0.16978368 -0.27772516 -0.088098064 0.19604298 -0.28648 0.1115001 -0.26111346
-0.032939203 0.23047175 -0.10171084 -0.23014975 0.15233178 -0.18294491 -0.26589805 -0.20231494
0.13312647 -0.16355412 -0.05301846 -0.011137985 -0.20548299 0.15808764 -0.049784813 -0.2976435
-0.25765088 -0.06501342 -0.30936605 0.19872797 -0.062226925 -0.2661705 0.032031167 -0.045070514
0.005164248 -0.089182705 0.15532425 0.36096242 0.21928072 -0.18712422 0.10651289 0.033940926
0.26299793 -0.13574386 -0.27877343 0.03956511 0.023692338 -0.09440615 -0.014567441 -0.29215547

encoder.encoder_layer.encoderlayer.self_attn.out_proj.bias f4 [23]
00000000: 0000 0000 0000 0000 0000 0000 0000 0000
00000010: 0000 0000 0000 0000 0000 0000 0000 0000
00000020: 0000 0000 0000 0000 0000 0000 0000 0000
00000030: 0000 0000 0000 0000 0000 0000 0000 0000
00000040: 0000 0000 0000 0000 0000 0000 0000 0000
00000050: 0000 0000 0000 0000 0000 0000
0.0 0.0 0.0 0.0 0.0 0.0 0.0 0.0
0.0 0.0 0.0 0.0 0.0 0.0 0.0 0.0
0.0 0.0 0.0 0.0 0.0 0.0 0.0

encoder.encoder_layer.encoderlayer.linear1.weight f4 [128, 23]
00000000: c2a1 9f3d 0e12 e33d 2d3a e0bd e0b8 39bc
00000010: d773 4b3e 7244 11be 4845 dfbd 8a25 7d3c
00000020: 345e 21bd a30f 16be 873d 933d 9169 2bbe
00000030: 72a4 c83d 7031 9bbd 0e9d 46be fcfa a6bd
00000040: 1f27 193e 4ef0 d43d a75f d33d fa09 edbd
00000050: 5cff 18bd e1d7 6f3d a2a4 5bbd 6254 2fbd
00000060: e2aa 513d ac80 fe3d 180f f9bd 0958 d5bd
00000070: 1c87 7fbd b1a4 1ebe c52f 593b c3a7 13be
00000080: b960 443e 36dd 223e ee88 49be 6094 e03c
00000090: af35 1abe 5ff5 10be e014 3d3e 56db c63d
000000a0: 7b8e 48be eb2f 77bd bc1b 15be d1d7 1b3e
000000b0: e239 233e c6c6 b1bd 4d8c 5fbd 4cb1 713b
000000c0: 283c fc3d 9fd4 453e 6997 1fbe f2e0 1cbe
000000d0: 9145 aa3d 2dca ee3d 3c9e 2bbe 0227 233b
000000e0: be3c 243e 2c41 223c 103a 0e3e 698d 343d
000000f0: 82c2 e6bc d0cb ae3d 070c 213d 03f9 6cbc
00000100: 0ac6 a5bd 30a7 cb3d eb44 1dbe f685 bfbd
00000110: 8957 a93b e4f7 073e b62e 9b3d 6053 36be
00000120: b710 2b3d 7347 c43d b18e 1ebe d97e d9bd
00000130: 4c2e 0fbd 8bfa 3e3e caeb e53d 76c7 03be
00000140: 665a 873d 5234 ecbc 9a39 873b 940f 17be
00000150: 0692 4c3d 8e8d f1bd 9296 04bd efe2 203e
00000160: 22b9 ec3b 0006 203e 8596 1f3e f6ae 07bd
00000170: 0700 21be 0f83 edbb 70a4 1b3e 72f2 1bbd
00000180: 34ab 913c 9fd8 2ebd 5613 e93d 0a28 2a3d
00000190: ae34 99ba b097 db3d 11d1 483e 6782 84bd
000001a0: 764b 9c3d 6ec9 6bbd 148f 1bbe bff4 a43d
000001b0: 7d43 2dbe b59e 653d e5d5 36be 4519 00bc
000001c0: 8aa0 07be 4c0f 843d 5f29 c63d 7e45 283d
000001d0: 7d43 a83d 2a35 05be caa9 10be 5c29 1d3d
000001e0: cdea 2c3e 6136 8bbd e24e 3cbe 11a0 b73d
000001f0: 9e89 e63d 0651 0c3e 490d 9bbd 93c9 023e
00000200: d9a0 08be 68f6 813d 94b8 863d c281 8f3d
00000210: e685 9f3b 550e 3ebe 5454 99bc 1121 46be
00000220: 084a 423d 8f83 0a3e 9348 bbbd 5a45 d6bd
00000230: eae2 563d 968d 2f3e b15d 003d f315 91bc
00000240: 6293 0e3d 7464 193e 4bbf 80bd ad12 44be
00000250: 5a2b 8539 5c75 26be bab8 e03d 7ab0 493d
00000260: 6b61 103e 1279 91bc 2f1b 14be fc0b 243e
00000270: 8448 13be bbfb ff3d 2e47 e23c 159e 8b3d
00000280: 8b5d 1bbe 826e 28be 2cb0 c5bd a022 07be
00000290: 4131 30be bbfb 61bd 190c 433e 5809 1a3e
000002a0: 5370 363e 02cc 563d 29e1 18be a8d9 023e
000002b0: 12f7 473e 5289 01be f388 35bb 6520 353d
000002c0: 0838 e63d 7442 5e3c b8ac 4abe 4046 c0bc
000002d0: 1b46 0bbe 8b45 df3d b918 103e 8eb9 923c
000002e0: d145 2bbe b691 85bd d63f 91bd 753a bd3d
000002f0: ed6f f93d 707b 013e d279 83bd 5091 a33d
00000300: 9991 4cbd 9e2b 7f3c fbcd 2c3b 7292 23be
00000310: b340 493d dfdb b53b 9430 d7bc 166f 48be
00000320: 665c 0cbe 5d2b 323e 7b4d 46be 0655 b1bd
00000330: a47c b8bd 104b fc3d 94ca 27bd 7ca8 25be
00000340: 64cb 193e 3c9a 353e ac73 ff3c de1d 25be
00000350: 9492 e13d c870 b43d 5605 e83c 9024 a5bc
00000360: 0dc4 1a3d 10f6 1cbe 5568 173e 5ca8 c6bb
00000370: 1aab 3bbe 106a 263e 0411 97bd 0e92 873c
00000380: 79b9 b63d c973 363d 7210 213e 12e1 3abe
00000390: 9eeb 5e3d 0a6e 6739 da7d 11bc 5f22 f3bd
000003a0: 4c4e 05be 8875 903d 2c6e 703c cb23 e53b
000003b0: b382 ec3d 2695 ed3c 422d 673c 5212 043e
000003c0: ecd4 8aba d4a8 3d3e cfab 27be 54cb ba3d
000003d0: 92c5 4f3d 95c3 a63c ee81 72bd 94a2 1ebd
000003e0: 424a 743d b2a5 853c 00c4 24be e484 33be
000003f0: ae26 ccbd 32f3 47be 621f 89bd 66e7 553d
0.07794525 0.11087428 -0.10948596 -0.011335582 0.19868408 -0.14186266 -0.10901886 0.015450845
-0.03939648 -0.14654402 0.0718947 -0.16739489 0.097969905 -0.07577789 -0.19395849 -0.0815334
0.1495633 0.10397397 0.103209786 -0.115741685 -0.037352905 0.058555488 -0.053623803 -0.042805083
0.051188357 0.12426886 -0.12161082 -0.10417182 -0.06238471 -0.15492512 0.0033140045 -0.14419465
0.19177522 0.15904698 -0.19681141 0.0274145 -0.15059541 -0.14156102 0.18464994 0.09709804
-0.19585602 -0.060348433 -0.14561361 0.15219046 0.1594005 -0.08680491 -0.05457716 0.0036879359
0.123161614 0.1931939 -0.15585102 -0.15320185 0.0831405 0.11659656 -0.1675958 0.0024895077
0.16038796 0.0099032335 0.13889337 0.04408017 -0.02816892 0.08534968 0.03931811 -0.014463666
-0.080944136 0.09943998 -0.15358321 -0.09351723 0.0051679057 0.13278157 0.07577269 -0.17805243
0.041763987 0.0958394 -0.1548412 -0.106198974 -0.03495626 0.18650262 0.11226614 -0.12869057
0.06609039 -0.028833542 0.0041267397 -0.14752036 0.049943946 -0.117945775 -0.032370158 0.15711568
0.007224218 0.15627289 0.15584762 -0.03312584 -0.15722667 -0.0072482894 0.15199447 -0.03807301
0.017781831 -0.042687055 0.11380641 0.04154209 -0.0011688673 0.107222915 0.19611003 -0.06470185
0.076315805 -0.057565145 -0.15191299 0.08054494 -0.16920276 0.056059558 -0.17855032 -0.007818525
-0.13244835 0.0644823 0.0967586 0.041081898 0.08215997 -0.13008562 -0.1412727 0.03836952
0.16886444 -0.06797481 -0.18389466 0.08966077 0.11256717 0.13702783 -0.07570893 0.12772207
-0.13342609 0.063458264 0.06578174 0.07007171 0.004868257 -0.18560155 -0.018716969 -0.19348551
0.047433883 0.13526748 -0.09144702 -0.104624465 0.052462496 0.17143854 0.03133935 -0.017710662
0.034808524 0.14979726 -0.06286486 -0.19147749 0.00025400036 -0.16255707 0.10972734 0.049240567
0.14099662 -0.017757926 -0.14463495 0.16020197 -0.14383131 0.12499186 0.027621832 0.06817261
-0.15172403 -0.16448405 -0.09652743 -0.13196802 -0.17206289 -0.05517171 0.19047584 0.15042627
0.17816286 0.05244065 -0.14929642 0.12778342 0.19527844 -0.1265004 -0.0027700036 0.044220347
0.11241156 0.013565648 -0.1979245 -0.023470998 -0.13600962 0.10901936 0.14071931 0.017910745
-0.16725852 -0.06521933 -0.07092254 0.092396654 0.12179551 0.12644744 -0.0641972 0.079867005
-0.04994354 0.015574364 0.002636789 -0.15973833 0.049133968 0.0055498923 -0.026268281 -0.19573626
-0.13707122 0.17399354 -0.19365494 -0.08658795 -0.09008148 0.123190045 -0.040964678 -0.16177553
0.15018994 0.17734617 0.031183086 -0.16124675 0.11014286 0.08810574 0.028322857 -0.020159036
0.037784625 -0.1532824 0.14785893 -0.0060625505 -0.18326989 0.16251397 -0.07376292 0.016549136
0.08922095 0.044544015 0.1572893 -0.1824992 0.05442392 0.0002207087 -0.008880103 -0.1187179
-0.13018149 0.07053667 0.0146747045 0.0069927922 0.115483664 0.029001784 0.014109911 0.12897614
-0.001059202 0.18521434 -0.16374134 0.09120813 0.050725527 0.020356933 -0.05920594 -0.038729265
0.05964113 0.016314361 -0.16090393 -0.17531163 -0.09968315 -0.19526365 -0.06695439 0.052222632

encoder.encoder_layer.encoderlayer.linear1.bias f4 [128]
00000000: 3269 283e 9f43 1d3d 40dd 053e 3356 47be
00000010: cfed 12bd e053 8c3d a202 723c 0e7a 7b3d
00000020: aca8 9c3c 54a4 2dbd cbc1 173e 9ad9 d5bd
00000030: 9f34 123e 964c 0dbd c85b a73d 6019 9ebd
00000040: 8647 a33d d6d6 88bc ec2f 46be b02e 8d3c
00000050: 280f 54be ec71 e1bd 7a67 3e3d 3c5f 373e
00000060: 760d 353e 22c4 0b3d 68e3 e1bc cf25 b0bd
00000070: cfd8 423e 5376 4cbe 3620 3d3b 5bd4 48be
00000080: 4a65 723d 9f05 2abe 0a7e adbc 30a0 34be
00000090: e914 0d3e ed62 663c 31e1 29be d679 c93d
000000a0: 1ac9 8fbc e066 24be 3cbf 203e 7b2b 52be
000000b0: 1b6b 23bd f79d 16be 98c9 3a3e 1c66 d63d
000000c0: 1794 35bd 31f7 87bd 3768 153e fce7 e3bd
000000d0: af1f e73d 06d6 91bd b172 153d b014 68bd
000000e0: d85d f8bd 4813 303e 406f 443e 9c5e 2e3e
000000f0: 62c4 cabd 1c9f 24bd d2b5 25be de36 b73d
00000100: 750d f4bd 887d 8d3d 9b1f fd3d 8797 b83d
00000110: fd96 d5bc d5c9 9ebc a315 29be df3b d6bb
00000120: 1d4d 2ebe 8439 3e3e cb09 d63d 8fb7 bb3d
00000130: 0ade 533e 3a17 55bd 63cc 51be acbf febd
00000140: 55e1 523e 86c2 50be 01d9 82bc 88b4 8ebd
00000150: 021d 0c3e 657a 41be f856 aa3d 9c6e 523d
00000160: 803f 28be 325d 183e 8003 ddbd a41f 2c3e
00000170: ac62 42be ce66 32be 6690 36be 8a7c b23c
00000180: bbd0 14be 77ec 573d d8ac 1d3d 2676 313e
00000190: d0de eb3d 471d 083e f994 6ebd 39e8 1c3e
000001a0: ccbc d2bd 2e09 b1bd ce5b 82bd 0a35 71bd
000001b0: 8257 0b3e ce92 c13d 8c1a 07bd 5f60 b3bd
000001c0: 4f1c e2bd 868d a3bd e534 ab3c 3166 05be
000001d0: 7a9d f8bb bea0 20be 6980 9b3d b8a3 37be
000001e0: cdb7 df3d e126 e7bd bcfd 243e 4e0b 2dbb
000001f0: e3c1 113e 9e04 f6bd 7269 823c 5bcd e13d
0.16446379 0.038394567 0.13072681 -0.19466476 -0.035871323 0.068519354 0.0147711355 0.061395697
0.019123398 -0.042393044 0.1482002 -0.10441895 0.14277886 -0.034496866 0.08171803 -0.07719684
0.079726264 -0.016704004 -0.19354218 0.017234176 -0.20708907 -0.11008057 0.0464854 0.17907423
0.17680916 0.034122594 -0.027574256 -0.086009614 0.19028018 -0.19967012 0.002885831 -0.19612257
0.059178628 -0.16603707 -0.021178264 -0.17639232 0.13777508 0.014061672 -0.1658981 0.098376915
-0.017551947 -0.16054869 0.1569795 -0.20524399 -0.039897066 -0.14708696 0.18240964 0.104686946
-0.044330683 -0.06638945 0.14590536 -0.11128232 0.1128534 -0.071209 0.03648633 -0.056660354
-0.12127274 0.17194855 0.19183064 0.17028278 -0.09900738 -0.0401908 -0.1618264 0.08946012
-0.11916629 0.06908709 0.12359544 0.090132765 -0.026072973 -0.01938335 -0.1651216 -0.006537899
-0.17021604 0.18576628 0.104510866 0.091658704 0.2069017 -0.052024104 -0.20488124 -0.12438902
0.2059377 -0.20386705 -0.015972616 -0.06968027 0.1368294 -0.18894346 0.08317369 0.051375017
-0.16430473 0.14879301 -0.10791683 0.16808945 -0.18982953 -0.1742203 -0.17828521 0.0217879
-0.1453275 0.052715745 0.038494915 0.17330226 0.115171075 0.13292418 -0.05824754 0.15322961
-0.102899164 -0.08644329 -0.063651666 -0.058888473 0.136076 0.09451829 -0.0329843 -0.08758616
-0.11040556 -0.07985978 0.020899246 -0.13027264 -0.007587132 -0.15686318 0.07592852 -0.17933547
0.10923729 -0.112867124 0.16112417 -0.0026404443 0.14234118 -0.120125994 0.01591942 0.110254966

encoder.encoder_layer.encoderlayer.linear2.weight f4 [23, 128]
00000000: f4a8 dbbd 0842 25be 4a2a a03d 106e a7bc
00000010: 38fd b83d eaa3 113e 7a31 223e 23ae e83d
00000020: 14c5 05be fc6d 0d3e b276 e9bd 0baa 92bd
00000030: 815e b43d ff05 cfbd de45 e4bd c641 c63d
00000040: 7d67 333d c0a0 e53d 7c2c 23be 2678 d1bc
00000050: d32a 17be 9210 9dbd db7b 793b b013 a93d
00000060: b4a0 ae3d 0e6f 123e 63d7 2fbe 1f5a 5f3b
00000070: 6ee6 c4bd cfeb 103e 4a8e 4bbe 2b02 dcba
00000080: e329 443c 04c9 733c 6788 123e 2e10 18be
00000090: d069 88bd dc72 2c3e 5c6f 3e3e ebd1 49bd
000000a0: 3774 eb3c ecfc 20be 2211 b43d 6477 e9bd
000000b0: 3e8b 1dbe dbc7 f4bd 2776 4abe 3ba2 c93d
000000c0: 149b 863c 5758 39be ee6d 60bd 8750 9f3c
000000d0: 383f cebd 55e1 26be 9fc1 143e 5ed0 333e
000000e0: fe07 983d 46ff 3bbe a02c 8bba 3dff 153e
000000f0: 4478 04be 8317 f4bd 1fbc d23d 9b7e 953d
00000100: 76ef e63c 3b93 49bd d904 b63d d889 293d
00000110: 3d4b 4abe 6c44 893d 77c2 07be 1372 f5bd
00000120: 8e2f 653c b3dd 1d3e 923e a73c f030 12be
00000130: e7b2 38bd da8d 52bd 1ec9 c8bd 54a2 413e
00000140: 7658 933d d008 bf3d 2c59 543d 6a71 543a
00000150: 4c66 3dbe 83dc 0f3e 1266 213e 7503 003e
00000160: bcab 803c 7eba 1fbe e3cb 82bd f3f9 acbd
00000170: e0ea b43d caa5 0e3e a012 cabd 3273 ae3d
00000180: 5fb8 3b3e 8cb1 ff3d e68e 833d 29e1 97bc
00000190: 337a 243e 160e 0cbe 348c 1d3e 9e75 263d
000001a0: 3a9f 4b3c 12b8 9ebd 2e3e 14be dacf 16be
000001b0: cbc0 ff3d f086 d6bc b2a5 1f3e 91f9 3fbe
000001c0: 6c09 883d c384 81bc 8c5f a93d b4d5 293e
000001d0: 2218 103e 6676 873c b2d3 a4bd b394 343e
000001e0: 909c 1e3e d3ca 97bd 44ee f23d 4112 c73c
000001f0: 5725 2dbd 89e6 a83d 937a 3b3e 0006 243e
00000200: f384 7d3d 5dc8 413d be47 2a3e 1046 ee3d
00000210: f0aa d9bd 9cb9 5cbd 6bd6 2dbe 15b6 1f3e
00000220: 15fa e23d 580f a03c 3d02 2c3e 6eb4 27bc
00000230: 4588 c0bc a9bd cf3d a371 433e c082 063e
00000240: b284 7fbd f4a9 133d 0ccd 34bd ef3a 13be
00000250: 0218 203e c02b 61bd 28fe 96bd 1a25 283d
00000260: 1130 423c 7cd8 b5bd b63b 4a3c f3bf 12be
00000270: e78b 22be 68d5 8dbd c6c3 ffbd b408 bd3c
00000280: 0242 363d 2538 ef3d 7b3f cf3d 01e0 36be
00000290: 7050 11be fea0 29be 382e 31be 191c b93c
000002a0: e492 04be 9b6d 2dbd 96e1 cb3d ac3e 0cbe
000002b0: 6e68 b4bd 36fd 693d b92a 95bd 48ac 81bc
000002c0: 109a 41be 4a05 ec3d 8245 7e3d 7ab6 293e
000002d0: a396 9c3d 3240 153d fcf6 34bd b4c6 403e
000002e0: b367 fcbd f0cf 343d 364e bf3d 36cb b43d
000002f0: 78aa 63bd df95 a53d e00c ae3c 9d46 38bb
00000300: 8e85 ebbd c068 3d3e 0262 253e e09e 76bd
00000310: 04de dcbd 4a3b 8f3d d5d0 c2bc aacf 403e
00000320: 162e 49be a423 0d3e 08e5 133d afda e3ba
00000330: b525 46be 824c ebbd 2e77 32be 5b26 f0bd
00000340: 61f9 1c3e 63dc 443e 7f2b 8d3d b2c1 3ebe
00000350: e61d 113d 7f51 a1bd cebb 24be eb42 11be
00000360: 6e3b 46be d06c 0f3d bcf7 753d 3e41 0abd
00000370: 8fe0 93bd 0d49 6c3d 4cbb f4bd 7745 25be
00000380: e3be 2cbe 96bf 9dbd 12b4 fbbd e234 fabd
00000390: e04a 5ebd 3a91 46be be63 913b f208 43be
000003a0: eba6 91bd 96c1 94bd 541e 10be 4c77 2ebe
000003b0: dcb3 0dbe a3c7 e8bc 3845 1d3c c787 00be
000003c0: 7eb8 b33b dcc2 7ebd 560c c2bd 2e94 d7bd
000003d0: 35b7 3c3e 45d9 c1bd 61e0 78bc 6a4c c73c
000003e0: fc26 c9bd e53d 433e dffe 123c 26ab 193e
000003f0: d3e9 f13d 8f4a 2f3d a7e1 8d3d 0414 d2bd
-0.107255846 -0.1613847 0.07820566 -0.020438224 0.09032673 0.14222685 0.15839186 0.11361339
-0.1306346 0.13811487 -0.113995925 -0.07161339 0.08807088 -0.101085655 -0.111461386 0.09680514
0.043799866 0.11212301 -0.15934938 -0.025569987 -0.1476243 -0.07669176 0.0038068208 0.08255708
0.085267454 0.14300177 -0.17172007 0.0034080816 -0.096142635 0.14152454 -0.19878498 -0.0016785314
0.011972877 0.014879469 0.14309846 -0.14849922 -0.06660807 0.1684069 0.18597168 -0.04927246
0.028741939 -0.15721482 0.0879233 -0.11399725 -0.15385148 -0.11952182 -0.19771634 0.09845396
0.016431369 -0.18100105 -0.054792337 0.019447578 -0.10070652 -0.16296895 0.14526986 0.17559955
0.074233994 -0.18359098 -0.0010618158 0.14648147 -0.12936503 -0.11918547 0.102897875 0.07299539
0.028190356 -0.049212676 0.08887643 0.041391224 -0.19755264 0.067025036 -0.13257776 -0.119846486
0.013988389 0.15416603 0.020415578 -0.1427648 -0.04509249 -0.05140481 -0.09803985 0.1890958
0.07194607 0.09327853 0.051842853 0.0008104058 -0.18496054 0.14048962 0.15761593 0.12501319
0.01570689 -0.15598485 -0.063865446 -0.084461115 0.08833861 0.13930431 -0.09866834 0.085180655
0.1833205 0.12485036 0.0642374 -0.018539982 0.1606224 -0.13677248 0.15385514 0.040639512
0.012428099 -0.077499524 -0.14476845 -0.14727727 0.12487944 -0.02618739 0.15590551 -0.18747546
0.06642422 -0.015810376 0.08270177 0.16585428 0.14071706 0.016535949 -0.0804819 0.17634849
0.15489411 -0.074117325 0.11861852 0.024300696 -0.04227194 0.08247096 0.18308477 0.16017914
0.06189437 0.047310222 0.1662893 0.11634457 -0.10628307 -0.05388795 -0.16976325 0.15596803
0.110828556 0.019538566 0.16797729 -0.010235889 -0.023502478 0.10143597 0.19086318 0.13135815
-0.062382407 0.03605075 -0.04414086 -0.1437795 0.15634158 -0.054973364 -0.07372695 0.041051008
0.01185228 -0.08879182 0.012343338 -0.14331035 -0.15873681 -0.0692547 -0.12488513 0.023075439
0.044496544 0.116806306 0.1011953 -0.17858888 -0.1419084 -0.1656532 -0.17302787 0.022596406
-0.1294666 -0.042340856 0.099551365 -0.13695782 -0.08808981 0.057126246 -0.07283539 -0.01582922
-0.18906426 0.11524446 0.062078007 0.16573516 0.07645919 0.036438175 -0.044180855 0.18825799
-0.123244666 0.044143617 0.093410894 0.08827822 -0.055582494 0.08085226 0.021246374 -0.002811826
-0.11500083 0.1849699 0.16150668 -0.06021011 -0.107845336 0.0699373 -0.02378122 0.18829218
-0.19646487 0.13783127 0.036107093 -0.0017383898 -0.19350322 -0.11489202 -0.17428276 -0.11726066
0.15329506 0.19224696 0.06893062 -0.18628576 0.035428904 -0.07876872 -0.16087267 -0.14185683
-0.19358608 0.03501588 0.06005071 -0.033753626 -0.072205655 0.057686854 -0.119497865 -0.1613978
-0.16869693 -0.07702558 -0.12290205 -0.12217118 -0.054270625 -0.19391337 0.004436939 -0.19046381
-0.07111915 -0.07263486 -0.1407407 -0.17037696 -0.13838142 -0.028415507 0.009599023 -0.12551795
0.0054846397 -0.06219755 -0.09475009 -0.1052631 0.18429263 -0.09465269 -0.015190215 0.02432843
-0.09821889 0.1906658 0.008971899 0.15006694 0.118121766 0.042795714 0.069278054 -0.10257724

encoder.encoder_layer.encoderlayer.linear2.bias f4 [23]
00000000: 9db2 1d3d 7efa a63d 0dea 833d faa5 bc3c
00000010: 3797 363d b6a8 1cbc 08e3 a3bb 13cd 86bd
00000020: 3296 c1bb a212 a83d 55ff df3c eae4 24bd
00000030: d80d 4ebd 3803 873c 5b2c 013d 573d 7d3d
00000040: 44f6 423d 5102 033d f097 f8bc c9dc a9bd
00000050: 4159 043d f059 86bb 2222 6bbd
0.038500417 0.08153246 0.06441126 0.023028363 0.044577803 -0.009561708 -0.0050014295 -0.065820836
-0.0059077973 0.08206679 0.027343431 -0.040257372 -0.05030617 0.016481027 0.03153644 0.061826076
0.04759814 0.03198463 -0.030345887 -0.082940646 0.03231168 -0.004100077 -0.0574056

encoder.encoder_layer.encoderlayer.norm1.weight f4 [23]
00000000: 0000 803f 0000 803f 0000 803f 0000 803f
00000010: 0000 803f 0000 803f 0000 803f 0000 803f
00000020: 0000 803f 0000 803f 0000 803f 0000 803f
00000030: 0000 803f 0000 803f 0000 803f 0000 803f
00000040: 0000 803f 0000 803f 0000 803f 0000 803f
00000050: 0000 803f 0000 803f 0000 803f
1.0 1.0 1.0 1.0 1.0 1.0 1.0 1.0
1.0 1.0 1.0 1.0 1.0 1.0 1.0 1.0
1.0 1.0 1.0 1.0 1.0 1.0 1.0

encoder.encoder_layer.encoderlayer.norm1.bias f4 [23]
00000000: 0000 0000 0000 0000 0000 0000 0000 0000
00000010: 0000 0000 0000 0000 0000 0000 0000 0000
00000020: 0000 0000 0000 0000 0000 0000 0000 0000
00000030: 0000 0000 0000 0000 0000 0000 0000 0000
00000040: 0000 0000 0000 0000 0000 0000 0000 0000
00000050: 0000 0000 0000 0000 0000 0000
0.0 0.0 0.0 0.0 0.0 0.0 0.0 0.0
0.0 0.0 0.0 0.0 0.0 0.0 0.0 0.0
0.0 0.0 0.0 0.0 0.0 0.0 0.0

encoder.encoder_layer.encoderlayer.norm2.weight f4 [23]
00000000: 0000 803f 0000 803f 0000 803f 0000 803f
00000010: 0000 803f 0000 803f 0000 803f 0000 803f
00000020: 0000 803f 0000 803f 0000 803f 0000 803f
00000030: 0000 803f 0000 803f 0000 803f 0000 803f
00000040: 0000 803f 0000 803f 0000 803f 0000 803f
00000050: 0000 803f 0000 803f 0000 803f
1.0 1.0 1.0 1.0 1.0 1.0 1.0 1.0
1.0 1.0 1.0 1.0 1.0 1.0 1.0 1.0
1.0 1.0 1.0 1.0 1.0 1.0 1.0

encoder.encoder_layer.encoderlayer.norm2.bias f4 [23]
00000000: 0000 0000 0000 0000 0000 0000 0000 0000
00000010: 0000 0000 0000 0000 0000 0000 0000 0000
00000020: 0000 0000 0000 0000 0000 0000 0000 0000
00000030: 0000 0000 0000 0000 0000 0000 0000 0000
00000040: 0000 0000 0000 0000 0000 0000 0000 0000
00000050: 0000 0000 0000 0000 0000 0000
0.0 0.0 0.0 0.0 0.0 0.0 0.0 0.0
0.0 0.0 0.0 0.0 0.0 0.0 0.0 0.0
0.0 0.0 0.0 0.0 0.0 0.0 0.0

encoder.transformer_encoder.layers.0.encoderlayer.self_attn.in_proj_weight f4 [69, 23]
00000000: 7ead 543e 7f7f 863d 8120 573e cbad 133e
00000010: b998 46be 354d a8bd a91e 113e 9d8f 38be
00000020: e1a9 603e 0d3e 40be 2f41 8e3e f5d2 70bd
00000030: f3d8 b23d 6763 283e 445f 23be f91a 933e
00000040: 65d5 4e3e 5b35 7abd 310c b0bd 1f42 5fbe
00000050: 5b4c ca3d e0ce 8fbd 9a80 693e 85a3 3bbc
00000060: 8f56 3bbe 3107 e43d 8e75 c43c 7935 a7bd
00000070: 2fc2 e93d 8030 e13d 6358 2ebe 8561 c23d
00000080: e772 433d 4332 bb3d 2bb1 b0bd 42c6 683d
00000090: 95ee 15bd ed0f 8dbd b0e8 d6bd c7f3 b1be
000000a0: e2ed 09be acae 423e 8a41 4dbe 8a27 c83d
000000b0: eef6 8bbd 019e 013e 076f 9d3e 0989 5d3e
000000c0: e0e7 803e 8ce5 1ebe 15a9 193e d4a6 5a3e
000000d0: 5856 00be 3e59 03be ecc5 4a3d 1c05 86bc
000000e0: 5037 08be 3f3e c33d fa48 1f3e 5b22 023e
000000f0: 9ae4 98bc d109 853e b209 1a3f f434 bb3c
00000100: 4fa5 a8bd 0689 06be f690 88bd 7166 923e
00000110: a99d 6dbc 06e3 b2be 753b c2be f0a0 16bd
00000120: d34a 4ebe 685e 3bbe b332 be3d 60fd 3f3d
00000130: 9666 073c 301a 263e dce6 463e 75c7 3a3e
00000140: f263 2b3d 355e 99bc 71e4 573d c87f 26be
00000150: 9c50 edbd 89a6 54be c522 4abe a211 48be
00000160: f6d7 f73c d247 d1bb f772 8dbe 95c6 923d
00000170: 89c5 03be cd36 3abe c4c5 9cbd 8a63 f43d
00000180: e8d8 39be e163 973d 6b27 1abe a22f 91be
00000190: 88a3 e83d 62ca f73c 486b 9e3c 6422 8cbe
000001a0: 8491 4b3e dbfd a5bb b93c 863d cb8f 3c3d
000001b0: 36b5 e9be c0c1 093e 00cf 873d af64 d6bd
000001c0: bbee 723e 4c56 55bd 4324 413e bb2b 423e
000001d0: 7d7f 453d 5f33 403d fe1e 81be 4eda b1bd
000001e0: 2496 de3d 5ade a5bd 6c4d 1c3c e6eb 10bd
000001f0: 3cd9 063e 5300 353d 2fa9 52bd d38d edbd
00000200: e139 09be 26f5 ff3d 1b24 0bbc 5af4 93bd
00000210: 3151 033e 0c89 f03d 6e44 3abd 017e 093e
00000220: 6779 2f3a a674 0fbe 43fa 973e 7a5b b9bd
00000230: afb9 2a3e 6b6b ae3c bc95 48be 980e 783e
00000240: e0bb 913e d8cd 14be ae21 73bd 89a7 b33d
00000250: 90fa cc3c b112 c6bc d0c2 e5bd 8c95 283a
00000260: 7b05 fabd bc7d 15be e372 033f 988c 923d
00000270: 6594 793c 969f b0bd fade a7bd f0af 2dbd
00000280: 688a b33b b3db 84bd e399 393d 0231 22be
00000290: 9a5d 44be 5249 27be 13b0 4abe e9f1 3fbe
000002a0: 2b71 783d 8bba 663d f4df f0bd dbb4 1dbe
000002b0: 93c4 a2bd 494a 1fbe 097e 7abe 2b51 97bc
000002c0: 2e15 b53d 6e01 e6be faea 83be 4f4c 313e
000002d0: ed11 433e 7564 03be 6fc8 2cbe 406e 383e
000002e0: a353 333e 5ae7 163e e29e 70be bc2c f1bd
000002f0: 4b55 4abe 5027 813e 629e 1b3e 8b27 acbd
00000300: e08e ae3d 02f1 a53d 926a 60bc c440 af3c
00000310: f94d 01bd 05de b83d 9c4c 083e caff 513e
00000320: 5c32 853e ebd5 263e 655d d53d 3641 293d
00000330: 0ab9 ef3d 5b16 2c3e 05f4 6c3e 12a6 9e3d
00000340: 72ec 0a3d ded3 853e 610b 14be 0486 dc3d
00000350: f245 f33d 451f 653e 4b6e 313e 3cca 9d3d
00000360: ec0b fbbd ee6d 6ebe 9b54 20be 1f2d e93c
00000370: 2cc1 8cbd ddbf 533e 677e 8d3e 59c6 923e
00000380: 7771 2abe ed27 7a3e 2dee 683e d8d0 2a3e
00000390: 2327 d6bd 71f0 383e 7d6a 87be 0049 9fbe
000003a0: 515c b53d dd4d 64bd 4658 aebd c84f 87be
000003b0: 91df 923d 36b3 2cbe d812 22be f059 9ebd
000003c0: bcea ac3d 4882 11be 6fc9 70be bad3 4ebe
000003d0: 7cdb 53be fa3e 84be dec3 00be 4a23 81be
000003e0: b7e1 03bd c284 34be 70c6 1dbe ae9e 6bbd
000003f0: f01f 4bbe b883 e43d 9075 62be cb5b 663e
0.20769307 0.06567287 0.21008493 0.14421766 -0.19394197 -0.08217851 0.14171852 -0.18023534
0.21939804 -0.1877367 0.27784106 -0.058794934 0.08732786 0.16444169 -0.1595431 0.28731516
0.20198591 -0.06108604 -0.08596075 -0.21802567 0.09877845 -0.0702188 0.22802964 -0.01145256
-0.18294738 0.11134184 0.023981836 -0.08164496 0.11413991 0.10995579 -0.17025904 0.094912566
0.047717 0.09140446 -0.08627542 0.0568297 -0.036604483 -0.06887803 -0.104936 -0.347563
-0.13469651 0.19011945 -0.20044532 0.097731665 -0.068342075 0.1265793 0.3074877 0.21634306
0.25176907 -0.15517253 0.15005906 0.21352702 -0.12532938 -0.12827012 0.04950516 -0.016359858
-0.1330235 0.09533357 0.15555182 0.12708418 -0.018663693 0.25984052 0.60171044 0.022852398
-0.08234655 -0.13138208 -0.06668274 0.28593782 -0.014502921 -0.3493883 -0.37935987 -0.036774576
-0.2014573 -0.18297732 0.09287014 0.046872497 0.0082642045 0.16220927 0.19424003 0.1824015
0.041843362 -0.01872168 0.052708093 -0.16259682 -0.11587641 -0.20766653 -0.19739826 -0.19537976
0.030254345 -0.0063867355 -0.27626774 0.07166783 -0.12868322 -0.18184967 -0.07654908 0.11933048
-0.1814915 0.07392097 -0.150541 -0.28356653 0.11359316 0.03024787 0.019338265 -0.27369988
0.19879729 -0.0050656623 0.06554551 0.04603557 -0.45646065 0.13452816 0.06631279 -0.104684226
0.23723881 -0.052084252 0.18861489 0.18961994 0.048217285 0.04692399 -0.25218958 -0.086842164
0.10868481 -0.08099051 0.009539943 -0.03538122 0.13168806 0.044189762 -0.051430877 -0.115993164
-0.13400985 0.1249793 -0.008492495 -0.07224341 0.12823941 0.117448896 -0.045475416 0.13426973
0.00066938106 -0.14009342 0.29683122 -0.09050651 0.16672395 0.021291455 -0.19588369 0.24224317
0.2846365 -0.14531648 -0.05935829 0.08772189 0.025021821 -0.024178835 -0.11218798 0.00064309756
-0.122080766 -0.14598745 0.5134718 0.071557224 0.015233134 -0.086241886 -0.08196826 -0.042404115
0.005479146 -0.06487217 0.045312773 -0.15839007 -0.19176331 -0.16336563 -0.1979373 -0.18744625
0.0606548 0.056330245 -0.11761466 -0.15401022 -0.0794765 -0.15555681 -0.24462141 -0.018471321
0.0884193 -0.44922966 -0.2576521 0.17314266 0.19049807 -0.1283129 -0.16873334 0.18010807
0.17512374 0.14736691 -0.23498109 -0.117761105 -0.19759099 0.25225306 0.15197137 -0.0840598
0.08523345 0.08102609 -0.013697283 0.021393187 -0.0315685 0.09026722 0.13310474 0.20507732
0.26014984 0.1629254 0.10418204 0.041321956 0.11705215 0.16805403 0.23139961 0.07746519
0.033916898 0.26138204 -0.14457466 0.10767749 0.118785754 0.2237521 0.1732723 0.07704589
-0.12258133 -0.23284122 -0.15657274 0.028463898 -0.06872782 0.20678659 0.276355 0.28666952
-0.16644846 0.24429293 0.22747107 0.1668123 -0.104566835 0.18060471 -0.26448432 -0.31110382
0.088554986 -0.05573832 -0.085129306 -0.26428056 0.07171548 -0.16865239 -0.15827501 -0.07731998
0.084432095 -0.14209855 -0.23514341 -0.20197955 -0.20689195 -0.25829297 -0.12574717 -0.25222236
-0.03219768 -0.17628768 -0.15407729 -0.057524376 -0.19836402 0.11157936 -0.22115159 0.22495954

encoder.transformer_encoder.layers.0.encoderlayer.self_attn.in_proj_bias f4 [69]
00000000: 47da 903d 17c8 fcbc 6d56 343e d871 25be
00000010: 43a2 01be c5fd db3c ee26 fd3d ee57 14be
00000020: c612 cf3d b934 e03d 4819 f6bd 29d8 6fbc
00000030: a42b ac3d 04be 083e 96a4 293e 1272 1d3e
00000040: c102 4e3d d7d6 21be e0c6 9e3d f9a1 033d
00000050: f714 0f3e 80fd ecbd 542e 01be 3469 80b8
00000060: 3694 f738 16fa 3e3a ffac 24ba befa 50b8
00000070: d4c4 6e38 0fcb 8939 d8ba 1eba e61b 9139
00000080: 8642 aab9 4f8c 23b9 af1b bfb7 4e87 2ab6
00000090: bba1 6339 e287 b839 9d9b 8638 0da4 c438
000000a0: 9931 073a 79c7 b9b7 8e79 f438 f1df 0cb9
000000b0: f595 ae38 664a 1c37 3570 b83c 33bd debb
000000c0: ea37 01bd 94b5 4ebd 32d7 9ebc 8fbe d6bc
000000d0: 9902 19bd 9aef 883d 270b 4e3d 106a 5cbd
000000e0: 1ec9 743d 5c30 13bd 405f 5abc e3e5 0f3c
000000f0: 543d d23c 6328 b9bb 0849 3d3d f3fa 413c
00000100: b17a d0bc f383 11bd 5494 7bbd 3d4b 34bc
00000110: 2961 003d
0.07072883 -0.030857129 0.17611094 -0.16156709 -0.12659554 0.026854405 0.12360941 -0.14486668
0.101110026 0.10947556 -0.12016541 -0.014638939 0.08406761 0.13353735 0.16566691 0.15375546
0.050295595 -0.15804611 0.07752776 0.03213689 0.13972841 -0.11571789 -0.12615329 -6.123111e-05
0.00011805484 0.00072851905 -0.0006281882 -4.9824586e-05 5.6926932e-05 0.00026281967 -0.00060550636 0.0002767734
-0.0003247449 -0.0001559716 -2.2781865e-05 -2.5410732e-06 0.00021708656 0.00035196455 6.418603e-05 9.376565e-05
0.0005157232 -2.2146605e-05 0.00011657468 -0.00013434865 8.324898e-05 9.315647e-06 0.022514442 -0.0067974566
-0.031547464 -0.050466135 -0.019389722 -0.026213912 -0.037355993 0.06686325 0.050303604 -0.053812087
0.059762113 -0.03593479 -0.013328373 0.008782837 0.02566401 -0.0056505664 0.046212226 0.011839616
-0.025449129 -0.035526227 -0.061420754 -0.011004266 0.03134266

encoder.transformer_encoder.layers.0.encoderlayer.self_attn.out_proj.weight f4 [23, 23]
00000000: 7919 6ebe db4f 093e 3051 81be 94e6 363e
00000010: ddb1 ba3c fafe f93d 1188 143e fa3d 663d
00000020: d239 243e 2d4f 8b3e 3612 a83e 4f49 93bc
00000030: b750 3d3e 431f 473d 6004 3abe c3c7 803d
00000040: bdc2 0abe a9e5 bcbd 6ce2 4dbe b41d 833d
00000050: 3780 133e 0390 57bd 3ad8 023d 7799 4d3b
00000060: d3ca 17bd 1949 a3be 1de2 0fbe 0b58 c93d
00000070: 6077 963d 4529 e83d 16ca 263e 4f7b f0bc
00000080: e39a 043e a385 6fbe a4fa c0be c935 323e
00000090: 69ba 8dbe c108 cf3d c88d 873d b32b 95be
000000a0: 84df 443e 7e02 0d3d f6d7 8c3e 3d21 34be
000000b0: 409d 2f3d 08c9 adbe c346 2e3d 6a77 89be
000000c0: 7fc2 963e 4746 a03e d05f b6bd 9ab1 2cbc
000000d0: f56e 28be be3f b6bd 04ea 873e 722d 81bd
000000e0: 68c6 403e 8b9c 8ebe 9dcb 273e a2f4 0a3e
000000f0: 19fe 6f3e 9f88 b63e 41cd 30be fa1e 8b3d
00000100: d9f6 8d3e 66c8 003e 8c48 043e 0f60 67be
00000110: 3861 96be 9531 2dbe 943b d7bd 247d 0b3e
00000120: d392 9d3e 023a c53d 39fe 5abd 2543 1dbe
00000130: b3ae 133d d83a 52be fa90 123e d091 bfbd
00000140: 94b2 90be f300 713e cc7c 85bd 7ba4 80be
00000150: 74d4 14be bf9c 42bd 165c 1c3d 21bf 14be
00000160: bda9 263e 7dd0 49bd 7be4 693d cd14 04bd
00000170: 3211 a43e b756 b1be a310 683e 517f 343d
00000180: d576 f8bd 0f93 cabe 7e6f 51bd a87b e1bd
00000190: 44c5 ee3d a3d4 963e 975c a4be 5106 2a3e
000001a0: 912c 2d3e 91d1 b13d 766f 3cbd 7746 7dbe
000001b0: fd44 d53d d76f bb3e 2220 ac3e b4c2 783d
000001c0: 13a9 f73d a6fe b5bd 7646 823e b3c8 64be
000001d0: 22de 4dbe f7e2 a8be 2078 953e 47a7 353e
000001e0: 8464 7f3c 7acc f83d e7b1 f4bd 9151 2d3e
000001f0: b941 47bc a5e3 2f3d 4624 ffbd 5e70 9cbd
00000200: fa5a 833e 728e 69be a65a 81be 33fe 8abe
00000210: 41f4 40be 34cd 5bbe 6ef3 883e ac51 1dbe
00000220: f8eb 24be 673f a6be 0847 0cbc 9a0f 543e
00000230: 757f 19be 2e46 b9bd 8b59 09be 7ffc 283e
00000240: 1d99 e4bd c7bb 1a3e 672e 60bd 7456 293e
00000250: e81d 01be 7a9f 6dbe 87f7 d73d 97ff 3dbd
00000260: fdf7 56be fef1 973d 5ff2 f13c 55d0 d93d
00000270: 0b1f 473d dfed 45be e6cd 42be 1a59 2c3e
00000280: 963f c8bd 6581 b3be 3be4 2ebe b80c 303d
00000290: 97f7 663e 7e61 cebd 7395 d83c 1ddc 64bd
000002a0: 026f 0b3e 3094 423d 83f0 34be 2536 843e
000002b0: a0e0 7e3e a236 d63c 3f90 a1bd e1f2 663d
000002c0: e2d9 81bd ff23 b03e 3c3b a13e cd7a 8dbe
000002d0: fbce 353c 0e69 2fbe adcd 323d 8ac6 9dbe
000002e0: a6e3 cebd 6570 afbe 8a76 013e 36a5 913e
000002f0: 420b 143c 3bd3 a53e 41e5 e23d e9c9 6bbe
00000300: 0d22 a5be 8fda 773d 9845 54be 8d99 e4bd
00000310: bbda a5bb c193 c33d 0749 ddbd fd3b 7f3e
00000320: b6ca 953d 7ac2 21be 5adf 973d 19ff 93be
00000330: afe5 9bbe dd41 643e 8e3e 943e 8e91 5dbe
00000340: 1bfa 163e ca83 e3bd f5b6 853e 73df 0ebd
00000350: 0e26 86bd 8828 6a3e e519 2abe 57ad 5fbe
00000360: a79a f1bc cde0 b4bd 4813 9fbe 5108 813e
00000370: 360e 76be b697 c1ba 61f0 3c3e 14bd 7b3e
00000380: de7e 09be 7843 3f3d 8aa5 9cbe b8de 873e
00000390: 302c 9abe 33e0 e43c 97bc 1abe 5124 713e
000003a0: 5a61 c93d 9355 63be 540e ecbd 3b65 2dbc
000003b0: 1d79 dcbc 5bb6 e5bd 2f9f 5d3e a558 eb3d
000003c0: efd9 a03e 4823 7abe 68c9 2abe 21d5 e23d
000003d0: a570 a3be 8004 f73d 724c c43d ab2c 5bbe
000003e0: a02f 2fbe 954f 77bd 8b7d 9c3e 3cf0 93be
000003f0: 3861 293e 55ad 80bd 9cd4 973e 918d 39be
-0.23251905 0.13409369 -0.25257254 0.17861396 0.02278989 0.12206836 0.1450503 0.05621145
0.16037682 0.27208844 0.32826394 -0.017979292 0.18487822 0.048613798 -0.18165731 0.062881015
-0.1355085 -0.09223492 -0.20105904 0.0640215 0.14404379 -0.052627575 0.03194449 0.003137199
-0.037058663 -0.31891707 -0.14051099 0.09831246 0.07346988 0.113359965 0.16288027 -0.029355673
0.1294971 -0.23390822 -0.37691224 0.1740333 -0.27681282 0.101090916 0.066188395 -0.29134902
0.1922589 0.034426205 0.27508515 -0.17590804 0.042874575 -0.33942437 0.042547952 -0.26848918
0.29445264 0.31303617 -0.089049935 -0.01054039 -0.16448577 -0.088988766 0.26545727 -0.06307496
0.18825686 -0.27853808 0.16386266 0.13569883 0.23436774 0.3565111 -0.17265798 0.06793018
0.27727392 0.12576446 0.129183 -0.22595237 -0.29371047 -0.16913445 -0.105094105 0.13621956
0.3077608 0.09630205 -0.053465102 -0.15357645 0.036055278 -0.2053026 0.14313117 -0.093539834
-0.28261244 0.23535518 -0.06517944 -0.2512549 -0.1453417 -0.047512766 0.038173757 -0.14526035
0.16275688 -0.049271096 0.05710266 -0.0322464 0.3204437 -0.3463647 0.22662596 0.04406673
-0.121320404 -0.39565322 -0.051131718 -0.11009914 0.11658719 0.29459104 -0.3210189 0.16603972
0.16911532 0.0868255 -0.046004735 -0.24733911 0.10413549 0.36608765 0.33618265 0.06073256
0.12092795 -0.08886461 0.25444382 -0.22342186 -0.20104268 -0.3298566 0.2919321 0.17739592
0.01558793 0.12148376 -0.11947995 0.16925646 -0.012161666 0.042941708 -0.124580905 -0.0763862
0.25655347 -0.22808245 -0.25264472 -0.27147064 -0.18843175 -0.21464998 0.26748222 -0.15363187
-0.1610564 -0.32470247 -0.008561857 0.20709077 -0.14990027 -0.09046589 -0.13413064 0.1650257
-0.111620165 0.15110694 -0.054731753 0.16536885 -0.12609065 -0.23205367 0.10545259 -0.046386328
-0.20993038 0.07419203 0.029534517 0.10635439 0.04861359 -0.19329022 -0.19023857 0.16830865
-0.09777753 -0.35059658 -0.1707925 0.04298088 0.22555386 -0.10077189 0.02643845 -0.05587398
0.13616565 0.047504604 -0.17669873 0.2582256 0.24890375 0.026149098 -0.07888841 0.05638397
-0.06340386 0.34402463 0.31490505 -0.27632752 0.011096711 -0.17129919 0.04365318 -0.30815536
-0.10102014 -0.34265438 0.12642875 0.28446358 0.009035887 0.3238772 0.11078883 -0.23026241
-0.3225254 0.060511168 -0.20729673 -0.111621 -0.005061475 0.09549666 -0.108049445 0.24925227
0.07314055 -0.15796843 0.07415648 -0.28905562 -0.30448672 0.2229075 0.28953975 -0.21637556
0.14743845 -0.11109121 0.26116148 -0.034881067 -0.06550227 0.22867024 -0.1661144 -0.21843468
-0.02949269 -0.0883194 -0.31069398 0.25201657 -0.24028859 -0.0014769945 0.18451072 0.24583846
-0.13427302 0.046695203 -0.30595046 0.26537108 -0.30111837 0.027938938 -0.15111004 0.2354901
0.098330215 -0.22200613 -0.115261704 -0.010583217 -0.02691322 -0.11216422 0.21642755 0.11491517
0.3141627 -0.24427521 -0.16678393 0.11075807 -0.31921878 0.12061405 0.09584893 -0.21403758
-0.17108011 -0.06037863 0.30564532 -0.28894222 0.16540992 -0.062830605 0.29654396 -0.1812041

encoder.transformer_encoder.layers.0.encoderlayer.self_attn.out_proj.bias f4 [23]
00000000: ea77 fabc 88ed 95bb e2a4 233b dee0 90bc
00000010: 2082 833c b6b7 ac3a ad63 123c 774d 62bc
00000020: 0efd 9b3c a431 6b3b 5c81 f63c 70f3 5eba
00000030: 7725 66ba 6097 58bc 854b 94bc dd0a 83bc
00000040: cd4c 6fbc 50ac 173d b1c0 69bc 89a0 823d
00000050: a405 2cbc 3e29 7cbb 7928 2ebc
-0.030574758 -0.004575435 0.0024970104 -0.01768535 0.01605326 0.0013177309 0.008934897 -0.013812414
0.019041564 0.0035887742 0.03009098 -0.0008504903 -0.00087793864 -0.013219684 -0.018102417 -0.015996391
-0.014605713 0.037029564 -0.014267133 0.06378276 -0.010499392 -0.003847673 -0.010629767
