Checkpoint/model__lr_0.0003_l_win_100_dff_64.pt (torch, 60339 bytes, 37 tensors)

encoder.encoder_layer.encoderlayer.self_attn.in_proj_weight f4 [48, 16]
00000000: f259 4c3d dccc 89be 5f40 6a3d 2710 5fbe
00000010: b10d c13d cb45 5d3d a266 e13b 3e5f 56be
00000020: 5a10 3ebe ccbe 673e 87b2 183e d74e 253e
00000030: 27da babd 41f5 57bd 32b4 a0bd a09d 573e
00000040: 6059 07be 067c 453e 232e 583e 5e5f 8fbe
00000050: c812 f53a ecda 6ebd 3954 2dbe c15b 073e
00000060: 215f 18bd 4840 893e 1c3e 44be 97ad 113e
00000070: c9d8 85be 7f26 1dbe dc18 ab3c bdb8 773e
00000080: 0e25 253e 2ab8 80be 4eea 0a3d 55d3 38be
00000090: ac5d 593c 4499 82be 2cf7 b7bd fe0a 573e
000000a0: f7d6 8fbe 2e77 95be 296f 643d 3eec 2b3d
000000b0: 245d 65bd 22e4 883e 99c6 3cbe 3957 3ebe
000000c0: 155c 6abe 6a6c 69bd fc07 a0bd a5ff 413e
000000d0: 59d6 8cbc c141 c83d 9b4a 02be 4356 7e3e
000000e0: 6728 843e 5e65 8cbe 1628 a1bd 4604 85be
000000f0: ae32 053e 0af7 88be 2f3e 14be 3ba3 9c3e
00000100: 3db3 95be cb53 673e a3e5 d33c 96b6 7a3e
00000110: 921d 1fbe 44f0 4d3e 0951 173d ecea c03c
00000120: 5eff 553e fa02 95be 7489 7cbe 7266 973e
00000130: c946 3cbe 8bff 61be 5e48 75bc f9b9 c8bd
00000140: c094 2bbd 4f10 52be 2b42 e23d 3ae5 86be
00000150: 1c27 cb3c baf5 363e 1cf7 703d 21a3 263d
00000160: 7a6f 373d 47b3 b7bd 46e9 6ebd 2a37 04be
00000170: 38cd 53be bc00 26be 59f9 9a3e 66e3 51bd
00000180: f0a8 db3d 82d3 583e f5f0 c3bc 6eac 28be
00000190: 966e 54be b303 e7bd edd2 df3d e105 84be
000001a0: 5520 19bd 5f87 ee3d 85cc 7f3e 4db4 bc3d
000001b0: df06 783d 98a4 563e 6ee1 103e 6b25 d43d
000001c0: b36b c2bd 516c 7bbe c472 87bd 9574 63bd
000001d0: 6f33 b83c 33ee 09bd 5884 fd3d 085c 503e
000001e0: 073a febd 18c0 94be acdc 20be da04 16be
000001f0: 5cb9 313e 5a3e 4abe d9eb ebbc 89e6 84bd
00000200: 594b 3ebe db1e 0e3e c89a 02be 38c2 81bc
00000210: 0371 5cbe fafb fcbc ff31 323d 4123 4cbc
00000220: 934d eabd c34a ba3d e078 a2bd c3d2 2dbe
00000230: f135 67be f2d4 84bd 4018 94be ba1e 823e
00000240: c3c8 15be 3bef 01be e1dc e73c a78e a23d
00000250: f382 ecbc 8c17 573e 62c6 36be c9ba e03d
00000260: e605 35ba 290d 7fbe 5cdc f2bd c394 9f3d
00000270: cd97 6f3d 70fb 633e a5c0 513e 4c02 2bbe
00000280: 79e3 05be f4f6 84bd 699f 60be 684d a9bd
00000290: e548 80be 3b80 ee3d 2bd8 5d3e b198 c63c
000002a0: 1374 60be 3d71 6dbe 1a1e f4bd a062 b63d
000002b0: 4cba f43b ab07 643d 13c0 933e 629e 113e
000002c0: 86d5 863d 5fbd 7dbd 3751 143e 4c68 e53d
000002d0: 4d1b 8dbe 3035 39be 6e62 283c caef ed3d
000002e0: 1989 183e f8a3 3abe f887 9bbe 02a9 82bc
000002f0: a85e 0fbd 86f6 b53d b772 acbd 55b4 6f3e
00000300: de5c a73c 2ff5 643e 9751 5abe afd9 fa3d
00000310: 3570 153d 58d0 1cbe 246f 1b3e 1a43 9abe
00000320: 837b 7d3e 2823 ca3c 462e f23c 25fe 103e
00000330: cf37 d03c ab65 063e a779 473e 68b3 74be
00000340: 126c 4f3e 11cb 3bbd 0cd3 91bd 5c6f 7c3d
00000350: 513b 753e 3671 2abe 014d 53be f894 423e
00000360: d741 13be 92e2 c93d 74c4 38bd 4a9a ac3d
00000370: 5743 6f3e 29e6 1ebe a025 18be 9ed3 193e
00000380: 9b55 893c 3b07 0abd ddb3 89be 8cd2 843e
00000390: 3cfb 3dbc 20ff 66bd edb3 00be 517d 77bd
000003a0: 7c63 183e 1898 e6bb 9c11 863e 92d0 90bc
000003b0: 7cea 33bd a4f9 303e 64ce 01bc 3851 7abd
000003c0: 5295 d13d 5f43 773e 207c 9c3d e551 5a3e
000003d0: b72e 4b3e 7755 b13d 5d06 da3d 6a58 ca3d
000003e0: 7616 023d 215e 853e e2b7 903e c53a df3d
000003f0: 0185 7abc 828e 8c3e cf07 74be 5861 663e
0.049890466 -0.26914108 0.057190295 -0.21783505 0.094264396 0.054021638 0.00687869 -0.2093477
-0.18560925 0.22631377 0.14911853 0.16143356 -0.091236405 -0.052724127 -0.078468695 0.21056223
-0.13217688 0.19285592 0.2111135 -0.28002447 0.0018697614 -0.05831425 -0.1692666 0.13218595
-0.037200097 0.26806855 -0.19164318 0.14226376 -0.26141956 -0.15346716 0.020885877 0.24191566
0.16127416 -0.25140506 0.033914857 -0.18049367 0.013266962 -0.25507557 -0.08982691 0.21000287
-0.28093693 -0.2919249 0.055770073 0.041973345 -0.05599703 0.26736552 -0.18435134 -0.1858796
-0.22886689 -0.056988157 -0.07814023 0.18945177 -0.017192053 0.097781666 -0.12723772 0.24837594
0.25812075 -0.27421087 -0.07868974 -0.25979823 0.13007614 -0.26750976 -0.14476846 0.30593285
-0.2923831 0.22590558 0.025866335 0.24483714 -0.15538624 0.20111185 0.036942516 0.02354952
0.20898196 -0.29103833 -0.24661809 0.29570347 -0.18386377 -0.22070138 -0.014970867 -0.098010965
-0.041889906 -0.20514034 0.11047777 -0.2634676 0.024798922 0.17867175 0.058829412 0.040682916
0.044784047 -0.08969741 -0.058327936 -0.12911668 -0.20683753 -0.16211218 0.30268362 -0.051242255
0.10725582 0.21174434 -0.023918608 -0.16472027 -0.2074531 -0.112800024 0.10928903 -0.25785735
-0.03738435 0.11646914 0.24980362 0.09214077 0.060553428 0.20961225 0.14148495 0.103586994
-0.09493198 -0.24553038 -0.06613687 -0.055531103 0.022485463 -0.03367443 0.12378758 0.20347607
-0.124134116 -0.29052806 -0.1570918 -0.14650288 0.17355865 -0.19750348 -0.028798984 -0.064892836
-0.1858343 0.13878958 -0.12754357 -0.015839681 -0.21527486 -0.03088187 0.04350471 -0.012459577
-0.11440577 0.09096291 -0.07933211 -0.1697493 -0.22579171 -0.064859286 -0.2892475 0.25414068
-0.14627366 -0.12688915 0.028303565 0.07937365 -0.028871035 0.21005076 -0.17849115 0.109731264
-0.0006905481 -0.24907364 -0.118584365 0.07792046 0.058494378 0.22263885 0.20483644 -0.16700095
-0.13075055 -0.06492415 -0.2193581 -0.08266717 -0.25055614 0.11645552 0.21664493 0.02424273
-0.21919279 -0.23187728 -0.11919804 0.0890553 0.0074684974 0.055671375 0.28857478 0.14220574
0.06583695 -0.061948176 0.14484106 0.11201534 -0.2755989 -0.18086696 0.010277374 0.11618002
0.14896049 -0.18226612 -0.30377173 -0.01594973 -0.03500238 0.08884911 -0.084203176 0.23408635
0.020430025 0.22359155 -0.21320187 0.12248551 0.036483962 -0.15313852 0.15179116 -0.3012932
0.24754147 0.024674967 0.02956308 0.14159448 0.025417237 0.13124721 0.1948 -0.23896563
0.2025607 -0.045847956 -0.07120332 0.061629638 0.23948409 -0.16644749 -0.20634843 0.1900214
-0.14380585 0.09857668 -0.045109227 0.08427866 0.23365532 -0.15517487 -0.14858103 0.15022132
0.016764453 -0.0336983 -0.26895037 0.25941885 -0.0115955435 -0.05639565 -0.12568636 -0.060422245
0.148817 -0.007037174 0.2618531 -0.01767758 -0.043924794 0.1728273 -0.0079227425 -0.061112612
0.10233559 0.24146794 0.076408625 0.21320303 0.19842039 0.08658879 0.10645745 0.09880145
0.0317597 0.26048377 0.2826529 0.10899881 -0.0152905 0.27452475 -0.23831104 0.22498071

encoder.encoder_layer.encoderlayer.self_attn.in_proj_bias f4 [48]
00000000: 0000 0000 0000 0000 0000 0000 0000 0000
00000010: 0000 0000 0000 0000 0000 0000 0000 0000
00000020: 0000 0000 0000 0000 0000 0000 0000 0000
00000030: 0000 0000 0000 0000 0000 0000 0000 0000
00000040: 0000 0000 0000 0000 0000 0000 0000 0000
00000050: 0000 0000 0000 0000 0000 0000 0000 0000
00000060: 0000 0000 0000 0000 0000 0000 0000 0000
00000070: 0000 0000 0000 0000 0000 0000 0000 0000
00000080: 0000 0000 0000 0000 0000 0000 0000 0000
00000090: 0000 0000 0000 0000 0000 0000 0000 0000
000000a0: 0000 0000 0000 0000 0000 0000 0000 0000
000000b0: 0000 0000 0000 0000 0000 0000 0000 0000
0.0 0.0 0.0 0.0 0.0 0.0 0.0 0.0
0.0 0.0 0.0 0.0 0.0 0.0 0.0 0.0
0.0 0.0 0.0 0.0 0.0 0.0 0.0 0.0
0.0 0.0 0.0 0.0 0.0 0.0 0.0 0.0
0.0 0.0 0.0 0.0 0.0 0.0 0.0 0.0
0.0 0.0 0.0 0.0 0.0 0.0 0.0 0.0

encoder.encoder_layer.encoderlayer.self_attn.out_proj.weight f4 [16, 16]
00000000: fc00 003e 2e67 66be 0041 f9bc 604b 743c
00000010: 3cfe 353e 1c4a b9bd 205e 933d a89f 1e3d
00000020: 64a0 163e 8083 733c 34b7 bf3d b2a5 1abe
00000030: b0e5 31be aa1d 643e ec89 3abe 5053 2ebd
00000040: 0090 f7bc 5a56 7a3e e04c 5dbd d8e4 42be
00000050: 9cca 81bd da0c 043e 8ce6 ca3d 6ac9 533e
00000060: 50a1 51bd e02c f13d 00e8 70be f81c c63d
00000070: d43e eb3d 6c24 253e 1ccd 12be 64b1 88bd
00000080: 70bc 773d d8ea 35be a4a4 4bbe 7048 76be
00000090: 80a6 643c 10f9 1e3e 2483 833d 60b6 793c
000000a0: e064 b23d 18df 20be 90e9 d73c c062 7ebd
000000b0: 7883 fdbd 7cc4 5c3e 1a0e 46be c010 163d
000000c0: 4ef3 60be c0f6 0abc 6c83 e3bd 0486 a83d
000000d0: f4c0 0fbe a2d9 233e 4cbc 4fbe 42c3 193e
000000e0: 4c4d 40be 201c 093e 0496 d7bd 00ac 18ba
000000f0: 30e2 3abd d626 263e e8cb a73d 9c96 61be
00000100: 504b bc3c d29a 30be 3060 3f3e 303e 283d
00000110: 34ad 83bd 769a 02be d037 b13d 5251 19be
00000120: 80d2 f23d 60b1 0b3e 3822 1d3e f8c0 853d
00000130: 2c18 60be 2a25 383e 9cd5 9ebd 945d 97bd
00000140: f008 dcbc a82b 3b3e 60d8 443e 301e 1e3d
00000150: 404d f43d 5a97 6ebe 00d0 1a3a a07a 62be
00000160: 4c42 ae3d 1663 36be ac7a b6bd b6f3 323e
00000170: 7ca8 743e 88b2 19be 3215 0ebe 00a3 fd3c
00000180: 1845 c93d 00c8 26bd 84e4 9fbd e826 28be
00000190: 748f da3d acd1 7a3e 38d9 f7bd e87d f13d
000001a0: dc0e fa3d a4c5 4d3e 302c e9bc e003 013c
000001b0: 3a15 3c3e 38d2 213e 60da 7c3e 50b9 92bd
000001c0: 7097 ca3d 3ac2 323e e2c6 2dbe 386d 4b3d
000001d0: 701f 65bd 2290 243e 00f4 e5bd d0a4 8f3c
000001e0: e42a 193e a486 6abe 1e28 58be 7e1e 03be
000001f0: ea33 243e b6a7 2b3e 20d7 2ebe 8843 433d
00000200: 46a6 07be 6ca5 edbd 64c7 5c3e f84c f73d
00000210: f405 8cbd 00bc 163d 3868 463d e0dc 6f3d
00000220: 283f afbd 34c1 16be 047d 293e f898 093d
00000230: 244c d63d dce8 c1bd 48ff f73d da4e 3a3e
00000240: 42b1 1b3e ec35 8b3d c0df 7b3e 0054 0fba
00000250: b001 5a3d b63b 733e 3ece 783e 3c2d d8bd
00000260: 0c9b 663e 70f5 bc3d 903f e5bc 8086 5f3e
00000270: 909d 04be ec55 263e 84ae 7d3e 5290 30be
00000280: 5410 17be 8cac 7dbe 1048 38bd 0880 68be
00000290: e47a abbd d470 9b3d f0f5 343e dc99 0e3e
000002a0: c819 0e3e 0869 d43d 9cc7 1ebe 4043 4bbe
000002b0: 60cb 293c dc17 733e e0a0 663c f025 b0bc
000002c0: bcc1 2dbe 84de fdbd 5257 45be 9af8 4c3e
000002d0: 08d7 26bd 1227 62be d0b2 db3c a09e 943c
000002e0: 1007 fdbc 0c47 b73d e6ab 093e b8be 70be
000002f0: 961e 44be 80c5 44bc e658 6dbe 448a 68be
00000300: 6c06 623e 10c5 9bbc bc20 fdbd e89f afbd
00000310: 6edd 47be 0cc6 473e 000b 5ebd d4ee 0fbe
00000320: 5827 42be 24a1 153e 888c 0dbd 4028 d7bc
00000330: b871 85bd 7427 f7bd e028 363d 76f5 443e
00000340: 5e5f 14be 2040 443c 00b1 42be 4813 f0bd
00000350: 88b5 603e 80c9 2b3b 149c 763e b868 33bd
00000360: 0488 0bbe fef4 18be 84e5 623e 54dc 44be
00000370: ec58 063e 588c 7e3d 4c18 973d 0872 103e
00000380: 70f3 85bd 4a67 1e3e 02f6 4bbe 8c24 b4bd
00000390: 1067 3b3e 84f3 973d 605e 08bd a822 6fbd
000003a0: 3c51 1cbe e6ab 1b3e e040 02bc 6095 0abc
000003b0: 582b 723d 2eea 3c3e 609b 02be dc54 b0bd
000003c0: 3a79 2d3e ee94 103e 18df fbbd 2640 7dbe
000003d0: b0f6 3d3d fea0 063e f896 743d a095 353e
000003e0: 1e21 4bbe e418 013e 6026 1fbe 1a14 103e
000003f0: 1064 3e3e 9c28 a23d 821f 4f3e 28be 28be
0.12500376 -0.22500297 -0.030426502 0.014910549 0.17772764 -0.09047338 0.07195687 0.03872648
0.14709622 0.014862895 0.09361115 -0.1510227 -0.17372775 0.22276941 -0.18216676 -0.04255992
-0.030220032 0.24447003 -0.05402839 -0.1903261 -0.06337473 0.12895527 0.099072546 0.20682302
-0.05117923 0.11776137 -0.23526001 0.09673494 0.11486593 0.16127175 -0.14336056 -0.066744596
0.060482442 -0.17765367 -0.19887024 -0.2405107 0.013955712 0.15524697 0.064214975 0.0152412355
0.08710647 -0.15710104 0.026356488 -0.062105894 -0.12378591 0.21559328 -0.19341317 0.036637068
-0.21967813 -0.008481681 -0.11109051 0.082286865 -0.1403845 0.16000989 -0.20286673 0.15015891
-0.18779486 0.13389635 -0.1052666 -0.000582397 -0.045625865 0.16225752 0.08193189 -0.22030109
0.02298513 -0.1724656 0.18689036 0.04107493 -0.0642952 -0.12754235 0.086532235 -0.14972427
0.11856556 0.13641882 0.15345085 0.065309465 -0.21884221 0.17982927 -0.077555865 -0.073908955
-0.02685973 0.18278372 0.19223166 0.038603008 0.11928797 -0.23299924 0.0005905628 -0.2211709
0.08508739 -0.17811236 -0.089101166 0.17475781 0.23892397 -0.1500951 -0.13875273 0.030961514
0.09827632 -0.04071808 -0.07807258 -0.16421092 0.10671893 0.24494046 -0.12101978 0.11791593
0.122098655 0.20094925 -0.028463453 0.007874459 0.18367472 0.15802848 0.24692678 -0.07164252
0.09892166 0.17456904 -0.16970399 0.049664706 -0.055938184 0.16070607 -0.1122818 0.017534643
0.14957768 -0.22902924 -0.21109053 -0.128046 0.16035429 0.16763195 -0.17074251 0.047671825
-0.13247022 -0.11603817 0.21560436 0.120752275 -0.06837073 0.036800385 0.048439234 0.058560252
-0.08556968 -0.14722139 0.16551596 0.033593148 0.104637414 -0.094682425 0.12109238 0.18194142
0.15204337 0.06797394 0.24597073 -0.0005467534 0.053224266 0.23753247 0.24297425 -0.10555503
0.22520083 0.09226501 -0.02798441 0.21828651 -0.1295073 0.16243714 0.24773604 -0.17242554
-0.14752322 -0.24772853 -0.0449906 -0.2270509 -0.08373049 0.0758988 0.17671943 0.1392588
0.13877022 0.103715956 -0.15505832 -0.19849873 0.01036343 0.2373957 0.0140764415 -0.021502465
-0.16968435 -0.12395957 -0.19271591 0.20016709 -0.040732414 -0.22085217 0.026818663 0.018142045
-0.030887157 0.08949098 0.1344448 -0.23510253 -0.19152293 -0.012009978 -0.23178443 -0.22708994
0.22072762 -0.019014865 -0.12359759 -0.085754216 -0.19518062 0.19509143 -0.05420971 -0.1405595
-0.18960321 0.14612252 -0.03455785 -0.02626431 -0.06515831 -0.12068072 0.044472575 0.19234261
-0.14489505 0.011978179 -0.19012833 -0.117224276 0.21944249 0.0026212633 0.24082977 -0.04380104
-0.13626105 -0.14937207 0.22157866 -0.19224674 0.13119859 0.06214556 0.07377681 0.14106
-0.06540573 0.15469089 -0.19918063 -0.08796033 0.18301034 0.07419494 -0.033293128 -0.05838266
-0.15265363 0.15202293 -0.007950038 -0.008458465 0.059123367 0.18448707 -0.12754583 -0.08609936
0.16940776 0.14119312 -0.12298411 -0.24731502 0.046377838 0.13147351 0.059714288 0.17732859
-0.19836852 0.12607151 -0.15541983 0.14070168 0.18592858 0.07917902 0.20226863 -0.16478789

encoder.encoder_layer.encoderlayer.self_attn.out_proj.bias f4 [16]
00000000: 0000 0000 0000 0000 0000 0000 0000 0000
00000010: 0000 0000 0000 0000 0000 0000 0000 0000
00000020: 0000 0000 0000 0000 0000 0000 0000 0000
00000030: 0000 0000 0000 0000 0000 0000 0000 0000
0.0 0.0 0.0 0.0 0.0 0.0 0.0 0.0
0.0 0.0 0.0 0.0 0.0 0.0 0.0 0.0

encoder.encoder_layer.encoderlayer.linear1.weight f4 [64, 16]
00000000: a03e 4abc 18d7 2f3e 6018 c83d a895 25be
00000010: c813 853d 0e2f 43be dc06 0bbe 6c9c 243e
00000020: 4c74 88bd 3a65 02be c02a 913c 383c 7a3d
00000030: 4822 1fbe 14a3 2cbe 98ed 77be d84a 843d
00000040: c22d 25be 2013 9c3c a806 65bd 5e63 27be
00000050: ec60 a3bd dec8 44be 5c82 07be c05a ffbb
00000060: b8db 5abe 4285 60be 6ec2 3f3e 80b6 c03c
00000070: 186f e2bd c02f 08bc 36d7 3d3e 6e92 55be
00000080: 1cba 07be bc1f 39be 40e4 94bc 80f4 0cbc
00000090: 9680 47be 7caf 313e 6496 44be c002 6f3e
000000a0: f438 30be a855 0cbd 8079 3f3d 8c92 e3bd
000000b0: a86d 6b3e c47e 30be e008 63bc 88f8 3bbe
000000c0: 5c20 8e3d 2643 5a3e 4876 6d3e 3020 f33c
000000d0: 4a2a 00be d6ca 783e d0d7 983c 2634 2d3e
000000e0: 8af8 04be a49d edbd 9e83 54be 608d 6b3e
000000f0: 90dd 293d 42db 37be 80e6 af3c 7499 dbbd
00000100: 209f 4c3c d0f1 a93d 7c12 febd f8af 323d
00000110: 3aa2 21be 0852 453d 642d 77be 082d 233d
00000120: 4657 7e3e 0ace 6b3e 98c4 ba3d 525f 3c3e
00000130: e4e5 783e c815 913d e4c2 aa3d a827 053d
00000140: f8a4 623e 16ea 5b3e f8c5 f0bd 8062 28bc
00000150: defb 00be 9cb8 b73d d80f 78be 382e b53d
00000160: 8084 8cbd 88ad b93d 64cc 9f3d e4c7 febd
00000170: c6d0 043e bc6b d93d 469c 59be ac6c 7f3e
00000180: 525a 5c3e 5647 1f3e 30df cfbc 3465 b53d
00000190: fe7f 0abe 28fa adbd 90a4 f13d 10ed e33d
000001a0: 94be ca3d 2828 74be 5024 543e 0cdb d5bd
000001b0: ea8b 5d3e 76ee 523e f0c5 bd3d dc0c 7f3e
000001c0: 1a00 133e ee23 163e 68dc adbd b06f 6d3e
000001d0: 4c31 863d 0241 173e d088 67bd 8a66 393e
000001e0: 2019 633e 0c29 44be b0de 513e 1030 29be
000001f0: ca3f 30be 7eef 55be 88f2 933d 3836 40be
00000200: f0bb c0bd 04b0 00be 00d7 883d b254 7bbe
00000210: d4b8 eabd 00b7 ef3a 30ea b73c 503b e7bd
00000220: 586e b73d a4e5 28be c4cd 58be b093 11bd
00000230: ee67 0abe 845d 213e 16fb 2ebe 30ef abbc
00000240: 3ca9 d43d 6e30 60be b82c 463e dca3 e8bd
00000250: d452 8bbd 4699 1cbe 60ca bebd 006c c5bd
00000260: f8ce 63be 4cf4 ae3d 00f2 51ba 546d 7a3e
00000270: 96b7 2c3e 00b4 5e3e e0a4 963d 7e84 063e
00000280: eab6 6f3e a62f 523e cab5 44be 409c 65bd
00000290: 2ce7 76be 80f4 1a3c 48d5 b4bd c82f 5e3e
000002a0: 58e6 213d 0052 343b a02d 39be 20e4 48be
000002b0: b833 213d 5467 febd 2423 ebbd 3691 333e
000002c0: 2475 05be c8e4 e3bd 0a8f 443e ac09 c83d
000002d0: 0c76 11be f00e 9b3d 260f 013e 1e61 63be
000002e0: 684a 3f3d 08f4 693d 0087 1fbc fc73 753e
000002f0: b835 29be 26c8 0a3e cefd 07be c829 5bbe
00000300: 0078 2e3e 289e f5bd 4084 403c 8aa1 063e
00000310: 38ac 55be 1822 5bbe e850 ae3d 8836 5f3e
00000320: 00b6 d8bc e047 343e c8ea b33d 3413 923d
00000330: ea37 23be d2a3 733e 4c84 ea3d a055 1e3d
00000340: e211 353e 52f6 5bbe d0a7 5c3d 5803 f1bd
00000350: 30f8 cfbc 84bf a73d 60c3 e23d 88e9 6a3d
00000360: c821 46be 9036 20be 8009 8f3b 1059 31bd
00000370: 9246 56be dc33 7c3e 50cd 003d 9ee6 35be
00000380: 588e e03d ac76 de3d 6c2b fbbd a65e 003e
00000390: d4ce 1ebe fc65 b13d fa2c 733e 58fe 283e
000003a0: ccc4 fc3d 8855 50bd 883d 403d a4ab b23d
000003b0: d81b 7a3d 5074 4fbd 38e0 0e3d 3c60 cfbd
000003c0: 58b5 10be 003f 6cbe 14b8 50be f2b1 20be
000003d0: 38b5 743e f8ea 4c3d 3695 67be f8db 02be
000003e0: 702f 6f3d ac3e 99bd 48ed 90bd 7c43 c0bd
000003f0: 001a 7abd 6093 eb3c c08e 723c b279 243e
-0.0123440325 0.17171896 0.09770274 -0.1617037 0.064979136 -0.19060919 -0.13576835 0.16075295
-0.06662807 -0.12733927 0.01772058 0.061092585 -0.15540421 -0.16859084 -0.24211729 0.06459588
-0.16130736 0.019052088 -0.05591455 -0.163465 -0.07977471 -0.1921725 -0.13233322 -0.0077928007
-0.21372879 -0.21925834 0.18726513 0.023524523 -0.11056346 -0.008312166 0.18539128 -0.2085664
-0.13254589 -0.18078512 -0.018175244 -0.008603215 -0.19482645 0.17352098 -0.19197994 0.23340893
-0.17209226 -0.034261376 0.04674673 -0.11111936 0.2299105 -0.17235857 -0.013857096 -0.18356526
0.06939766 0.21314678 0.23189652 0.029678434 -0.12516132 0.24296126 0.018657595 0.16914424
-0.12985435 -0.11602333 -0.20753333 0.23003149 0.041471064 -0.17954734 0.021472216 -0.10722628
0.01248911 0.08298075 -0.12405869 0.043624848 -0.15784541 0.048173934 -0.24138409 0.039837867
0.2483798 0.23027816 0.091195285 0.18395737 0.24306446 0.070842326 0.08337954 0.032508522
0.22133243 0.21476015 -0.117565095 -0.0102773905 -0.1259608 0.08970758 -0.24224794 0.08846706
-0.0686121 0.090663016 0.07802656 -0.1244047 0.12970266 0.10616252 -0.2125102 0.24943799
0.2151883 0.15554556 -0.025374979 0.088571936 -0.13525388 -0.08494979 0.11798966 0.111292005
0.09899631 -0.23843443 0.20716977 -0.104421705 0.21635404 0.20598778 0.09266269 0.24907249
0.14355507 0.14662144 -0.08489305 0.23187137 0.065523714 0.14770892 -0.05652696 0.18105522
0.22177553 -0.19156283 0.20495105 -0.1652224 -0.17211834 -0.2089214 0.072239935 -0.18770683
-0.09410846 -0.12567145 0.06681633 -0.24544027 -0.114610344 0.0018288791 0.022450536 -0.1129061
0.08956593 -0.16493851 -0.21172243 -0.035541236 -0.13516209 0.1575833 -0.17087969 -0.020988077
0.103838414 -0.21893474 0.19352996 -0.11359379 -0.068029076 -0.15292844 -0.09315944 -0.0963974
-0.22246921 0.0854269 -0.0008008778 0.24455768 0.16866907 0.21748352 0.07355666 0.1313648
0.2340962 0.20525989 -0.19209972 -0.056057215 -0.24111623 0.009457707 -0.08829743 0.21697915
0.039526314 0.0027514696 -0.18083811 -0.19618273 0.039355963 -0.12422052 -0.11481312 0.17535862
-0.13032967 -0.11127621 0.1919519 0.0976747 -0.14205188 0.075712085 0.12603435 -0.22205016
0.04670182 0.057117492 -0.009736776 0.23970026 -0.16524398 0.13552913 -0.13280413 -0.21402657
0.17037964 -0.119930565 0.011750281 0.1314756 -0.20866477 -0.21399724 0.085115254 0.21798146
-0.026453972 0.17605543 0.08785015 0.07132569 -0.15939298 0.23792961 0.11451015 0.038655877
0.17682603 -0.21480682 0.053870976 -0.11768216 -0.0253869 0.081908256 0.11072421 0.05735162
-0.19348824 -0.15645814 0.004365146 -0.043297827 -0.20925358 0.24629158 0.0314458 -0.17763755
0.1096465 0.108624786 -0.122641414 0.12536106 -0.15508586 0.0866203 0.23747626 0.16503274
0.123422235 -0.05086282 0.04693368 0.08724144 0.06106171 -0.050648034 0.0348818 -0.10125777
-0.14131677 -0.23070908 -0.2038272 -0.15692881 0.23897254 0.05002877 -0.22615513 -0.12779224
0.05839485 -0.07482657 -0.07076508 -0.093878716 -0.06105995 0.028756797 0.014804542 0.16062048

encoder.encoder_layer.encoderlayer.linear1.bias f4 [64]
00000000: f8c4 443d 00af 5c3b c4c1 bbbd 3e4a 203e
00000010: 3eda 253e 0a09 62be 3e16 4dbe 14c4 153e
00000020: ee7b 1bbe 7098 453d c05b 88bd 381d 373d
00000030: de44 0dbe 006c 513a e040 b5bd a0a5 e6bd
00000040: 64b8 fbbd d0b9 643d 9aa6 253e 40e1 c9bb
00000050: 8003 20bb b037 533e e25c 4e3e 58a7 14bd
00000060: 1aa0 51be e84c 703d 4cdf 983d 5892 4abe
00000070: aaa6 65be f0d1 d63c 64fb 793e a6fa 64be
00000080: 40de fabd 2492 b0bd d820 62be 3ca0 1dbe
00000090: f2f0 483e 3ecc 433e 4656 3cbe 809d af3b
000000a0: b47f 50be c0a7 d43d ead9 2ebe 3076 02be
000000b0: 4851 edbd 88f0 163d 2811 2b3e d049 d6bd
000000c0: e8df 3c3d 28d5 4b3e 6030 78bc 7078 d33c
000000d0: d012 983c 804c 51bb dab1 193e 0c85 0a3e
000000e0: d41a 09be d671 743e be4d 133e b039 20bd
000000f0: fee1 5e3e a04a 5c3c 2ac5 213e 2c5e 59be
0.048039407 0.0033673644 -0.09167817 0.15653321 0.16196534 -0.2207376 -0.20028016 0.14625579
-0.15183994 0.04824108 -0.06658125 0.0447056 -0.13795802 0.00079888105 -0.088502645 -0.11262059
-0.12291029 0.055841267 0.16176835 -0.006160885 -0.0024416149 0.20626712 0.2015262 -0.036292404
-0.2047123 0.058667094 0.074644655 -0.19782388 -0.22426859 0.026223153 0.24412304 -0.2236124
-0.12249422 -0.08621624 -0.22082841 -0.15393156 0.19623163 0.19120881 -0.18392286 0.0053593516
-0.20361215 0.10383558 -0.17075315 -0.12740397 -0.11587769 0.036850482 0.16705763 -0.10463297
0.04611197 0.19905531 -0.015148252 0.025814265 0.018563658 -0.0031936467 0.15009251 0.13527316
-0.1338914 0.2387155 0.14385125 -0.039117515 0.21765897 0.013445526 0.15797868 -0.2122733

encoder.encoder_layer.encoderlayer.linear2.weight f4 [16, 64]
00000000: b0ca e53d 2a54 f13d 4a49 bfbd c821 e5bd
00000010: d003 15bd 5e64 9dbd 04cc 083d 70e8 633d
00000020: 6079 82bc 9ca3 b33d 6036 9b3b 987b 16bd
00000030: 9e83 dabd 78b9 223d 6434 f1bd 001c e0b9
00000040: b0ac 953c 525f 8fbd acd0 193d 600e c73c
00000050: 2a52 ab3d 541d a03d b82c cfbd 88f2 bdbd
00000060: 80ea 3bbd 922a b8bd 0888 203d 84ba a7bd
00000070: 1673 c3bd 4820 153d 2c80 9a3d 90d9 14bd
00000080: c617 ffbd 30b9 903c d630 833d dcfa c73d
00000090: 8051 423c feb8 b13d 38e6 e4bd dce8 f43d
000000a0: f24e a5bd 2ebd aebd 72b9 b73d 888b e3bc
000000b0: 8efc 9d3d 004f b3bd d6ae c13d 08ca f23d
000000c0: 0808 1b3d 8083 ce3d fad0 b6bd c81c e2bc
000000d0: 88d7 1b3d bea9 903d 82b1 88bd d2e6 a23d
000000e0: 7c82 28bd 2ca4 88bd c04e c83c eee7 cbbd
000000f0: d8f4 eabd fc3d 2a3d b464 2e3d 98e3 443d
00000100: 3049 86bc cc38 bbbd 7ea7 cdbd 50f7 f43d
00000110: 22ef ddbd 3050 1a3d 10eb cf3d e693 c33d
00000120: ba68 a1bd ac16 25bd 2eae ccbd b294 a03d
00000130: 8e3d f0bd 96ab ebbd eae7 aabd a0d1 d03d
00000140: 9aef a53d 1a88 ab3d f06c c43d 7cc9 6ebd
00000150: 98c4 8ebd 1045 9dbd 4cf0 283d 2829 473d
00000160: 787c d43c 1cf2 c4bd e0ed 353c 14d8 87bd
00000170: d85d c9bc 4886 9ebc 409a cb3b 3877 e0bd
00000180: 7285 da3d f4dd 59bd b8f9 1f3d f84a b03d
00000190: 0c52 4e3d 2648 b33d 128f 903d 2e74 bb3d
000001a0: a81f d83c c481 a33d 9c8d 5ebd b8f1 89bd
000001b0: 947b 743d 5057 063d 6099 99bb 32f0 d7bd
000001c0: 984d 273d 28d3 a53d 7073 6cbc 2841 eb3c
000001d0: b4ee 633d fad1 fcbd 287a a8bc 20ef 3dbd
000001e0: a8d8 82bd 2678 9c3d 20d2 fd3d b063 a33c
000001f0: 8c54 9f3d faeb bdbd e066 b43c 986f 84bc
00000200: fce3 9dbd b8f6 d13c 90fb 223d 20d6 c5bb
00000210: e46a 593d d8d0 753d e633 e83d 6070 ed3b
00000220: e0ee 913b 8081 eaba b850 8d3c befe a5bd
00000230: 3016 7cbc 5e7b d8bd dc90 b3bd c40e dabd
00000240: 76d9 bd3d 8a1f 93bd e046 25bc 00f3 5a3c
00000250: 7c1a e23d b45d 683d 5c4e b6bd 2a63 fa3d
00000260: d27a f2bd 6023 853c 96e8 e93d 3a04 de3d
00000270: 3856 edbc 36d8 aabd d0d1 603d 3c57 c53d
00000280: 3a79 88bd 080a a2bc dcaf 9bbd bc86 433d
00000290: 60f5 d93c 8ccb 7d3d 8caa 2fbd 941e f7bd
000002a0: 409e 57bd 9436 c8bd 00b1 f6bc 4412 3a3d
000002b0: 84f9 d4bd a031 bfbb 2077 fabd 0c6a b5bd
000002c0: 4a3c b3bd 1854 2ebd a4b5 81bd 509e 9d3c
000002d0: 707e 9c3d f607 c13d d451 213d 00d4 58ba
000002e0: 007b b6bc 20d3 ad3d 769e 92bd 060a b93d
000002f0: da7a f6bd 2212 bfbd b8d0 073d 98e0 52bd
00000300: 700c bf3c 8a0d df3d b8d8 693d 9a90 fa3d
00000310: 14de 58bd d87e 74bd d004 82bc c03b cebc
00000320: 9c36 61bd 204e febb 8846 e73d 1054 8cbd
00000330: e6c3 8f3d f0d8 6d3d 1241 943d c420 0a3d
00000340: f823 3dbd 304f 533d 5826 71bd 2023 9dbd
00000350: ba4e ef3d fa31 d43d 1603 b9bd d8ef cf3d
00000360: 2856 d43c 403d 033d f4bf f63d 8012 d7bb
00000370: 38d7 22bd e8b5 a03d b841 04bd b8d2 f5bc
00000380: 7877 4ebd 5afa fb3d 644e 743d 7000 a6bc
00000390: 006f 23bb c055 0f3c 82c1 97bd 905e 113d
000003a0: 5ab0 c6bd 00fa bebb 6023 c0bc dc0e 51bd
000003b0: 7ec5 ec3d 1064 0f3d 8ca5 763d 7683 a8bd
000003c0: c832 a33c 0c34 093d fae4 843d 6814 17bd
000003d0: d016 c9bc 1ed8 cfbd 4497 9b3d 00e5 aa3d
000003e0: 5c2c 703d 701a 823d c654 993d 8a4e f13d
000003f0: a0ac 273d d4d2 383d b40a 213d 8a91 90bd
0.112203 0.11783631 -0.09340151 -0.11188084 -0.03638059 -0.07685159 0.03339769 0.05564159
-0.015927017 0.087714404 0.0047367066 -0.036738962 -0.10669635 0.039727658 -0.11777571 -0.0004274547
0.01827082 -0.07000603 0.03755252 0.024298847 0.08365281 0.07818094 -0.10115951 -0.09274775
-0.045877934 -0.08992495 0.03919223 -0.08189872 -0.09543435 0.03640774 0.07543978 -0.036340296
-0.12455706 0.01766643 0.06405799 0.097646445 0.011860251 0.086778626 -0.11176723 0.11958477
-0.08071698 -0.08532177 0.08970918 -0.027776495 0.077141866 -0.087553024 0.094571754 0.11854941
0.037849456 0.100836754 -0.08926578 -0.027601615 0.038047343 0.07063626 -0.06674482 0.07954182
-0.041140065 -0.06671938 0.024451613 -0.099563465 -0.114724815 0.04156302 0.042576507 0.048068613
-0.01639232 -0.091416925 -0.10041712 0.119612336 -0.108366266 0.03767413 0.101522565 0.09549694
-0.07881303 -0.040304825 -0.0999416 0.078408614 -0.117304906 -0.11507337 -0.08345015 0.10196233
0.08102341 0.08375569 0.09591091 -0.05829762 -0.06971091 -0.07679188 0.04124479 0.048623234
0.025938258 -0.09616491 0.011104077 -0.066330105 -0.024580881 -0.01935114 0.0062134564 -0.10960239
0.10669984 -0.053190187 0.03905651 0.08608049 0.050371215 0.087539956 0.070585385 0.09153019
0.026382282 0.07983735 -0.054334268 -0.06735557 0.059688166 0.03279811 -0.004687473 -0.105438605
0.040845484 0.080969155 -0.014431819 0.028717592 0.055647567 -0.12344737 -0.020566061 -0.046370625
-0.0638898 0.07640104 0.12393594 0.019944996 0.07779798 -0.092735246 0.02202171 -0.016166493
-0.077095 0.02563034 0.03979069 -0.0060374886 0.053080454 0.060013622 0.11338024 0.007246062
0.004453525 -0.0017891377 0.017250404 -0.08105229 -0.015386149 -0.105704054 -0.08767864 -0.106473476
0.09269993 -0.0718375 -0.010087699 0.0133636 0.11040208 0.056729987 -0.089016646 0.12225945
-0.11839832 0.01625222 0.11421315 0.1084065 -0.028971776 -0.0834202 0.054887593 0.09635779
-0.06663747 -0.019780174 -0.07601902 0.047735915 0.026606262 0.061961696 -0.042887256 -0.12066379
-0.052641153 -0.09776035 -0.030113697 0.045427576 -0.10399154 -0.005834773 -0.122297525 -0.088581175
-0.087517336 -0.042560667 -0.06333473 0.019240528 0.076413035 0.094253466 0.039384678 -0.00082713366
-0.022275448 0.084875345 -0.0715913 0.09035115 -0.12035151 -0.093296304 0.033158034 -0.05148372
0.02332136 0.10891254 0.057091445 0.12234612 -0.052946165 -0.05969128 -0.015871435 -0.025174975
-0.05498372 -0.007760778 0.1129275 -0.06851971 0.070197865 0.058068216 0.07238974 0.033722654
-0.04617688 0.05158919 -0.058874458 -0.07672715 0.11684938 0.10361095 -0.09033792 0.101531684
0.025919989 0.032040834 0.12048331 -0.0065634847 -0.03975603 0.07847196 -0.032289237 -0.030007705
-0.050406903 0.1230361 0.05964507 -0.02026388 -0.0024937987 0.008748472 -0.074099556 0.035490572
-0.09701605 -0.005828142 -0.023454368 -0.05103956 0.11561106 0.035007536 0.06021647 -0.08228199
0.019921675 0.0334969 0.06488986 -0.036884695 -0.02454701 -0.10148643 0.07597211 0.083444595
0.058636054 0.06352699 0.074868724 0.11782558 0.040936112 0.045122936 0.039316848 -0.070590094

encoder.encoder_layer.encoderlayer.linear2.bias f4 [16]
00000000: 283f d93c f2dc f53d c617 c6bd 14cd 5dbd
00000010: d6da da3d f8c4 eabc 84e3 09bd 205c 243c
00000020: 7c6e 89bd b049 133c 54cd 54bd 386d 223d
00000030: c05e d9bc 08cf 2bbd a8df 40bd 9c05 053d
0.026519373 0.120050326 -0.09672503 -0.054150656 0.10686271 -0.028658375 -0.03366424 0.01003173
-0.06710526 0.008989736 -0.05195363 0.03965494 -0.026534438 -0.041945487 -0.047088295 0.032476053

encoder.encoder_layer.encoderlayer.norm1.weight f4 [16]
00000000: 0000 803f 0000 803f 0000 803f 0000 803f
00000010: 0000 803f 0000 803f 0000 803f 0000 803f
00000020: 0000 803f 0000 803f 0000 803f 0000 803f
00000030: 0000 803f 0000 803f 0000 803f 0000 803f
1.0 1.0 1.0 1.0 1.0 1.0 1.0 1.0
1.0 1.0 1.0 1.0 1.0 1.0 1.0 1.0

encoder.encoder_layer.encoderlayer.norm1.bias f4 [16]
00000000: 0000 0000 0000 0000 0000 0000 0000 0000
00000010: 0000 0000 0000 0000 0000 0000 0000 0000
00000020: 0000 0000 0000 0000 0000 0000 0000 0000
00000030: 0000 0000 0000 0000 0000 0000 0000 0000
0.0 0.0 0.0 0.0 0.0 0.0 0.0 0.0
0.0 0.0 0.0 0.0 0.0 0.0 0.0 0.0

encoder.encoder_layer.encoderlayer.norm2.weight f4 [16]
00000000: 0000 803f 0000 803f 0000 803f 0000 803f
00000010: 0000 803f 0000 803f 0000 803f 0000 803f
00000020: 0000 803f 0000 803f 0000 803f 0000 803f
00000030: 0000 803f 0000 803f 0000 803f 0000 803f
1.0 1.0 1.0 1.0 1.0 1.0 1.0 1.0
1.0 1.0 1.0 1.0 1.0 1.0 1.0 1.0

encoder.encoder_layer.encoderlayer.norm2.bias f4 [16]
00000000: 0000 0000 0000 0000 0000 0000 0000 0000
00000010: 0000 0000 0000 0000 0000 0000 0000 0000
00000020: 0000 0000 0000 0000 0000 0000 0000 0000
00000030: 0000 0000 0000 0000 0000 0000 0000 0000
0.0 0.0 0.0 0.0 0.0 0.0 0.0 0.0
0.0 0.0 0.0 0.0 0.0 0.0 0.0 0.0

encoder.transformer_encoder.layers.0.encoderlayer.self_attn.in_proj_weight f4 [48, 16]
00000000: 7d85 393e 5416 19be 414d 413e 201a 95bd
00000010: 5163 6a3e 4d3c 3a3e fc14 083e 4c0a c5bd
00000020: 52bb 7dbd 5f10 b73e 7748 8e3e 329b 903e
00000030: e3e4 0e3d ed2f c63d 2a88 113d c6fe af3e
00000040: 0fbf 88be 770e 913d c6e8 9b3d 6f00 dfbe
00000050: e554 0abe e326 44be 1032 99be b706 3c3c
00000060: f5a9 28be 85b5 083e ee55 a7be b82d 853c
00000070: 05cb c7be 2d65 a0be 14ea d2bd 24b8 c43d
00000080: cc41 393e 90c0 81be 923c 743d 9135 24be
00000090: 9f80 f73c 1cea 7cbe bc33 a4bd eaf1 553e
000000a0: 6525 8ebe f6d2 91be 9111 933d f627 423d
000000b0: bc3d 36bd 474c 953e 7074 35be a8f0 22be
000000c0: bd00 dbbe fa09 96be 54ba 94be fcad 63bc
000000d0: 8ae6 65be af29 debd cda6 aabe 4603 603c
000000e0: 5568 4f3c 884a f4be 01cd 90be f224 fcbe
000000f0: 64f6 a4bd ddd3 eebe 6d8c bcbe 8ea7 a13d
00000100: 8f7f e9be fab2 c93d fbbf 11be 6aef c13d
00000110: 2ceb a0be 82d5 4b3d e775 e0bd 1606 cebd
00000120: ad91 9b3d a18b debe f061 d0be c23d 263e
00000130: 914e b3be 5733 c2be 2074 2cbe 5fb7 59be
00000140: 6c70 f93d 0350 0fbd a7be 8c3e dda4 8cbd
00000150: de44 473e 9531 b03e 26ae 5e3e a30e 523e
00000160: e994 603e 23ec 883d 49fa e13d a445 2d3d
00000170: 6f41 3bbd d345 163d 8263 fa3e 6205 aa3d
00000180: 26aa 423e 62d5 973e 0a6e 6b3d b062 1fbd
00000190: c9ad 01be 00bd 04bd ca3a 333e ddb4 3cbe
000001a0: 38a3 543d d2cb 383e 7c7b ab3e dac4 353e
000001b0: 1ff7 083e 8c22 b13e e8fc 763e 5976 1e3e
000001c0: cfd1 733d 1be8 e3bd 3618 c13d b266 b53d
000001d0: 9597 383e c24f ee3d 5d38 8b3e 7e87 ad3e
000001e0: 539c 613c 114d 14be 8bf7 c3bb bfb3 fbbb
000001f0: 9d93 aa3e 5238 49bd 358c fb3d 9dd4 883d
00000200: 5c8e 54be 9003 e43d 8e4f 1fbe 4564 37bd
00000210: 5e48 6ebe 5b02 41bd ac8b e23c ac0a 2abd
00000220: 26ec 16be 9f97 a43d 8cb7 d2bd 406d 4dbe
00000230: d728 7ebe 34f5 c1bd 3913 a5be bbc6 683e
00000240: 3e4b 30bd d348 58bd a84f 083e bb54 403e
00000250: 9c11 953d 8a45 9c3e d756 a4bd b129 373e
00000260: 0305 8c3d 57ad 19be 2c6d 6cbc 2b1b 203e
00000270: 67c3 223e 68c9 ac3e 2adb 953e 51ed 99bd
00000280: bfcd 7a3d 2608 ac3d 7aec 21bd 3339 0c3e
00000290: 49ce 77bd ce24 9b3e e89e cb3e 38a9 2a3e
000002a0: b8f3 89bd dd6e 50bd 14ee 9a3d a6ae 783e
000002b0: 13cb 3f3e fec2 913e eb86 ee3e 15e4 973e
000002c0: ed3f 793d 6782 d1bd 744b 053e d4b6 873d
000002d0: f746 92be 1d6f 4cbe 9c13 433b 6196 963d
000002e0: c810 d73d 019c 40be a6bd 9fbe 50cc 6bbd
000002f0: 11e5 1fbd 8b05 2e3d 65d6 d4bd cfa3 5d3e
00000300: 7004 953c 4ece 8c3e a5af 60be a5f3 0d3e
00000310: ad5e 243d 9276 11be d4f9 253e c0f1 81be
00000320: 1fd7 963e f9d3 303d fe24 f83c 346e 413e
00000330: 68da d63c bd65 0e3e 4f8b 613e 063c 5cbe
00000340: e41d e23e 1d14 2e3e 7ba7 2f3e c66e 9f3e
00000350: acc8 f73e 5686 933d 78fa 103d e85f cf3e
00000360: 5da6 9a3d c7d5 ac3e 53e3 483e 9000 9a3e
00000370: 4762 f23e 6552 cc3d 301e bc3d b92a bd3e
00000380: 67bd 76be a6b6 6cbe 4410 03bf 622e 593b
00000390: 5488 8abe 68a3 9bbe a9a8 c2be 2b96 80be
000003a0: d43c 43bd 9bbe 86be 77da ca3b e8c2 5dbe
000003b0: 568f 95be 291d babd d970 73be e764 8bbe
000003c0: 3b5d 9a3e e711 e63e ba38 833e 2b97 f33e
000003d0: b0d3 cd3e 663f 933e 2972 9e3e 20c1 963e
000003e0: 2035 743e 594e ef3e 4464 f93e f495 a23e
000003f0: c0a8 2c3e 9af1 093f a4c2 09bd 048a d43e
0.18117328 -0.14949924 0.18877126 -0.072803736 0.22889449 0.18187065 0.13289255 -0.096211046
-0.06194622 0.35754678 0.2778966 0.28243405 0.034886252 0.0967711 0.035530247 0.34374064
-0.26708266 0.07082837 0.076127574 -0.43555018 -0.13508947 -0.19155459 -0.29921007 0.01147621
-0.16471083 0.13350494 -0.32682747 0.016257152 -0.3902208 -0.3132719 -0.10298553 0.096054345
0.18091506 -0.25342226 0.059628077 -0.16036059 0.030212699 -0.2469868 -0.0801768 0.20893064
-0.27762905 -0.28481263 0.07181085 0.04740139 -0.04449247 0.29159757 -0.17720199 -0.15912116
-0.42774 -0.29304487 -0.29048407 -0.013896462 -0.22451225 -0.10847794 -0.33330384 0.013672655
0.012659152 -0.47713113 -0.28281406 -0.49246937 -0.08054808 -0.46646014 -0.36825886 0.07893287
-0.45605132 0.0984859 -0.14233391 0.09469493 -0.31429422 0.049764164 -0.10959988 -0.100597546
0.07596145 -0.43465903 -0.4069972 0.16234496 -0.3502088 -0.37929794 -0.16841173 -0.21261357
0.12179646 -0.034988414 0.27489206 -0.06867383 0.19459864 0.34412828 0.2174612 0.20513396
0.21931805 0.066856645 0.11034066 0.042302743 -0.0457167 0.036687683 0.48904043 0.08301808
0.19010219 0.29654986 0.05747799 -0.038912475 -0.1266395 -0.032406807 0.17502895 -0.18428369
0.05191347 0.18046501 0.3349265 0.17750874 0.13375519 0.3459667 0.24119914 0.15474834
0.05952626 -0.11128255 0.09428446 0.08857478 0.18026574 0.11636306 0.2719144 0.33892435
0.013770181 -0.14482524 -0.005980437 -0.0076813395 0.33315745 -0.049125977 0.12282602 0.06681178
-0.20757431 0.11133492 -0.15557691 -0.04477336 -0.23269793 -0.047121387 0.027654491 -0.041514084
-0.14738521 0.08036732 -0.10288915 -0.20061207 -0.24820267 -0.09470597 -0.32241228 0.2273206
-0.043040507 -0.052803826 0.13311636 0.18782322 0.07278749 0.30521804 -0.08024376 0.17886998
0.068368934 -0.1500753 -0.0144303255 0.15635364 0.15894853 0.3374741 0.2926877 -0.07515968
0.06123137 0.08399992 -0.039532162 0.13693695 -0.060499463 0.30301517 0.39769673 0.16666114
-0.06735939 -0.050886977 0.07564941 0.24285373 0.1872981 0.2846908 0.4658731 0.296662
0.06085198 -0.102299504 0.13017064 0.066266686 -0.28569767 -0.19964261 0.0029766327 0.07352901
0.10501248 -0.18809511 -0.31199378 -0.057567894 -0.039036814 0.042485755 -0.10392455 0.2164452
0.018190593 0.27501148 -0.21942003 0.13862474 0.040129352 -0.14205387 0.16208583 -0.25379753
0.29461 0.043170903 0.030291077 0.18889695 0.026227191 0.13905998 0.22025798 -0.21507272
0.4416343 0.1699986 0.17153732 0.311392 0.48395288 0.07203357 0.035395116 0.40502858
0.075512625 0.3375685 0.19617967 0.30078554 0.47340605 0.09976653 0.09185445 0.36946657
-0.24095689 -0.2311655 -0.51196694 0.0033139219 -0.27057135 -0.30398107 -0.38019302 -0.2511457
-0.047665432 -0.26317295 0.006190594 -0.21656382 -0.2921092 -0.09087593 -0.23773517 -0.2722542
0.30149254 0.44935533 0.25629216 0.4757627 0.40200567 0.28759307 0.30946472 0.29444218
0.2384839 0.46739462 0.4870931 0.3175503 0.16861248 0.5388428 -0.03363289 0.41511548

encoder.transformer_encoder.layers.0.encoderlayer.self_attn.in_proj_bias f4 [48]
00000000: 41dd ec3d 2604 fabd 22b0 39bb d243 5fbe
00000010: 60ee 0abe 38d7 263e f1b3 843d c883 0f3e
00000020: 5f25 67bc c11b a93d 8fa0 2b3e 570e 93bc
00000030: feb0 173d c5d1 6d3e b7bd 6bbe f7e3 523e
00000040: e431 033a 606c ddb8 7249 0eba 6a78 a3b9
00000050: e0e4 ebb8 eedc 803a 3a50 153a 9436 6e39
00000060: 83f4 293b e6a2 23bb 8b51 13bb 759b 073b
00000070: e794 75ba 71f6 04bb fac9 e53a bada 87bb
00000080: 462e 283c 38a6 f13b dda8 84bc 06d3 77bc
00000090: 3896 aebc 5469 6f3c a83f e8bb 7025 80bb
000000a0: d67c 9ebc 78df 07bc 9a24 1cbc 2f7e cebb
000000b0: a821 5a3b d2b0 f5bb 2a07 cd3b a5bd 2a3c
0.11565638 -0.122078225 -0.0028333743 -0.21803215 -0.13567495 0.16293037 0.064796336 0.14015114
-0.014108031 0.08257247 0.16760467 -0.017951174 0.037034027 0.23224552 -0.23021589 0.20594774
0.00050046877 -0.000105582876 -0.00054278143 -0.00031179498 -0.000112483045 0.0009831467 0.00056958536 0.0002271778
0.0025933094 -0.0024968921 -0.0022479023 0.0020692025 -0.00093681965 -0.0020288492 0.0017531507 -0.0041459473
0.010264939 0.007374551 -0.016193802 -0.0151259955 -0.021311864 0.0146125145 -0.0070876665 -0.003910713
-0.019346636 -0.008293025 -0.009530211 -0.0063016634 0.003328422 -0.0074978853 0.0062569575 0.010421191

encoder.transformer_encoder.layers.0.encoderlayer.self_attn.out_proj.weight f4 [16, 16]
00000000: fab1 153e 838e 50be 51bb 35bd 32c9 13bd
00000010: a772 343e 194f 77bd 9667 b13d e4a7 6c3d
00000020: ae66 053e 1480 8d3b 172d c63d 1fc5 2abe
00000030: 6eba 42be 5ca0 423e 598b f8bd f2dd 52bd
00000040: 66cb 1dbd 90db 773e e8d9 82bd f879 0cbe
00000050: 412e babd 0e53 c33d 81c3 3e3d 9b45 543e
00000060: 3ebc 55bd c8ae d33d 907e 59be 5d9e c33d
00000070: 3b77 d33d 1e9f 4d3e d950 73be f71c afbd
00000080: 740a 783d 887d 36be 3dd7 4cbe 9f22 86be
00000090: ca61 e03c cc69 2b3e a82b b83d 178f 3a3c
000000a0: fb63 b13d 8e37 18be cd6a 5b3c 05d6 6cbd
000000b0: 7b7d 05be 4371 4c3e 2367 21be 68dd 383d
000000c0: ba36 71be bba2 d8bc 71ed 18be 1aa7 8a3d
000000d0: 894a edbd 9c02 163e a6a3 2bbe 78cb 083e
000000e0: 2a0d 2ebe f985 1f3e 59c6 07be d05b 8c3c
000000f0: 7ae6 92bd a922 2b3e 3b5d bd3d 1c31 4cbe
00000100: 6651 723d 5d15 16be f16c 523e 3048 59bd
00000110: 0279 34bd 588a 37bd 54af 043e 44a4 03be
00000120: 7ea0 c83d c33f 083e 06c6 173e 50ca 233d
00000130: 45cd 47be 5552 ce3d 151d 8f3d 6944 8dbd
00000140: 62d2 063c 5267 4d3e 5e47 663e ecbd 9abd
00000150: 61cb 1e3e 9e9c dabd 1d1b 833d fbe6 56be
00000160: 06c2 933d 6d3c 2cbe ffcd bebd e773 173e
00000170: e022 af3e 092b 84be ef7a 363a 54f1 453d
00000180: 83d6 e03d 893e f4bc 55ec e9bd f47e 40be
00000190: b882 d03d b493 883e 4626 07be 9491 003e
000001a0: 1c48 e83d 47bf 453e 3bbf 34bc 88aa 44bb
000001b0: ba96 b83d 1e63 163e f231 6a3e ff5f a2bd
000001c0: 1b44 973d ed9d 223e 0877 5bbe 2f19 063e
000001d0: 3881 99bd 7947 ca3d f19c 1abe 54f4 ad3b
000001e0: 83b7 233e 7a6f 6cbe 4745 52be 427f e9bd
000001f0: 29b8 f23d 4f01 6b3e 5264 89be cfa2 243d
00000200: a229 0dbe bb74 f1bd 27b1 733e 16f3 283e
00000210: 61c2 acbd 11ff 8c3c ac86 933c cad8 6b3d
00000220: e788 aebd 5f1b 1ebe 3ec6 393e 5238 093d
00000230: 8178 fc3d 5cdb 8fbd 4d0a 8c3d fd31 313e
00000240: c0e3 353e 8f9b ad3d 933a 7d3e 7312 85bd
00000250: c302 8f3d 122c a53e e596 8b3e 6d66 bbbd
00000260: ffd3 533e e04d b23d 5544 d4bc 388b 423e
00000270: 0a9d c3bd f7d9 b23d 3db1 b43e a7a1 2fbe
00000280: d452 03be a63e 73be c42f f7bb c4c6 91be
00000290: 545f 76bd 54ad f73d 6316 613e 8959 153e
000002a0: cd87 083e 8924 e13d af34 29be 00ae 53be
000002b0: 397c 3e3d e6ee 3f3e 4f56 013e 0091 fcbb
000002c0: 191e 37be f91e 07be 2fb2 30be 7339 843e
000002d0: 45a1 79bd 4fd6 82be ce73 01bc 463e 6e3c
000002e0: 1e02 cabc ba08 aa3d c2b8 113e 696b 6abe
000002f0: 081b 2abe bfff bb3c 817a 92be 3647 71be
00000300: 5fcd 4d3e aa43 16bd e2ff dfbd 6934 c7bd
00000310: 449c 2bbe 2b2a 363e fe2d 553b d3ca 28be
00000320: 0fce 2ebe ecf3 303e c980 7fbd 016d efb9
00000330: 57f8 b7bd a362 f7bd 4849 8e3d a65d 5f3e
00000340: 3f88 0bbe 61fb 923c 084b 4dbe 337c 27be
00000350: 69d0 6a3e 7667 b63c 62ff 873e 3213 1fbd
00000360: 2c01 0fbe 1eaa 14be 052c 5a3e fa9c 47be
00000370: faa3 fc3d 74d4 053d 83c9 c73d 4a64 153e
00000380: 8105 dbbc 33c8 453e ece9 19be 1769 05be
00000390: 7e33 0c3e e424 b63d f695 8cbd 8569 8abc
000003a0: 1e6a 42be be3a e23d 3593 073d c927 3dbd
000003b0: acb3 c43d 2ac4 123e f1e5 16be 3f60 05be
000003c0: 718f 333e 54b7 163e 44bf 77bd af6c 90be
000003d0: 53a7 723d 8743 1a3e 638f b83d 01d7 313e
000003e0: 3f03 4bbe 5457 0a3e 7bda 19be c893 103e
000003f0: 039d 353e 14d7 313d 02a5 8c3e 3995 1bbe
0.14618674 -0.20366864 -0.044368092 -0.036080547 0.17621861 -0.060378168 0.086623356 0.0577773
0.1302745 0.0043182466 0.09676569 -0.16676758 -0.1901643 0.19006485 -0.121359535 -0.051481195
-0.038524054 0.2420485 -0.063892186 -0.13718402 -0.090908535 0.09537326 0.046573166 0.20729677
-0.052181475 0.10336071 -0.21239686 0.0955169 0.10325476 0.2008023 -0.2376131 -0.085504465
0.060556844 -0.17821324 -0.20003982 -0.2619829 0.02739038 0.16739577 0.08992702 0.011386654
0.08661648 -0.14864942 0.0133921625 -0.057821292 -0.13036148 0.19965081 -0.15762 0.045133024
-0.23556033 -0.026444783 -0.14934327 0.06770153 -0.11586482 0.14649433 -0.16761646 0.13358867
-0.16997209 0.1557845 -0.13259257 0.017133623 -0.07172866 0.1671244 0.09246298 -0.19940609
0.05915966 -0.14656587 0.2054937 -0.05304736 -0.044060715 -0.04480967 0.12957507 -0.12855631
0.097962365 0.13305573 0.14821634 0.039987862 -0.19511898 0.10074297 0.06987969 -0.06897814
0.00822887 0.20058945 0.22488162 -0.07555756 0.1550727 -0.106744036 0.06401656 -0.2098655
0.072147414 -0.16819926 -0.093166344 0.14790307 0.34206295 -0.25814083 0.00069610676 0.04832585
0.10978415 -0.029814975 -0.1142203 -0.18798429 0.101811826 0.2667519 -0.13198194 0.12555534
0.11341879 0.19311248 -0.011031921 -0.003000887 0.09013124 0.14686248 0.22870615 -0.07928466
0.07386037 0.15880556 -0.21432126 0.13095544 -0.0749535 0.098769136 -0.15098931 0.005308667
0.15987973 -0.230894 -0.2053424 -0.114012256 0.11851532 0.22949718 -0.2683435 0.04019433
-0.13785413 -0.11789843 0.23798047 0.1649898 -0.08435512 0.017211469 0.018008552 0.057579793
-0.08522206 -0.15440129 0.1814203 0.033500977 0.12327672 -0.07024261 0.06837902 0.17304225
0.17762661 0.08476936 0.24729376 -0.064976595 0.06982949 0.32260185 0.2726356 -0.091503955
0.20686339 0.0870626 -0.02591149 0.1899842 -0.09551437 0.0873298 0.35291472 -0.17151509
-0.12824565 -0.23754367 -0.007543536 -0.2847196 -0.060149506 0.120936066 0.21981196 0.14584936
0.13333054 0.10993297 -0.16524003 -0.20671844 0.046505187 0.18743476 0.1263058 -0.007707715
-0.17882575 -0.13195409 -0.17255472 0.2582508 -0.060944814 -0.2555413 -0.007901145 0.014541214
-0.024659213 0.08302446 0.14230636 -0.22892536 -0.16611874 0.022949098 -0.28609088 -0.23562321
0.20097874 -0.036685623 -0.10937478 -0.09726793 -0.1675883 0.17789523 0.0032528634 -0.16483621
-0.17070793 0.17280549 -0.06237868 -0.00045666847 -0.08982914 -0.1207936 0.06947571 0.21813068
-0.13626193 0.017942132 -0.20048153 -0.16355972 0.22931065 0.02226613 0.2656203 -0.038836665
-0.13965291 -0.1451802 0.21305855 -0.19493476 0.123359635 0.032673314 0.09755232 0.14589038
-0.026736023 0.19314651 -0.1503064 -0.1302837 0.13691518 0.08893755 -0.0686454 -0.016896019
-0.18985793 0.110463604 0.033099372 -0.04618052 0.09604582 0.14332643 -0.14736153 -0.13024996
0.17535187 0.14718372 -0.06048514 -0.2820792 0.059241604 0.15064822 0.09011724 0.17367174
-0.19825457 0.13509876 -0.1502475 0.14118874 0.17735676 0.043418005 0.2746964 -0.15193643

encoder.transformer_encoder.layers.0.encoderlayer.self_attn.out_proj.bias f4 [16]
00000000: 7d7f 33bc 678d 4abc 5e35 af3b 3d73 a23c
00000010: 1091 c4bb d1a6 b73b 305c d6b9 8c53 46ba
00000020: de3e cdbb dc7f 64bb bbb8 dc3b 9c24 d8bb
00000030: 3a13 e03c 882e 2f3b 48ce 37bd 1d94 0c3c
-0.010955689 -0.0123628145 0.005346938 0.01983034 -0.005998738 0.005604603 -0.00040885946 -0.000756555
-0.006263598 -0.003486625 0.006735889 -0.006596161 0.027352918 0.0026730616 -0.04487446 0.008580235

encoder.transformer_encoder.layers.0.encoderlayer.linear1.weight f4 [64, 16]
00000000: 0f08 efbd 00aa 7c3e 17b1 913d fdab 0dbe
00000010: e7b1 273c 61a2 65be cc95 4abe 40f8 403e
00000020: 5327 b6bc 4ce5 1ebe 68b6 e8bc 3b8b c83d
00000030: 61d0 f1bd 74ce 16be 2f68 6cbe 02c1 403d
00000040: ace1 21be 713b 29bd 8aaf 70bd 8157 16be
00000050: 9db3 cdbd bd37 5dbe 6e66 d9bd 2ee8 19bd
00000060: e5a3 6cbe 6891 5ebe ed0b 4e3e 66eb 03bd
00000070: f07b e4bd c318 893c fedf 243e 44fb bcbd
00000080: 7967 42be aaa5 11be 0fe0 a4bd 669c c73b
00000090: f195 94be 996c 2f3e 61b3 2dbe 9042 853e
000000a0: 0eb4 ffbd c3bb 4abd cec9 503d 66d3 ccbd
000000b0: 37fc 6b3e 99d5 10be dbc8 a1bd 54f0 32be
000000c0: e228 083d 1a9f 823e d35e 3d3e 31aa e03b
000000d0: 58f4 b8bd e921 823e 7c63 4cbd e901 e43d
000000e0: 9d7b b5bd b0a5 c5bd fed4 0cbe f081 943e
000000f0: a8cd 1f3d 79d3 43be ec70 c23d be40 67be
00000100: 3f2c 90bd a33d e73d 2294 0ebe 5f88 823d
00000110: 93eb 6abe 3dbd 63bc d357 5ebe fff8 ef3b
00000120: c8a2 893e b2c4 673e 6434 943c 244d 273e
00000130: 8105 943e 095e ca3d 2d4f b73d 9621 b73d
00000140: fac6 8d3e f74e 683e 3c62 83bd 2442 ae3b
00000150: ca0b 7bbd 9944 fb3d 81f0 8fbe 0df4 853d
00000160: 97ef 05be 68c0 c73c 34f8 a03d 7a5a 133d
00000170: d51c f63d e6e0 853d 8bbc 7ebe edec 783e
00000180: 8814 0a3e 21b7 6e3e c617 d7bd 14e3 cc3c
00000190: 5861 2bbe 1024 06bd 44a0 dbbc 20fa 073e
000001a0: 8959 583e 8cdc 94be 52d7 833e fa38 7fbc
000001b0: 3055 3e3e 123f 223e 0519 4a3e 6bbf 993e
000001c0: a5a4 423e 077f cd3d d0f1 a4bd d15f 6b3e
000001d0: 41f2 533d b806 463e 1382 e8bd d90c 623e
000001e0: aad6 3b3e efae 39be e299 4f3e 3714 16be
000001f0: 1f61 55be 53f4 57be 02fb a93d 8467 65be
00000200: d69c 1cbe 7a4e 21bc a2fa b73d f032 88be
00000210: 0ec8 fcbd da2c edbb 7ce3 f1bc 715b 82bd
00000220: 53b7 173e cd60 97be 7837 4cbe 3075 a23d
00000230: 1f70 02be d9cc 4e3d 0b66 5cbe ce8f 203c
00000240: 5d42 013e 48ec 7fbe 0bb2 503e bf1c 24be
00000250: 165d a7bd 74cf 1ebe ba65 8cbd d9f1 fcbd
00000260: 3b34 40be 1904 fc3d 00ac ce3c 0d84 813e
00000270: 79b0 253e 9248 3d3e 3a9e e93d c27e 2e3e
00000280: 832a 5b3e b174 643e 4a7f 38be 899d cbbd
00000290: 1223 53be 07dc 1ebd 79a9 82bd 452e a13e
000002a0: 3973 903d 6d31 afbc 6ce0 1cbe 3fb5 1cbe
000002b0: 3ba6 803d 5a27 35be 0ebe f7bd 5c6e 483e
000002c0: 44a4 1fbe 52f0 96bd 4cf5 7c3e 3dac ff3c
000002d0: b420 f0bd b571 693d 0c6e ec3d be3a 40be
000002e0: 2060 7d3d c227 0c3d fe4a 07bc 2473 9f3e
000002f0: 898f 1cbd 96ad 343d 8e8e a0bd 6597 9fbe
00000300: 94b4 4c3e baeb b0bd 21ce bebd a1d3 c33d
00000310: 1da4 29be 9d48 1ebe b83a 9d3d 1f96 443e
00000320: e40d 113d 6017 733e 3bdd 263e f81b 283e
00000330: ec2a 8abe 6151 813e 1b06 f93d 52b3 88bb
00000340: 1262 5d3e c8f0 75be 9c93 d53c 928a 01be
00000350: 8409 c4bc 761a bd3d 9f62 ed3d b9fc 213d
00000360: 01b9 75be f8a3 05be 69be fd3c 6cc9 a03c
00000370: 7bc7 8ebe fcb2 713e 7bab 353d 0e62 2abe
00000380: 3224 093d da2b 4e3e 6ff8 b4bd 7341 923d
00000390: 61f8 eebd a9a0 413c b420 443e dbd0 1d3e
000003a0: feda 373e 1b66 afbd 1ed0 efba 28d1 203e
000003b0: 76cb f63d 54ef f3bd 9a64 a43d 38f1 dbbd
000003c0: c53d 1bbe 861d 53be 3924 5abe b4fe 32be
000003d0: d161 6e3e afaa 6d3d 515e 74be 7d22 19be
000003e0: 90bf 8d3d fdf9 a7bd 9e44 75bd ef49 7dbd
000003f0: f93f 94bd f32a 083d 9943 bd3c d03c 033e
-0.11671459 0.24674225 0.07113855 -0.1383514 0.010235286 -0.22425224 -0.19783705 0.188447
-0.022235548 -0.15517157 -0.02840729 0.09792181 -0.11807323 -0.14727193 -0.23086618 0.047059067
-0.15808743 -0.041316453 -0.058761157 -0.14681818 -0.10044024 -0.21603294 -0.1061524 -0.03757494
-0.23109396 -0.21735156 0.20121737 -0.032206915 -0.11156452 0.01673544 0.16101071 -0.092276126
-0.18984784 -0.14223352 -0.08050548 0.006091642 -0.29020646 0.1713127 -0.16962959 0.26027346
-0.124855146 -0.04949547 0.050973706 -0.100012586 0.23045431 -0.14143981 -0.07899638 -0.1747449
0.033242114 0.2551201 0.18493204 0.006856226 -0.0903098 0.25416496 -0.049899563 0.11133177
-0.08861468 -0.09650743 -0.13753125 0.29005384 0.03901449 -0.19123639 0.094941944 -0.22583291
-0.07039689 0.11291053 -0.13923696 0.06373667 -0.22941427 -0.013900098 -0.2171319 0.007323384
0.26882005 0.22633627 0.018091388 0.1633802 0.2891045 0.09881217 0.089506485 0.08941953
0.2769087 0.22686373 -0.06415221 0.005317943 -0.06129054 0.12268943 -0.28113177 0.065406896
-0.13079678 0.024383739 0.07859841 0.035974957 0.12017218 0.065370366 -0.24876611 0.2430913
0.13484395 0.23312046 -0.10502581 0.025010623 -0.16736352 -0.032749236 -0.026809819 0.13279009
0.21127905 -0.29074514 0.25750214 -0.015577549 0.18587184 0.15844372 0.19736107 0.30028853
0.1900812 0.10033994 -0.080539346 0.2298577 0.051744703 0.193385 -0.11352935 0.22075213
0.18343607 -0.18133138 0.20273545 -0.14656149 -0.2083783 -0.21089296 0.08299829 -0.2240277
-0.15294203 -0.00984537 0.08983351 -0.26601362 -0.12342845 -0.0072380127 -0.029527418 -0.06365097
0.14816026 -0.2956604 -0.19943035 0.07932508 -0.12738083 0.050488327 -0.21523301 0.009799911
0.12622972 -0.24992478 0.20380418 -0.16026591 -0.081720516 -0.15508825 -0.0685534 -0.12350816
-0.18769924 0.12305469 0.0252285 0.2529606 0.161806 0.18484715 0.114071324 0.17040542
0.21402936 0.22310139 -0.18017307 -0.09942157 -0.20618847 -0.038784053 -0.063799806 0.31480613
0.07053227 -0.021385873 -0.15319985 -0.15303515 0.06281706 -0.17690793 -0.12096797 0.19573349
-0.15590006 -0.07370056 0.24702948 0.03121006 -0.117249876 0.056993205 0.11544427 -0.18772408
0.06185925 0.034217604 -0.008257626 0.31142533 -0.038222823 0.044110857 -0.0783969 -0.31170192
0.1999076 -0.08638711 -0.0931666 0.095618494 -0.1656651 -0.15457387 0.07677215 0.19197892
0.035413638 0.23739386 0.1629533 0.16416919 -0.26985872 0.252574 0.12159368 -0.0041717673
0.21619442 -0.24017632 0.026071362 -0.12650517 -0.023930319 0.09233563 0.11591076 0.039547656
-0.23996355 -0.1305083 0.030974584 0.019627295 -0.27886567 0.23603433 0.04435299 -0.16638967
0.033481784 0.20133916 -0.088364474 0.0714139 -0.11668468 0.0118180895 0.191531 0.15411703
0.17954633 -0.08564397 -0.0018296277 0.15704787 0.12050526 -0.119108826 0.08027001 -0.10739368
-0.15160282 -0.20616731 -0.2130288 -0.17479974 0.23279501 0.058024105 -0.23864104 -0.14954562
0.06921303 -0.08201978 -0.05987989 -0.061838087 -0.07238764 0.033244085 0.023103522 0.12816167
