Final_exp/cen_001/models/model__lr_0.001_l_win_120_dff_128.pt (torch, 87475 bytes, 37 tensors)

encoder.encoder_layer.encoderlayer.self_attn.in_proj_weight f4 [48, 16]
0.12450722 -0.21762653 0.18621281 -0.043348454 -0.111827835 -0.102496296 0.1168172 0.29988465
0.08318558 0.18767476 -0.25809273 -0.07225876 -0.17339955 -0.21975756 0.052573163 -0.095720716
0.06931093 -0.12174587 -0.2791916 -0.15757567 -0.2943077 0.06631218 -0.22986375 0.23536572
0.13251862 -0.17179635 -0.087502144 -0.27432758 0.22058524 -0.1369211 -0.064321786 0.022619054
0.14863811 -0.09128105 0.15011571 0.15747541 -0.037831627 0.203016 -0.26849976 -0.1667229
-0.02402833 -0.031175004 0.108625814 0.22114581 -0.22109146 0.16067089 0.07346605 0.25428835
0.1634229 -0.06655232 -0.043417074 -0.20375618 0.067559175 0.23960504 0.10536047 0.2475657
0.12229217 0.058915004 -0.06628725 -0.26452294 -0.057397652 0.2599117 0.26622763 -0.10358944
0.2513132 0.25239766 -0.26126188 -0.30202752 -0.15249893 -0.03098283 0.118606776 0.12819998
0.193972 -0.14994957 0.20479462 0.06980646 -0.21736832 -0.22628489 0.1088511 0.28508592
-0.2032854 0.03628044 -0.2898617 0.19943638 0.090271965 -0.07798613 0.16177006 0.12698434
0.20637982 0.030621039 0.003022439 0.14692608 0.10326083 -0.25951436 -0.11752969 0.18930662
-0.15596068 0.23684767 -0.058755025 0.2932762 -0.17998587 0.21654733 -0.13521862 0.216524
0.16906507 0.12329534 0.089597076 0.18291776 -0.12204874 -0.098723955 0.08318489 -0.21717273
0.01819581 0.12778614 -0.2781744 -0.016497416 0.017347762 -0.2357247 0.2403732 0.013855237
-0.28812024 -0.10620585 0.05548694 0.22180781 -0.09888358 0.26782605 -0.12951231 -0.24681756
-0.08365534 -0.19980222 0.1017618 0.20219342 -0.25844342 -0.22414537 0.17017563 -0.06568051
0.27919394 0.2779707 -0.20318842 0.18035004 -0.29528058 0.12325803 -0.17469151 -0.0017391635
0.29733667 0.04152315 -0.16456792 0.14071895 -0.049228936 0.27479276 -0.22897996 -0.052058216
-0.25725096 -0.17367575 -0.0873818 -0.2020102 -0.20859535 -0.07596032 -0.17488866 -0.18553066
0.016542712 -0.22995116 0.1763726 0.20176692 0.2817223 0.094876066 -0.028910784 -0.05349607
-0.14555407 0.20825417 0.1695541 0.22109532 -0.059444916 -0.21153536 0.102124356 0.26839596
-0.048566747 0.2472779 0.21620218 0.10765057 -0.08280759 -0.10267997 -0.053608965 -0.022977924
-0.063019276 -0.29825422 -0.21000363 -0.097098455 0.23527731 0.12651101 -0.27885878 -0.21920754
-0.17965125 0.29037833 0.07580279 0.24525659 -0.2472495 0.2860274 0.24914986 0.021239636
-0.14318822 0.120020464 -0.16452357 -0.12693073 0.114858195 -0.23517366 0.0745109 -0.016329113
0.002851253 0.014029599 0.07382696 -0.18301035 0.1260218 -0.28722855 0.12880498 -0.24880281
0.2946616 0.07363329 0.08481649 0.08134192 0.05948638 -0.11708931 -0.29792783 0.18311004
0.18543185 -0.056018017 0.015349776 -0.01967929 -0.069143064 0.20890261 -0.1830597 -0.28610227
-0.05061748 -0.17851456 -0.20221752 -0.087983906 -0.011781877 0.20111692 0.17230134 0.24923246
0.22914615 0.09208716 -0.0019961253 -0.009776298 -0.23238876 0.029188769 -0.0715957 -0.08433195
0.25738633 0.14049275 0.1921106 0.19777565 -0.17727926 0.08836242 -0.038409423 0.10685457
00000000: a4fd fe3d 7dd9 5ebe 92ae 3e3e 268e 31bd
00000010: fe05 e5bd 94e9 d1bd db3d ef3d 7b8a 993e
00000020: 345d aa3d d02d 403e bb24 84be 67fc 93bd
00000030: a78f 31be 2008 61be f556 573d 3909 c4bd
00000040: e4f2 8d3d e655 f9bd 34f2 8ebe 845b 21be
00000050: 80af 96be aece 873d 6761 6bbe b603 713e
00000060: f6b2 073e 62eb 2fbe 5334 b3bd aa74 8cbe
00000070: 19e1 613e 0b35 0cbe 24bb 83bd 984b b93c
00000080: 9734 183e 8ff1 babd efb7 193e 3c41 213e
00000090: 56f5 1abd 6de3 4f3e cd78 89be 68b9 2abe
000000a0: 0fd7 c4bc b962 ffbc 3677 de3d 0c74 623e
000000b0: cd65 62be e986 243e 5e75 963d 1532 823e
000000c0: 5558 273e 954c 88bd 1ad6 31bd 76a5 50be
000000d0: 775c 8a3d 065b 753e 3bc7 d73d dd81 7d3e
000000e0: 5174 fa3d dc50 713d 9cc1 87bd 8d6f 87be
000000f0: cd19 6bbd 2513 853e fd4e 883e b326 d4bd
00000100: 20ac 803e 443a 813e 1ec4 85be 5aa3 9abe
00000110: ae28 1cbe b4cf fdbc 1ce8 f23d db46 033e
00000120: 99a0 463e 618c 19be aeb5 513e b0f6 8e3d
00000130: cd95 5ebe 3ab7 67be 53ed de3d c8f6 913e
00000140: 0c2a 50be cc9a 143d c168 94be 0d39 4c3e
00000150: 82e0 b83d 31b7 9fbd 0da7 253e 2f08 023e
00000160: 3b55 533e f9d8 fa3c 1d14 463b ca73 163e
00000170: 6a7a d33d 11df 84be 68b3 f0bd 98d9 413e
00000180: 28b4 1fbe 3288 723e 1ca9 70bd 4c28 963e
00000190: 374e 38be 95be 5d3e c076 0abe 78b8 5d3e
000001a0: 651f 2d3e 4482 fc3d ac7e b73d cb4e 3b3e
000001b0: b1f4 f9bd c92f cabd d75c aa3d 8762 5ebe
000001c0: 610f 953c 5fda 023e e06c 8ebe 9725 87bc
000001d0: e51c 8e3c d161 71be 6424 763e 1301 633c
000001e0: 7f84 93be 7482 d9bd 4646 633d 9621 633e
000001f0: 7983 cabd 7f20 893e e09e 04be bebd 7cbe
00000200: 7e53 abbd f498 4cbe 7e68 d03d cb0b 4f3e
00000210: b252 84be 5d86 65be 8542 2e3e 8183 86bd
00000220: 82f2 8e3e 2d52 8e3e a010 50be aead 383e
00000230: 042f 97be b56e fc3d 55e2 32be a5f4 e3ba
00000240: 833c 983e 2e14 2a3d 7e84 28be a118 103e
00000250: 48a4 49bd a3b1 8c3e b979 6abe ff3a 55bd
00000260: 66b6 83be 0ed8 31be 3bf5 b2bd c3db 4ebe
00000270: 059a 55be 1691 9bbd 0316 33be c0fb 3dbe
00000280: 9584 873c 5178 6bbe 059b 343e fd9b 4e3e
00000290: e83d 903e 624e c23d 4fd6 ecbc b21e 5bbd
000002a0: 200c 15be 9540 553e 979f 2d3e d066 623e
000002b0: 837c 73bd ba9c 58be 9326 d13d 326b 893e
000002c0: eded 46bd 6b36 7d3e 1b64 5d3e e777 dc3d
000002d0: 0797 a9bd e049 d2bd 1395 5bbd 333c bcbc
000002e0: 4010 81bd c7b4 98be 310b 57be 8edb c6bd
000002f0: 89ec 703e 1a8c 013e 94c6 8ebe f177 60be
00000300: 7ff6 37be 78ac 943e 7e3e 9b3d 8b24 7b3e
00000310: f92e 7dbe 2f72 923e 2421 7f3e bffe ad3c
00000320: ef9f 12be 4acd f53d de78 28be 21fa 01be
00000330: c63a eb3d 5dd1 70be 2c99 983d a2c4 85bc
00000340: 16dc 3a3b 67dc 653c 9732 973d 1167 3bbe
00000350: dc0b 013e 9f0f 93be 74e5 033e 2ac6 7ebe
00000360: e3dd 963e 0dcd 963d 45b4 ad3d 9896 a63d
00000370: fea7 733d 85cc efbd ff89 98be 3381 3b3e
00000380: d9e1 3d3e 2673 65bd a07d 7b3c 7636 a1bc
00000390: e19a 8dbd 91ea 553e 0174 3bbe ff7b 92be
000003a0: 4654 4fbd 85cc 36be 1c12 4fbe e830 b4bd
000003b0: c608 41bc 98f1 4d3e c36f 303e cb36 7f3e
000003c0: 4aa5 6a3e 3198 bc3d 6dd1 02bb c42c 20bc
000003d0: 52f7 6dbe 491d ef3c c4a0 92bd 3bb6 acbd
000003e0: 24c8 833e 55dd 0f3e a4b8 443e b385 4a3e
000003f0: b288 35be 5bf7 b43d 3353 1dbd 92d6 da3d

encoder.encoder_layer.encoderlayer.self_attn.in_proj_bias f4 [48]
0.0 0.0 0.0 0.0 0.0 0.0 0.0 0.0
0.0 0.0 0.0 0.0 0.0 0.0 0.0 0.0
0.0 0.0 0.0 0.0 0.0 0.0 0.0 0.0
0.0 0.0 0.0 0.0 0.0 0.0 0.0 0.0
0.0 0.0 0.0 0.0 0.0 0.0 0.0 0.0
0.0 0.0 0.0 0.0 0.0 0.0 0.0 0.0
00000000: 0000 0000 0000 0000 0000 0000 0000 0000
00000010: 0000 0000 0000 0000 0000 0000 0000 0000
00000020: 0000 0000 0000 0000 0000 0000 0000 0000
00000030: 0000 0000 0000 0000 0000 0000 0000 0000
00000040: 0000 0000 0000 0000 0000 0000 0000 0000
00000050: 0000 0000 0000 0000 0000 0000 0000 0000
00000060: 0000 0000 0000 0000 0000 0000 0000 0000
00000070: 0000 0000 0000 0000 0000 0000 0000 0000
00000080: 0000 0000 0000 0000 0000 0000 0000 0000
00000090: 0000 0000 0000 0000 0000 0000 0000 0000
000000a0: 0000 0000 0000 0000 0000 0000 0000 0000
000000b0: 0000 0000 0000 0000 0000 0000 0000 0000

encoder.encoder_layer.encoderlayer.self_attn.out_proj.weight f4 [16, 16]
-0.06636285 -0.27539986 -0.41693926 -0.07586697 -0.024378944 -0.2468058 0.38378152 -0.0967386
-0.1099885 0.34315798 0.048185226 -0.10186247 0.099565774 -0.39123428 0.42570576 0.11422329
0.1522875 -0.31936905 0.33105886 -0.35588652 -0.1504671 -0.27764797 -0.2186853 0.09240579
-0.42942423 -0.4239094 0.0989195 0.1427123 0.00620684 -0.16450636 -0.12112678 -0.0598034
-0.0877961 -0.26788107 0.32593086 0.0876399 -0.28969866 -0.08800923 -0.31332752 -0.2529972
0.3288969 0.13218819 0.18969733 -0.056179635 -0.1080483 0.055971093 -0.30762202 -0.43085796
0.3044167 0.008824188 0.2626475 0.32580858 0.18939169 -0.14800012 -0.079404995 -0.022598961
0.02590212 0.016842498 -0.33853346 -0.23802961 0.31555507 0.013860151 -0.1963227 0.2927551
-0.12851498 -0.17612681 0.3026309 -0.34162602 -0.20737141 0.32770503 -0.042339977 -0.17855999
0.35930413 0.06589105 -0.40684205 -0.32020146 -0.109768815 -0.023763385 -0.32602054 -0.16317222
0.1463786 -0.4038151 -0.4057883 0.1125785 0.08264368 -0.41816524 -0.4028924 0.3597844
0.43214434 -0.18924959 0.43133554 0.29906687 0.38490215 -0.1863263 -0.10596485 0.2552926
0.16061294 -0.34559667 0.25914335 0.4222615 -0.27498886 -0.402031 -0.41247392 -0.27395546
-0.1906864 -0.2447079 -0.37924796 0.27044126 0.42350662 0.36252284 0.27115265 0.19225423
-0.17070995 -0.34942675 -0.25574857 0.1960596 0.094736345 0.055279605 -0.26280034 -0.20372199
-0.1826173 -0.054965656 -0.0817085 0.045791283 -0.14419873 -0.049064606 -0.27539846 0.21397655
-0.35985646 0.07903824 -0.41195342 -0.24693996 0.4186831 -0.08102583 -0.079546794 0.2233845
-0.37355354 -0.09975016 -0.01393696 0.048735227 -0.07171147 -0.30544525 -0.39686537 0.004667247
0.3615955 -0.19438042 0.05474519 0.27524313 -0.42307818 0.3831855 0.36572278 -0.18942654
0.37743488 0.29579142 0.35970795 0.37500647 0.09930396 0.23793371 -0.23185617 0.07272057
0.41523933 -0.1492126 0.102043286 -0.22124246 0.16005123 0.1409875 0.326916 0.0023873851
0.20674466 0.2625182 0.06972971 -0.408486 0.30700925 -0.2772678 0.20058422 -0.32397407
0.12612852 -0.081034556 -0.387777 0.19772272 -0.100753896 -0.18017665 -0.13454068 0.29442054
0.25443625 0.11796113 0.18118538 0.22241446 0.17914064 0.36870414 0.26073575 -0.22282644
-0.065951444 0.2019592 0.34451354 -0.35981366 -0.2147625 -0.21474345 0.40898156 0.42500684
-0.1935504 -0.13381477 0.007677056 0.025356093 -0.12341124 -0.31590474 -0.23045136 -0.036130764
0.04687105 0.016616097 -0.39763615 0.38340753 -0.25222105 -0.106024824 0.40167612 0.0028258895
-0.34613603 0.24945344 -0.16290778 0.41976717 -0.12563974 -0.32367206 -0.32212526 0.0023360755
-0.06974566 0.33711997 0.025926434 -0.26028758 0.048506245 -0.32027882 0.06464729 0.11438774
-0.40824535 -0.29619968 -0.21748824 -0.15140538 -0.07867071 0.18158822 -0.34178036 0.22395407
-0.30016068 0.38024214 -0.24713467 -0.33125708 0.31033924 0.35220748 -0.14670664 0.37965313
0.04876666 0.15726054 -0.025407197 -0.11828979 -0.1566262 -0.37126017 0.31603238 0.22939755
00000000: 3fe9 87bd 3601 8dbe 1079 d5be 2460 9bbd
00000010: 5ab6 c7bc a9ba 7cbe 037f c43e e31e c6bd
00000020: a741 e1bd 67b2 af3e df5d 453d 459d d0bd
00000030: 24e9 cb3d dc4f c8be 1bf6 d93e e6ed e93d
00000040: 41f1 1b3e 5784 a3be 8c80 a93e c236 b6be
00000050: 0c14 1abe e027 8ebe 0aef 5fbe 3f3f bd3d
00000060: 7edd dbbe a70a d9be 4f96 ca3d 2c23 123e
00000070: bf62 cb3b 5b74 28be 5111 f8bd 69f4 74bd
00000080: 71ce b3bd b527 89be 69e0 a63e 8c7c b33d
00000090: 6253 94be 2f3e b4bd 776c a0be d988 81be
000000a0: 2d65 a83e 575c 073e 0440 423e 9e1c 66bd
000000b0: 6d48 ddbd f241 653d a280 9dbe 6a99 dcbe
000000c0: 81dc 9b3e 5493 103c bc79 863e 62d0 a63e
000000d0: e5ef 413e 588d 17be 169f a2bd 7521 b9bc
000000e0: af30 d43c 47f9 893c 4254 adbe 09be 73be
000000f0: 6f90 a13e b015 633c d108 49be ffe3 953e
00000100: 6e99 03be 965a 34be 70f2 9a3e 9be9 aebe
00000110: 2c59 54be f4c8 a73e af6c 2dbd 6ed8 36be
00000120: b6f6 b73e e3f1 863d 9a4d d0be 72f1 a3be
00000130: 79ce e0bd 6eab c2bc 2aec a6be 9e16 27be
00000140: 46e4 153e dac0 cebe 7cc3 cfbe 8e8f e63d
00000150: 1741 a93d c119 d6be ea47 cebe a935 b83e
00000160: 0642 dd3e a5ca 41be 03d8 dc3e 4b1f 993e
00000170: e511 c53e 52cc 3ebe 1904 d9bd b6b5 823e
00000180: b877 243e 0cf2 b0be 70ae 843e a932 d83e
00000190: 57cb 8cbe 02d7 cdbe c82f d3be e443 8cbe
000001a0: 4c43 43be b594 7abe ca2c c2be 4777 8a3e
000001b0: dcd5 d83e 989c b93e 85d4 8a3e 4bde 443e
000001c0: 97ce 2ebe 10e8 b2be 7af1 82be d9c3 483e
000001d0: 2105 c23d de6c 623d c48d 86be 7f9c 50be
000001e0: 0800 3bbe ab23 61bd c956 a7bd a48f 3b3d
000001f0: d5a8 13be f8f7 48bd 0701 8dbe ab1c 5b3e
00000200: 1b3f b8be cdde a13d 8feb d2be d4dd 7cbe
00000210: a25d d63e dff0 a5bd 6ee9 a2bd e8be 643e
00000220: 6942 bfbe d049 ccbd d957 64bc 979e 473d
00000230: 77dd 92bd 5263 9cbe f031 cbbe b5ef 983b
00000240: 0c23 b93e a90b 47be 7e3c 603d abec 8c3e
00000250: b49d d8be e430 c43e 0440 bb3e 08f9 41be
00000260: 253f c13e f971 973e a42b b83e d900 c03e
00000270: e05f cb3d e5a4 733e b46b 6dbe 86ee 943d
00000280: 409a d43e 30cb 18be 12fc d03d 628d 62be
00000290: 78e4 233e 075f 103e 8961 a73e ad75 1c3b
000002a0: dfb4 533e c968 863e 73ce 8e3d 1425 d1be
000002b0: 5130 9d3e 0cf6 8dbe f365 4d3e eedf a5be
000002c0: d627 013e 72f5 a5bd b58a c6be d377 4a3e
000002d0: 0f58 cebd 3a80 38be 08c5 09be 4abe 963e
000002e0: 7845 823e 9b95 f13d a988 393e 9ec0 633e
000002f0: a570 373e cac6 bc3e 287f 853e 9d2c 64be
00000300: 8d11 87bd 64ce 4e3e 1464 b03e 7f39 b8be
00000310: b3ea 5bbe b5e5 5bbe 0866 d13e 7f9a d93e
00000320: 1332 46be bd06 09be d08f fb3b 95b7 cf3c
00000330: 08bf fcbd 44be a1be 71fb 6bbe dafd 13bd
00000340: dcfb 3f3d 7b1e 883c f796 cbbe fe4d c43e
00000350: 1e23 81be 8b23 d9bd 7ea8 cd3e 8f32 393b
00000360: be38 b1be b970 7f3e 4cd1 26be b9eb d63e
00000370: b4a7 00be 58b8 a5be 9aed a4be d818 193b
00000380: d0d6 8ebd fd9a ac3e ac63 d43c 6a44 85be
00000390: 7cae 463d 96fb a3be cc65 843d 1f44 ea3d
000003a0: 8905 d1be 7ca7 97be 3db5 5ebe 030a 1bbe
000003b0: 1c1e a1bd 43f2 393e d6fd aebe 3754 653e
000003c0: a9ae 99be 19af c23e df10 7dbe 879a a9be
000003d0: c9e4 9e3e 8a54 b43e 443a 16be e561 c23e
000003e0: 8dbf 473d e808 213e c122 d0bc eb41 f2bd
000003f0: 9e62 20be d015 bebe ffce a13e 31e7 6a3e

encoder.encoder_layer.encoderlayer.self_attn.out_proj.bias f4 [16]
0.0 0.0 0.0 0.0 0.0 0.0 0.0 0.0
0.0 0.0 0.0 0.0 0.0 0.0 0.0 0.0
00000000: 0000 0000 0000 0000 0000 0000 0000 0000
00000010: 0000 0000 0000 0000 0000 0000 0000 0000
00000020: 0000 0000 0000 0000 0000 0000 0000 0000
00000030: 0000 0000 0000 0000 0000 0000 0000 0000

encoder.encoder_layer.encoderlayer.linear1.weight f4 [128, 16]
0.18545114 -0.20066498 0.20167844 0.13614029 0.055658467 -0.087612726 0.14403953 0.13089472
0.17567599 -0.1685339 0.031025913 0.0735064 -0.20079911 0.19106823 0.12741981 -0.16392203
-0.17524426 0.008327433 0.1637235 0.059274424 0.028703304 -0.013222554 -0.20281775 0.12286098
0.13019624 -0.14352714 -0.03760255 0.19844693 -0.07823737 -0.14014806 0.11677053 0.09429254
0.17583399 -0.08789728 0.049632058 0.04914028 0.16608484 0.1143883 0.047964726 -0.028718902
-0.036413323 -0.11015776 0.085859135 0.17396028 -0.10376333 -0.13948898 0.15198928 0.027426502
-0.09622177 0.13218458 -0.16631614 -0.10029342 -0.06559322 -0.0065000365 0.043513644 0.097619124
-0.07127541 -0.01978997 -0.10645968 -0.13421707 0.044537306 0.15051824 0.17614932 -0.15931047
0.09659373 -0.06297662 -0.010172471 -0.008519157 0.17631063 0.17104274 -0.1652819 0.044268444
0.119373485 0.054765403 -0.0047293366 -0.0963603 -0.14402212 -0.20091368 -0.003955945 -0.078757256
0.04817414 -0.08629514 0.16955023 -0.14402115 0.18112795 -0.08093386 0.031550154 -0.07485319
0.08603465 0.16108947 0.19086522 -0.14137581 0.14012869 0.13501006 -0.16750468 0.08250671
0.03946377 0.11203698 0.1788453 0.0046695005 -0.075560026 -0.092001125 0.02636118 -0.029952878
-0.14619555 0.005693527 0.116880834 0.006767242 0.12832685 -0.07711367 0.16008559 0.048631635
-0.06859995 0.09841999 0.100382455 -0.08752091 -0.037129264 0.10535075 -0.17989059 0.07777586
0.044750515 -0.13914175 -0.025165385 0.059744984 0.14199273 0.14927067 -0.13167606 -0.13272196
0.09652888 0.2013879 0.17431965 0.08038524 0.19354482 -0.09371204 -0.005777745 -0.16650301
-0.12526803 -0.13804539 -0.18516615 0.05759225 0.0527256 0.08217859 0.1352798 -0.16258858
-0.058913533 0.16062136 -0.18064731 0.14346644 0.06285916 -0.16571476 0.044038054 0.006558242
0.039424617 -0.058565952 0.09240078 0.15875115 0.1422705 -0.019591311 -0.18777238 0.19983807
0.056806106 0.18117759 0.073530614 0.003355589 0.109840475 0.11423768 -0.013209097 0.031251095
-0.008286821 0.139864 0.092928916 -0.034036063 0.19022286 0.19560052 0.16582236 0.03657473
0.012484689 -0.106591955 0.14880592 -0.14666471 -0.17593762 0.061590824 -0.19094686 0.06507786
-0.09830922 -0.002565894 -0.078642204 0.16506076 -0.1517208 0.037498377 0.0028937391 -0.19423145
0.15783812 0.04037146 -0.16378936 -0.20259081 0.09026174 0.16756421 -0.046515957 -0.060301173
-0.174063 0.13784236 -0.07690139 -0.09382312 0.077668846 0.17851894 0.09447494 0.058874723
0.18066669 0.008681656 0.03157714 -0.0149147045 -0.12790452 0.037498817 -0.10600247 0.11812697
-0.14079984 -0.16684969 -0.03943907 0.151637 -0.15509036 -0.06505397 -0.015640233 -0.08926865
0.09643196 0.17830624 0.11048219 -0.043048315 -0.16026297 -0.16853549 -0.048879422 -0.064304374
-0.15480456 0.05048032 -0.077346765 0.059195243 -0.10839489 -0.018392691 -0.06143071 0.12538277
-0.18629447 -0.08049316 0.043590926 -0.057508495 -0.0034934138 0.13795786 0.029220805 0.025163366
0.059634097 -0.10982174 -0.08152081 0.09777911 0.029590819 0.13315736 -0.026060905 0.19175546
00000000: e7e6 3d3e 1f7b 4dbe cb84 4e3e 5c68 0b3e
00000010: 22fa 633d 4d6e b3bd 197f 133e 4409 063e
00000020: 68e4 333e 2794 2cbe 0e2a fe3c 868a 963d
00000030: 489e 4dbe 64a7 433e 577a 023e 2ddb 27be
00000040: 3b73 33be c96f 083c 22a7 273e bdc9 723d
00000050: 3123 eb3c 69a3 58bc 75af 4fbe 8a9e fb3d
00000060: 2a52 053e c7f8 12be 2205 1abd ac35 4b3e
00000070: ea3a a0bd f982 0fbe 6325 ef3d 721c c13d
00000080: d30d 343e 7d03 b4bd fc4a 4b3d 5147 493d
00000090: 2512 2a3e 6a44 ea3d a976 443d e743 ebbc
000000a0: 2326 15bd 649a e1bd ead6 af3d a522 323e
000000b0: de81 d4bd 33d6 0ebe 14a3 1b3e 8bad e03c
000000c0: eb0f c5bd 655b 073e c74e 2abe a366 cdbd
000000d0: bd55 86bd 42fe d4bb 5d3b 323d 89ec c73d
000000e0: d8f8 91bd 931e a2bc 8807 dabd 3370 09be
000000f0: c06c 363d 7421 1a3e 7d60 343e 4922 23be
00000100: efd2 c53d e3f9 80bd 70aa 26bc ef93 0bbc
00000110: c68a 343e d425 2f3e a93f 29be d452 353d
00000120: 167a f43d b051 603d 8df8 9abb 8d58 c5bd
00000130: 897a 13be 51bc 4dbe dfa0 81bb 7c4b a1bd
00000140: 3f52 453d 82bb b0bd 939e 2d3e 487a 13be
00000150: 9b79 393e a7c0 a5bd bc3a 013d a14c 99bd
00000160: ef32 b03d a3f4 243e 2c72 433e d2c4 10be
00000170: e57d 0f3e 1440 0a3e 5986 2bbe 47f9 a83d
00000180: c3a4 213d a573 e53d 3923 373e 9c02 993b
00000190: 37bf 9abd 166b bcbd 67f3 d73c bd5f f5bc
000001a0: 49b4 15be c490 ba3b 385f ef3d bebf dd3b
000001b0: 1d68 033e c6ed 9dbd 7aed 233e f731 473d
000001c0: 217e 8cbd 6b90 c93d 5195 cd3d 2a3e b3bd
000001d0: db14 18bd 22c2 d73d 3d35 38be f348 9f3d
000001e0: 514c 373d 2d7b 0ebe a327 cebc 28b7 743d
000001f0: 8b66 113e 69da 183e 17d6 06be 44e8 07be
00000200: efb0 c53d a138 4e3e da80 323e 04a1 a43d
00000210: 9d30 463e 19ec bfbd 3d53 bdbb c47f 2abe
00000220: 4346 00be c55b 0dbe 329c 3dbe dae5 6b3d
00000230: ccf6 573d 404d a83d ca86 0a3e 9f7d 26be
00000240: 514f 71bd ed79 243e 9cfb 38be dee8 123e
00000250: 4ebc 803d 21b1 29be 3f61 343d 85e6 d63b
00000260: b57b 213d dae2 6fbd 9f3c bd3d a98f 223e
00000270: 5caf 113e f57d a0bc 6747 40be 5aa2 4c3e
00000280: 85ad 683d 9e86 393e 3897 963d 71e9 5b3b
00000290: 0bf4 e03d 72f5 e93d f86a 58bc 2601 003d
000002a0: 72c5 07bc 8238 0f3e 8451 be3d 6669 0bbd
000002b0: c8c9 423e 814b 483e 56cd 293e 62cf 153d
000002c0: 958c 4c3c e24c dabd 9460 183e 462f 16be
000002d0: fe28 34be a946 7c3d 9387 43be 8b47 853d
000002e0: 5856 c9bd 8f28 28bb 2a0f a1bd b005 293e
000002f0: b35c 1bbe e697 193d e3a4 3d3b 9ce4 46be
00000300: 51a0 213e 8b5c 253d 66b8 27be f773 4fbe
00000310: 26db b83d f495 2b3e 8487 3ebd 5dfe 76bd
00000320: 923d 32be 8c26 0d3e 7a7e 9dbd 5626 c0bd
00000330: d810 9f3d abcd 363e 147c c13d 9f26 713d
00000340: b000 393e 813d 0e3c 0857 013d ce5c 74bc
00000350: 67f9 02be 5c98 193d d317 d9bd 8eec f13d
00000360: d52d 10be a5da 2abe dd8a 21bd bb46 1b3e
00000370: 02d0 1ebe 043b 85bd f21f 80bc 7bd2 b6bd
00000380: 1f7e c53d e995 363e 7d44 e23d 6e53 30bd
00000390: fa1b 24be 9194 2cbe ca35 48bd 03b2 83bd
000003a0: 1685 1ebe 74c4 4e3d fb67 9ebd b676 723d
000003b0: 24fe ddbd 45ac 96bc c59e 7bbd 5764 003e
000003c0: fac3 3ebe 99d9 a4bd 668c 323d 078e 6bbd
000003d0: c2f1 64bb d344 0d3e 7860 ef3c 6723 ce3c
000003e0: e242 743d 38ea e0bd 62f4 a6bd 6a40 c83d
000003f0: 7268 f23c 675a 083e ae7d d5bc 8b5b 443e

encoder.encoder_layer.encoderlayer.linear1.bias f4 [128]
-0.24626166 0.2358191 -0.13763979 0.057132334 0.15548456 -0.038823605 0.19538355 0.16201353
-0.05033207 0.06554696 0.018945903 0.24457222 0.17308229 -0.16651043 0.024087965 0.13483983
0.19112599 0.08535802 0.106229246 -0.046158403 0.005422473 -0.17302614 0.20581025 0.1968598
-0.13766143 -0.21403602 0.19494691 -0.22157776 0.16033044 -0.24350995 -0.12781328 -0.10584864
0.23495129 -0.04230377 0.21564671 0.07263556 0.24219573 0.16558692 0.1841186 0.2179623
-0.07386279 -0.068736345 0.08055216 0.22023556 -0.092002004 -0.1966536 -0.19556531 -0.11550003
0.039891303 -0.028930128 -0.06666991 -0.116874486 0.065026075 -0.20592928 0.24595568 -0.03871709
0.046646982 0.08235568 -0.09727281 0.19729805 -0.0018528998 0.020508528 -0.23799026 0.030944824
0.085781515 0.03483689 -0.024776101 0.18877336 0.19765112 0.17211545 -0.043390423 0.043186158
-0.17455459 -0.18716055 -0.043693542 0.0279437 -0.14561361 -0.20867345 0.11372942 0.091403216
-0.16517574 0.16635919 -0.18686578 0.18911496 0.13281098 -0.08449176 0.23801431 -0.14036855
-0.11419779 0.1992599 -0.0644204 -0.100972116 0.038683146 -0.042243898 0.1574978 0.20410714
0.111204505 0.054067016 0.06280419 0.006508857 0.029359221 0.0047472715 0.17047364 0.13980466
-0.025135845 0.094406575 0.0138264 0.088345736 0.20525026 -0.17009383 0.03552726 -0.052010268
-0.24440399 -0.24293092 -0.032734722 0.17893013 -0.16484639 0.08143428 0.14408758 -0.1822201
0.10736629 0.047183454 -0.22760302 -0.0048066676 -0.23470208 0.21857566 0.11717039 0.09579107
00000000: 042c 7cbe 907a 713e 72f1 0cbe 9803 6a3d
00000010: 5837 1f3e 8005 1fbd a012 483e e0e6 253e
00000020: 0029 4ebd 7c3d 863d 7034 9b3c 2471 7a3e
00000030: 7c3c 313e b681 2abe 2054 c53c 7413 0a3e
00000040: 88b6 433e 30d0 ae3d b88e d93d 9810 3dbd
00000050: 00af b13b c42d 31be ecbf 523e 9e95 493e
00000060: 1ef7 0cbe 422c 5bbe 2aa0 473e 48e5 62be
00000070: aa2d 243e ac5a 79be 7ce1 02be 2cc7 d8bd
00000080: 1297 703e b846 2dbd 7ed2 5c3e f4c1 943d
00000090: 2802 783e 9e8f 293e 9689 3c3e 8231 5f3e
000000a0: 6045 97bd a4c5 8cbd 88f8 a43d 6e85 613e
000000b0: 8c6b bcbd 905f 49be 4642 48be 488b ecbd
000000c0: 1065 233d e0fe ecbc 3c8a 88bd e45b efbd
000000d0: 642c 853d 20df 52be cedb 7b3e d095 1ebd
000000e0: e810 3f3d 18aa a83d f836 c7bd 8008 4a3e
000000f0: 00dd f2ba 8001 a83c b8b3 73be 0080 fd3c
00000100: 38ae af3d 20b1 0e3d 40f7 cabc ce4d 413e
00000110: 0e65 4a3e 083f 303e 28ba 31bd f8e3 303d
00000120: 70be 32be 04a7 3fbe 00f8 32bd 30ea e43c
00000130: bc1b 15be 7eae 55be f8ea e83d 9c31 bb3d
00000140: d423 29be 105a 2a3e be59 3fbe 5aa7 413e
00000150: 9aff 073e 040a adbd 06ba 733e c6bc 0fbe
00000160: 88e0 e9bd ca0a 4c3e d8ee 83bd 78ca cebd
00000170: 3872 1e3d f007 2dbd 1a47 213e 7601 513e
00000180: 30bf e33d 6075 5d3d 7c9f 803d 4048 d53b
00000190: c082 f03c 008f 9b3b a490 2e3e f428 0f3e
000001a0: b0e9 cdbc 3c58 c13d 2088 623c 9cee b43d
000001b0: 202d 523e 142d 2ebe 0885 113d b808 55bd
000001c0: 0a45 7abe e2c2 78be d814 06bd 7639 373e
000001d0: 7ecd 28be 04c7 a63d b28b 133e e897 3abe
000001e0: dce2 db3d 7043 413d c410 69be 4081 9dbb
000001f0: be55 70be 4cd2 5f3e 08f7 ef3d 1c2e c43d

encoder.encoder_layer.encoderlayer.linear2.weight f4 [16, 128]
0.16293424 -0.0379431 0.08209377 0.15401438 0.1580238 0.0967864 0.14030948 -0.05294757
0.016276067 -0.08755973 -0.19796588 0.17175415 -0.1951477 -0.1286445 -0.07275111 -0.18671852
-0.15840644 -0.10677216 0.024154693 -0.17847149 -0.14672801 -0.1193219 -0.15349679 0.04791197
0.006906235 0.044793583 0.1841492 -0.089374766 -0.07653064 0.06511821 0.17902578 0.065149866
-0.017498167 0.06630641 -0.20106176 -0.13962756 -0.08583217 -0.184782 -0.15416111 -0.15698689
0.05859902 0.06184105 -0.0049164123 -0.04717973 0.0055037257 0.123341866 -0.15370099 0.14502046
0.0887794 -0.07125383 0.14321698 -0.00016906913 -0.093544476 0.18395302 0.06033101 0.15404572
-0.05539199 -0.17491554 0.16369487 0.011808729 0.096940264 -0.05290866 0.096545815 -0.16128749
0.0072003054 0.15499142 -0.054812316 0.17532115 0.07506647 0.100625016 0.20169854 -0.04966554
-0.047521345 0.12835996 -0.103300676 -0.15050454 0.13309899 -0.17810161 -0.09667369 0.04946082
0.03005907 -0.12374743 -0.051641323 0.13102894 -0.13226666 0.1170855 -0.021859193 -0.07306616
-0.19444928 -0.053540137 0.16784666 -0.11182497 -0.16200188 -0.015925858 0.14470139 -0.055371065
0.20010246 0.19661409 0.18701468 -0.11675447 -0.14530501 -0.19130222 -0.039691776 -0.13293386
0.09509542 0.018409433 0.16189337 -0.18935975 -0.17153037 -0.03798539 0.05379941 0.17186083
-0.017066054 0.17444116 -0.055259567 -0.02881531 -0.07859811 -0.086753584 -0.077328004 -0.17644925
-0.02505732 -0.06882826 -0.13215706 -0.1514092 -0.19684383 -0.04574108 -0.16618705 0.183527
-0.05479385 0.054868408 -0.14634441 0.020828329 -0.19184414 0.091895126 0.096400425 -0.1983614
0.089010514 0.025987662 -0.12748802 -0.093455344 0.20063813 -0.106174976 0.17859636 0.041077957
0.09352287 -0.10274378 0.06635321 0.043952182 0.1627984 -0.20185515 -0.07421385 0.0050829267
-0.14650942 0.03478736 0.13161299 0.12301154 -0.10525551 0.082512155 -0.14852703 0.12689032
-0.16683704 -0.18505725 0.070841104 -0.019269573 0.050316583 0.18993546 0.19554287 0.115095586
-0.18516581 -0.031427756 0.02231362 -0.19876285 0.17070587 0.1339493 -0.094293654 -0.042599995
-0.11840187 0.078511 0.035204314 -0.070767984 0.1091304 -0.04412478 0.021920903 0.14132987
-0.09590529 -0.188263 0.110171095 -0.13340116 0.077166915 -0.061368175 0.13702452 -0.0077637476
-0.09294086 -0.14399959 0.13716623 -0.12772228 0.05786364 0.15610504 -0.16396843 -0.17132126
0.020824192 -0.08012869 -0.14984457 0.13497727 -0.18989047 -0.09306924 -0.16955468 0.053950448
0.017605357 0.08514431 0.08546182 -0.00080745836 -0.061298847 0.18049514 0.008488691 0.048598345
-0.16808194 -0.20006068 -0.099702895 -0.10696192 0.059140418 -0.09072739 0.021317553 0.1891597
-0.06021433 0.052150745 0.002503357 0.13432972 0.08927699 -0.009483372 0.111647576 -0.010385414
-0.03470112 -0.07956573 -0.1665209 0.17051025 -0.12935333 -0.19459346 -0.091556355 0.041233398
-0.018524336 0.0929249 0.11694921 0.12004762 -0.17126569 0.083220504 0.1010415 -0.11323996
0.0009887429 0.030594552 0.025596233 0.10953548 0.17330323 0.19605589 0.045702342 0.11937105
00000000: 3cd8 263e 396a 1bbd c720 a83d f2b5 1d3e
00000010: fed0 213e f337 c63d 4aad 0f3e 8ddf 58bd
00000020: 6355 853c 8452 b3bd 91b7 4abe 52e0 2f3e
00000030: ccd4 47be 62bb 03be 89fe 94bd 2433 3fbe
00000040: 4c35 22be 5dab dabd 10e0 c53c 3bc1 36be
00000050: de3f 16be 0a5f f4bd 432e 1dbe 583f 443d
00000060: b34d e23b 7a79 373d 9c91 3c3e 1e0a b7bd
00000070: 19bc 9cbd b25c 853d 8952 373e 4b6d 853d
00000080: 5158 8fbc a8cb 873d 22e3 4dbe 87fa 0ebe
00000090: c7c8 afbd 7e37 3dbe 69dc 1dbe 2cc1 20be
000000a0: 8705 703d 0a4d 7d3d db19 a1bb 883f 41bd
000000b0: 9958 b43b a99a fc3d cb63 1dbe 3e80 143e
000000c0: f9d1 b53d 87ed 91bd 79a7 123e 2648 31b9
000000d0: 3f94 bfbd 2e5e 3c3e a61d 773d 29be 1d3e
000000e0: b6e2 62bd 0f1d 33be a19f 273e 6679 413c
000000f0: 9e88 c63d c0b6 58bd d0b9 c53d 8c28 25be
00000100: 8af0 eb3b 12b6 1e3e e182 60bd 6387 333e
00000110: 73bc 993d 7d14 ce3d 108a 4e3e 186e 4bbd
00000120: bea5 42bd cb70 033e 4e8f d3bd dd1d 1abe
00000130: 1a4b 083e 4560 36be dbfc c5bd 6e97 4a3d
00000140: 703e f63c 4b6f fdbd da85 53bd 732c 063e
00000150: e970 07be 86ca ef3d 0d12 b3bc b6a3 95bd
00000160: b61d 47be e74c 5bbd ffdf 2b3e 7d04 e5bd
00000170: d2e3 25be f276 82bc 9a2c 143e c5cc 62bd
00000180: a9e7 4c3e 3455 493e c780 3f3e f81c efbd
00000190: d6ca 14be bbe4 43be d893 22bd d01f 08be
000001a0: 63c1 c23d 61cf 963c 60c7 253e 86e7 41be
000001b0: a8a5 2fbe 9196 1bbd c55c 5c3d 49fc 2f3e
000001c0: 1cce 8bbc b4a0 323e db57 62bd 160e ecbc
000001d0: 0cf8 a0bd ddab b1bd 255e 9ebd 1daf 34be
000001e0: 0245 cdbc d5f5 8cbd 2e54 07be 030b 1bbe
000001f0: 6e91 49be 005b 3bbd f02c 2abe 80ee 3b3e
00000200: 846f 60bd b2bd 603d 4fdb 15be 2ca0 aa3c
00000210: ca72 44be 8333 bc3d 966d c53d 401f 4bbe
00000220: 254b b63d 14e4 d43c 388c 02be 8465 bfbd
00000230: 1574 4d3e 4472 d9bd f7e1 363e 5c41 283d
00000240: eb88 bf3d 556b d2bd 31e4 873d 3407 343d
00000250: a0b4 263e 1eb3 4ebe 6efd 97bd ae8e a63b
00000260: 9106 16be 317d 0e3d 8ec5 063e 79ed fb3d
00000270: 3390 d7bd 22fc a83d 7817 18be 89ef 013e
00000280: 54d7 2abe a67f 3dbe 2415 913d 39db 9dbc
00000290: c318 4e3d 717e 423e 643c 483e 3cb7 eb3d
000002a0: 1b9c 3dbe 64ba 00bd 0ecb b63c 7d88 4bbe
000002b0: 85cd 2e3e 012a 093e 081d c1bd 557d 2ebd
000002c0: ae7c f2bd 60ca a03d 6632 103d ceee 90bd
000002d0: c27f df3d 2fbc 34bd 7793 b33c c7b8 103e
000002e0: fe69 c4bd 04c8 40be 62a1 e13d 509a 08be
000002f0: b009 9e3d 325d 7bbd 2850 0c3e 0967 febb
00000300: c757 bebd a174 13be 4e75 0c3e a1c9 02be
00000310: 6d02 6d3d 00da 1f3e 57e7 27be d76e 2fbe
00000320: 7f97 aa3c 831a a4bd db70 19be 7b37 0a3e
00000330: a672 42be 169b bebd be9f 2dbe 25fb 5c3d
00000340: 1c39 903c 2460 ae3d 9b06 af3d 9dab 53ba
00000350: 8014 7bbd b8d3 383e 2714 0b3c 0f0f 473d
00000360: ac1d 2cbe b5dc 4cbe 0831 ccbd da0e dbbd
00000370: 393d 723d 48cf b9bd 26a2 ae3c 15b3 413e
00000380: 4da3 76bd 059c 553d 5c0f 243b bb8d 093e
00000390: dbd6 b63d 2560 1bbc 7ca7 e43d 9527 2abc
000003a0: c322 0ebd 5cf3 a2bd 7484 2abe 3d9a 2e3e
000003b0: 3375 04be 8243 47be e681 bbbd 5ae4 283d
000003c0: 59c0 97bc 694f be3d 1183 ef3d 87db f53d
000003d0: 4660 2fbe 836f aa3d d9ee ce3d 5aea e7bd
000003e0: b598 813a 6da1 fa3c 31af d13c 2354 e03d
000003f0: 6776 313e e0c2 483e 6132 3b3d cf78 f43d

encoder.encoder_layer.encoderlayer.linear2.bias f4 [16]
-0.0039967434 -0.03455915 -0.035064206 -0.027601538 0.02106412 -0.078703694 -0.06883435 0.059333354
-0.021169234 -0.0032634514 0.030869775 -0.039535515 0.061919577 -0.020007625 0.005385967 -0.061301358
00000000: 1df7 82bb e58d 0dbd 7c9f 0fbd 9f1c e2bc
00000010: a98e ac3c 672f a1bd 06f9 8cbd 8807 733d
00000020: 1a6b adbc a1df 55bb 9ce2 fc3c feef 21bd
00000030: 629f 7d3d 08e7 a3bc c47c b03b 2217 7bbd

encoder.encoder_layer.encoderlayer.norm1.weight f4 [16]
1.0 1.0 1.0 1.0 1.0 1.0 1.0 1.0
1.0 1.0 1.0 1.0 1.0 1.0 1.0 1.0
00000000: 0000 803f 0000 803f 0000 803f 0000 803f
00000010: 0000 803f 0000 803f 0000 803f 0000 803f
00000020: 0000 803f 0000 803f 0000 803f 0000 803f
00000030: 0000 803f 0000 803f 0000 803f 0000 803f

encoder.encoder_layer.encoderlayer.norm1.bias f4 [16]
0.0 0.0 0.0 0.0 0.0 0.0 0.0 0.0
0.0 0.0 0.0 0.0 0.0 0.0 0.0 0.0
00000000: 0000 0000 0000 0000 0000 0000 0000 0000
00000010: 0000 0000 0000 0000 0000 0000 0000 0000
00000020: 0000 0000 0000 0000 0000 0000 0000 0000
00000030: 0000 0000 0000 0000 0000 0000 0000 0000

encoder.encoder_layer.encoderlayer.norm2.weight f4 [16]
1.0 1.0 1.0 1.0 1.0 1.0 1.0 1.0
1.0 1.0 1.0 1.0 1.0 1.0 1.0 1.0
00000000: 0000 803f 0000 803f 0000 803f 0000 803f
00000010: 0000 803f 0000 803f 0000 803f 0000 803f
00000020: 0000 803f 0000 803f 0000 803f 0000 803f
00000030: 0000 803f 0000 803f 0000 803f 0000 803f

encoder.encoder_layer.encoderlayer.norm2.bias f4 [16]
0.0 0.0 0.0 0.0 0.0 0.0 0.0 0.0
0.0 0.0 0.0 0.0 0.0 0.0 0.0 0.0
00000000: 0000 0000 0000 0000 0000 0000 0000 0000
00000010: 0000 0000 0000 0000 0000 0000 0000 0000
00000020: 0000 0000 0000 0000 0000 0000 0000 0000
00000030: 0000 0000 0000 0000 0000 0000 0000 0000

encoder.transformer_encoder.layers.0.encoderlayer.self_attn.in_proj_weight f4 [48, 16]
-0.33283335 -0.5707137 -0.4320421 -0.16331144 -0.16570352 -0.33726862 -0.342992 -0.1651466
-0.19355677 -0.31270918 -0.44396532 -0.21984628 -0.27530396 -0.24386871 -0.405878 -0.32023084
0.2508075 0.3886753 0.2944389 0.2765989 0.40877634 0.1821333 0.39917073 0.19329138
0.33776313 0.07548901 0.5379875 0.03781918 0.3656342 0.44745356 0.31695902 0.396552
1.0078665 0.8377655 0.8124367 0.7853069 0.9226397 0.9358034 0.56039786 0.4080928
0.87090033 0.934344 0.6734132 0.47136173 0.8436668 0.86584944 0.7943793 0.83445656
-0.69735926 -0.7304737 -0.78638685 -0.5594068 -0.8070809 -0.8424188 -0.50692034 -0.32465976
-0.67138153 -0.7581509 -0.6093815 -0.39022207 -0.6164811 -0.72209746 -0.5018869 -0.66427666
0.4237611 0.43297413 0.6276445 0.51779014 0.7204758 0.16090652 0.5455331 1.106236
0.65294564 0.07768541 0.70737803 1.0127943 0.71667427 0.6590355 0.18445095 0.26893824
-0.20886996 -0.11895181 -0.2852537 -0.40817344 -0.4618012 0.020481426 -0.34563717 -0.6087996
-0.39098054 0.09456874 -0.3356503 -0.5621671 -0.3943396 -0.4508569 -0.018047532 -0.107166044
0.30854422 0.3871241 0.39985645 0.2939694 0.4960291 0.41098145 0.28722316 0.17892274
0.49506804 0.4094973 0.34338504 0.21386988 0.3633552 0.3549679 0.3221695 0.29763347
-0.33192435 -0.17327817 -0.17370607 -0.2551753 -0.13571659 -0.1476081 -0.09557581 -0.23740926
-0.2686943 -0.4140018 -0.31096765 -0.22175355 -0.374547 -0.12695801 -0.3425874 -0.33691376
0.20666102 0.28682637 0.09505286 0.052466642 0.10503806 0.3018168 0.024755847 0.029125772
0.07179375 0.33922613 0.015306135 0.052316375 0.023251716 0.09145081 0.28463545 0.29740822
0.14923128 0.16106513 0.06656055 0.06525469 0.099700175 0.1595576 0.047721427 0.014842386
0.059863735 0.1815032 0.05914967 0.020237945 0.054117046 0.086997524 0.17498262 0.13769479
-0.446339 -0.6128804 -0.077055804 -0.240126 -0.040253893 -0.54879713 -0.20657992 0.06439788
-0.104832165 -0.65375715 -0.11642363 -0.057184905 -0.26337826 -0.16661857 -0.4728409 -0.5899048
0.38977224 0.5780138 0.19542108 0.3346479 0.11614013 0.75976795 0.14884809 0.08418708
0.24487393 0.8050981 0.18189561 0.21077721 0.15585944 0.19527452 0.74578226 0.7364426
-0.3837087 -0.35505342 -0.42223796 -0.5681319 -0.45592013 -0.24561208 -0.4582944 -0.22059983
-0.52815956 -0.026344063 -0.46606112 -0.27422407 -0.4483622 -0.38486642 -0.2284016 -0.15685482
-0.4734568 -0.44756734 -0.4160234 -0.44247988 -0.46639138 -0.14605968 -0.33693987 -0.17656304
-0.42090756 -0.20651683 -0.3059103 -0.20631357 -0.3590651 -0.29458427 -0.28914467 -0.1575752
0.27312502 0.4785934 0.37651566 0.4241739 0.37580854 0.10697808 0.34945893 0.3306145
0.41795018 0.14887199 0.4324153 0.3583121 0.46924722 0.59507245 0.23348323 0.35785085
-0.1503617 -0.4682569 -0.29965538 -0.42921326 -0.29209352 -0.21332674 -0.29483616 -0.19626565
-0.34726682 -0.21046501 -0.36105555 -0.21529591 -0.407692 -0.43067825 -0.2922935 -0.31107593
00000000: 2269 aabe 4b1a 12bf 9f34 ddbe 1d3b 27be
00000010: 2fae 29be 79ae acbe a69c afbe 311c 29be
00000020: bf33 46be 6b1b a0be 6c4f e3be 621f 61be
00000030: a4f4 8cbe b8b8 79be 3ecf cfbe 4cf5 a3be
00000040: d769 803e 7300 c73e b2c0 963e 5f9e 8d3e
00000050: 224b d13e 2781 3a3e 1b60 cc3e 2dee 453e
00000060: 4aef ac3e fb99 9a3d 8cb9 093f 49e8 1a3d
00000070: 6834 bb3e a218 e53e 7448 a23e dd08 cb3e
00000080: c501 813f cd77 563f dafb 4f3f df09 493f
00000090: 1e32 6c3f d090 6f3f 3c76 0f3f 8af1 d03e
000000a0: 53f3 5e3f 2b31 6f3f cf64 2c3f 5356 f13e
000000b0: 8cfa 573f 4fa8 5d3f 715c 4b3f f29e 553f
000000c0: 2386 32bf 5300 3bbf a650 49bf 4935 0fbf
000000d0: db9c 4ebf c2a8 57bf 88c5 01bf ce39 a6be
000000e0: a9df 2bbf 2d16 42bf 6d00 1cbf 30cb c7be
000000f0: b5d1 1dbf 61db 38bf a97b 00bf 090e 2abf
00000100: 37f7 d83e c9ae dd3e 4fad 203f e58d 043f
00000110: 1a71 383f aec4 243e 0fa8 0b3f 2499 8d3f
00000120: 7227 273f 8719 9f3d ba16 353f 3ea3 813f
00000130: f777 373f 8db6 283f b6e0 3c3e 46b2 893e
00000140: 02e2 55be 029d f3bd c60c 92be 1cfc d0be
00000150: 3571 ecbe aac8 a73c 5bf7 b0be 4ada 1bbf
00000160: 9a2e c8be 41ad c13d 5bda abbe 2fea 0fbf
00000170: e1e6 c9be b7d6 e6be 6bd8 93bc df79 dbbd
00000180: 82f9 9d3e 2135 c63e fcb9 cc3e 2883 963e
00000190: 87f7 fd3e 296c d23e ea0e 933e 8637 373e
000001a0: 8f79 fd3e a1a9 d13e 2ad0 af3e b500 5b3e
000001b0: b109 ba3e 5abe b53e 67f3 a43e 6a63 983e
000001c0: fdf1 a9be d56f 31be 01e0 31be 56a6 82be
000001d0: 4af9 0abe 9426 17be 40bd c3bd 6a1b 73be
000001e0: 4d92 89be 0bf8 d3be 2737 9fbe 5d13 63be
000001f0: a0c4 bfbe 4801 02be 9e67 afbe f67f acbe
00000200: f29e 533e e8da 923e 13ab c23d 43e7 563d
00000210: 321e d73d bb87 9a3e c6cc ca3c 2c99 ee3c
00000220: 9a08 933d 0caf ad3e 95c6 7a3c b249 563d
00000230: 627a be3c 904a bb3d bdbb 913e e445 983e
00000240: 16d0 183e 42ee 243e e650 883d 40a4 853d
00000250: 9b2f cc3d 1163 233e 8b77 433d 7b2d 733c
00000260: ad33 753d fadb 393e ed46 723d 0cca a53c
00000270: d6a9 5d3d c22b b23d a52e 333e ddff 0c3e
00000280: 8c86 e4be bbe5 1cbf 6fcf 9dbd 97e3 75be
00000290: 44e1 24bd f87d 0cbf b089 53be 09e3 833d
000002a0: 3fb2 d6bd a15c 27bf 836f eebd b83a 6abd
000002b0: 84d9 86be 0f9e 2abe 3418 f2be 0004 17bf
000002c0: 3a90 c73e b6f8 133f 771c 483e f856 ab3e
000002d0: e0da ed3d 2780 423f a26b 183e 476a ac3d
000002e0: 3bc0 7a3e e91a 4e3f d842 3a3e fbd5 573e
000002f0: 9e99 1f3e 0bf6 473e 96eb 3e3f 8187 3c3f
00000300: 7775 c4be 90c9 b5be 932f d8be 1871 11bf
00000310: 5d6e e9be bc81 7bbe 90a5 eabe ece4 61be
00000320: 7735 07bf 81cf d7bc 909f eebe 1967 8cbe
00000330: bb8f e5be 360d c5be 1ce2 69be 8d9e 20be
00000340: ee68 f2be 8c27 e5be 0501 d5be b98c e2be
00000350: daca eebe ab90 15be 6283 acbe f1cc 34be
00000360: 3281 d7be 2679 53be 46a0 9cbe dd43 53be
00000370: 61d7 b7be c0d3 96be c50a 94be 655b 21be
00000380: 0bd7 8b3e 320a f53e a9c6 c03e 522d d93e
00000390: fa69 c03e 5317 db3d 48ec b23e 4e46 a93e
000003a0: 91fd d53e e671 183e 8a65 dd3e af74 b73e
000003b0: 2c41 f03e ab56 183f 3a16 6f3e 3a38 b73e
000003c0: 6bf8 19be 5ebf efbe 6e6c 99be d7c1 dbbe
000003d0: 488d 95be 5372 5abe c4f4 96be ddf9 48be
000003e0: f5cc b1be 2484 57be 46dc b8be 8876 5cbe
000003f0: 01bd d0be dc81 dcbe 7ea7 95be 5845 9fbe

encoder.transformer_encoder.layers.0.encoderlayer.self_attn.in_proj_bias f4 [48]
-0.28464678 0.3238029 1.2267374 -0.9279391 0.3270626 -0.15363297 0.6401759 -0.26650292
0.35189196 0.2306606 -0.44125903 0.5868575 -0.42999575 -0.3887298 0.46527213 -0.47034913
8.7080385e-05 5.3979897e-05 0.00023601366 0.00016436502 7.6753146e-05 -5.1255715e-06 -7.12279e-05 4.2505264e-05
7.629277e-05 5.285865e-05 -0.000100510726 3.6699632e-05 -5.0210943e-05 -0.00016708822 -5.494705e-05 0.00011184176
0.10867098 0.023890559 -0.040411692 0.052159805 -0.043030135 -0.09286052 0.019661555 -0.025383376
0.008488581 -0.056712862 0.02128811 0.0058766245 -0.007806256 -0.035716623 0.015180006 -0.01940477
00000000: 39bd 91be 7ec9 a53e bb05 9d3f 6b8d 6dbf
00000010: c074 a73e f651 1dbe 91e2 233f 1273 88be
00000020: 2f2b b43e 4b32 6c3e b4ec e1be 4b3c 163f
00000030: 6728 dcbe 9807 c7be 2638 ee3e 9ad1 f0be
00000040: ed9e b638 7968 6238 6f7a 7739 6659 2c39
00000050: 88f6 a038 53fc abb6 3060 95b8 ae47 3238
00000060: 5eff 9f38 8bb4 5d38 49c9 d2b8 eeed 1938
00000070: 9799 52b8 6734 2fb9 f276 66b8 968c ea38
00000080: e48e de3d 22b6 c33c bb86 25bd 85a5 553d
00000090: 5e40 30bd a82d bebd 4511 a13c ccf0 cfbc
000000a0: b013 0b3c bf4b 68bd 6764 ae3c b390 c03b
000000b0: 9fcb ffbb 984b 12bd 8fb5 783c c1f6 9ebc

encoder.transformer_encoder.layers.0.encoderlayer.self_attn.out_proj.weight f4 [16, 16]
0.13979547 -0.2812753 -0.038471866 -0.1831512 -0.26246122 0.11874913 -0.057172902 0.40574187
-0.049552605 -0.22526594 -0.3015577 0.14677888 -0.10236846 0.013813467 0.26306304 0.28511128
-0.06777153 -0.2636065 -0.22580929 0.28405204 0.17644341 0.08134329 -0.09761611 0.30407932
0.19470707 0.029480735 0.12952362 -0.015001463 0.07018642 -0.008002739 0.12074188 0.041149236
0.3200699 0.03901944 0.19657376 -0.30984876 -0.05042345 0.20851141 -0.1477776 0.26865262
0.0798405 -0.21477923 0.01963546 -0.16400345 0.10846461 -0.039873645 0.39770293 0.24880658
-0.11936128 0.12674771 -0.115703546 0.2950665 0.07205755 -0.049432956 -0.025191069 -0.27568522
-0.08785062 0.047433645 -0.1920105 0.44635516 -0.020325849 0.09851571 -0.11590475 0.049145106
-0.10556769 -0.28385037 -0.03581947 0.18156621 0.37829018 0.07899251 0.09711695 0.20801388
0.02235964 -0.24186283 0.062000357 -0.034956343 0.20840648 -0.1381553 -0.10614574 -0.1179865
-0.28875965 -0.38886043 0.24613407 0.08234786 -0.5372031 0.05507227 -0.09037635 0.07151682
0.3175521 -0.12775102 -0.09679671 -0.14808413 -0.0016662534 -0.14801022 0.39721423 -0.18973887
0.17124479 0.18055339 0.017511105 0.12853396 0.45647758 0.14139451 0.20103082 -0.029807808
-0.09625835 -0.018501224 0.112397455 -0.11509763 0.24361563 0.1042632 -0.23969963 0.041313253
0.3536555 0.009637444 0.28111273 0.05038054 0.033726145 0.14696889 -0.18632677 0.4899032
0.122078456 0.25090936 -0.087657444 -0.24950668 0.10561071 0.07767499 -0.14212808 0.14971738
-0.22869067 0.27145198 -0.2711601 0.022475148 -0.10426104 0.09365718 0.380641 0.09422479
0.122906536 -0.20984977 0.11018947 -0.0022655593 0.2335756 -0.075271115 0.076106936 -0.21658942
-0.30970964 -0.16458648 -0.37077004 0.037773892 -0.1668103 0.12778188 -0.13255009 0.22825356
-0.22177185 -0.38788608 0.23821647 -0.24958092 0.03288151 -0.12195219 -0.016178804 -0.0031433306
-0.3948773 0.096404955 -0.25454196 0.2312408 -0.18891236 -0.06223139 0.13481821 -0.17588043
-0.19468285 -0.28366056 -0.089019395 -0.021171259 -0.028613387 -0.14159077 -0.025208736 -0.05087427
-0.4564092 -0.31119543 0.4379924 0.18503761 0.29065368 0.025089094 0.13792102 -0.060411263
-0.22122128 -0.122025 0.027794102 0.38133013 -0.18873823 -0.1376016 0.12071986 0.033489857
-0.3881538 -0.055103682 -0.23704235 0.014399239 0.1411244 -0.26617333 -0.2103514 -0.008229751
-0.037436586 -0.3299893 -0.115669906 -0.26074883 0.040659428 -0.00016672663 -0.13265184 0.006513829
-0.046350557 0.34295863 -0.15385987 0.15407395 -0.0072472743 0.0022053411 -0.1878187 -0.40452412
0.062463295 0.08707852 0.14855823 -0.12751628 0.2855938 0.12017352 -0.10826931 -0.06544007
-0.086846724 -0.22784984 0.16664864 0.06777248 0.062592745 0.16805166 -0.14336671 -0.049788382
0.17218758 -0.26340228 0.13233699 0.0900616 -0.07854476 -0.23008616 0.16221265 0.2264576
-0.16981746 0.28407708 -0.07047906 0.3977305 0.11176988 -0.016064288 -0.09185177 0.34316874
0.21385592 -0.10181209 -0.055845667 -0.074002564 -0.016284568 0.14094345 0.0478876 -0.26559916
00000000: 8b26 0f3e 5103 90be ad94 1dbd fd8b 3bbe
00000010: 5161 86be be32 f33d 222e 6abd 66bd cf3e
00000020: acf7 4abd 1dac 66be c565 9abe 344d 163e
00000030: 8ea6 d1bd e151 623c 33b0 863e 1bfa 913e
00000040: cdcb 8abd 6ef7 86be 8d3a 67be 456f 913e
00000050: 95ad 343e 5097 a63d f5ea c7bd 49b0 9b3e
00000060: 4a61 473e 9581 f13c d7a1 043e b2c8 75bc
00000070: e6bd 8f3d ec1d 03bc 8547 f73d 1a8c 283d
00000080: 34e0 a33e d9d2 1f3d a24a 493e 7fa4 9ebe
00000090: d288 4ebd 0484 553e 0353 17be d68c 893e
000000a0: 6b83 a33d 16ef 5bbe 8bda a03c 85f0 27be
000000b0: b222 de3d 8c52 23bd b89f cb3e 27c7 7e3e
000000c0: b073 f4bd 27ca 013e fbf5 ecbd f512 973e
000000d0: e992 933d 367a 4abd 805d cebc 9d26 8dbe
000000e0: 07eb b3bd c849 423d 679e 44be aa88 e43e
000000f0: 6582 a6bc 9bc2 c93d 785f edbd 614c 493d
00000100: e033 d8bd d654 91be 70b7 12bd 7eec 393e
00000110: 40af c13e d3c6 a13d 40e5 c63d 9701 553e
00000120: 902b b73c e4aa 77be 16f4 7d3d 622e 0fbd
00000130: 8268 553e 9578 0dbe f062 d9bd e8a2 f1bd
00000140: 4ed8 93be b718 c7be 920a 7c3e ffa5 a83d
00000150: 2486 09bf 7693 613d 3c17 b9bd 6977 923d
00000160: 3096 a23e 2ad1 02be 5a3d c6bd 5ea3 17be
00000170: 3066 daba fe8f 17be aa5f cb3e e84a 42be
00000180: cb5a 2f3e fde2 383e 7373 8f3c 689e 033e
00000190: 6eb7 e93e b9c9 103e 06db 4d3e 812f f4bc
000001a0: 1923 c5bd e18f 97bc a330 e63d 4eb8 ebbd
000001b0: 6076 793e f287 d53d d273 75be 1638 293d
000001c0: 5512 b53e 5fe6 1d3c 02ee 8f3e d35b 4e3d
000001d0: 6d24 0a3d 037f 163e 72cc 3ebe 98d4 fa3e
000001e0: 4504 fa3d 3177 803e bf85 b3bd ae7e 7fbe
000001f0: 6e4a d83d 1114 9f3d 068a 11be 834f 193e
00000200: e32d 6abe c1fb 8a3e 7fd5 8abe cd1d b83c
00000210: d086 d5bd 56cf bf3d 61e3 c23e edf8 c03d
00000220: 6cb6 fb3d dce2 56be 04ab e13d c779 14bb
00000230: 712e 6f3e be27 9abd f4dd 9b3d 9ec9 5dbe
00000240: 4392 9ebe 5c89 28be 92d5 bdbe ccb8 1a3d
00000250: 52d0 2abe 41d9 023e 36bb 07be 4dbb 693e
00000260: 2918 63be 0199 c6be 05ef 733e 2492 7fbe
00000270: c3ae 063d 12c2 f9bd 6989 84bc 5600 4ebb
00000280: 5c2d cabe f66f c53d 5353 82be 63ca 6c3e
00000290: 3e72 41be 58e6 7ebd c90d 0a3e 001a 34be
000002a0: f15a 47be f53b 91be cd4f b6bd 596f adbc
000002b0: 9f66 eabc 2cfd 10be 8d82 cebc 8a61 50bd
000002c0: 77ae e9be 0255 9fbe 8a40 e03e 807a 3d3e
000002d0: 8fd0 943e a587 cd3c 2b3b 0d3e cd71 77bd
000002e0: d587 62be 3ee8 f9bd 75b0 e33c b43d c33e
000002f0: 9844 41be 6fe7 0cbe f93b f73d a92c 093d
00000300: 18bc c6be 66b4 61bd 3bbb 72be c9ea 6b3c
00000310: ea82 103e df47 88be 5b66 57be 14d6 06bc
00000320: 1b57 19bd 5cf4 a8be 58e4 ecbd df80 85be
00000330: 808a 263d 57d3 2eb9 e2d5 07be f571 d53b
00000340: 15da 3dbd 4698 af3e 718d 1dbe 90c5 1d3e
00000350: 8b7a edbb 7c87 103b 8c53 40be c91d cfbe
00000360: 83d9 7f3d 3956 b23d a61f 183e a193 02be
00000370: 5a39 923e 891d f63d 4dbc ddbd 7205 86bd
00000380: b2dc b1bd 7851 69be f1a5 2a3e 4ccc 8a3d
00000390: a030 803d bc15 2c3e b9ce 12be e7ee 4bbd
000003a0: f151 303e aadc 86be 5983 073e 3772 b83d
000003b0: 13dc a0bd b59b 6bbe 131b 263e 80e4 673e
000003c0: a1e4 2dbe 8d72 913e 5357 90bd 55a3 cb3e
000003d0: 9be7 e43d 4199 83bc c81c bcbd d0b3 af3e
000003e0: 0cfd 5a3e db82 d0bd 6dbe 64bd a88e 97bd
000003f0: 3767 85bc 7b53 103e ca25 443d 9dfc 87be

encoder.transformer_encoder.layers.0.encoderlayer.self_attn.out_proj.bias f4 [16]
0.0050801733 -0.0046378407 0.021500597 -0.009605709 -0.004430555 -0.06746161 0.003735838 0.02149213
0.014019196 -0.020512626 -0.021337489 0.06756954 0.0038187301 0.018273324 -0.031526603 -0.017806515
00000000: 9577 a63b 07f9 97bb 0522 b03c 4461 1dbc
00000010: 302e 91bb 5029 8abd f6d4 743b 4310 b03c
00000020: c5b0 653c 180a a8bc f5cb aebc e661 8a3d
00000030: a943 7a3b f0b1 953c 0a22 01bd f8de 91bc
