Final_exp/FL_001/3stacks_3nhead_120lwin_0_0005lr_128dff_64batch_50epcs_0_1dropout/checkpoints/client1/model__lr_0.0005_l_win_120_dff_64.pt (torch, 80335 bytes, 49 tensors)

encoder.encoder_layer.encoderlayer.self_attn.in_proj_weight f4 [48, 16]
000000 50 b9 e6 3c 38 bb f4 bc e2 4c 95 3d dd 39 50 3e
       0.028164536 -0.02987443 0.07290055 0.20334573
000010 b8 24 2e 3d 2a 07 63 bd 52 50 48 be 2d b8 9b be
       0.042515486 -0.055426754 -0.1956189 -0.30413952
000020 1d a3 2d 3e eb 4d 66 3d 64 b5 61 be 3b 80 6e be
       0.16956754 0.056226652 -0.22041851 -0.23291104
000030 ef 78 0e be 40 1f 94 bd 97 f8 20 3e d8 58 b0 3d
       -0.1391332 -0.07232523 0.1571983 0.086106956
000040 d1 55 0f be de e4 5e 3d 9f 27 a4 3d 7e 05 40 be
       -0.1399758 0.054417484 0.080153696 -0.18752095
000050 f1 f6 31 bd 22 5b 33 be a6 e2 04 3e c6 d5 f6 bd
       -0.043448392 -0.17515233 0.12977085 -0.12052493
000060 49 e7 11 3e a7 a4 79 3e 4a 8f 19 3e 62 4a f0 bd
       0.14248385 0.24379216 0.14996067 -0.117329374
000070 e9 cf 6d 3e c2 d6 61 be 9c f9 85 3e 71 9f 36 3e
       0.23223843 -0.2205458 0.26167 0.1783426
000080 58 32 33 3e 70 76 2f 3d 24 bd 4f bd 8a 43 17 be
       0.17499673 0.04283756 -0.050717488 -0.14771858
000090 f4 c0 2b bd 99 e9 68 bd 64 d7 8d 3e db a7 44 3e
       -0.04193206 -0.0568634 0.27703393 0.19204657
0000a0 95 eb 13 3e 7c c3 7e 3e ce 23 2c 3e d6 45 ed 3c
       0.14445336 0.24879259 0.16810533 0.028963964
0000b0 53 b4 2b bd 30 2b 7d 3e 0f 0d 27 be 24 80 19 3e
       -0.041920017 0.24723506 -0.16313575 0.14990288
0000c0 79 b1 a9 bd 04 8a 1a bd 62 eb b1 bd 7e 3c 97 be
       -0.08285803 -0.03772928 -0.08687474 -0.2953834
0000d0 03 4a 84 3e d8 77 71 3e c4 1a 60 3e 84 96 5f be
       0.25837716 0.23580873 0.2188521 -0.21834761
0000e0 c0 5d 5b be d4 94 31 3e 7e c9 8b be 2b 39 8d 3d
       -0.21422482 0.1734193 -0.27302164 0.068956695
0000f0 b4 ed 55 3e bf 4c c6 3d 40 b8 1a ba 9f af e8 3d
       0.20891458 0.09682607 -0.0005902089 0.11361622
000100 be 29 e9 3d 03 5b b8 bd 13 64 84 be 71 e4 bd bd
       0.11384915 -0.09001734 -0.258576 -0.09272087
000110 bb 65 5f 3d b8 28 ec bd e0 37 47 bd d5 ab 1c 3e
       0.054540377 -0.11531204 -0.04863727 0.15299924
000120 84 a7 86 3c 96 7b 96 be 4d fc 96 bd 10 d8 8a be
       0.0164373 -0.29391164 -0.07372341 -0.27117968
000130 5d 81 57 3e cb f8 08 bd 48 f2 e0 bb d2 50 05 bd
       0.21045442 -0.033440392 -0.0068648197 -0.03254778
000140 07 6a ae bd e4 55 3d bb a9 30 1c be 4e c6 85 be
       -0.08516317 -0.0028890306 -0.15252937 -0.26127857
000150 ac 0c 80 be cc d9 af bc 2b 6f 9a 3e 00 b9 54 be
       -0.25009668 -0.021466158 0.3016294 -0.20773697
000160 7e 49 84 3e 0c 10 79 3e 9a 68 40 3e 08 d4 9b be
       0.2583732 0.24322528 0.18789902 -0.30435205
000170 ee 85 69 be cd 5f 46 be b6 20 56 bd d2 33 67 be
       -0.22804996 -0.19372483 -0.05227729 -0.22578362
000180 08 66 83 3e 18 7c 8b 3e 7e f2 65 be 3d ab cc 3d
       0.2566378 0.27243114 -0.22455785 0.099935986
000190 f6 6a d8 3d e6 4e e4 bc a2 e7 cc 3d 84 51 cf bd
       0.10567276 -0.027869653 0.10005118 -0.1012297
0001a0 5e f7 56 be e4 36 3c be c2 73 8a 3e 34 62 37 3e
       -0.209928 -0.18380314 0.2704144 0.17908555
0001b0 14 4e 48 bd 41 e6 62 be 44 c6 50 be f2 ae 72 bd
       -0.048902586 -0.22158147 -0.20388132 -0.059248872
0001c0 b0 9b 43 3e 3d 48 f2 bd 52 18 ff bd fc 6a 93 3d
       0.19102359 -0.118301846 -0.124558106 0.0719814
0001d0 72 47 ed 3c 0e af b0 3b 01 bd 9c be ef 3f 8c 3d
       0.028964732 0.005391962 -0.3061295 0.06848132
0001e0 20 71 ac bd 98 68 34 3e d0 2b 24 be ec d9 c9 3d
       -0.084200144 0.17618024 -0.16032338 0.098560184
0001f0 c4 fc 97 be 24 95 60 be 78 11 8b 3e 9e ef 09 3e
       -0.29685032 -0.21931893 0.27161765 0.13470313
000200 dd 17 57 be 9c 24 10 bd ee 8d 84 3e 9a 78 63 3e
       -0.21005197 -0.035191163 0.25889534 0.22213975
000210 ef 82 74 3e e8 30 8f 3e 0f 6c 81 3e f1 17 16 3e
       0.23878072 0.27967 0.25277755 0.1465757
000220 af 53 91 3e fa c9 93 3e 0e 80 82 3d 82 82 97 be
       0.28384158 0.28865033 0.06372081 -0.29591757
000230 0f 81 49 be 1b cb 8b 3d 6a f8 56 be 1c f7 a9 3d
       -0.19678138 0.06825849 -0.209932 0.082990855
000240 d4 20 10 be 3e da 24 3e 48 a7 96 be 3e 87 7c bd
       -0.14075023 0.16098878 -0.294245 -0.061652415
000250 d9 16 3b be e1 be dc bd 52 f5 5f 3e 47 87 85 be
       -0.18270434 -0.10778595 0.21870926 -0.2607977
000260 a6 e8 50 3e 8a 16 91 be 2e 09 1f be ee ab 98 be
       0.20401248 -0.28337508 -0.15530846 -0.29818672
000270 15 05 30 bd 07 17 3c be b0 8d 68 3e dd c3 0a 3e
       -0.042973597 -0.18368159 0.227103 0.13551278
000280 78 df 71 be e2 1d 2b be cc 97 d0 3b d2 4b ec 3d
       -0.23620403 -0.16710618 0.006365752 0.11537899
000290 ae 71 8d be 91 fb 56 bd 93 e2 0b 3e 8a 83 9b bd
       -0.27625793 -0.052486006 0.1366065 -0.075934485
0002a0 43 ed 35 3e 2e 63 b6 3c 0a dd 6f 3d c2 b4 1d be
       0.1776629 0.02226409 0.05856041 -0.15400985
0002b0 0a 4d fb 3d 90 3e 7c bd 8f 86 91 3d d4 20 7e be
       0.122705534 -0.0615831 0.07105743 -0.2481721
0002c0 95 c3 eb 3c 63 c3 a1 bb 56 f3 62 3d 60 cb 69 3e
       0.028779784 -0.004936622 0.055407844 0.22831488
0002d0 ca 5b 77 bd 23 82 0d be 5e 57 3a 3e 17 91 a1 3d
       -0.06039027 -0.13819174 0.1819739 0.07889002
0002e0 e6 f9 7b bd 2a b1 ea 3c b4 37 85 3e c4 4c 75 3e
       -0.06151762 0.028648932 0.2601906 0.23955065
0002f0 2c 11 5d bd cd fa 87 be 35 1a 3c be 13 b7 86 3d
       -0.053971455 -0.26558533 -0.18369372 0.065778874
000300 f0 20 06 be e6 7a 7e be 79 11 31 be 5d 0f 55 bd
       -0.13098502 -0.2485157 -0.17291822 -0.052016605
000310 cb 26 98 3c 8d d7 6a bd 8c 71 11 3d 0f 89 16 3c
       0.018573185 -0.05733447 0.035508677 0.009187951
000320 98 6e fc bd b3 f5 98 be 3d 03 4c be 9a 88 8c 3e
       -0.123257816 -0.29874954 -0.1992311 0.2744797
000330 f0 92 5f bc d8 19 6b be 32 31 7d 3e 52 96 74 3e
       -0.0136458725 -0.22959077 0.24725798 0.23885468
000340 27 02 94 be 76 04 94 be c7 be 05 3d 69 e3 bf 3d
       -0.28907892 -0.28909653 0.032652643 0.09369547
000350 4b b8 0b 3d aa d0 8e 3e 03 81 4d 3e 60 dd 99 be
       0.034111302 0.27893573 0.20068745 -0.30051708
000360 16 ce 8c be 4c 50 25 3e b8 44 93 3e 86 d5 96 be
       -0.2750098 0.16143912 0.28763366 -0.2945978
000370 98 c7 44 bb 9d 44 11 bd 44 06 97 3e 04 b4 d9 bc
       -0.0030026194 -0.035465825 0.29496968 -0.026575096
000380 35 7c 45 bd 9c 14 46 be 92 8e f8 3d cc a0 99 bd
       -0.048214156 -0.193438 0.12136568 -0.07501373
000390 8c 4d 35 3d d6 f9 8a be 35 cf 8a be 44 4e 1e 3e
       0.044263408 -0.27143735 -0.2711121 0.15459543
0003a0 0d 39 83 bd 3c 69 7a 3e 95 6c 9c 3e 4a bf 90 3d
       -0.06407366 0.24454206 0.30551592 0.070677355
0003b0 16 db ed bd c1 a6 68 be 0e 11 01 be 9c 43 89 3e
       -0.11614053 -0.22719862 -0.12604162 0.26809394
0003c0 f7 60 ab 3d 28 2a 3e 3e cc b5 84 3d fb 00 1c 3d
       0.08368104 0.18570769 0.064799875 0.038086873
0003d0 f7 3f 93 be f3 99 d1 3d c0 f7 c7 bd f4 30 16 3e
       -0.2875974 0.102344416 -0.097640514 0.14667112
0003e0 8c ea 58 3b 2a dc 5f be e6 65 8b 3e b7 90 62 be
       0.0033098785 -0.2186133 0.2722618 -0.22125517
0003f0 ce bc f0 3d a7 44 52 be 0f 1b 8e 3d 8a 7c 56 3e
       0.11754762 -0.20534001 0.06938755 0.20945945

encoder.encoder_layer.encoderlayer.self_attn.in_proj_bias f4 [48]
000000 00 00 00 00 00 00 00 00 00 00 00 00 00 00 00 00
       0.0 0.0 0.0 0.0
000010 00 00 00 00 00 00 00 00 00 00 00 00 00 00 00 00
       0.0 0.0 0.0 0.0
000020 00 00 00 00 00 00 00 00 00 00 00 00 00 00 00 00
       0.0 0.0 0.0 0.0
000030 00 00 00 00 00 00 00 00 00 00 00 00 00 00 00 00
       0.0 0.0 0.0 0.0
000040 00 00 00 00 00 00 00 00 00 00 00 00 00 00 00 00
       0.0 0.0 0.0 0.0
000050 00 00 00 00 00 00 00 00 00 00 00 00 00 00 00 00
       0.0 0.0 0.0 0.0
000060 00 00 00 00 00 00 00 00 00 00 00 00 00 00 00 00
       0.0 0.0 0.0 0.0
000070 00 00 00 00 00 00 00 00 00 00 00 00 00 00 00 00
       0.0 0.0 0.0 0.0
000080 00 00 00 00 00 00 00 00 00 00 00 00 00 00 00 00
       0.0 0.0 0.0 0.0
000090 00 00 00 00 00 00 00 00 00 00 00 00 00 00 00 00
       0.0 0.0 0.0 0.0
0000a0 00 00 00 00 00 00 00 00 00 00 00 00 00 00 00 00
       0.0 0.0 0.0 0.0
0000b0 00 00 00 00 00 00 00 00 00 00 00 00 00 00 00 00
       0.0 0.0 0.0 0.0

encoder.encoder_layer.encoderlayer.self_attn.out_proj.weight f4 [16, 16]
000000 8f 98 bb be 6e 49 9f bd f6 7c 98 3c 24 11 91 be
       -0.3663983 -0.077776775 0.018614274 -0.2833339
000010 7f 87 aa 3e 6c 33 42 3e ea 89 9a be 67 47 af bd
       0.333065 0.18964928 -0.30183345 -0.08558541
000020 bb 57 8e be 55 70 be 3e 89 d0 d8 be 72 2b 44 be
       -0.27801308 0.37195078 -0.423466 -0.19157198
000030 56 8b 47 be b5 50 97 be a6 cd cb 3d 92 3c 2d 3e
       -0.19486746 -0.29553762 0.09951334 0.16917637
000040 fa 13 a3 3e 32 c1 8a 3e ab 1b 47 be ac cc 63 be
       0.31851178 0.2710052 -0.19444148 -0.22246045
000050 20 f3 d9 3d 20 58 9f 3d 0c b0 d2 3e 3a 51 d0 be
       0.106420755 0.077804804 0.41149938 -0.4068697
000060 26 a9 d4 be eb 98 b7 be 7d 7f 1f be 70 56 5e 3d
       -0.415353 -0.35858855 -0.15575977 0.054281652
000070 f8 c1 d0 3d 5b f5 89 3d 74 88 b3 3d bc 8a 06 be
       0.101932466 0.06736251 0.08766261 -0.1313886
000080 00 90 3a 3d 83 f0 84 be eb c8 b4 3e 6b 06 a5 3e
       0.045547485 -0.25964746 0.35309538 0.3223146
000090 9e e5 8d 3e e2 ac 8c bd 0c 31 4b be 5c 84 34 3d
       0.27714247 -0.06868912 -0.19842929 0.04407154
0000a0 50 3d bd be a2 fb e4 bc 4a 1a da be 70 63 87 3e
       -0.3696084 -0.02795202 -0.42598182 0.26443052
0000b0 75 d6 db be 0b 40 6e 3e ac e0 c2 be c2 d8 bc be
       -0.42937055 0.23266618 -0.38062036 -0.36884123
0000c0 66 53 97 be 11 43 1c 3d a9 c8 9b be bc e2 ad be
       -0.29555815 0.038149897 -0.3042653 -0.33962047
0000d0 c6 4c e2 bc aa 65 f3 bd 52 6e 8b bd 42 72 8d 3e
       -0.027624499 -0.11884625 -0.06808151 0.27626234
0000e0 54 d4 96 3e f0 0c 82 bc 64 83 96 3d 68 94 5e bd
       0.29458869 -0.01587531 0.073492795 -0.05434075
0000f0 52 9b dc be ca ce a9 3e 78 5e 9f be ca 6a 86 bd
       -0.4308725 0.3316558 -0.3112676 -0.06563337
000100 a1 0f c7 be d6 e4 d4 3e b8 6a 9c 3e 2e c2 2b 3e
       -0.3887911 0.41580838 0.3055017 0.16773292
000110 b1 97 9f be 72 07 9c 3d 5c 29 6d bc 10 d8 79 be
       -0.3117042 0.076186076 -0.014475193 -0.24398828
000120 d9 13 a8 3d fa 2a 3c 3e f6 5c 0e be fd f7 5b be
       0.08206911 0.1837577 -0.1390265 -0.21481319
000130 d2 f2 6b 3e d5 46 1d 3e b8 11 ab bd 58 23 4c be
       0.23041847 0.15359052 -0.08352989 -0.19935358
000140 94 34 3f be b5 b5 d4 3e fa c5 90 3e 1a 7a 24 be
       -0.186724 0.4154488 0.28276044 -0.16062203
000150 87 eb a0 be 03 18 c0 3e 62 ba 96 bd 84 40 a3 be
       -0.31429693 0.3751832 -0.073597685 -0.3188516
000160 17 79 59 be 44 7e 3b 3d 68 48 63 3d e0 89 ab bc
       -0.21237598 0.045774713 0.055488974 -0.020939767
000170 a6 6f 8d 3e f1 57 fd bd 7c ea ea 3d c5 a6 97 be
       0.27624243 -0.12370289 0.114705056 -0.29619423
000180 8a 5a dc be 93 96 4e be 85 06 d0 be f2 d0 6f 3e
       -0.43037826 -0.20174627 -0.40629974 0.2341955
000190 64 90 1a be a8 96 55 be 88 3e 02 3e db 2f 0d 3e
       -0.15094143 -0.20858252 0.12719166 0.13787787
0001a0 39 72 f6 bd 64 db c8 3b 76 76 57 be 7c 50 37 be
       -0.12033505 0.006129669 -0.21041283 -0.17901796
0001b0 ae a7 87 be cc df 7a be 08 4f 8d be 3f 02 84 be
       -0.26495117 -0.24499434 -0.2759936 -0.25782964
0001c0 dd 6b 5a be be 1b 5a 3d f3 21 ae 3e 1d fa 6a be
       -0.21330209 0.053249113 0.34010276 -0.22946973
0001d0 b1 d1 05 bd 6b d1 2b 3e b7 3a c6 be 32 de aa be
       -0.03267068 0.16779105 -0.3871667 -0.33372647
0001e0 9e b7 62 3e d2 d8 8a 3d 54 aa a7 bd 1c b7 9a 3e
       0.22140357 0.067796364 -0.081867844 0.30217826
0001f0 31 8a fb 3b 2c fb 80 3e 14 03 39 be c8 98 06 3e
       0.007676386 0.2519163 -0.1806758 0.13144219
000200 d0 1b a5 be ed ec d2 bd a6 c5 49 bd 32 92 69 be
       -0.32247782 -0.10299096 -0.049260758 -0.22809675
000210 11 61 c9 be 25 c1 60 3e ea 47 e3 bb dd be 09 be
       -0.39331868 0.21948679 -0.006936063 -0.13451715
000220 5b f9 f5 bc b1 fc 79 be 90 d8 71 be 46 30 3e bd
       -0.030026129 -0.244128 -0.23617768 -0.046432756
000230 3d 32 59 3d e0 f1 7d 3e c6 f0 ec 3d 2a 91 da be
       0.053026427 0.24799299 0.115693614 -0.42688876
000240 f7 7a 07 be 87 87 82 be f6 0d 18 be f6 45 59 3e
       -0.13230501 -0.25494024 -0.14849076 0.21218094
000250 af b6 b9 bd 28 e4 8e 3d 1a 03 76 bc 8a 8e 78 be
       -0.09068047 0.06977111 -0.015015388 -0.24273124
000260 68 36 2a be 6e 57 76 3e 9d a7 70 3e b8 9a be be
       -0.16622317 0.2405679 0.2350144 -0.37227416
000270 d0 2b cf be b9 ae 58 be 60 68 8e 3e e0 67 da 3e
       -0.40463114 -0.21160401 0.27814007 0.42657375
000280 9a 09 3a be 0e 5b ab 3d 04 68 60 3c ce a1 03 bd
       -0.18167725 0.08366977 0.013696674 -0.03213673
000290 c2 f5 b4 bc 74 6c 65 3e 60 e6 cc bd 87 a8 a9 3e
       -0.022089843 0.22404653 -0.10004878 0.3313639
0002a0 d8 d7 ad 3e e4 08 5e be f2 fb df bd da f5 b9 3e
       0.33953738 -0.21683079 -0.10936727 0.36320382
0002b0 7c 55 d0 3e 4a 90 bb 3e 42 2a 3a 3e 25 14 0e be
       0.4069022 0.3663352 0.18180183 -0.13874872
0002c0 ce 4b 2e be 36 67 db 3e 79 94 82 3d 41 dd b4 3e
       -0.17021105 0.4285218 0.06375975 0.35325053
0002d0 2b 4f 5b be 2e 37 de 3d 1a c4 c4 3e 2a 87 13 3e
       -0.21416919 0.108503684 0.38430864 0.1440703
0002e0 1d 67 a5 be 9b 3d 0e 3d 81 ea d6 be 5e ad b0 be
       -0.32305232 0.03472672 -0.41975787 -0.3450727
0002f0 e7 8b 95 be 72 64 dc 3d e9 05 cc 3e 67 6b 39 3d
       -0.292083 0.10761346 0.3984826 0.045268442
000300 66 e3 8e 3e 12 c5 5e 3c a9 ed d3 be be 59 4a 3e
       0.27907866 0.01359679 -0.41392258 0.19760796
000310 08 a8 13 be cc d1 b5 be f6 07 55 3e b3 f1 c2 3e
       -0.14419568 -0.35511625 0.20803818 0.38075027
000320 12 fd eb 3c bd 76 d4 3e 1c 69 6d 3e c7 c5 ac be
       0.028807197 0.4149684 0.23184627 -0.33744642
000330 92 da aa be ea ca 10 be 52 08 2b 3e 90 c7 de bd
       -0.3336988 -0.14139906 0.16702393 -0.10877907
000340 87 5c c8 3e f3 52 83 be 20 5d 09 be 26 ef 9c 3e
       0.39133093 -0.25649223 -0.1341443 0.30651206
000350 99 c1 33 3e 12 03 7e 3e ff 05 33 3e 6e be c4 3e
       0.1755432 0.24805859 0.17482756 0.38426536
000360 8c 54 26 be 3d c5 69 3e 8e 9e 0a 3e 25 16 58 be
       -0.1624319 0.22829147 0.13537046 -0.21102197
000370 fc 57 0f 3e b1 a4 a8 be 6a b3 fd 3d c9 d9 27 be
       0.13998407 -0.3293815 0.12387736 -0.16391672
000380 86 1b 9a 3e 86 56 40 bd a0 01 79 3e 10 78 cc 3d
       0.30099124 -0.046957515 0.24317026 0.099838376
000390 53 5f 99 3e 8b 86 a4 3e 90 ce 86 be 1c 7b 16 be
       0.2995554 0.32133898 -0.2632947 -0.146954
0003a0 fe f7 b2 bc 58 e5 8f 3e 6d c0 77 3e e5 6b 48 be
       -0.021846768 0.28104663 0.24194498 -0.19572408
0003b0 c9 f1 99 3c 2c e8 56 3e 84 58 d5 be 5e db 1a be
       0.01879205 0.20987004 -0.41669095 -0.15122744
0003c0 e0 74 ac 3e 6a b7 2f bd 67 a8 0f 3e 8e 95 b9 be
       0.3368292 -0.042899527 0.14029084 -0.36246914
0003d0 34 b5 07 3e 35 ef 77 be da a2 10 3e 8b 08 b1 3d
       0.13252717 -0.24212344 0.14124623 0.086442076
0003e0 da a9 14 be 68 b4 4d 3d a4 ef 7d be 6c e1 b5 3d
       -0.14517918 0.050220877 -0.24798447 0.088808864
0003f0 02 57 5b be 14 0a be be a8 b9 a2 3e 16 91 8d be
       -0.2141991 -0.37117064 0.3178227 -0.27649754

encoder.encoder_layer.encoderlayer.self_attn.out_proj.bias f4 [16]
000000 00 00 00 00 00 00 00 00 00 00 00 00 00 00 00 00
       0.0 0.0 0.0 0.0
000010 00 00 00 00 00 00 00 00 00 00 00 00 00 00 00 00
       0.0 0.0 0.0 0.0
000020 00 00 00 00 00 00 00 00 00 00 00 00 00 00 00 00
       0.0 0.0 0.0 0.0
000030 00 00 00 00 00 00 00 00 00 00 00 00 00 00 00 00
       0.0 0.0 0.0 0.0

encoder.encoder_layer.encoderlayer.linear1.weight f4 [64, 16]
000000 26 eb 7b bd 4b 52 93 3d c2 77 a4 3d 37 20 02 bd
       -0.061503552 0.071934305 0.080306545 -0.031769004
000010 3c ac e2 3d 58 14 87 bd 41 48 d8 3d 7c 78 58 be
       0.11068007 -0.06595677 0.10560656 -0.21139711
000020 6d df 3e 3c 48 66 54 be 30 4e 9b 3d f5 a9 06 be
       0.011649949 -0.20742142 0.075832725 -0.13150771
000030 06 3c 4f 3e d2 7e 4e be 7c d4 7a be b8 09 8b bd
       0.20237741 -0.20165566 -0.24495119 -0.06788963
000040 65 d4 50 3d cf 69 4e be 1c ef 80 be a5 34 fd 3d
       0.050983805 -0.2015755 -0.25182426 0.12363557
000050 2e 96 32 3e 56 02 1d 3e f2 d6 48 3e be dd 97 3d
       0.17440102 0.15332922 0.19613245 0.07415341
000060 c1 cf 9c bd 15 6a 3f 3e a8 5c 4c 3e e3 10 5d bc
       -0.076568134 0.18692811 0.1995722 -0.013492796
000070 19 da 06 bd b0 3e 46 3e 80 b5 81 3e b0 ff 82 be
       -0.032922838 0.19359851 0.25333786 -0.255857
000080 fc ca 1f be 7b 7a 3c 3e 5a ad 4e bd f2 41 e5 3d
       -0.15604776 0.18406098 -0.05045829 0.11194219
000090 47 7b 67 be 22 a5 59 be d6 48 d1 bd 66 d2 c9 3b
       -0.2260562 -0.212544 -0.102189705 0.0061591147
0000a0 fc 9f 80 bd a7 c4 22 be 94 9a 22 bd 19 b8 af bd
       -0.062805146 -0.1589533 -0.0396982 -0.08580036
0000b0 81 60 7f be e4 d3 a9 3d d1 d6 0f be e4 a2 1d be
       -0.24939157 0.08292368 -0.1404679 -0.15394169
0000c0 d6 08 f9 3d 39 9b 5b be 64 67 13 be f0 0e bd 3d
       0.121598884 -0.21445931 -0.14394909 0.09231365
0000d0 85 c8 46 be 6e cd 25 3e c8 af 63 3e d5 20 30 be
       -0.1941243 0.16191646 0.22235024 -0.17200024
0000e0 7f 1d 0c 3d c6 39 0d 3e a8 86 0e be 93 61 1d be
       0.034207817 0.1379157 -0.13918555 -0.15369253
0000f0 a0 bd bc 3d 2d 5b a2 3c ec 45 60 3e 24 17 8a 3e
       0.092158556 0.019818867 0.21901673 0.2697078
000100 d7 37 d3 3d 11 a1 16 3e 1b 91 5d be bc 6f f4 bc
       0.10313385 0.1470988 -0.21637385 -0.029838435
000110 33 9e 96 bd 1c cd 09 3e 6f 4f 4e be d7 2c d1 3d
       -0.07354393 0.1345715 -0.20147489 0.10213631
000120 3d 39 05 be 2a b2 8a 3e e6 ef 78 3d 1d b1 3d bd
       -0.13010116 0.27089053 0.06077566 -0.046311487
000130 54 e6 19 be 11 52 1b be 79 99 d7 bd cb ab 8d bd
       -0.1502927 -0.15168025 -0.105273195 -0.069175325
000140 9d bb 32 bd aa 51 1e 3e 56 af 62 be ae f3 0a be
       -0.043635953 0.1546084 -0.22137198 -0.13569519
000150 bc c4 57 3e 8c e0 80 bc 87 ef 44 be df 97 d4 bd
       0.21071142 -0.015732072 -0.19231997 -0.103805296
000160 c4 63 fd bd c2 ad 64 bd ca f0 7b 3e 5e e0 a5 bd
       -0.123725444 -0.05582977 0.24603572 -0.08099435
000170 c5 34 d8 3d d9 17 0b 3e b0 c6 97 bd 05 c2 86 3e
       0.1055694 0.13583316 -0.074109435 0.263199
000180 ca fe 24 3e 51 cd a7 3d 43 6a 62 bd c9 86 76 3c
       0.1611282 0.08193458 -0.05527712 0.015046784
000190 a3 ae 50 3e 1e f4 62 be 7e de 0c 3e 7a 78 4c 3c
       0.20379119 -0.22163436 0.13756749 0.012479896
0001a0 25 0e 41 3e c4 71 48 bd cc ac 5c 3e 52 72 70 be
       0.18853052 -0.04893662 0.21550292 -0.2348111
0001b0 ca 87 e8 bd 16 e0 56 be 18 79 63 3e 13 a6 09 3d
       -0.11354025 -0.2098392 0.22214162 0.033605646
0001c0 58 7d 84 be ca 5b 50 be 7d 70 7e be fe ad c9 3d
       -0.2587688 -0.20347515 -0.24847598 0.098476395
0001d0 b8 53 54 3e f1 07 cc bd 2b 9e b8 bd e4 ea cb bc
       0.20735061 -0.09962452 -0.09014543 -0.024892278
0001e0 18 a6 8d 3d c6 07 b2 bd 2c 20 7b be ca 81 d5 3d
       0.069164455 -0.08692889 -0.24523991 0.10425146
0001f0 a8 02 aa 3d ef cf 77 bd 15 d9 82 3e 44 d3 2a 3c
       0.08301288 -0.060501035 0.25556245 0.010426346
000200 e0 7f 89 be 54 cd 61 be 67 c6 e6 bd e8 34 6d bb
       -0.26855373 -0.22050983 -0.11268311 -0.0036194865
000210 08 01 57 3e a9 2e aa bd f7 ef ca 3d ae dd 0a be
       0.20996487 -0.08309681 0.09909051 -0.13561127
000220 87 d0 80 bc fc 39 21 3e 41 0a 19 3d f4 20 a3 bd
       -0.015724434 0.15744776 0.037363295 -0.0796527
000230 cd 75 35 be b3 7e 5e be ec 4e 51 be b3 0a 88 be
       -0.17720719 -0.2172802 -0.20440263 -0.26570663
000240 4e 98 1e be fd 44 82 be 7a 07 7c 3e 3f 2f 86 be
       -0.15487787 -0.2544326 0.24612227 -0.2620792
000250 1b 76 85 3e 25 7d 32 be 5e a8 85 3c c2 f1 f3 bc
       0.2606667 -0.17430551 0.016315635 -0.029778365
000260 14 ad 52 3d d8 94 a8 3d 34 24 c5 3d c6 37 ff bc
       0.05143459 0.08231515 0.09626046 -0.031154525
000270 99 f7 96 3d 8e 83 28 bd d8 eb 83 3e 7c f5 84 3e
       0.07371444 -0.041141085 0.25765872 0.2596854
000280 70 6d 82 3e 74 cd 79 3e 26 9a ed 3d ce 8d 51 be
       0.2547412 0.2439478 0.11601667 -0.2046425
000290 e6 66 c2 bc c9 da 10 be 51 57 12 be 19 ed 84 3e
       -0.023730706 -0.1414596 -0.14291121 0.2596214
0002a0 a3 d7 f7 bb 86 cc 5a be 1b 61 cd 3d af 23 a4 3d
       -0.0075635477 -0.21367082 0.10028287 0.080146186
0002b0 6e 91 7b 3d ae b8 92 3d 74 da 31 3e 53 5d 3c 3d
       0.06141799 0.07164131 0.1736849 0.04598744
0002c0 80 e2 7f 3e 66 ca 3f 3e 0c b2 1d 3e c7 be d8 bd
       0.24988747 0.18729553 0.1539995 -0.10583263
0002d0 a2 59 8b 3e a6 bd 89 3e 9a e6 cd bd 5a 41 f8 3c
       0.27216822 0.26902503 -0.100537494 0.0303046
0002e0 70 93 60 be 47 98 f2 3d 3a c8 b4 bc 13 e8 6e be
       -0.21931243 0.11845451 -0.022068132 -0.23330717
0002f0 8d 4f 4a 3b 9b 59 31 be 70 30 17 be 4d 7d 80 be
       0.003087017 -0.17319338 -0.14764571 -0.25095597
000300 33 53 4e be 60 8e 17 3e fe 2f c1 3c 92 ec 68 3e
       -0.20148925 0.14800406 0.023582455 0.22746494
000310 6d b5 09 3e 27 7b c3 bd 76 78 80 3e 82 29 2b be
       0.13448115 -0.09544974 0.25091904 -0.16715053
000320 11 59 5a 3e 84 ee c1 bd 22 ba bd bd 73 00 0a be
       0.21323039 -0.09469321 -0.09264018 -0.13476734
000330 55 2c 9b bc 0a 7d 17 3e 10 53 c4 bd 6b a4 3f 3e
       -0.018942038 0.14793792 -0.095861554 0.18715064
000340 9f 93 08 be 5d 01 56 3e e6 b4 7a 3e 7c 4d 29 be
       -0.13337563 0.20898958 0.2448307 -0.16533464
000350 d6 f1 e9 3c 5d e6 5a 3e e0 19 f4 bc f4 75 59 be
       0.0285577 0.21376939 -0.029797494 -0.21236402
000360 a8 91 03 bb 79 5e 3f be 1a e0 4c bd ce 1f 66 3e
       -0.0020075832 -0.18688382 -0.050018407 0.2247307
000370 4c 05 46 3e 06 97 3a 3e 80 0e 27 be e0 fb 18 be
       0.19337958 0.18221673 -0.16314125 -0.14939833
000380 c8 4a fa 3b 46 dc 32 3e 88 47 4b be 86 c5 13 be
       0.007638309 0.1746684 -0.19851506 -0.14430818
000390 fb df 88 be f6 89 04 3e e2 cf 36 be 3c 71 ab 3d
       -0.26733384 0.12943253 -0.17852738 0.08371207
0003a0 a7 e2 3d be 9c 21 9a bd e4 a4 87 be f4 a6 3f be
       -0.18543492 -0.07525942 -0.2649299 -0.18716031
0003b0 ca ef 25 bd 7d 01 ed bd b7 0a 9b 3d 36 49 23 be
       -0.040511884 -0.115725495 0.07570403 -0.15945897
0003c0 8b a2 0e 3d fa d8 e1 bc fa c8 ac 3a 76 66 06 3e
       0.03482298 -0.027569283 0.0013182454 0.13125023
0003d0 d6 0e 39 be 61 13 b0 bd 68 e4 12 be 9a 6f 4d 3d
       -0.18072066 -0.08597446 -0.14344943 0.05015526
0003e0 b8 d4 12 3e 83 55 24 be 5e 3b 22 3e 4b 8e b6 3d
       0.14338958 -0.16048245 0.1584296 0.08913859
0003f0 8e 08 e5 3d 7e 20 7e be fa 0b 60 be 7f 0d ca bc
       0.11183272 -0.24817082 -0.21879569 -0.024664639

encoder.encoder_layer.encoderlayer.linear1.bias f4 [64]
000000 d8 2f 9a 3d 88 5a 05 be f8 4c cf 3d 24 dc 9b 3d
       0.07528657 -0.13022816 0.101221025 0.07610348
000010 87 c0 4c 3e d0 1a 8d 3c c0 e7 91 3b 78 b6 0f be
       0.19995318 0.0172247 0.0044526756 -0.1403445
000020 f4 89 ca bd 6a de 1a 3e 14 a0 2c 3e b0 e8 21 bd
       -0.09889594 0.15123907 0.1685794 -0.03952855
000030 9a f6 57 3e c9 87 df 3d dc 2c 59 3e 00 53 77 3e
       0.21090165 0.10914571 0.21208519 0.24152756
000040 4e 43 1f 3e ee 73 7d be a0 c7 1e 3e 1e e6 6f 3e
       0.15553018 -0.24751255 0.15505838 0.23427626
000050 74 9b d8 bd 60 cc 29 bd d2 ed 65 3e b0 03 5e be
       -0.10576525 -0.041454673 0.22454002 -0.21681094
000060 f8 72 7d bd 10 4f 93 3d d3 fa 49 3e ee 8f 5a 3e
       -0.06187722 0.07192814 0.19724588 0.21343967
000070 53 f8 6b be 20 c1 7d bd 20 13 49 3c be f5 01 3e
       -0.23043947 -0.061951756 0.012272626 0.126914
000080 08 a6 b1 bd ca 46 1c be c8 33 1a 3e e4 b9 7b be
       -0.08674246 -0.15261379 0.15058815 -0.2458263
000090 00 f9 84 3d 58 e5 5b bd 0f f2 47 be 86 08 71 be
       0.064928055 -0.053685516 -0.19525932 -0.23538408
0000a0 88 91 40 3d d6 ad 54 be e0 e5 52 3c 84 f0 b9 bd
       0.04701379 -0.20769438 0.012872189 -0.09079078
0000b0 60 3d 65 3c e0 e0 22 bd 0e 67 e2 bd 50 33 4d be
       0.013991684 -0.03976524 -0.11054812 -0.20039105
0000c0 c8 b7 e3 3d 24 0f a8 bd 6b 52 56 be 18 79 02 bd
       0.11119038 -0.08206013 -0.20929877 -0.031853765
0000d0 70 e5 43 3d 25 bf 5e 3e 92 50 f6 3d 64 31 2a 3e
       0.04782623 0.21752603 0.12027086 0.16620404
0000e0 40 c1 be 3b 24 8b 85 bd 5a 29 44 be e8 84 c0 3d
       0.005821377 -0.065206796 -0.191564 0.0940035
0000f0 22 9a 06 be 7a 5d 12 be be a9 26 be 1c 8e fd 3d
       -0.13144735 -0.14293471 -0.16275689 0.12380621

encoder.encoder_layer.encoderlayer.linear2.weight f4 [16, 64]
000000 10 a6 41 3d 60 05 6f bd 23 38 0e 3e 6c c2 81 be
       0.04727751 -0.058354735 0.13888602 -0.25343645
000010 15 4b 55 3e 83 44 09 bd c5 aa 59 be 02 ea 89 bd
       0.20829423 -0.033512603 -0.2125655 -0.067340866
000020 c8 86 34 3d e2 5e 87 3e 5e 8d 9d 3d 23 bf 3b 3e
       0.04407385 0.26439577 0.07692979 0.18334632
000030 f5 1f d7 bd ae 5f 57 be d7 3c 6f be b6 d8 5b be
       -0.10504142 -0.21032593 -0.23363052 -0.21469387
000040 c5 9f 14 3e 1a 26 c7 3d 03 3d 54 3e 14 91 b0 bb
       0.14514072 0.09724064 0.20726399 -0.0053883884
000050 0d 11 b6 3d 8a b6 b1 3d 21 7b 89 3d 65 42 28 3e
       0.08889971 0.08677395 0.06712938 0.16431578
000060 a9 08 02 3d a8 8e 0e be ce e0 16 be 15 7d 37 3e
       0.03174654 -0.13921607 -0.14734194 0.17918809
000070 a4 18 81 3e 76 da 27 3e 5e 9c 17 be b3 1c fa bc
       0.25214112 0.1639193 -0.14805743 -0.030531263
000080 5c c2 1d be 2e cc 93 3d ef 71 d1 bc 20 b8 f5 bd
       -0.15406173 0.072166786 -0.025567023 -0.1199801
000090 ba 99 e0 bd 24 2c bb bd a0 c1 e0 bd 2b 10 72 3e
       -0.10966821 -0.091392785 -0.10974431 0.2363898
0000a0 b6 da 5b bd 27 2d db bd 4d 82 7f 3e 78 d0 d7 bd
       -0.053675376 -0.107019715 0.2495205 -0.10537809
0000b0 f4 d0 7f 3e 4c a0 12 be 06 cb a5 3c 2d 39 7a 3e
       0.24982053 -0.14318961 0.02023841 0.24435873
0000c0 2d 0b 3e be 6c 25 61 3e c2 96 a0 bd 78 06 2d be
       -0.1855895 0.21986932 -0.07841255 -0.16896999
0000d0 5c ee f8 bd 12 b4 7b 3e cd cc 47 bd d4 c1 5a 3e
       -0.121548384 0.2458041 -0.048779298 0.21363002
0000e0 5f 04 ba bc 82 f4 04 be 7a d0 53 be a6 fd 57 be
       -0.022707162 -0.12983897 -0.20684996 -0.21092853
0000f0 ed ec 03 3e 28 67 4c 3e f8 dc 51 be 86 09 80 be
       0.12883349 0.19961226 -0.20494449 -0.25007266
000100 10 9e b3 3d 1f 0b f8 3c 36 e4 16 3e 7f f6 0c 3e
       0.087703824 0.03027874 0.14735493 0.13765906
000110 19 68 78 bc 22 ad 19 bc 26 a7 6c 3e e1 37 46 3e
       -0.015161538 -0.009379657 0.23110637 0.19357254
000120 d5 43 c5 3d 53 6d 33 be 3b ef 4c 3d e2 36 03 be
       0.096320786 -0.17522173 0.050032835 -0.12813905
000130 e5 00 d1 bd 2f 52 42 be 64 84 4e 3e 00 af 0a 3d
       -0.10205249 -0.18976663 0.2016769 0.0338583
000140 93 d4 3c be 98 6e 0c 3d 95 a2 30 3e 7d 7d 94 3d
       -0.18440466 0.034285158 0.1724952 0.072504975
000150 58 72 09 3e 22 b7 75 be 72 7d c8 bc 72 9c 1b 3e
       0.13422525 -0.23995641 -0.02447388 0.15196398
000160 f2 6b 7f be 44 70 97 bd 9b 3a 11 3e 5d f9 62 be
       -0.24943522 -0.0739446 0.14182512 -0.22165437
000170 dd 96 52 3d 4c 40 72 be 74 44 1f 3e 8d 43 85 be
       0.051413406 -0.2365734 0.15553457 -0.260281
000180 c2 e9 fa bc ce de 88 3d a8 95 d5 3d 40 d7 f4 3d
       -0.030629043 0.066831216 0.10428935 0.11955118
000190 c4 cc da 3d 21 04 86 bd 1a db ce 3d fe 4f cd bd
       0.10683587 -0.06543756 0.10100384 -0.10025023
0001a0 46 81 6f be 56 88 ac 3d 9f ee 47 bc ea 34 e0 3d
       -0.23389158 0.084244415 -0.012202888 0.109475926
0001b0 98 70 76 3e 64 9a 85 3e 57 31 84 be 46 1e 82 3e
       0.24066389 0.26094353 -0.25818893 0.25413722
0001c0 33 98 45 bd 04 c4 13 3e 5c f4 3f 3e 6a fa f5 bd
       -0.04824085 0.14430243 0.1874556 -0.12010653
0001d0 3f c2 9a 3d b1 9e 11 3e 30 53 d8 3d e3 6a 5e 3d
       0.07556581 0.14220692 0.10562742 0.054301154
0001e0 e5 51 02 be 93 3e 82 3e 52 85 5e be 38 cc 21 3d
       -0.12726553 0.25438365 -0.21730545 0.0395014
0001f0 44 cc 3e be 79 d9 07 be 74 e5 1b be ed 2b 82 3e
       -0.18632609 -0.13266553 -0.15224248 0.25424138
000200 4f 6d 21 3e 3a e7 74 3e 4e ca 19 be 32 f2 13 bd
       0.15764354 0.23916331 -0.1501858 -0.036119647
000210 58 52 53 3e c6 12 a6 3b ed 2d 87 bd b0 61 ac bd
       0.2063688 0.005068156 -0.066005565 -0.0841707
000220 d4 0a 2f bb c2 ea 81 bd 5e 80 b1 bc 3e 5d fd bc
       -0.0026709335 -0.063436046 -0.021667656 -0.03092825
000230 62 13 3f 3e 65 67 5e be 17 0a 70 3c 84 49 08 3c
       0.18659738 -0.2171913 0.014650843 0.008318309
000240 7f 95 83 3e 89 de b6 bd d8 ef 6e be 68 e5 80 be
       0.25699994 -0.08929164 -0.2333368 -0.25175023
000250 b0 d5 69 be b0 6c 86 be 56 f7 84 be 7c 91 b9 bc
       -0.22835422 -0.26254797 -0.25969952 -0.02265238
000260 1e 76 d9 3d fa 68 44 be 90 a8 56 bd d0 61 d9 3d
       0.10618232 -0.1918067 -0.052406847 0.106143594
000270 ca ea 74 3e b3 3b 55 be 50 52 06 3e dc cf 24 bd
       0.2391769 -0.20823555 0.13117337 -0.040237293
000280 2d 90 64 bd 1f 3f 4b 3e 05 ab af 3d a5 d1 89 3e
       -0.05580156 0.19848298 0.08577541 0.2691776
000290 70 86 4f 3e 15 37 b0 bd c9 56 0a 3e e4 a9 2d be
       0.20266128 -0.08604256 0.13509668 -0.1695934
0002a0 cf 8e d5 bd c2 5c 3e be ca 13 0a 3e 10 96 59 3e
       -0.10427629 -0.18590072 0.13484111 0.2124865
0002b0 f6 0f ab bd 92 95 bc bc 6d ff 81 3e 23 30 d1 3c
       -0.08352654 -0.02302054 0.25390187 0.025535649
0002c0 c1 b4 e6 3d 03 b9 82 3e ca 40 31 3e e6 a0 b8 3b
       0.11264945 0.25531778 0.17309871 0.005634415
0002d0 9a e7 7c 3e 2c cf 9e 3d 20 84 35 be fc aa 11 be
       0.24697724 0.07754359 -0.17726183 -0.14225382
0002e0 00 2d ae 3c d6 90 55 3e 22 f4 4b 3d 72 39 57 be
       0.021261692 0.20856032 0.04979337 -0.21018007
0002f0 08 6a b3 3d 06 1b 4c 3d c6 9d 77 3e d4 9a b3 3d
       0.08760458 0.04983046 0.2418128 0.087697655
000300 37 8b 86 be b0 81 54 bd e2 52 71 be a3 ed 1a 3e
       -0.26278087 -0.051881492 -0.23566774 0.15129714
000310 bd f7 cc bd 69 29 65 be b2 51 7d be 22 d6 7e 3e
       -0.1000819 -0.22379078 -0.24738196 0.24886373
000320 96 1b 74 3c 68 6c 01 3e d8 48 21 3e ac 60 87 be
       0.014899155 0.1263901 0.15750444 -0.26440942
000330 a2 56 36 3e 8d 60 d4 3d 6a 0b 6e 3d 55 2b f2 bd
       0.17806485 0.10369978 0.058116354 -0.11824671
000340 76 a7 42 bd b0 7e 14 be 66 0a 77 3e 05 b5 87 be
       -0.047522984 -0.14501452 0.2412506 -0.26505294
000350 9f db 70 3e 19 2f 06 3e 05 02 82 bc 00 4e 6a 3e
       0.23521279 0.13103904 -0.015870104 0.22881317
000360 20 7a d2 3d 41 08 d4 3d c2 94 00 3d b3 aa 24 be
       0.102772 0.10353137 0.031391867 -0.16080742
000370 94 54 4b 3d 42 36 2d 3e 58 04 e3 3d fa e3 0e 3e
       0.049641207 0.16915229 0.11084813 0.13954154
000380 a3 9d b7 bd fa 80 d1 bd 99 5e e5 bb e2 21 05 3e
       -0.08965614 -0.102296785 -0.0069998023 0.13001207
000390 59 60 1e 3e f6 92 86 3e e0 98 7b 3e 86 20 81 3e
       0.15466441 0.26283997 0.24570036 0.25220126
0003a0 33 3e 41 3d 60 44 5c 3e 12 ae ee 3d 62 7d 0b be
       0.04717846 0.21510458 0.11654295 -0.13622048
0003b0 bf ce 3b 3e 61 d6 e9 bd b8 a2 a0 bd 6e 87 e2 bc
       0.18340586 -0.11417843 -0.07843536 -0.027652469
0003c0 b2 77 36 be 12 0a 23 be 3d f8 d6 3d f8 6d 0d bc
       -0.17819098 -0.1592181 0.104965664 -0.008632176
0003d0 c6 17 5d bd c9 59 45 be a3 d2 0b be d4 c3 84 bd
       -0.05397775 -0.19272532 -0.1365457 -0.06482664
0003e0 61 cc 2b be d1 89 57 3e 5c 92 54 bd c2 5d a2 3d
       -0.16777183 0.21048667 -0.05189739 0.07928039
0003f0 7d ef 0c be 40 0f 82 3d 3d 99 9e bd a0 4f 17 bd
       -0.13763233 0.06350565 -0.07744072 -0.03694117

encoder.encoder_layer.encoderlayer.linear2.bias f4 [16]
000000 a8 55 c5 3d c6 51 be bd 82 b1 9c bd 40 72 44 3b
       0.09635478 -0.09292941 -0.076510444 0.0029975325
000010 f0 8c f4 bc 34 3c 73 3d 5e cd ca 3d b0 9c fd bc
       -0.02985236 0.059383586 0.09902452 -0.030958503
000020 d8 55 b2 bc 40 68 98 3b 6a 1b ef bd 60 01 ae 3c
       -0.02176945 0.0046510994 -0.11675151 0.02124089
000030 64 b8 85 3d d0 fc 5f 3c 80 30 f5 bc 28 a0 ec bc
       0.0652931 0.013671115 -0.029930353 -0.028884962

encoder.encoder_layer.encoderlayer.norm1.weight f4 [16]
000000 00 00 80 3f 00 00 80 3f 00 00 80 3f 00 00 80 3f
       1.0 1.0 1.0 1.0
000010 00 00 80 3f 00 00 80 3f 00 00 80 3f 00 00 80 3f
       1.0 1.0 1.0 1.0
000020 00 00 80 3f 00 00 80 3f 00 00 80 3f 00 00 80 3f
       1.0 1.0 1.0 1.0
000030 00 00 80 3f 00 00 80 3f 00 00 80 3f 00 00 80 3f
       1.0 1.0 1.0 1.0

encoder.encoder_layer.encoderlayer.norm1.bias f4 [16]
000000 00 00 00 00 00 00 00 00 00 00 00 00 00 00 00 00
       0.0 0.0 0.0 0.0
000010 00 00 00 00 00 00 00 00 00 00 00 00 00 00 00 00
       0.0 0.0 0.0 0.0
000020 00 00 00 00 00 00 00 00 00 00 00 00 00 00 00 00
       0.0 0.0 0.0 0.0
000030 00 00 00 00 00 00 00 00 00 00 00 00 00 00 00 00
       0.0 0.0 0.0 0.0

encoder.encoder_layer.encoderlayer.norm2.weight f4 [16]
000000 00 00 80 3f 00 00 80 3f 00 00 80 3f 00 00 80 3f
       1.0 1.0 1.0 1.0
000010 00 00 80 3f 00 00 80 3f 00 00 80 3f 00 00 80 3f
       1.0 1.0 1.0 1.0
000020 00 00 80 3f 00 00 80 3f 00 00 80 3f 00 00 80 3f
       1.0 1.0 1.0 1.0
000030 00 00 80 3f 00 00 80 3f 00 00 80 3f 00 00 80 3f
       1.0 1.0 1.0 1.0

encoder.encoder_layer.encoderlayer.norm2.bias f4 [16]
000000 00 00 00 00 00 00 00 00 00 00 00 00 00 00 00 00
       0.0 0.0 0.0 0.0
000010 00 00 00 00 00 00 00 00 00 00 00 00 00 00 00 00
       0.0 0.0 0.0 0.0
000020 00 00 00 00 00 00 00 00 00 00 00 00 00 00 00 00
       0.0 0.0 0.0 0.0
000030 00 00 00 00 00 00 00 00 00 00 00 00 00 00 00 00
       0.0 0.0 0.0 0.0

encoder.transformer_encoder.layers.0.encoderlayer.self_attn.in_proj_weight f4 [48, 16]
000000 b4 34 55 be e0 15 04 be 9a ea 2d be 06 8f 27 bd
       -0.20820886 -0.1289897 -0.16984025 -0.040907882
000010 eb 34 a2 bb af 0a cc be b5 58 f5 be f9 d1 0b bf
       -0.004950156 -0.398519 -0.4791924 -0.5461727
000020 08 59 10 be 5a 02 b4 be e1 57 bf be 23 c3 0c bf
       -0.14096463 -0.35158044 -0.37371734 -0.54985255
000030 d9 b4 db be 13 7c f4 be 8a 2f c2 bc 7f c8 99 3d
       -0.42911413 -0.4775091 -0.023704309 0.07508945
000040 fe bb 12 3e 10 7a 85 3e d6 71 1b 3f 1e 44 0f 3f
       0.14329526 0.2606969 0.60720575 0.55963314
000050 32 2a f5 3e d2 5b 88 bd 7c 01 1b 3e 68 53 05 3f
       0.47883755 -0.06658138 0.15137285 0.5208039
000060 4f c4 2c 3e c7 66 d3 3e fd 4b 2a 3f 91 0c 2c 3e
       0.16871761 0.4128935 0.665222 0.16801669
000070 9f fe e9 3e bc af 8b 3e 84 7b a6 3e b6 ff d0 3d
       0.45702073 0.27282512 0.3251611 0.10205023
000080 4f e1 57 be 6a 0f 85 3e a6 5e f8 be 3a 3f 50 be
       -0.21082042 0.25988322 -0.4850971 -0.20336619
000090 c0 22 be be 40 20 dd bd f6 d4 c4 bd d3 cc c5 bd
       -0.37135887 -0.10797167 -0.096109316 -0.09658208
0000a0 2d 5b d6 be de ba 79 3e 1e ef 26 bd a7 04 9c be
       -0.41866437 0.2438769 -0.040755384 -0.304723
0000b0 ae 1a 02 bd 63 91 c9 3d 43 a4 0d 3e af e9 44 be
       -0.031763725 0.098421834 0.13832192 -0.19229768
0000c0 e0 90 40 be 9f cf cb bd c0 c4 a3 be 29 4c 89 be
       -0.18805265 -0.0995171 -0.31986046 -0.26815918
0000d0 c7 43 d1 bd 0e f0 11 bf b5 c5 ce be 03 f9 e4 be
       -0.102180056 -0.5700692 -0.40385213 -0.4472123
0000e0 b9 bb 14 bf 47 ae f0 be cd 81 da be fe f7 84 be
       -0.5809894 -0.47007963 -0.42677155 -0.25970453
0000f0 eb e5 27 be 51 c9 0e bf 1a 51 27 bf a2 86 23 bf
       -0.163963 -0.55775934 -0.65358126 -0.6387731
000100 2d 57 f6 3d 54 01 7d 3e 0d bd 76 be 6c f9 e0 bd
       0.12028346 0.24707538 -0.24095555 -0.109850734
000110 06 55 0c be 52 b5 99 3d 7c 9f a9 be fb 17 ef 3d
       -0.13704309 0.07505287 -0.3312949 0.11674496
000120 48 4e 93 be aa 56 4d 3e 55 43 96 be e1 1e aa 3c
       -0.2877066 0.20052591 -0.29348245 0.020766677
000130 ff 64 f9 bd cb f7 ab 3c b3 f7 0a 3e 18 a4 91 3e
       -0.121774666 0.02099218 0.13571052 0.28445506
000140 30 b9 2c 3f c3 7c 3d 3f ba 7a 5b 3e 0b ab 73 3e
       0.67470074 0.74018496 0.21433535 0.23795716
000150 27 b1 c1 3e 4f ad 5f 3f 91 31 59 3e 8a ab 8a 3e
       0.3783047 0.8737382 0.21210314 0.27084
000160 51 c5 ca 3e b1 f8 61 3f c1 39 92 3e eb 7d 85 3e
       0.39603665 0.882701 0.28559688 0.2607263
000170 34 a2 a2 3e c2 fb da 3e c0 cd 69 3f 72 f0 18 3f
       0.31764376 0.427702 0.91329575 0.5974189
000180 f6 59 a6 be 47 26 2d bf 8b 9a 23 bf 99 ce c0 be
       -0.3249051 -0.6763653 -0.6390769 -0.37657622
000190 3c 77 24 bf 61 3d 20 bf 33 75 05 bf 14 1c ca be
       -0.6424444 -0.62593657 -0.52131957 -0.39474547
0001a0 0e f4 34 bf c3 4b de be c0 20 2e bf b2 9e 0d bf
       -0.706849 -0.43417177 -0.6801872 -0.55320275
0001b0 a2 97 1d bf 2e 62 c2 be 42 55 31 bf 0d 19 12 bf
       -0.615595 -0.3796553 -0.6927072 -0.57069474
0001c0 d1 ec c1 3e f5 3c 06 3f f0 15 f3 3e 7b cd b8 3e
       0.3787599 0.52436763 0.47477674 0.3609427
0001d0 f0 dd a3 3d f4 cd 06 3f 3b de 24 3f d1 c4 15 3f
       0.080013156 0.5265801 0.64401597 0.58503443
0001e0 fc d7 c2 3e 78 b6 db 3e 9d 09 2d 3f f0 16 0d 3f
       0.38055408 0.4291265 0.67592794 0.55113125
0001f0 18 2c 13 3f ac eb aa 3e 53 bc 2f bb 20 f7 40 3d
       0.57489157 0.33382928 -0.002681513 0.047110677
000200 5a d6 9b bd 02 0f ea 3e cb 9c 04 3f 49 9b d6 3e
       -0.07609244 0.45714575 0.5180175 0.41915348
000210 68 c3 c2 bc 49 b1 d6 3e 6c ad a6 3e ee 54 1a 3e
       -0.023774818 0.41932133 0.32554185 0.1507146
000220 a9 e5 10 bd c2 45 08 3f 3e 24 b9 3e 25 33 c1 3d
       -0.03537527 0.5323144 0.36160463 0.09433583
000230 8a f8 35 3d 33 d3 e1 3e 1d f8 f5 3e 56 81 92 3d
       0.04442648 0.44106445 0.48040858 0.07153575
000240 51 90 f7 3b 0b 1d d4 be 01 4b ab be f9 1b 13 be
       0.0075550457 -0.41428408 -0.3345566 -0.1436614
000250 aa c1 40 bd 28 e9 ad be 1f de b0 be 12 3b 29 bf
       -0.047059692 -0.33966947 -0.34544465 -0.6610576
000260 bd ba 73 3d 71 32 9c be ca af 60 3d fa 06 1c bf
       0.05950426 -0.30507234 0.054855146 -0.60948145
000270 5f 2c 88 be 49 76 b0 be dc 1e f3 bd 0a 3e ba be
       -0.26596352 -0.34465244 -0.1187112 -0.36375457
000280 dc 59 9e be 42 6b 00 bf 67 6a f3 be 57 f7 4f be
       -0.30927932 -0.5016366 -0.47542116 -0.20309196
000290 aa f4 32 be 2c 7e b2 bd 9b 12 9c be dd e0 27 bf
       -0.17476144 -0.087154716 -0.30482945 -0.6557749
0002a0 5e bd 3f 3d aa 11 dc be 40 50 7d 3d 24 e3 0d bf
       0.046811454 -0.42982227 0.06184411 -0.55424714
0002b0 b2 a5 f8 be b6 79 b4 be 85 c5 86 be 46 87 5f be
       -0.48563915 -0.35249108 -0.2632257 -0.21828946
0002c0 7e d2 2b 3e 9f dd a4 3e c3 2c 61 3d 60 4a ee 3e
       0.16779515 0.32200333 0.05497433 0.4654112
0002d0 e1 36 dd 3e b1 be 9d 3e 3f cf 2b 3e 38 b3 0e 3f
       0.43205932 0.30809548 0.16778277 0.55742216
0002e0 5f 39 2e 3e b9 51 91 3e b7 54 8e 3e c5 50 f5 3e
       0.17014073 0.28382662 0.27799007 0.47913185
0002f0 be 3d 12 bd e6 c7 af 3e 48 38 0e 3f 4f 80 df 3e
       -0.035703413 0.34332198 0.5555463 0.4365258
000300 9a a2 e5 be a5 da d2 be 33 4b fe be da 0f ea be
       -0.44850618 -0.41182438 -0.49666747 -0.4571522
000310 e4 b5 0b bf 81 ba ec be 18 40 c2 be e9 e6 87 be
       -0.5457442 -0.4623604 -0.37939525 -0.26543358
000320 bf f9 a9 bd f7 b7 1f bf 62 16 cd bd 43 da f3 3b
       -0.082995884 -0.62390083 -0.10014035 0.0074417903
000330 7e b7 be bd 71 6a a8 be 3d c9 cc be 9f bf 11 bf
       -0.09312342 -0.32893708 -0.39997283 -0.56933016
000340 12 fa ae be 95 05 b4 3d 61 db 7c bd 6e ad ed bd
       -0.34175164 0.08790127 -0.061732654 -0.11605345
000350 7a 9d a6 be 5b 58 c4 be a6 be 32 be a2 fa 18 bf
       -0.3254202 -0.3834866 -0.17455539 -0.59757435
000360 f1 92 f7 be cd 2f e5 bd 00 97 68 be ca 18 27 bf
       -0.48354295 -0.11190758 -0.22713852 -0.652722
000370 1a 25 c5 bd b6 6c af be 6b d8 2e bd b5 d3 05 3e
       -0.09626217 -0.34262627 -0.04268686 0.13069041
000380 8e a3 f8 bc 7c 02 73 bd b3 29 97 be de 4f 84 bd
       -0.030351426 -0.05932854 -0.29524 -0.06460546
000390 96 89 26 bd b6 0d 7a 3d 7b 74 ca be 30 66 20 be
       -0.040658556 0.061048232 -0.39541993 -0.15663981
0003a0 53 f5 54 3d 53 74 83 bd 95 a2 9e be b8 b2 64 be
       0.051991772 -0.064186715 -0.30983415 -0.22333801
0003b0 78 8a b1 be ab 15 93 be dd ec e0 bd 20 d8 55 3c
       -0.34675956 -0.2872747 -0.10982678 0.0130520165
0003c0 8c 39 97 be bf 4a 8e be 15 23 0e be b1 fc 89 be
       -0.29536092 -0.27791402 -0.1388057 -0.269506
0003d0 ea a7 31 be 91 52 08 bf a0 5d 66 be 0c 83 d8 be
       -0.1734921 -0.53250986 -0.22496653 -0.4228748
0003e0 47 75 97 be dd 6f 59 be f0 c0 e7 be 1b 03 f4 be
       -0.29581663 -0.21234079 -0.45264387 -0.4765862
0003f0 53 19 9d bd 0b 0f 37 be 11 6d e0 be bf d9 c5 bd
       -0.07670846 -0.17876832 -0.4383321 -0.096606724

encoder.transformer_encoder.layers.0.encoderlayer.self_attn.in_proj_bias f4 [48]
000000 d4 38 61 be 5e 62 99 3e d0 e8 a8 bd 76 d7 c5 be
       -0.21994334 0.2995786 -0.082475305 -0.38640946
000010 71 97 e9 3d 7f 3f 17 3f d3 0c 03 bf 73 6f 9e 3e
       0.11405838 0.5908126 -0.51191443 0.30944404
000020 c3 8a 77 3e 82 70 55 be 9f 82 83 be 96 9a 8b 3e
       0.24174027 -0.208437 -0.25685593 0.27266377
000030 5d 62 9e be 03 ef 18 be c5 98 fe bd 6d f9 9c be
       -0.3093442 -0.14934926 -0.12431482 -0.30659047
000040 43 77 e5 b8 54 41 e5 38 a7 cf 4f b9 c3 51 cf b9
       -0.00010941785 0.00010931739 -0.00019818415 -0.00039543034
000050 67 da 97 38 2d bb 9d 38 13 32 91 b9 65 35 20 3a
       7.240922e-05 7.5212076e-05 -0.00027693863 0.0006111472
000060 d1 c9 7d 39 0e 38 26 39 87 53 41 37 7a d6 fc 39
       0.00024203143 0.00015851876 1.1523144e-05 0.00048224983
000070 c7 12 1e b8 83 1b f8 38 ae c6 be 38 2b cc 2d 39
       -3.7687623e-05 0.00011830686 9.096913e-05 0.00016574624
000080 2f f9 57 bd 97 cf d8 3c 52 0c c5 3c 99 f5 23 3d
       -0.052727874 0.026466174 0.024053726 0.040029142
000090 75 71 0e bb 5d d7 22 b9 71 d7 5b bc 40 db 81 3c
       -0.0021735106 -0.00015529753 -0.013418064 0.015851617
0000a0 bf 76 3d 3d 50 bb 14 bd 53 e5 fe 3c 35 21 90 3c
       0.046255823 -0.036311448 0.03111521 0.01759396
0000b0 9c f0 21 3d 5b ff a9 3c 32 52 7f bb 6b ca 33 bc
       0.039536104 0.020751646 -0.0038958904 -0.010973553

encoder.transformer_encoder.layers.0.encoderlayer.self_attn.out_proj.weight f4 [16, 16]
000000 a9 92 cf bd ad a3 a4 be 42 09 a8 3c 1a 78 35 bd
       -0.10135395 -0.32156125 0.020512227 -0.04430399
000010 4f 9f e7 3e 82 0a b8 3d a9 aa 99 be ae 4b db be
       0.4523873 0.08986379 -0.30013016 -0.42831177
000020 70 95 ce 3e 74 02 d8 bb 25 ed 4b 3e 28 0c 2f 3e
       0.40348387 -0.0065920893 0.19914682 0.17094481
000030 8a 0e 7c 3c 64 97 86 be 90 63 a4 3e d4 db d6 3e
       0.015384326 -0.26287377 0.3210721 0.4196459
000040 41 f0 26 3b ca 23 e5 bd 85 90 b6 bd e7 0e 26 3c
       0.0025472792 -0.11188467 -0.08914284 0.010135389
000050 68 3a 4c be 9b 44 1b bf 58 e8 a9 be 2e 96 61 bd
       -0.19944155 -0.6065156 -0.33185077 -0.055074863
000060 fc 52 bc be bf f5 3e bd 9b 63 2a 3e b3 d3 58 bd
       -0.36782062 -0.04662108 0.16639559 -0.052936267
000070 4d 93 6a be 62 b0 6d be 97 af 8a 3e ef 84 9a bc
       -0.22907753 -0.23211816 0.2708709 -0.018862216
000080 36 70 68 3e 35 d5 8c 3e 43 ad 98 bc 64 a1 c7 3e
       0.22699055 0.27506414 -0.018637305 0.3899032
000090 8d 6a af 3e 9b f6 b9 be a7 76 c8 bd cb e3 cd bd
       0.3426098 -0.36320958 -0.09788256 -0.10053214
0000a0 47 f1 a4 3d e5 14 a5 3c 36 5d b8 bd 79 e3 9c be
       0.080538325 0.020151565 -0.090021536 -0.30642298
0000b0 7a 83 6e 3e 4c 90 0d be 65 3c 66 be 52 4e 36 be
       0.23292342 -0.13824576 -0.22483976 -0.17803314
0000c0 e0 88 71 3e ab 4c 61 be 7b c3 bc 3e 22 bd 88 3c
       0.2358737 -0.22001903 0.3686789 0.016691748
0000d0 f3 f8 3a 3e 3c 14 d7 be 90 48 99 3d c7 f7 ac 3d
       0.18259029 -0.42007625 0.07484543 0.08445697
0000e0 9d 1a 4c be c7 04 16 be 72 d8 82 3e 21 ad 95 be
       -0.19932027 -0.1465026 0.2555576 -0.2923365
0000f0 f5 ca 89 3e 49 5e a5 be 28 f5 8b be a1 cf 8b bd
       0.26912656 -0.32298496 -0.27335477 -0.068267114
000100 f9 42 5f be ba 7e b3 be 54 73 94 bc 7e bb 57 3c
       -0.21802892 -0.35057622 -0.018121399 0.01316726
000110 54 28 90 3e 18 ad b8 3e ed 56 0e 3e 9b 7e b8 be
       0.28155768 0.3606956 0.13900347 -0.36034092
000120 2b 50 9e 3e 95 ea f4 be 30 d0 9f bd e1 97 ac bb
       0.30920538 -0.47835222 -0.078033805 -0.005267129
000130 eb 0a 60 3c 34 03 41 be 39 98 99 3e 5a 92 82 3e
       0.013674478 -0.18848878 0.2999895 0.25502282
000140 02 f3 e7 3e e9 a9 b9 3e 59 09 c7 3e 5d 4f 93 3e
       0.45302588 0.36262444 0.3887432 0.28771487
000150 cc 05 a8 be bf 3d 38 bd fc 10 8e bc 14 ef ce 3e
       -0.32816923 -0.04498076 -0.017342083 0.40416777
000160 9d 7c 99 3c 87 37 d3 bd 67 5c c5 3e 75 44 88 be
       0.018736178 -0.103133254 0.3854706 -0.2661473
000170 12 ae fd 3d 4f 96 84 3d e7 4b 59 3e 92 e1 b2 3e
       0.12386717 0.064739816 0.2122036 0.34937721
000180 7e a1 11 3e 20 07 7a 3e 4c 24 90 be 17 1d a2 3d
       0.1422176 0.2441678 -0.28152692 0.07915705
000190 91 e4 ac be ca b9 12 3e 6a e1 b3 3c 82 f8 c7 be
       -0.33768132 0.14328685 0.021958072 -0.39056784
0001a0 30 6e b2 be 6f 8c 9e be da 7e 08 3e 9b f8 73 be
       -0.3484969 -0.30966517 0.1332964 -0.23825304
0001b0 68 15 99 bd dc 94 ce 3d 24 40 76 be 46 52 85 be
       -0.07474786 0.100869864 -0.24047905 -0.26039332
0001c0 aa 82 ab 3e 4c 43 a2 be 5f a7 9f 3e e2 c3 ab 3e
       0.33498126 -0.31691968 0.31182382 0.33547884
0001d0 ba 0f d2 bb 17 9d c0 be 89 92 e6 be af c8 65 3e
       -0.006410566 -0.3761985 -0.45033672 0.22439836
0001e0 fe db 80 3e 89 88 f8 3d 97 62 e4 3d e9 72 94 3c
       0.2516784 0.12135417 0.11151617 0.0181212
0001f0 80 fb bb 3c 66 06 dd 3e a2 04 00 be 67 88 99 3e
       0.022947073 0.43168944 -0.12501767 0.2998688
000200 39 b6 47 3e 21 81 ba bd 7f 6a ce 3d 2a dc aa bd
       0.19503106 -0.09106661 0.10078906 -0.08342774
000210 29 1f c7 bc b4 26 9c be e2 28 c7 be 41 a6 39 be
       -0.02430685 -0.30498278 -0.3889838 -0.18129827
000220 b6 3d f0 bd a6 21 b7 3d 8b 5e a4 be b4 c6 1c bd
       -0.117305204 0.08941965 -0.3210338 -0.038275436
000230 17 cb 54 3e ea f7 86 be 3f 90 b4 3e 80 2d 3e be
       0.20780598 -0.26361018 0.352663 -0.18572044
000240 d9 68 b4 be c6 ad a3 be f5 7c c4 be a5 16 bd be
       -0.35236242 -0.31968516 -0.38376585 -0.3693134
000250 ba 6b a4 3e da 2a bf 3b a1 e4 cb 3e f5 4a f6 3e
       0.3211344 0.0058339657 0.39822868 0.48104063
000260 e3 9b b4 bd 89 82 86 3e 4b e5 40 3e eb b0 c6 3e
       -0.088187955 0.26271465 0.18837468 0.38806853
000270 c9 a7 4a 3e 6f 3b 44 be a7 fe 6c 3e 95 f5 1c bd
       0.19790567 -0.19163297 0.23144017 -0.038320143
000280 b3 b1 ae be c7 2e bf bc b1 d2 59 3e e2 ed a9 3e
       -0.3411995 -0.023337735 0.21271779 0.33189303
000290 91 38 b1 3e 6e 8d 32 be 63 23 c3 3d 1f b1 a1 3d
       0.3461347 -0.17436764 0.09528234 0.07895111
0002a0 9a 80 6e 3e 65 3e 1a be 31 7d 92 bc c1 00 d8 bb
       0.23291245 -0.15062864 -0.017881962 -0.0065918867
0002b0 cb 67 d7 be 31 1f 22 3e f7 a4 62 be d7 90 cf 3d
       -0.42071375 0.15832211 -0.22133242 0.10135048
0002c0 5f 13 46 3d ea 10 51 3e 46 d9 cb be a4 b8 cc bb
       0.048358317 0.20416608 -0.39814204 -0.006247597
0002d0 b7 8f 24 3e 92 59 91 3e 89 06 87 3e d5 73 5a bd
       0.16070448 0.2838865 0.26372173 -0.053333122
0002e0 70 46 91 3e f4 d0 08 be 85 e0 67 3e d9 41 41 be
       0.28374052 -0.1336096 0.22644241 -0.18872775
0002f0 30 89 73 3e 2f 1a 05 bb 48 00 96 be e6 e2 ea 3d
       0.23782802 -0.0020309796 -0.2929709 0.11469059
000300 0c 7a 1a 3e fa f8 46 3d cc 92 a9 be 70 53 84 be
       0.1508562 0.048577286 -0.3311981 -0.25844908
000310 d7 be b2 3c 90 36 3b be 6c 7b 0f 3e 93 47 f3 be
       0.021819515 -0.18282533 0.14011925 -0.47515544
000320 47 47 62 3e 56 d4 2f be d5 5a 70 3e 55 14 20 3e
       0.22097503 -0.17170843 0.2347215 0.15632756
000330 e3 65 38 3d f2 48 da 3c 98 8b 4e 3e 06 89 18 3d
       0.04501904 0.026646111 0.20170438 0.03724005
000340 06 46 b2 be 9b 4b c3 3e b4 f9 88 be dd d7 91 3e
       -0.3481905 0.3814362 -0.26753008 0.28485003
000350 d6 eb 58 bd a9 c9 7e 3e d4 c6 af 3e 8a fd 1e 3e
       -0.052959286 0.24881615 0.3433138 0.15526405
000360 01 f8 70 be 54 5e 76 be 2d ff 43 3e dc c5 9a bd
       -0.23532106 -0.24059421 0.1914031 -0.0755727
000370 f5 8b ca bd c7 30 81 3c 99 ea 99 bd 6a 8f 66 3e
       -0.09889976 0.01577033 -0.07515449 0.22515646
000380 b1 d2 96 be fa 5c b2 3e cb 8e dd ba af a7 2c be
       -0.2945762 0.3483656 -0.0016903518 -0.16860841
000390 20 db 27 be 51 40 d2 bd 80 72 8f bd a0 85 fb 3e
       -0.16392183 -0.10266174 -0.07004261 0.49125385
0003a0 c2 05 67 3d e1 8e bd be 22 2f 90 bd ed 43 21 3e
       0.056401975 -0.3702307 -0.0704024 0.15748568
0003b0 21 a8 4d 3e 95 7b 16 be b9 bd f5 bd 21 18 6c 3e
       0.20083667 -0.1469558 -0.11999077 0.2305608
0003c0 6b 9f b0 be 9c a2 b4 be 3e b0 73 3d f6 be 7a 3d
       -0.34496626 -0.3528031 0.05949425 0.06121727
0003d0 da bf 5a bd fc d8 ca 3e ee 40 94 be e9 a9 0b 3f
       -0.05340562 0.3961867 -0.28955787 0.5455614
0003e0 64 39 dc be d3 b0 a1 be a4 c4 90 3e 55 8d a9 be
       -0.43012536 -0.3158022 0.28275025 -0.3311564
0003f0 87 97 a6 be b7 b6 26 bd fe d9 9a be 13 7d 59 be
       -0.3253748 -0.040701594 -0.3024444 -0.21239118

encoder.transformer_encoder.layers.0.encoderlayer.self_attn.out_proj.bias f4 [16]
000000 8d e3 df 3c ee d7 c0 bc 95 cf 14 3d 46 ad b7 3b
       0.027330184 -0.023540463 0.03633078 0.0056053726
000010 22 ca 28 bb 5d cd 49 bc b0 fb 57 bb 9d 58 19 bb
       -0.0025755246 -0.012317029 -0.0032956414 -0.0023398765
000020 f5 f9 31 bc 56 f9 11 bd 99 3b 0d 3d e8 94 da 3b
       -0.010862817 -0.035638176 0.034480665 0.006670583
000030 bc d1 06 3d bb 56 d1 3c 17 b6 98 bc d8 3a 46 3c
       0.032914862 0.025554052 -0.018641515 0.01209899
