Final_exp/cen_002/models/model__lr_0.0005_l_win_120_dff_128.pt (torch, 125811 bytes, 37 tensors)

encoder.encoder_layer.encoderlayer.self_attn.in_proj_weight f4 [69, 23]
0.24933717 0.22064188 0.16002862 -0.21167965 -0.0023307395 0.04689639 0.11328076 0.05143628
-0.15653214 0.008097189 -0.20650949 0.12806801 0.16085954 -0.09137708 -0.2235378 0.0023743953
0.1305563 -0.17424797 0.10781573 0.1778585 -0.21169904 0.14123131 0.115493685 -0.13142247
0.21433437 -0.12281192 0.194101 -0.19575025 0.20143253 -0.05741988 -0.22558716 0.13602868
-0.020917352 0.072129935 0.117644385 0.027267095 0.08156602 -0.21524797 -0.22540285 -0.11992255
-0.13351968 -0.24071449 0.039873183 -0.020261878 -0.05624203 -0.011867075 0.12272011 -0.09476356
0.016133552 -0.022811474 0.12331996 -0.027167972 0.091735944 -0.09999013 0.19782588 0.042983208
0.04296123 0.12364144 -0.25457007 0.112845086 0.20515923 0.15294428 0.16583182 -0.2051341
0.22103977 0.057097334 -0.24891677 0.2310868 0.19913855 -0.040742368 0.25042242 0.01607918
0.2048264 -0.22574908 -0.23809044 0.07115234 -0.001910348 -0.21678603 -0.14319901 0.14314759
0.16280237 -0.19369328 -0.11417342 0.0014851462 -0.00032598694 -0.18809159 0.18886165 -0.17831899
0.18167853 -0.15795565 -0.25373313 0.06362812 -0.12216567 0.17216204 -0.084668465 0.02438451
0.19009346 -0.1658583 -0.10513955 0.17388032 0.21542317 0.044511404 0.19632009 0.15448748
0.14439918 -0.0100676315 0.24656351 -0.08118411 0.017382914 -0.07708592 -0.019136785 0.15346855
0.1936141 0.03806841 0.16788305 0.17901212 0.124127954 -0.0695969 0.14900324 0.2143666
0.21125996 0.06617087 0.18846446 -0.1764238 0.04837009 -0.22436915 0.13109554 0.0117238695
-0.04912752 0.16279717 -0.039091673 0.10427067 0.13739444 -0.12668598 -0.22122295 0.02280846
-0.15616585 -0.14482352 0.12026555 0.0606852 -0.05675366 -0.092842035 -0.18885748 -0.1091286
0.016369091 -0.14919302 -0.23184922 -0.24741848 -0.24082984 -0.11747052 0.06880662 -0.11678266
0.16870843 0.13976233 -0.19981001 0.06287474 -0.109984815 0.21179965 0.19351245 0.11713345
-0.12788971 0.036927123 -0.16100776 0.03823597 0.25246036 -0.049240526 -0.14686158 -0.124486305
-0.15850234 0.12936841 -0.15062572 0.17875606 0.14909083 0.15363586 -0.012246916 -0.053311102
0.0925106 -0.038146317 0.10263014 0.057005335 0.088814355 -0.10916574 0.15833363 -0.048981972
0.14511073 -0.015742783 -0.25098172 -0.021757497 -0.081425495 -0.12661727 -0.009990945 -0.09757153
0.020008955 -0.07539635 -0.15845102 0.09375254 -0.20914698 -0.19770455 -0.04016647 -0.022235852
-0.23888287 0.1297785 0.021075565 0.107693136 -0.0025201275 -0.05574066 -0.08987114 -0.02280907
-0.20069414 0.11215412 0.07258652 0.18263555 -0.23856539 -0.026602153 -0.10014938 0.007936874
0.03899471 -0.03802369 -0.020729395 -0.042163584 0.062116615 -0.13959882 -0.029593877 0.12622483
0.17195162 0.028561696 -0.028052745 0.0427856 0.11757241 0.04697716 -0.14860788 -0.20124134
0.118796356 -0.109786816 0.095638774 -0.21942772 0.13966624 0.10736879 -0.050395668 -0.19508629
-0.02883246 0.14461821 0.19298728 -0.009461627 -0.021133378 0.20949037 0.04450026 0.24386808
0.2310296 -0.16582444 -0.18004896 -0.08476363 -0.03904914 0.23121658 -0.19208725 0.11389974
00000000: 3e52 7f3e f2ef 613e 8bde 233e 8dc2 58be
00000010: 52bf 18bb 6e16 403d beff e73d d9ae 523d
00000020: f649 20be 12aa 043c 3977 53be 4324 033e
00000030: 5db8 243e e823 bbbd 18e7 64be be9b 1b3b
00000040: 8db0 053e 0f6e 32be 7ece dc3d 8a20 363e
00000050: a2c7 58be f19e 103e f487 ec3d 9d93 06be
00000060: 787a 5b3e d184 fbbd 6ac2 463e c172 48be
00000070: 5444 4e3e 1c31 6bbd 5200 67be 1a4b 0b3e
00000080: de5a abbc dcb8 933d 8aef f03d 3e5f df3c
00000090: 160c a73d f769 5cbe 01d0 66be f499 f5bd
000000a0: 62b9 08be dc7d 76be 1052 233d 3dfc a5bc
000000b0: 0b5e 66bd 1f6e 42bc ae54 fb3d 6613 c2bd
000000c0: 832a 843c 21df babc 2d8f fc3d 5e8f debc
000000d0: 0ee0 bb3d a0c7 ccbd de92 4a3e 290f 303d
000000e0: 1df8 2f3d b937 fd3d 0257 82be 531b e73d
000000f0: 4315 523e 6d9d 1c3e d1cf 293e ac0e 52be
00000100: 4058 623e e5de 693d 0ae4 7ebe 05a2 6c3e
00000110: faea 4b3e 78e1 26bd 5e37 803e 7cb8 833c
00000120: 03be 513e c42a 67be fbcd 73be 51b8 913d
00000130: a464 faba 28fd 5dbe c3a2 12be 4895 123e
00000140: aab5 263e 8857 46be c1d3 e9bd 3da9 c23a
00000150: 3ae9 aab9 159b 40be f364 413e 4199 36be
00000160: f009 3a3e 20bf 21be 4fe9 81be 764f 823d
00000170: ff31 fabd 3f4b 303e a966 adbd 06c2 c73c
00000180: dca7 423e c2d6 29be 6853 d7bd af0d 323e
00000190: e497 5c3e 9751 363d 2208 493e f731 1e3e
000001a0: 61dd 133e b5f2 24bc 257b 7c3e db43 a6bd
000001b0: 9d66 8e3c 39df 9dbd bfc4 9cbc dc26 1d3e
000001c0: c642 463e 9fed 1b3d 89e9 2b3e f44e 373e
000001d0: cc36 fe3d d288 8ebd 4e94 183e eb82 5b3e
000001e0: 8854 583e 9884 873d d4fc 403e 71a8 34be
000001f0: b71f 463d 07c1 65be e93d 063e 7915 403c
00000200: f039 49bd 4db4 263e 971e 20bd dc8b d53d
00000210: 21b1 0c3e f8b9 01be 4588 62be cfd8 ba3c
00000220: f1e9 1fbe 9e4c 14be c94d f63d 0b91 783d
00000230: 8776 68bd f723 bebd db63 41be d17e dfbd
00000240: 7918 863c 0ec6 18be e269 6dbe 455b 7dbe
00000250: 199c 76be 6294 f0bd 7cea 8c3d bf2b efbd
00000260: e7c1 2c3e db1d 0f3e ff9a 4cbe 79c4 803d
00000270: b83f e1bd 02e2 583e 2128 463e aae3 ef3d
00000280: 85f5 02be e540 173d 38df 24be 529d 1c3d
00000290: 7c42 813e 6fb0 49bd e262 16be adf2 febd
000002a0: 704e 22be 2779 043e a13d 1abe d40b 373e
000002b0: 44ab 183e b852 1d3e 4aa7 48bc be5c 5abd
000002c0: 3376 bd3d 503f 1cbd c02f d23d 6d7e 693d
000002d0: 4de4 b53d 4a92 dfbd 3622 223e 52a1 48bd
000002e0: e897 143e 02f7 80bc ad80 80be c73c b2bc
000002f0: 69c2 a6bd f5a7 01be 10b1 23bc 95d3 c7bd
00000300: d2e9 a33c 6769 9abd fc40 22be 5501 c03d
00000310: a02a 56be 1073 4abe 9985 24bd f627 b6bc
00000320: b69d 74be a8e4 043e aaa6 ac3c 388e dc3d
00000330: b928 25bb 5150 64bd 5c0e b8bd 16da babc
00000340: c482 4dbe 0fb1 e53d 3ea8 943d d004 3b3e
00000350: 7c4a 74be c2ec d9bc 1e1b cdbd aa09 023c
00000360: ebb8 1f3d bbbe 1bbd b1d0 a9bc b9b3 2cbd
00000370: fe6d 7e3d fef2 0ebe dc6e f2bc 1541 013e
00000380: 1614 303e 38fa e93c dfce e5bc f43f 2f3d
00000390: cec9 f03d 1f6b 403d aa2c 18be 3612 4ebe
000003a0: 814b f33d e9d7 e0bd 43de c33d a9b1 60be
000003b0: ab04 0f3e 2be4 db3d b06b 4ebd b3c4 47be
000003c0: 0d32 ecbc cc16 143e 759e 453e f104 1bbc
000003d0: e81f adbc a584 563e e845 363d 8eb8 793e
000003e0: 0693 6c3e e2cd 29be c15e 38be 8e98 adbd
000003f0: fef1 1fbd 0ac4 6c3e 85b2 44be 4444 e93d

encoder.encoder_layer.encoderlayer.self_attn.in_proj_bias f4 [69]
0.0 0.0 0.0 0.0 0.0 0.0 0.0 0.0
0.0 0.0 0.0 0.0 0.0 0.0 0.0 0.0
0.0 0.0 0.0 0.0 0.0 0.0 0.0 0.0
0.0 0.0 0.0 0.0 0.0 0.0 0.0 0.0
0.0 0.0 0.0 0.0 0.0 0.0 0.0 0.0
0.0 0.0 0.0 0.0 0.0 0.0 0.0 0.0
0.0 0.0 0.0 0.0 0.0 0.0 0.0 0.0
0.0 0.0 0.0 0.0 0.0 0.0 0.0 0.0
0.0 0.0 0.0 0.0 0.0
00000000: 0000 0000 0000 0000 0000 0000 0000 0000
00000010: 0000 0000 0000 0000 0000 0000 0000 0000
00000020: 0000 0000 0000 0000 0000 0000 0000 0000
00000030: 0000 0000 0000 0000 0000 0000 0000 0000
00000040: 0000 0000 0000 0000 0000 0000 0000 0000
00000050: 0000 0000 0000 0000 0000 0000 0000 0000
00000060: 0000 0000 0000 0000 0000 0000 0000 0000
00000070: 0000 0000 0000 0000 0000 0000 0000 0000
00000080: 0000 0000 0000 0000 0000 0000 0000 0000
00000090: 0000 0000 0000 0000 0000 0000 0000 0000
000000a0: 0000 0000 0000 0000 0000 0000 0000 0000
000000b0: 0000 0000 0000 0000 0000 0000 0000 0000
000000c0: 0000 0000 0000 0000 0000 0000 0000 0000
000000d0: 0000 0000 0000 0000 0000 0000 0000 0000
000000e0: 0000 0000 0000 0000 0000 0000 0000 0000
000000f0: 0000 0000 0000 0000 0000 0000 0000 0000
00000100: 0000 0000 0000 0000 0000 0000 0000 0000
00000110: 0000 0000

encoder.encoder_layer.encoderlayer.self_attn.out_proj.weight f4 [23, 23]
0.02786722 -0.15741329 0.137085 -0.2346545 -0.19906205 -0.34781262 -0.18499619 -0.31020424
0.30947056 -0.15700372 0.061276566 -0.16232783 -0.08274111 0.2638306 0.07350191 0.17437364
0.11800644 -0.2943506 0.21689518 0.29261786 0.107933685 0.28769588 -0.17208242 -0.23629415
-0.2900821 -0.057105646 -0.035716876 -0.20527878 -0.12351163 -0.116307385 0.34831107 -0.025790455
0.29278934 0.034789767 0.12869327 0.20812103 -0.33241782 -0.16279125 -0.27447665 0.3508523
0.13253444 -0.15137196 -0.27235472 0.19999881 0.08383238 -0.17767875 -0.26210853 -0.18848062
0.08794716 -0.3040761 -0.03811047 0.21436192 0.19290517 0.038978424 0.038371503 0.084385484
0.14105108 0.2850524 0.09810125 0.19854192 0.25175336 -0.28015715 -0.19276516 0.19828993
0.07235819 -0.20847175 0.10672246 -0.32832694 -0.1343792 0.18211824 -0.009516208 -0.24406485
0.17851967 0.02509721 -0.051685616 -0.34732887 -0.13027565 0.039889004 -0.19626355 0.060780376
-0.25656 0.27868447 0.27809998 0.21272373 -0.042905018 -0.35990506 -0.1410237 -0.029258573
-0.3328633 0.28433806 0.10280306 0.2740017 -0.32312274 -0.18543391 0.0813956 -0.0055039385
-0.21004319 0.2640725 0.1489378 -0.017221808 0.3441821 -0.35222057 -0.32804817 0.07202789
0.327759 0.20416994 -0.19874401 0.25910583 0.18765004 0.020530285 0.22849353 0.071472846
0.0004743186 -0.09999926 -0.19187637 -0.22765838 -0.04747612 -0.24698925 0.1530715 0.10198419
-0.35212842 -0.2656557 0.258096 -0.18933518 -0.0037249317 -0.2313249 -0.078987375 0.17811993
0.09179669 0.17726721 -0.021028843 -0.28815526 -0.004545399 0.21411423 0.08447754 0.074692026
0.07111214 0.29632533 0.18219298 -0.05906905 -0.19594133 0.29388362 -0.18788782 -0.24143153
0.112816535 -0.23062575 -0.31163284 -0.2924541 0.089057334 -0.22695287 0.31949034 -0.014493648
-0.15338711 -0.22145763 -0.10796851 0.31507748 -0.23053667 -0.33438927 0.10745691 0.122465946
-0.30599514 -0.16211382 0.3130454 -0.1707122 0.1515291 -0.17336485 -0.3188335 -0.34839603
0.27548942 0.110720396 0.10270942 0.12430467 0.13918541 0.23842865 0.27708414 0.27849954
0.116052985 0.064498976 0.077531785 -0.29251495 0.1610287 0.08906487 0.15698594 -0.08911847
0.29997563 0.043385062 -0.08560626 -0.010208462 -0.14415325 -0.053065088 0.3065334 0.11979763
-0.040364485 0.013638866 0.08249859 -0.20842671 -0.19809671 0.31845602 0.001968054 0.10748873
-0.16620052 -0.2654718 0.071644716 0.19506611 -0.34016016 -0.35719275 -0.12044903 0.23355497
-0.32270446 0.28853482 0.32661355 -0.08105187 0.02306914 -0.014916044 0.35186127 0.040134147
0.08824798 -0.12357384 -0.004411116 -0.1915247 0.018157443 -0.050114904 0.06731312 0.07021448
-0.2954983 0.24128562 0.19865791 0.25440648 0.26597586 0.09318688 0.19743016 0.17801595
0.21533462 -0.21748802 0.17111686 -0.028936837 0.13969512 0.13275763 -0.26920012 -0.1642949
-0.25710893 -0.09601867 0.116563894 0.08424152 0.28675747 -0.26075172 0.113018885 0.29538295
-0.278226 -0.27185297 0.08691832 -0.14658292 0.09236082 -0.1745573 0.046527784 -0.30612063
00000000: cc49 e43c f330 21be 0360 0c3e 4549 70be
00000010: ecd6 4bbe 7f14 b2be a46f 3dbe 17d3 9ebe
00000020: ed72 9e3e 95c5 20be 23fd 7a3d 4439 26be
00000030: 2c74 a9bd ce14 873e 2b88 963d 018f 323e
00000040: 5cad f13d 1fb5 96be c519 5e3e 02d2 953e
00000050: 560c dd3d e04c 933e 6036 30be 18f7 71be
00000060: a485 94be 9ce7 69bd dc4b 12bd 9a34 52be
00000070: aaf3 fcbd 9132 eebd d455 b23e 8146 d3bc
00000080: 7ce8 953e b77f 0e3d 2bc8 033e ae1d 553e
00000090: ab32 aabe c0b2 26be 3488 8cbe eaa2 b33e
000000a0: 1cb7 073e 4001 1bbe 1472 8bbe 7dcc 4c3e
000000b0: 50b0 ab3d 6bf1 35be 1733 86be 1001 41be
000000c0: a41d b43d ddaf 9bbe b919 1cbd b181 5b3e
000000d0: ef88 453e d7a7 1f3d 702b 1d3d 4cd2 ac3d
000000e0: b26f 103e 63f2 913e 4fe9 c83d 934e 4b3e
000000f0: d1e5 803e c270 8fbe 3b64 45be 840c 4b3e
00000100: 8830 943d 9e79 55be 4e91 da3d 781a a8be
00000110: b39a 09be 347d 3a3e dfe9 1bbc 23ec 79be
00000120: dccd 363e aa98 cd3c 4cb4 53bd 17d5 b1be
00000130: fb66 05be a762 233d 50f9 48be d8f4 783d
00000140: d55b 83be bbaf 8e3e 1f63 8e3e 40d4 593e
00000150: 2cbd 2fbd 7a45 b8be 8468 10be adaf efbc
00000160: 0f6d aabe c294 913e 698a d23d f349 8c3e
00000170: 5870 a5be 63e2 3dbe bdb2 a63d 625a b4bb
00000180: 9015 57be 8334 873e 2783 183e c014 8dbc
00000190: a338 b03e 4156 b4be eef5 a7be 5c83 933d
000001a0: 07d0 a73e ed11 513e 8d83 4bbe 85a9 843e
000001b0: 5527 403e 212f a83c 35fa 693e 5b60 923d
000001c0: f7ad f839 69cc ccbd 3d7b 44be 471f 69be
000001d0: 5276 42bd c0ea 7cbe c6be 1c3e 16dd d03d
000001e0: 2d4a b4be 0604 88be 2925 843e 15e1 41be
000001f0: fc1d 74bb 6fe0 6cbe 22c4 a1bd 1265 363e
00000200: e7ff bb3d 8985 353e ae44 acbc 1689 93be
00000210: 92f1 94bb c340 5b3e 8f02 ad3d 22f8 983d
00000220: 3ea3 913d f4b7 973e cc90 3a3e 63f2 71bd
00000230: d8a4 48be ea77 963e aa65 40be d439 77be
00000240: 5b0c e73d 2829 6cbe 578e 9fbe 8bbc 95be
00000250: b163 b63d 5566 68be 3d94 a33e c476 6dbc
00000260: 8311 1dbe cac5 62be 981e ddbd d651 a13e
00000270: ce11 6cbe 1235 abbe 5e12 dc3d 6dcf fa3d
00000280: 65ab 9cbe 2a01 26be 7d47 a03e 2ecf 2ebe
00000290: 722a 1b3e 8e86 31be 253e a3be f760 b2be
000002a0: f30c 8d3e 60c1 e23d 5159 d23d 7293 fe3d
000002b0: 9f86 0e3e a426 743e f9dd 8d3e 7e97 8e3e
000002c0: 30ad ed3d 0a18 843d fcc8 9e3d 85c4 95be
000002d0: b5e4 243e a467 b63d ecc0 203e bf83 b6bd
000002e0: 6896 993e 89b4 313d 5652 afbd 6541 27bc
000002f0: e99c 13be c75a 59bd f2f1 9c3e 7658 f53d
00000300: 3b55 25bd 8d75 5f3c 05f5 a83d d06d 55be
00000310: ddd9 4abe ab0c a33e 78fa 003b 0d23 dc3d
00000320: 7830 2abe ebeb 87be 77ba 923d 69bf 473e
00000330: 7929 aebe f8e1 b6be fbad f6bd 0929 6f3e
00000340: 8539 a5be d6ba 933e e439 a73e 86fe a5bd
00000350: 7efb bc3c 6c62 74bc 2927 b43e b463 243d
00000360: 5bbb b43d 4814 fdbd 1f8b 90bb 0d1f 44be
00000370: ebbe 943c 4945 4dbd 76db 893d 9ccc 8f3d
00000380: 8e4b 97be 9413 773e fb6c 4b3e 9141 823e
00000390: fd2d 883e c3d8 be3d 222b 4a3e d049 363e
000003a0: ae80 5c3e 2eb5 5ebe 4239 2f3e f20c edbc
000003b0: 3d0c 0f3e 9ef1 073e 99d4 89be ec3c 28be
000003c0: c8a3 83be 70a5 c4bd 0db9 ee3d d186 ac3d
000003d0: e0d1 923e 4081 85be 7276 e73d 6f3c 973e
000003e0: a373 8ebe 5030 8bbe 3b02 b23d d519 16be
000003f0: ab27 bd3d 26bf 32be eb93 3e3d d8bb 9cbe

encoder.encoder_layer.encoderlayer.self_attn.out_proj.bias f4 [23]
0.0 0.0 0.0 0.0 0.0 0.0 0.0 0.0
0.0 0.0 0.0 0.0 0.0 0.0 0.0 0.0
0.0 0.0 0.0 0.0 0.0 0.0 0.0
00000000: 0000 0000 0000 0000 0000 0000 0000 0000
00000010: 0000 0000 0000 0000 0000 0000 0000 0000
00000020: 0000 0000 0000 0000 0000 0000 0000 0000
00000030: 0000 0000 0000 0000 0000 0000 0000 0000
00000040: 0000 0000 0000 0000 0000 0000 0000 0000
00000050: 0000 0000 0000 0000 0000 0000

encoder.encoder_layer.encoderlayer.linear1.weight f4 [128, 23]
-0.006108983 0.01351943 -0.19019029 -0.018515673 0.09670511 0.19249755 0.01857318 0.12661715
0.02770802 -0.15731438 -0.006717334 -0.06811905 -0.027069965 -0.07753572 0.14901564 -0.16272509
-0.11981721 -0.06189565 0.16700658 -0.040790714 0.081341945 0.09773018 0.17061603 -0.045800526
0.037237298 -0.097291455 -0.01515179 -0.17082778 -0.1626471 0.054218017 -0.15277386 0.10418428
0.14733145 0.06994408 0.07630723 -0.18110755 -0.09218058 -0.14392722 -0.18901485 0.08474269
0.045642905 0.18966465 -0.054919563 -0.1319805 -0.17159365 0.012275282 -0.10924491 0.035363864
0.13185729 0.170437 -0.032510526 -0.12962115 -0.108241126 0.12659177 0.051585574 0.012621577
-0.1936724 0.10736884 0.12610357 0.020571867 -0.03591913 -0.09459269 0.0016281069 0.009902901
0.056231316 -0.0084484285 0.18898635 0.12849289 0.04500395 -0.17697093 -0.09517884 0.07799947
-0.12882343 0.055573825 0.04895216 -0.1253237 0.039541386 -0.025781214 0.14847185 -0.04397721
0.17396002 0.17319009 -0.0660889 0.033447918 -0.054490313 0.1596233 0.095572144 0.0005464251
0.12054992 -0.16005665 -0.05097651 0.040690314 -0.18885326 0.17422841 0.016377237 0.17610195
-0.058016613 0.01186882 -0.054977782 -0.08172678 -0.07386546 0.1378643 0.17910385 0.057361238
0.11130871 0.086710006 0.00024984186 -0.1483748 0.05000604 -0.06849579 0.07632275 -0.1297046
-0.013548753 -0.07835366 -0.18440476 -0.18428557 0.18391213 -0.00021685913 -0.17183693 0.032686178
-0.012510153 0.164217 0.1878654 -0.05123574 -0.11961252 -0.114234746 -0.053001717 -0.109422304
0.179671 -0.07619341 0.1027005 0.09021031 0.046606608 0.097176395 0.16879791 0.084814094
0.08771313 -0.16725469 -0.01766556 0.0046026367 0.15611298 0.085177116 0.15502405 0.15418394
-0.09298188 0.02827923 0.19007382 0.07046995 0.11270682 0.08102507 -0.06257408 0.047600318
-0.13773307 0.18390016 0.011405398 0.15447122 -0.14012644 -0.1831222 0.023867598 -0.025538977
-0.08063141 0.104442716 -0.12967227 0.17467606 -0.19459498 0.04088011 -0.116551824 0.04324429
0.19686057 -0.023925982 0.046349302 -0.07844671 -0.10228869 -0.17027369 0.115057126 -0.002213812
0.06902935 -0.15330854 -0.16596021 -0.18125422 -0.11487465 -0.025918705 -0.03007705 0.087648965
-0.095782086 0.19423085 -0.090839095 -0.18745612 0.15079074 -0.12810788 0.018997345 -0.019244976
-0.041580684 0.0001291507 -0.1960202 0.17925052 -0.12940504 0.121536426 -0.117871635 -0.04908568
-0.0047142743 -0.07856752 -0.08635848 -0.1677879 -0.1369115 -0.009352793 -0.058270827 -0.027994005
0.050850783 -0.025555065 -0.18869977 -0.07331215 0.061013125 0.07174138 0.09646071 0.011038643
0.1362822 -0.13640827 -0.16728318 -0.053148262 0.001344308 0.14473262 -0.11495537 -0.13960664
-0.005392797 0.050691262 -0.18181041 -0.080353886 -0.1565885 0.046583366 0.018595159 -0.1772589
-0.13273568 0.00921763 -0.052822333 -0.15418018 -0.060404323 -0.18306725 -0.02276144 -0.023234842
0.010448898 0.016930839 -0.034721985 0.15907872 -0.0713693 0.09008275 0.07525953 -0.024433058
-0.14608176 -0.16796248 0.055177744 0.060944285 0.12089897 -0.08823541 0.160941 0.19931158
00000000: dd2d c8bb 9980 5d3c 3ec1 42be 2eae 97bc
00000010: 540d c63d 141e 453e c826 983c eda7 013e
00000020: eefb e23c 0517 21be 151d dcbb 0082 8bbd
00000030: d5c1 ddbc 0ccb 9ebd 8e97 183e 68a1 26be
00000040: ba62 f5bd 4b86 7dbd c603 2b3e 2a14 27bd
00000050: 9b96 a63d c326 c83d f8b5 2e3e 5599 3bbd
00000060: 2386 183d be40 c7bd 373f 78bc 7aed 2ebe
00000070: f68c 26be b613 5e3d c070 1cbe 915e d53d
00000080: 0ede 163e d83e 8f3d f746 9c3d 4274 39be
00000090: 2cc9 bcbd a861 13be 1c8d 41be 938d ad3d
000000a0: 0ef4 3a3d 7337 423e 56f3 60bd e525 07be
000000b0: 3fb6 2fbe 441e 493c ccbb dfbd b3d9 103d
000000c0: 9905 073e 0987 2e3e c229 05bd 68bb 04be
000000d0: 86ad ddbd 46a1 013e 654b 533d bbca 4e3c
000000e0: 0f52 46be 32e4 db3d 4b21 013e 5586 a83c
000000f0: f01f 13bd d0b9 c1bd 3466 d53a c73f 223c
00000100: cf52 663d 476b 0abc a385 413e a493 033e
00000110: 1056 383d de37 35be 20ed c2bd 30be 9f3d
00000120: 4aea 03be 61a1 633d 0f82 483d db54 00be
00000130: 26f6 213d 2033 d3bc 0109 183e 7221 34bd
00000140: 9322 323e be58 313e 9e59 87bd af00 093d
00000150: 3c31 5fbd 4a74 233e 54bb c33d f83d 0f3a
00000160: e0e2 f63d e4e5 23be bfcc 50bd e3aa 263d
00000170: c062 41be ef68 323e 8e29 863c 1254 343e
00000180: d4a2 6dbd 7075 423c 6230 61bd 5f60 a7bd
00000190: c646 97bd 4d2c 0d3e 0067 373e 9ef3 6a3d
000001a0: d2f5 e33d 0495 b13d 35fd 8239 90ef 17be
000001b0: 22d3 4c3d 8547 8cbd 1a4f 9c3d 48d1 04be
000001c0: 97fb 5dbc e277 a0bd 9ad4 3cbe 5bb5 3cbe
000001d0: 7653 3c3e ae64 63b9 05f6 2fbe f1e1 053d
000001e0: 63f7 4cbc 8028 283e ca5f 403e 91dc 51bd
000001f0: 69f7 f4bd e8f3 e9bd 5418 59bd cd18 e0bd
00000200: adfb 373e 4a0b 9cbd a454 d23d 2fc0 b83d
00000210: 92e6 3e3d 6b04 c73d 5cd9 2c3e 03b3 ad3d
00000220: f1a2 b33d d044 2bbe 5db7 90bc b7d1 963b
00000230: 15dc 1f3e 5771 ae3d a0be 1e3e 65e2 1d3e
00000240: 496d bebd d8a9 e73c b6a2 423e 8d52 903d
00000250: d5d2 e63d 79f0 a53d d726 80bd 8df8 423d
00000260: e609 0dbe 5350 3c3e b5dd 3a3c b42d 1e3e
00000270: 4e7d 0fbe 6384 3bbe fb85 c33c 1e37 d1bc
00000280: 1522 a5bd 10e6 d53d cfc8 04be 48de 323e
00000290: e843 47be e771 273d b9b2 eebd ed20 313d
000002a0: d195 493e 6c00 c4bc c4d8 3d3d aba8 a0bd
000002b0: bc7c d1bd 3a5c 2ebe 12a3 eb3d 9a15 11bb
000002c0: 435f 8d3d eafc 1cbe 79f1 29be b59a 39be
000002d0: 6743 ebbd 7753 d4bc 2564 f6bc 4d81 b33d
000002e0: 6629 c4bd 74e4 463e d909 babd 7ff4 3fbe
000002f0: e368 1a3e b62e 03be 52a0 9b3c a4a7 9dbc
00000300: 8250 2abd a16c 0739 85b9 48be 738d 373e
00000310: c182 04be 17e8 f83d af66 f1bd 110e 49bd
00000320: 337a 9abb 02e8 a0bd b7dc b0bd 97d0 2bbe
00000330: 8732 0cbe 753c 19bc 64ad 6ebd af53 e5bc
00000340: e948 503d db58 d1bc 833a 41be ae24 96bd
00000350: e6e8 793d 25ed 923d 318d c53d 6ddb 343c
00000360: 908d 0b3e 9cae 0bbe 484c 2bbe feb1 59bd
00000370: 7e33 b03a ca34 143e b96d ebbd 0bf5 0ebe
00000380: 0fb6 b0bb a4a1 4f3d 822c 3abe 9490 a4bd
00000390: bc58 20be 33ce 3e3d e054 983c 5b83 35be
000003a0: ddeb 07be 8b05 173c 3b5c 58bd 69e1 1dbe
000003b0: 866a 77bd fb75 3bbe 3376 babc ff56 bebc
000003c0: db31 2b3c 8bb2 8a3c a438 0ebd 88e5 223e
000003d0: 112a 92bd 4e7d b83d ab21 9a3d d627 c8bc
000003e0: 7596 15be 5bfe 2bbe 0f02 623d b7a0 793d
000003f0: e199 f73d c4b4 b4bd b8cd 243e 5618 4c3e

encoder.encoder_layer.encoderlayer.linear1.bias f4 [128]
0.010126856 0.021654248 -0.17611831 -0.07205992 0.010454843 0.09527157 0.04045826 -0.04527189
0.001407768 0.17924485 0.13909234 0.07114899 -0.15027142 -0.07011102 0.13312416 0.18769972
-0.098575324 0.08859878 -0.048825473 0.13227369 -0.031331122 -0.16574958 -0.20639744 -0.007812509
0.06147115 -0.12291806 0.16405362 0.09890458 0.1257406 0.096068166 -0.20110998 -0.038231805
0.10831016 0.103219755 -0.18972066 -0.118193395 0.15198296 -0.172636 0.15803264 -0.0402297
0.015297306 0.10169866 0.05613257 -0.13366632 0.067919016 -0.17902349 -0.10522662 -0.03662687
-0.041709878 0.15178753 -0.11382483 0.17496797 0.09712311 0.067852676 0.14849769 -0.14240049
-0.1796627 0.0077781077 0.102790944 0.10525518 0.0086711645 0.1994245 0.07408193 0.09009755
-0.101064414 0.06360484 -0.07805134 -0.16844434 -0.13564576 -0.12588963 -0.031440318 -0.08733185
0.19156374 0.08621058 -0.17335503 0.008775439 0.17980891 -0.008406339 0.033840742 0.056925826
-0.06880089 -0.1350003 -0.078146145 -0.05440313 0.16407922 -0.1694961 0.028033238 -0.07970793
-0.022184692 -0.018524174 -0.080883436 0.048114344 0.049279682 -0.11974096 0.12811531 0.18809766
-0.0863641 0.042500574 -0.07720974 0.1429327 -0.016167842 -0.18591431 0.048521224 0.17279248
0.0008144597 -0.053399507 -0.005720507 0.11807041 0.1788321 -0.05218294 0.11107666 0.11618367
0.18629295 0.14938281 -0.17221756 -0.17226526 -0.17303878 0.13102251 -0.105885826 0.115178265
-0.031046906 -0.08591921 0.15690419 -0.040272802 -0.112530656 -0.031956594 -0.13261698 -0.20077436
00000000: 1deb 253c 4064 b13c 5c58 34be 2794 93bd
00000010: ca4a 2b3c be1d c33d 8fb7 253d 046f 39bd
00000020: db84 b83a f68b 373e 396e 0e3e 90b6 913d
00000030: c0e0 19be 5e96 8fbd b351 083e 5b34 403e
00000040: dce1 c9bd 4773 b53d 38fd 47bd c172 073e
00000050: 1055 00bd 42ba 29be da59 53be 0a00 00bc
00000060: 2cc9 7b3d 77bc fbbd acfd 273e 7c8e ca3d
00000070: 25c2 003e 63bf c43d c6ef 4dbe f498 1cbd
00000080: b8d1 dd3d e164 d33d 2246 42be 610f f2bd
00000090: 6ca1 1b3e 7ec7 30be 4fd3 213e e6c7 24bd
000000a0: 8da1 7a3c 6347 d03d 44eb 653d d3df 08be
000000b0: 2019 8b3d ef51 37be 0e81 d7bd 0f06 16bd
000000c0: fad7 2abd 316e 1b3e fe1c e9bd ce2a 333e
000000d0: 7be8 c63d 58f6 8a3d c70f 183e 6fd1 11be
000000e0: 80f9 37be 7fdf fe3b 0f84 d23d 0790 d73d
000000f0: 8011 0e3c f035 4c3e 44b8 973d 1085 b83d
00000100: dcfa cebd 4143 823d 62d9 9fbd ac7c 2cbe
00000110: b9e6 0abe 36e9 00be 90c7 00bd 0adb b2bd
00000120: 4929 443e 2c8f b03d fb83 31be dcc6 0f3c
00000130: d41f 383e beba 09bc 979c 0a3d 0e2b 693d
00000140: 7be7 8cbd 853d 0abe 160b a0bd d1d5 5ebd
00000150: 6204 283e 6390 2dbe f6a5 e53c e93d a3bd
00000160: acbc b5bc 02c0 97bc 37a6 a5bd 8c13 453d
00000170: 7ed9 493d c03a f5bd a930 033e ac9c 403e
00000180: a9df b0bd 1515 2e3d 2420 9ebd f35c 123e
00000190: 6c72 84bc 5260 3ebe 31be 463d 83f0 303e
000001a0: 7781 553a 71b9 5abd 1773 bbbb e6ce f13d
000001b0: c31f 373e c7bd 55bd 297c e33d b4f1 ed3d
000001c0: 94c3 3e3e cff7 183e cd59 30be 4e66 30be
000001d0: 1431 31be c42a 063e abda d8bd 95e2 eb3d
000001e0: 1556 febc 69f6 afbd 7eab 203e 18f5 24bd
000001f0: 7976 e6bd ebe4 02bd bfcc 07be cb97 4dbe

encoder.encoder_layer.encoderlayer.linear2.weight f4 [23, 128]
-0.09098997 -0.04441632 0.077755265 0.17718995 -0.036654517 0.0052125086 0.08390695 -0.12815873
-0.15952793 0.011515443 0.035532914 -0.15399368 0.19398154 0.06932 -0.121172234 0.15371163
0.056026958 0.015356245 0.01829311 -0.13312875 -0.016044606 0.15486774 -0.09931366 0.09238672
0.12656209 0.19669983 -0.16014282 0.054570798 0.065534584 -0.06742725 0.11748316 0.07714781
0.16948467 -0.14249605 0.053992197 -0.14428233 0.052887704 0.12735046 -0.17002794 0.15444258
0.11420071 -0.01813554 0.18441491 0.001207577 -0.14589132 -0.14107974 0.12918305 -0.163761
-0.06693177 0.16011901 0.10248759 0.18220419 0.06906112 0.0046439124 0.09253462 -0.090128325
0.119089074 -0.09739453 -0.062899366 -0.055508215 -0.10886904 -0.0038933177 -0.042927105 -0.037607905
0.12794912 0.15216641 -0.10473588 0.18958431 0.13958581 -0.05487268 0.14231253 -0.06539562
0.1850988 -0.010509969 0.15044746 0.16266322 0.1370433 0.07819459 0.028102292 -0.15962479
0.0022692028 0.124382 0.18990606 0.07122748 -0.12262067 -0.0038176095 -0.082926564 -0.001514402
-0.12771253 -0.018919094 -0.0014227252 0.11670294 -0.08652304 -0.14916681 -0.009816167 0.19167253
0.09240946 0.10778205 -0.19418842 -0.0019741643 -0.042011335 0.03661502 0.14990593 0.188217
0.082089 0.13083975 -0.048038125 -0.01939321 -0.18494824 -0.1390922 -0.16226302 0.11743148
0.096004345 -0.16104081 0.15897126 -0.1882118 0.019956268 -0.18103911 0.16322836 -0.09243011
-0.12804589 0.09343349 -0.042745557 0.12850729 0.18606302 0.1417067 0.024823884 -0.01667439
-0.14281042 -0.11672648 -0.1186012 0.12086491 0.00828696 -0.13228849 0.1793289 -0.06292422
0.19569921 0.18960683 0.034439374 -0.16340293 0.06569529 0.0043153446 -0.09803625 -0.11928609
-0.13887121 0.030775866 0.08315987 0.033619106 0.11534639 -0.07277822 -0.07189115 0.19515033
-0.15114057 -0.18366992 0.1939802 0.12353485 -0.033342198 0.060948633 -0.062729724 -0.027615868
0.027634593 -0.06848039 0.014003549 -0.0748847 -0.16497996 0.09293433 -0.14625134 -0.1947551
0.039442603 0.1458392 0.06919805 -0.14104562 0.12005456 -0.0577158 -0.024628364 0.118674695
0.07833593 -0.07027222 0.12111373 -0.053117536 -0.053612135 0.1374794 -0.045087405 -0.003985707
0.18648542 0.19173858 0.046943754 0.14992236 -0.02811933 -0.0917279 0.18644826 0.10460708
0.13628359 -0.096509896 0.10434201 0.16316846 0.019069416 0.13286467 -0.1808694 0.07883464
-0.049230706 0.18112889 0.07195201 0.19738375 -0.06929277 0.018332249 0.1418944 -0.14415969
-0.06952623 -0.15950787 -0.14965697 0.08829123 -0.060202885 0.13035506 0.018403228 0.070200786
0.021223847 -0.18680964 -0.030055331 -0.10946876 -0.07896578 0.16039185 -0.1542476 -0.145548
-0.063924804 -0.08846498 0.049202476 0.12790573 0.031282775 0.0035105469 0.095746204 0.11903789
0.0070094736 -0.13460669 -0.1727267 0.19892287 0.064832896 0.18249546 -0.07650805 0.05480781
-0.1049703 -0.10494211 -0.0912151 0.19922382 0.14533135 -0.12267198 -0.14062001 0.06575047
-0.04700385 0.009533057 0.02545084 -0.17454201 0.044028368 -0.0017418117 -0.13951086 -0.19712935
00000000: f358 babd e3ed 35bd 273e 9f3d 4871 353e
00000010: 0c23 16bd b1cd aa3b 68d7 ab3d 0b3c 03be
00000020: 4a5b 23be 45ab 3c3c f68a 113d 85b0 1dbe
00000030: 19a3 463e a5f7 8d3d 2629 f8bd 9566 1d3e
00000040: 867c 653d c398 7b3c 6fdb 953c e752 08be
00000050: fa6f 83bc a695 1e3e f664 cbbd 4035 bd3d
00000060: 7e99 013e ae6b 493e 7bfc 23be a185 5f3d
00000070: ff36 863d 4c17 8abd 039b f03d acff 9d3d
00000080: 648d 2d3e 7cea 11be ec26 5d3d bfbe 13be
00000090: c7a0 583d 2968 023e ce1b 2ebe 3226 1e3e
000000a0: 10e2 e93d fc90 94bc 43d7 3c3e 8f47 9e3a
000000b0: 8964 15be 3577 10be 9048 043e f7b0 27be
000000c0: 8613 89bd 3df6 233e 03e5 d13d bc93 3a3e
000000d0: eb6f 8d3d f62b 983b ca82 bd3d 3395 b8bd
000000e0: f9e4 f33d c976 c7bd 62d1 80bd 955c 63bd
000000f0: bbf6 debd 0827 7fbb 55d4 2fbd bf0a 1abd
00000100: 1805 033e 83d1 1b3e c47f d6bd 6422 423e
00000110: 95ef 0e3e 2dc2 60bd 60ba 113e 24ee 85bd
00000120: 8a8a 3d3e 0132 2cbc e60e 1a3e 3091 263e
00000130: 1455 0c3e 7c24 a03d c736 e63c ae74 23be
00000140: e8b6 143b fdbb fe3d bc76 423e b7df 913d
00000150: 8c20 fbbd dc30 7abb 67d5 a9bd e67e c6ba
00000160: 13c7 02be 37fc 9abc bc7a baba f301 ef3d
00000170: fe32 b1bd 2fbf 18be fdd3 20bc ce45 443e
00000180: 2c41 bd3d d6bc dc3d 54d9 46be fb60 01bb
00000190: 1414 2cbd a2f9 153d f180 193e f5bb 403e
000001a0: 471e a83d dbfa 053e a0c3 44bd 82de 9ebc
000001b0: 1263 3dbe 306e 0ebe 4728 26be ea7f f03d
000001c0: ed9d c43d e2e7 24be 5dc9 223e 98ba 40be
000001d0: 547b a33c 5162 39be 5625 273e ff4b bdbd
000001e0: 761e 03be 0f5a bf3d f715 2fbd 6a97 033e
000001f0: 4e87 3e3e 901b 113e 755b cb3c bb98 88bc
00000200: e53c 12be 4b0e efbd 30e5 f2bd 0688 f73d
00000210: 08c6 073c a276 07be ffa1 373e 6ade 80bd
00000220: 6065 483e 4b28 423e 4d10 0d3d 1953 27be
00000230: 418b 863d bc67 8d3b 3bc7 c8bd 444c f4bd
00000240: 4134 0ebe ab1d fc3c b94f aa3d 30b4 093d
00000250: ba3a ec3d bf0c 95bd ab3b 93bd 7dd5 473e
00000260: 98c4 1abe f813 3cbe bfa2 463e d7ff fc3d
00000270: d491 08bd 46a5 793d 7178 80bd ac3a e2bc
00000280: f161 e23c 723f 8cbd 246f 653c 265d 99bd
00000290: 82f0 28be 5b54 be3d e9c2 15be e26d 47be
000002a0: 918e 213d df56 153e b5b7 8d3d 436e 10be
000002b0: 2adf f53d 6767 6cbd 6cc1 c9bc b80b f33d
000002c0: 976e a03d e2ea 8fbd 7a0a f83d c691 59bd
000002d0: 6698 5bbd 66c7 0c3e 92ad 38bd 899a 82bb
000002e0: 09f6 3e3e 1e57 443e 1848 403d 3f85 193e
000002f0: 825a e6bc d6db bbbd 4bec 3e3e 3d3c d63d
00000300: ed8d 0b3e fba6 c5bd 44b1 d53d a215 273e
00000310: 7737 9c3c ad0d 083e d435 39be 0e74 a13d
00000320: 23a6 49bd da79 393e 935b 933d f71e 4a3e
00000330: 5ee9 8dbd 832d 963c c44c 113e 999e 13be
00000340: c563 8ebd 0856 23be ad3f 19be 08d2 b43d
00000350: 4d97 76bd cc7b 053e 5ec2 963c 6ec5 8f3d
00000360: a2dd ad3c 074b 3fbe 9936 f6bc 2831 e0bd
00000370: d0b8 a1bd c33d 243e 15f3 1dbe 890a 15be
00000380: 02eb 82bd 212d b5bd 8988 493d b8f9 023e
00000390: 5e22 003d 3411 663b 9616 c43d 23ca f33d
000003a0: baaf e53b 56d6 09be 45df 30be 70b2 4b3e
000003b0: 1cc7 843d 17e0 3a3e 41b0 9cbd 277e 603d
000003c0: abfa d6bd e4eb d6bd fbce babd 5401 4c3e
000003d0: bed1 143e 723b fbbd b1fe 0fbe 2fa8 863d
000003e0: 1c87 40bd 8a30 1c3c 487e d03c 24bb 32be
000003f0: 1757 343d 814d e4ba efdb 0ebe 47dc 49be

encoder.encoder_layer.encoderlayer.linear2.bias f4 [23]
0.0835924 -0.06611703 -0.018634364 -0.07132492 0.059259165 0.046894975 0.064467736 0.02482521
-0.01457498 -0.008624435 -0.06585642 0.056092754 -0.035460357 0.009700424 0.0030060292 0.026720006
-0.071003206 -0.014000045 0.040777277 -0.06533321 -0.037970465 -0.048670378 -0.07478644
00000000: 7e32 ab3d 5e68 87bd 18a7 98bc cd12 92bd
00000010: bdb9 723d f214 403d a907 843d 3d5e cb3c
00000020: e6cb 6ebc 814d 0dbc bbdf 86bd 84c1 653d
00000030: e13e 11bd 87ee 1e3c cd00 453b eae3 da3c
00000040: 216a 91bd 7260 65bc 1306 273d 6bcd 85bd
00000050: eb86 1bbd 975a 47bd a229 99bd

encoder.encoder_layer.encoderlayer.norm1.weight f4 [23]
1.0 1.0 1.0 1.0 1.0 1.0 1.0 1.0
1.0 1.0 1.0 1.0 1.0 1.0 1.0 1.0
1.0 1.0 1.0 1.0 1.0 1.0 1.0
00000000: 0000 803f 0000 803f 0000 803f 0000 803f
00000010: 0000 803f 0000 803f 0000 803f 0000 803f
00000020: 0000 803f 0000 803f 0000 803f 0000 803f
00000030: 0000 803f 0000 803f 0000 803f 0000 803f
00000040: 0000 803f 0000 803f 0000 803f 0000 803f
00000050: 0000 803f 0000 803f 0000 803f

encoder.encoder_layer.encoderlayer.norm1.bias f4 [23]
0.0 0.0 0.0 0.0 0.0 0.0 0.0 0.0
0.0 0.0 0.0 0.0 0.0 0.0 0.0 0.0
0.0 0.0 0.0 0.0 0.0 0.0 0.0
00000000: 0000 0000 0000 0000 0000 0000 0000 0000
00000010: 0000 0000 0000 0000 0000 0000 0000 0000
00000020: 0000 0000 0000 0000 0000 0000 0000 0000
00000030: 0000 0000 0000 0000 0000 0000 0000 0000
00000040: 0000 0000 0000 0000 0000 0000 0000 0000
00000050: 0000 0000 0000 0000 0000 0000

encoder.encoder_layer.encoderlayer.norm2.weight f4 [23]
1.0 1.0 1.0 1.0 1.0 1.0 1.0 1.0
1.0 1.0 1.0 1.0 1.0 1.0 1.0 1.0
1.0 1.0 1.0 1.0 1.0 1.0 1.0
00000000: 0000 803f 0000 803f 0000 803f 0000 803f
00000010: 0000 803f 0000 803f 0000 803f 0000 803f
00000020: 0000 803f 0000 803f 0000 803f 0000 803f
00000030: 0000 803f 0000 803f 0000 803f 0000 803f
00000040: 0000 803f 0000 803f 0000 803f 0000 803f
00000050: 0000 803f 0000 803f 0000 803f

encoder.encoder_layer.encoderlayer.norm2.bias f4 [23]
0.0 0.0 0.0 0.0 0.0 0.0 0.0 0.0
0.0 0.0 0.0 0.0 0.0 0.0 0.0 0.0
0.0 0.0 0.0 0.0 0.0 0.0 0.0
00000000: 0000 0000 0000 0000 0000 0000 0000 0000
00000010: 0000 0000 0000 0000 0000 0000 0000 0000
00000020: 0000 0000 0000 0000 0000 0000 0000 0000
00000030: 0000 0000 0000 0000 0000 0000 0000 0000
00000040: 0000 0000 0000 0000 0000 0000 0000 0000
00000050: 0000 0000 0000 0000 0000 0000

encoder.transformer_encoder.layers.0.encoderlayer.self_attn.in_proj_weight f4 [69, 23]
0.13658395 -0.064780325 -0.07977993 0.13018613 0.1751892 -0.09767557 -0.15812384 0.023930032
-0.11187973 0.07905972 0.029687997 -0.108307235 0.19858365 0.03942072 0.11468014 -0.16669907
-0.11628511 0.033886917 0.1504238 0.06460257 -0.15635648 -0.10890034 0.16563265 0.18646841
0.13975185 -0.13441318 -0.07859648 0.065715276 -0.2252844 -0.11686154 0.09718737 0.11557374
0.13323237 -0.01630236 0.09600945 -0.2932472 -0.1049967 -0.067117505 0.09885654 -0.40953344
0.068832204 -0.13781488 -0.055517156 0.18841067 0.2694479 0.08920498 0.13140322 0.31010076
0.009573359 0.11690219 0.10140263 0.024505664 0.32797384 0.13831843 0.1957445 0.22991998
0.07463792 -0.030772774 -0.007082686 -0.056049585 -0.057521474 0.104457825 0.72982174 0.28844374
0.06534118 0.12389109 -0.11791206 0.062342074 0.19511405 -0.05695982 -0.09575184 0.19593088
-0.17298019 0.13332959 -0.05938113 -0.3092873 0.117514476 -0.015025347 -0.041586645 -0.13017854
-0.14064017 -0.089719236 -0.21311533 0.11419355 -0.029878978 -0.31835443 0.15955253 -0.042488508
-0.13406618 -0.16344884 0.0049788104 -0.026940081 0.1906468 0.080257714 0.10341338 -0.12522927
-0.17369136 0.06190068 0.19608621 -0.08241256 -0.09077005 -0.028463034 -0.1594303 0.3066244
0.28345346 -0.17523721 -0.20969658 0.31400397 0.5119007 -0.008329347 0.07965005 -0.1431498
-0.15698165 -0.18684067 -0.00033662925 0.47299263 0.32401812 -0.13714676 0.18692943 0.2931267
0.2609317 0.38799214 -0.038898826 -0.0758807 0.20612465 -0.09196853 0.07545231 0.3103503
0.1202941 0.027243497 0.23937997 0.4200756 0.05953881 0.13676476 -0.0456416 0.26003435
0.1450223 0.2016157 0.36310688 0.17195383 -0.05941525 -0.21217367 -0.054571737 -0.17564498
0.25479153 0.057175167 -0.118482195 0.0074968026 0.21766657 -0.016252765 0.12276458 0.017698383
0.0007538728 0.039209988 0.55289596 0.024560302 -0.19569467 0.06521069 -0.11307124 -0.1427692
0.0046838736 0.19747235 -0.009328469 -0.15050639 0.0687333 -0.13715583 0.08192212 0.18257333
-0.008380844 -0.103375025 -0.046656676 -0.10412001 0.185874 0.06316225 -0.13511473 -0.13607508
0.17348807 0.1801536 0.26436448 0.0074703805 -0.24098274 0.14892831 0.031812478 0.05451042
-0.31396303 -0.38131398 0.062287938 -0.2052054 0.067911796 0.14451088 -0.16538864 -0.25766554
0.16788137 -0.26704034 -0.14219454 -0.28407848 -0.006929923 0.19881 -0.20814484 -0.25034058
-0.32072124 -0.031908534 0.12953381 -0.20666204 0.17703144 -0.089785196 -0.15338647 0.15021358
0.19277458 0.18971752 -0.04859348 -0.13482913 0.06804203 -0.12321901 -0.13511527 0.042535733
0.24151237 -0.08997863 0.23592655 -0.06985009 -0.07657257 0.29125723 0.16113015 0.36911148
0.025961548 0.058384072 0.17495355 0.23118694 0.008604016 -0.10458967 -0.004734429 -0.27402613
0.02785817 -0.14899673 -0.0033839608 0.027600333 0.14476864 0.06457858 -0.08719872 0.15911503
0.024641225 -0.18434002 -0.21283199 0.10668283 -0.10534551 -0.11581257 -0.5007379 -0.27889308
-0.098864704 0.019582696 0.029660475 0.2258001 -0.13766424 0.3535531 0.33189937 -0.23152606
00000000: aadc 0b3e 8cab 84bd a963 a3bd 834f 053e
00000010: cc64 333e 210a c8bd 37eb 21be ea08 c43c
00000020: 3321 e5bd 10ea a13d 3e34 f33c 2fd0 ddbd
00000030: 8359 4b3e 9f77 213d 6cdd ea3d 29b3 2abe
00000040: e326 eebd 02cd 0a3d b208 1a3e 5a4e 843d
00000050: ea1b 20be 2407 dfbd 9b9b 293e 93f1 3e3e
00000060: 1c1b 0f3e 9ca3 09be 31f7 a0bd bb95 863d
00000070: f4b0 66be 1a55 efbd 2c0a c73d edb1 ec3d
00000080: 116e 083e 878c 85bc 9aa0 c43d 7f24 96be
00000090: 8308 d7bd e774 89bd 4c75 ca3d 5eae d1be
000000a0: e6f7 8c3d 581f 0dbe f565 63bd baee 403e
000000b0: 13f5 893e 1ab1 b63d 918e 063e 87c5 9e3e
000000c0: 94d9 1c3c 6a6a ef3d 2fac cf3d 1ac0 c83c
000000d0: 30ec a73e 59a3 0d3e 3f71 483e 2570 6b3e
000000e0: c4db 983d 2f17 fcbc e015 e8bb 4094 65bd
000000f0: a39b 6bbd fced d53d 99d5 3a3f e6ae 933e
00000100: 99d1 853d 9dba fd3d e17b f1bd 675a 7f3d
00000110: facb 473e b34e 69bd 8a19 c4bd 1ba2 483e
00000120: b821 31be 8d87 083e a139 73bd e85a 9ebe
00000130: 6eab f03d df2c 76bc c256 2abd 864d 05be
00000140: fa03 10be b8be b7bd e83a 5abe 4fde e93d
00000150: c2c4 f4bc 5aff a2be bd61 233e 6e08 2ebd
00000160: a548 09be 225f 27be 4a25 a33b 72b1 dcbc
00000170: ea38 433e 285e a43d 65ca d33d 1a3c 00be
00000180: 26dc 31be 918b 7d3d d3ca 483e ebc7 a8bd
00000190: a6e5 b9bd 4f2b e9bc b241 23be e0fd 9c3e
000001a0: d020 913e 6271 33be b3ba 56be 21c5 a03e
000001b0: ed0b 033f d077 08bc 911f a33d dc95 12be
000001c0: ccbf 20be 2953 3fbe 9d7d b0b9 172c f23e
000001d0: b4e5 a53e 3370 0cbe 6e6a 3f3e b414 963e
000001e0: d798 853e e8a6 c63e 6054 1fbd 5767 9bbd
000001f0: 5712 533e ff59 bcbd be86 9a3d 3ce6 9e3e
00000200: c15c f63d c12d df3c 0620 753e 2614 d73e
00000210: f8de 733d 100c 0c3e b0f2 3abd 3923 853e
00000220: ba80 143e 5974 4e3e 25e9 b93e aa14 303e
00000230: 685d 73bd 0e44 59be 9d86 5fbd 47dc 33be
00000240: 0974 823e 8230 6a3d cba6 f2bd bda7 f53b
00000250: fce3 5e3e 8524 85bc ff6b fb3d 33fc 903c
00000260: 8c9f 453a a79a 203d 978a 0d3f b032 c93c
00000270: 2f64 48be 2f8d 853d e591 e7bd 1732 12be
00000280: 2e7b 993b 3136 4a3e 6fd6 18bc 591e 1abe
00000290: 0bc4 8c3d 9472 0cbe c9c6 a73d 81f4 3a3e
000002a0: cf4f 09bc 49b6 d3bd 121b 3fbd df3c d5bd
000002b0: c155 3e3e 365b 813d 845b 0abe 4457 0bbe
000002c0: dba6 313e 2f7a 383e c85a 873e 18ca f43b
000002d0: 2ec4 76be aa80 183e cd4d 023d 5146 5f3d
000002e0: c3bf a0be 963b c3be a321 7f3d 5d21 52be
000002f0: 5715 8b3d a9fa 133e a45b 29be bdec 83be
00000300: 18e9 2b3e 83b9 88be 729b 11be bc72 91be
00000310: 6814 e3bb d994 4b3e ec23 55be a42c 80be
00000320: 9335 a4be 86b2 02bd 83a4 043e 379f 53be
00000330: bb47 353e 4de1 b7bd 5811 1dbe 97d1 193e
00000340: b366 453e 4f45 423e f509 47bd a610 0abe
00000350: 9f59 8b3d 405a fcbd a85b 0abe f339 2e3d
00000360: 054f 773e b746 b8bd bb96 713e 900d 8fbd
00000370: 14d2 9cbd ab1f 953e 4dff 243e 2efc bc3e
00000380: 50ad d43c 2324 6f3d 0627 333e 45bc 6c3e
00000390: dcf7 0c3c 1c33 d6bd 4523 9bbb 274d 8cbe
000003a0: d136 e43c 9992 18be 71c5 5dbb 181a e23c
000003b0: 3b3e 143e c641 843d 3e95 b2bd 0def 223e
000003c0: 65dc c93c a1c3 3cbe a1f0 59be 877c da3d
000003d0: 63bf d7bd 242f edbd 5c30 00bf 13cb 8ebe
000003e0: 9479 cabd e46b a03c 86fa f23c 2438 673e
000003f0: dbf7 0cbe e904 b53e b7ee a93e 2b15 6dbe

encoder.transformer_encoder.layers.0.encoderlayer.self_attn.in_proj_bias f4 [69]
-0.080557875 -0.015334247 0.13973275 -0.10780196 0.10015824 0.21307062 0.15596835 0.066428795
-0.17458448 0.17732245 -0.09241733 0.12260093 -0.15274957 -0.06723117 -0.18336664 0.1395039
-0.11846335 -0.15319377 0.07442615 -0.1690807 0.18543082 -0.16310143 -0.1565354 8.5185624e-05
-4.6084657e-05 0.0005320829 0.00016316118 0.00015299492 0.0005535344 0.00046880762 -0.0001404855 -0.0003178607
9.1337904e-05 -0.00016129247 0.00017623956 -0.000251049 2.8054685e-05 -8.236081e-05 0.0004293925 -0.0007342934
-1.6909913e-05 2.0103404e-05 0.00010955634 -0.00029451287 -4.2094183e-05 -0.0002852967 0.057659052 0.007775341
-0.0006578768 -0.008418236 0.08670616 0.006343637 0.030998819 0.08666959 -0.027576732 -0.020140953
0.009316652 -0.0625913 -0.019535122 -0.021181196 0.03356086 0.03946094 0.038942397 -0.040576633
0.046071824 0.0553841 -0.03911565 -0.036303654 0.012984401
00000000: 87fb a4bd 7e3c 7bbc 1a16 0f3e 46c7 dcbd
00000010: c31f cd3d 2f2f 5a3e 2bb6 1f3e d20b 883d
00000020: 46c6 32be 0494 353e 4c45 bdbd 3216 fb3d
00000030: 626a 1cbe 7fb0 89bd 77c4 3bbe 1cda 0e3e
00000040: ea9c f2bd d4de 1cbe bd6c 983d 7e23 2dbe
00000050: 94e1 3d3e 1004 27be d14a 20be afa5 b238
00000060: 064b 41b8 7b7b 0b3a 3f16 2b39 436d 2039
00000070: 111b 113a 4bca f539 4a4f 13b9 8aa6 a6b9
00000080: aa8c bf38 9e20 29b9 f2cc 3839 3a9f 83b9
00000090: fa56 eb37 20b9 acb8 1620 e139 997d 40ba
000000a0: c3d9 8db7 bba3 a837 9dc1 e538 d968 9ab9
000000b0: 498e 30b8 e093 95b9 e62b 6c3d 4ac8 fe3b
000000c0: 5d75 2cba a4ec 09bc 0093 b13d 49de cf3b
000000d0: 3cf1 fd3c d37f b13d 99e8 e1bc a4fe a4bc
000000e0: dfa4 183c de2f 80bd 1f08 a0bc 3084 adbc
000000f0: 1d77 093d cba1 213d 1082 1f3d af33 26bd
00000100: cfb5 3c3d 70da 623d bb37 20bd 24b3 14bd
00000110: 86bc 543c

encoder.transformer_encoder.layers.0.encoderlayer.self_attn.out_proj.weight f4 [23, 23]
0.06543596 -0.035456173 -0.042095736 0.06172032 0.19655807 0.017234856 0.02905998 -0.17460479
0.027118666 -0.15068968 -0.0062362226 -0.024768358 0.06828115 0.002617209 -0.016948188 -0.26215708
0.0031906546 -0.03393396 -0.22868653 0.035230987 -0.0024334532 0.056792274 0.015908448 -0.13611318
-0.19413736 -0.0646531 -0.16974287 0.19498509 -0.033192504 0.36391094 0.14960185 -0.18684559
0.18696983 -0.10075861 0.32610685 0.034009244 0.10499305 0.4267174 0.19106273 -0.016896298
0.061607152 0.041589897 0.15617788 0.19810258 -0.09460149 0.112979524 -0.021765908 0.10786029
0.42767206 -0.07226439 0.10471033 -0.0666139 -0.16686375 -0.31925237 -0.22677776 0.34964922
-0.033265926 0.066070735 0.29277956 -0.20431736 0.029844424 -0.15097201 0.18570392 0.01516939
0.28627324 -0.06789566 0.038921345 -0.010343817 -0.10652448 -0.1007179 -0.0842973 -0.04736141
-0.16346294 -0.037816837 0.013351157 -0.008649022 -0.036823507 0.018421391 -0.10936419 0.01332296
-0.14574116 0.15578663 0.007845342 0.020207992 -0.11479932 -0.19818482 0.0036165763 -0.098390386
-0.0054466287 0.009537579 0.17577848 -0.03721998 -0.19918218 0.3122647 0.77065456 -0.3698441
0.11541787 0.21984409 -0.43985066 0.043445848 -0.81232727 -0.26624298 0.0048338235 -0.22902969
-0.41431445 0.10219211 -0.40963277 -0.12013442 0.41474503 0.27673528 -0.10772788 0.2053746
0.018109966 1.4795144 1.561722 -0.06239116 -0.05045821 -0.056060296 -0.118295416 -0.034673035
-0.010524816 -0.022133578 -0.16683596 0.11519538 -0.006383561 0.11811626 0.20383768 0.2812755
-0.0034486568 -0.027419783 -0.05546538 -0.17459506 -0.021429485 0.050364006 0.096310504 0.043474816
-0.021089783 0.07427018 0.012109453 0.01753501 -0.0003654933 0.08092616 -0.2517436 -0.024893302
0.0126330005 0.16850632 0.0027010667 -0.017658982 0.026336662 -0.30931652 -0.0066560996 -0.0010065159
0.04452947 0.1988171 -0.05003271 0.005174878 -0.08306867 0.00026647098 0.015095985 0.0022038533
-0.028016182 -0.03964062 0.6025279 -0.2788588 -0.054717712 -0.37594193 -0.09212457 0.16127418
0.42235407 -0.51889443 -0.55894667 -0.15456313 -0.06022271 0.5239042 -0.010911595 0.089507006
-0.23093116 0.49595597 -0.12494646 -0.17991737 -0.02499242 0.0054393727 -0.75692123 -0.29293287
-0.021428563 0.34552705 -0.03709772 -0.23662232 -0.28854415 -0.023589782 0.015578011 -0.0565775
-0.028280642 0.08571548 -0.07211183 -0.40158722 -0.22639193 -0.026062122 0.08215221 -0.051609382
-0.13410123 0.059073642 -0.00792007 -0.0049687177 0.009502769 0.1130208 0.08799729 0.14687732
-0.01559619 0.05278129 -0.06861985 -0.09505667 0.038850926 -0.09223042 0.23451409 -0.027376236
0.27972955 0.006798498 -0.16686025 0.031583905 0.0031820121 -0.16385908 0.02533968 0.037850745
-0.05836854 -0.15480448 -0.08294059 0.0150311 0.14583717 0.0405537 0.002450537 -0.042251077
0.04074579 0.10126911 -0.24114893 -0.018805426 0.10187015 0.08439923 -0.0890184 0.29070446
-0.02331182 -0.12541741 -0.0024891528 0.021362925 0.083898365 -0.0033284624 -0.06338129 0.012522081
0.16182601 0.06934493 0.018449346 -0.20815203 0.027468957 -0.055486143 0.07306627 0.037067506
00000000: 4a03 863d 7e3a 11bd 946c 2cbd 72ce 7c3d
00000010: 8546 493e 1d30 8d3c 320f ee3c 99cb 32be
00000020: f727 de3c 654e 1abe 3a59 ccbb 03e7 cabc
00000030: fdd6 8b3d 7b85 2b3b edd6 8abc 7439 86be
00000040: 4d1a 513b 56fe 0abd cd2c 6abe 5e4e 103d
00000050: 927a 1fbb 049f 683d 6f52 823c 4161 0bbe
00000060: f2cb 46be d868 84bd 13d1 2dbe 2caa 473e
00000070: ddf4 07bd 8952 ba3e 3a31 193e 7354 3fbe
00000080: 0575 3f3e 885a cebd 7af7 a63e 474d 0b3d
00000090: 9906 d73d b47a da3e f3a5 433e 1b6a 8abc
000000a0: c857 7c3d 2b5a 2a3d 18ed 1f3e 67db 4a3e
000000b0: 6dbe c1bd cf61 e73d 6b4e b2bc dbe5 dc3d
000000c0: d5f7 da3e 5aff 93bd 5f72 d63d de6c 88bd
000000d0: 55de 2abe 0c75 a3be 6e38 68be 3905 b33e
000000e0: da41 08bd 1850 873d 34e7 953e 9238 51be
000000f0: 4b7c f43c 6898 1abe 2b29 3e3e 0889 783c
00000100: 6892 923e e10c 8bbd fd6b 1f3d 1d79 29bc
00000110: 8229 dabd 3045 cebd 10a4 acbd 0afe 41bd
00000120: d462 27be d4e5 1abd d0be 5a3c a1b4 0dbc
00000130: 3fd4 16bd 75e8 963c 55fa dfbd 8b48 5a3c
00000140: 2c3d 15be 8886 1f3e c089 003c 3b8b a53c
00000150: e81b ebbd f6f0 4abe 1504 6d3b e680 c9bd
00000160: a279 b2bb 8143 1c3c 46ff 333e fa73 18bd
00000170: 6af6 4bbe 29e1 9f3e 9e49 453f 355c bdbe
00000180: 3460 ec3d cf1e 613e 1b34 e1be 46f4 313d
00000190: aef4 4fbf 0051 88be 0d65 9e3b c286 6abe
000001a0: 0621 d4be 194a d13d 63bb d1be 0909 f6bd
000001b0: 7659 d43e 3fb0 8d3e 6fa0 dcbd b84d 523e
000001c0: 5a5b 943c ba60 bd3f 82e6 c73f df8d 7fbd
000001d0: 45ad 4ebd 7b9f 65bd de44 f2bd 5005 0ebd
000001e0: 4770 2cbc 7a51 b5bc 0cd7 2abe 8eeb eb3d
000001f0: 312d d1bb f0e6 f13d d3ba 503e 5803 903e
00000200: dc02 62bb 749f e0bc ab2f 63bd 0cc9 32be
00000210: e38c afbc 7d4a 4e3d 713e c53d a612 323d
00000220: 7bc4 acbc f71a 983d ba66 463c 95a5 8f3c
00000230: ae9f bfb9 9dbc a53d 8ae4 80be 0aed cbbc
00000240: a5fa 4e3c ec8c 2c3e 6104 313b 92a9 90bc
00000250: fcbf d73c bc5e 9ebe 691b dabb 12ed 83ba
00000260: 8964 363d b696 4b3e 19ef 4cbd 0692 a93b
00000270: e81f aabd 21b5 8b39 2655 773c 866e 103b
00000280: 3182 e5bc 345e 22bd 453f 1a3f 95c6 8ebe
00000290: ae1f 60bd 767b c0be ceab bcbd 0f25 253e
000002a0: cb3e d83e 44d6 04bf 2117 0fbf cc45 1ebe
000002b0: 17ac 76bd 961e 063f 8cc6 32bc 734f b73d
000002c0: 3879 6cbe f1ed fd3e eee3 ffbd 423c 38be
000002d0: e7bc ccbc c43c b23b 97c5 41bf 4cfb 95be
000002e0: f48a afbc ece8 b03e c7f3 17bd 1f4d 72be
000002f0: 0fbc 93be 5c3f c1bc ea3a 7f3c cfbd 67bd
00000300: ceac e7bc 998b af3d 5eaf 93bd d79c cdbe
00000310: 49d3 67be 3b80 d5bc 6b3f a83d 5c64 53bd
00000320: d551 09be 34f7 713d 2ec3 01bc a0d0 a2bb
00000330: 81b1 1b3c 7377 e73d ec37 b43d 0267 163e
00000340: 2987 7fbc 3231 583d 9088 8cbd 12ad c2bd
00000350: 2622 1f3d 4de3 bcbd 7624 703e 2144 e0bc
00000360: b638 8f3e efc5 de3b 6add 2abe 205e 013d
00000370: 4e89 503b adca 27be 2995 cf3c 6209 1b3d
00000380: da13 6fbd 1185 1ebe c2dc a9bd 0145 763c
00000390: 5756 153e a31b 263d 3099 203b 770f 2dbd
000003a0: 0fe5 263d 2e66 cf3d bfef 76be d60d 9abc
000003b0: 4ca1 d03d 81d9 ac3d 474f b6bd 37d7 943e
000003c0: 6ef8 bebc 6c6d 00be 0e21 23bb 4d01 af3c
000003d0: e8d2 ab3d 5522 5abb 0dce 81bd 6a29 4d3c
000003e0: b8b5 253e b704 8e3d 1523 973c ce25 55be
000003f0: 9406 e13c 7045 63bd c5a3 953d 19d4 173d

encoder.transformer_encoder.layers.0.encoderlayer.self_attn.out_proj.bias f4 [23]
0.0005611021 0.0064909165 0.0059119253 -0.0013967535 0.00432436 -0.010135513 -0.0016666648 -0.05003974
-0.0033394177 -0.0026286964 0.0036451109 0.002698451 0.001977595 -0.0012507107 0.018299175 0.0051121525
0.009891553 -0.0113022765 0.0028077094 0.00560543 -0.027178127 -0.014750215 0.0061298497
00000000: ed16 133a c1b1 d43b d3b8 c13b 4513 b7ba
00000010: 5cb3 8d3b 6c0f 26bc fe73 daba 78f6 4cbd
00000020: 22da 5abb 3546 2cbb d0e2 6e3b 7fd8 303b
00000030: 8a9a 013b e3ee a3ba 27e8 953c d883 a73b
00000040: 2e10 223c 2f2d 39bc 8c01 383b c1ad b73b
00000050: aaa4 debc e3aa 71bc e8dc c83b
