Final_exp/FL_001/3stacks_3nhead_120lwin_0_0005lr_128dff_64batch_50epcs_0_1dropout/checkpoints/client2/model__lr_0.0005_l_win_120_dff_64.pt (torch, 80335 bytes, 49 tensors)

encoder.encoder_layer.encoderlayer.self_attn.in_proj_weight f4 [48, 16]
0	0x3ce6b950	0.028164536
1	0xbcf4bb38	-0.02987443
2	0x3d954ce2	0.07290055
3	0x3e5039dd	0.20334573
4	0x3d2e24b8	0.042515486
5	0xbd63072a	-0.055426754
6	0xbe485052	-0.1956189
7	0xbe9bb82d	-0.30413952
8	0x3e2da31d	0.16956754
9	0x3d664deb	0.056226652
10	0xbe61b564	-0.22041851
11	0xbe6e803b	-0.23291104
12	0xbe0e78ef	-0.1391332
13	0xbd941f40	-0.07232523
14	0x3e20f897	0.1571983
15	0x3db058d8	0.086106956
16	0xbe0f55d1	-0.1399758
17	0x3d5ee4de	0.054417484
18	0x3da4279f	0.080153696
19	0xbe40057e	-0.18752095
20	0xbd31f6f1	-0.043448392
21	0xbe335b22	-0.17515233
22	0x3e04e2a6	0.12977085
23	0xbdf6d5c6	-0.12052493
24	0x3e11e749	0.14248385
25	0x3e79a4a7	0.24379216
26	0x3e198f4a	0.14996067
27	0xbdf04a62	-0.117329374
28	0x3e6dcfe9	0.23223843
29	0xbe61d6c2	-0.2205458
30	0x3e85f99c	0.26167
31	0x3e369f71	0.1783426
32	0x3e333258	0.17499673
33	0x3d2f7670	0.04283756
34	0xbd4fbd24	-0.050717488
35	0xbe17438a	-0.14771858
36	0xbd2bc0f4	-0.04193206
37	0xbd68e999	-0.0568634
38	0x3e8dd764	0.27703393
39	0x3e44a7db	0.19204657
40	0x3e13eb95	0.14445336
41	0x3e7ec37c	0.24879259
42	0x3e2c23ce	0.16810533
43	0x3ced45d6	0.028963964
44	0xbd2bb453	-0.041920017
45	0x3e7d2b30	0.24723506
46	0xbe270d0f	-0.16313575
47	0x3e198024	0.14990288
48	0xbda9b179	-0.08285803
49	0xbd1a8a04	-0.03772928
50	0xbdb1eb62	-0.08687474
51	0xbe973c7e	-0.2953834
52	0x3e844a03	0.25837716
53	0x3e7177d8	0.23580873
54	0x3e601ac4	0.2188521
55	0xbe5f9684	-0.21834761
56	0xbe5b5dc0	-0.21422482
57	0x3e3194d4	0.1734193
58	0xbe8bc97e	-0.27302164
59	0x3d8d392b	0.068956695
60	0x3e55edb4	0.20891458
61	0x3dc64cbf	0.09682607
62	0xba1ab840	-0.0005902089
63	0x3de8af9f	0.11361622
64	0x3de929be	0.11384915
65	0xbdb85b03	-0.09001734
66	0xbe846413	-0.258576
67	0xbdbde471	-0.09272087
68	0x3d5f65bb	0.054540377
69	0xbdec28b8	-0.11531204
70	0xbd4737e0	-0.04863727
71	0x3e1cabd5	0.15299924
72	0x3c86a784	0.0164373
73	0xbe967b96	-0.29391164
74	0xbd96fc4d	-0.07372341
75	0xbe8ad810	-0.27117968
76	0x3e57815d	0.21045442
77	0xbd08f8cb	-0.033440392
78	0xbbe0f248	-0.0068648197
79	0xbd0550d2	-0.03254778
80	0xbdae6a07	-0.08516317
81	0xbb3d55e4	-0.0028890306
82	0xbe1c30a9	-0.15252937
83	0xbe85c64e	-0.26127857
84	0xbe800cac	-0.25009668
85	0xbcafd9cc	-0.021466158
86	0x3e9a6f2b	0.3016294
87	0xbe54b900	-0.20773697
88	0x3e84497e	0.2583732
89	0x3e79100c	0.24322528
90	0x3e40689a	0.18789902
91	0xbe9bd408	-0.30435205
92	0xbe6985ee	-0.22804996
93	0xbe465fcd	-0.19372483
94	0xbd5620b6	-0.05227729
95	0xbe6733d2	-0.22578362
96	0x3e836608	0.2566378
97	0x3e8b7c18	0.27243114
98	0xbe65f27e	-0.22455785
99	0x3dccab3d	0.099935986
100	0x3dd86af6	0.10567276
101	0xbce44ee6	-0.027869653
102	0x3dcce7a2	0.10005118
103	0xbdcf5184	-0.1012297
104	0xbe56f75e	-0.209928
105	0xbe3c36e4	-0.18380314
106	0x3e8a73c2	0.2704144
107	0x3e376234	0.17908555
108	0xbd484e14	-0.048902586
109	0xbe62e641	-0.22158147
110	0xbe50c644	-0.20388132
111	0xbd72aef2	-0.059248872
112	0x3e439bb0	0.19102359
113	0xbdf2483d	-0.118301846
114	0xbdff1852	-0.124558106
115	0x3d936afc	0.0719814
116	0x3ced4772	0.028964732
117	0x3bb0af0e	0.005391962
118	0xbe9cbd01	-0.3061295
119	0x3d8c3fef	0.06848132
120	0xbdac7120	-0.084200144
121	0x3e346898	0.17618024
122	0xbe242bd0	-0.16032338
123	0x3dc9d9ec	0.098560184
124	0xbe97fcc4	-0.29685032
125	0xbe609524	-0.21931893
126	0x3e8b1178	0.27161765
127	0x3e09ef9e	0.13470313
128	0xbe5717dd	-0.21005197
129	0xbd10249c	-0.035191163
130	0x3e848dee	0.25889534
131	0x3e63789a	0.22213975
132	0x3e7482ef	0.23878072
133	0x3e8f30e8	0.27967
134	0x3e816c0f	0.25277755
135	0x3e1617f1	0.1465757
136	0x3e9153af	0.28384158
137	0x3e93c9fa	0.28865033
138	0x3d82800e	0.06372081
139	0xbe978282	-0.29591757
140	0xbe49810f	-0.19678138
141	0x3d8bcb1b	0.06825849
142	0xbe56f86a	-0.209932
143	0x3da9f71c	0.082990855
144	0xbe1020d4	-0.14075023
145	0x3e24da3e	0.16098878
146	0xbe96a748	-0.294245
147	0xbd7c873e	-0.061652415
148	0xbe3b16d9	-0.18270434
149	0xbddcbee1	-0.10778595
150	0x3e5ff552	0.21870926
151	0xbe858747	-0.2607977
152	0x3e50e8a6	0.20401248
153	0xbe91168a	-0.28337508
154	0xbe1f092e	-0.15530846
155	0xbe98abee	-0.29818672
156	0xbd300515	-0.042973597
157	0xbe3c1707	-0.18368159
158	0x3e688db0	0.227103
159	0x3e0ac3dd	0.13551278
160	0xbe71df78	-0.23620403
161	0xbe2b1de2	-0.16710618
162	0x3bd097cc	0.006365752
163	0x3dec4bd2	0.11537899
164	0xbe8d71ae	-0.27625793
165	0xbd56fb91	-0.052486006
166	0x3e0be293	0.1366065
167	0xbd9b838a	-0.075934485
168	0x3e35ed43	0.1776629
169	0x3cb6632e	0.02226409
170	0x3d6fdd0a	0.05856041
171	0xbe1db4c2	-0.15400985
172	0x3dfb4d0a	0.122705534
173	0xbd7c3e90	-0.0615831
174	0x3d91868f	0.07105743
175	0xbe7e20d4	-0.2481721
176	0x3cebc395	0.028779784
177	0xbba1c363	-0.004936622
178	0x3d62f356	0.055407844
179	0x3e69cb60	0.22831488
180	0xbd775bca	-0.06039027
181	0xbe0d8223	-0.13819174
182	0x3e3a575e	0.1819739
183	0x3da19117	0.07889002
184	0xbd7bf9e6	-0.06151762
185	0x3ceab12a	0.028648932
186	0x3e8537b4	0.2601906
187	0x3e754cc4	0.23955065
188	0xbd5d112c	-0.053971455
189	0xbe87facd	-0.26558533
190	0xbe3c1a35	-0.18369372
191	0x3d86b713	0.065778874
192	0xbe0620f0	-0.13098502
193	0xbe7e7ae6	-0.2485157
194	0xbe311179	-0.17291822
195	0xbd550f5d	-0.052016605
196	0x3c9826cb	0.018573185
197	0xbd6ad78d	-0.05733447
198	0x3d11718c	0.035508677
199	0x3c16890f	0.009187951
200	0xbdfc6e98	-0.123257816
201	0xbe98f5b3	-0.29874954
202	0xbe4c033d	-0.1992311
203	0x3e8c889a	0.2744797
204	0xbc5f92f0	-0.0136458725
205	0xbe6b19d8	-0.22959077
206	0x3e7d3132	0.24725798
207	0x3e749652	0.23885468
208	0xbe940227	-0.28907892
209	0xbe940476	-0.28909653
210	0x3d05bec7	0.032652643
211	0x3dbfe369	0.09369547
212	0x3d0bb84b	0.034111302
213	0x3e8ed0aa	0.27893573
214	0x3e4d8103	0.20068745
215	0xbe99dd60	-0.30051708
216	0xbe8cce16	-0.2750098
217	0x3e25504c	0.16143912
218	0x3e9344b8	0.28763366
219	0xbe96d586	-0.2945978
220	0xbb44c798	-0.0030026194
221	0xbd11449d	-0.035465825
222	0x3e970644	0.29496968
223	0xbcd9b404	-0.026575096
224	0xbd457c35	-0.048214156
225	0xbe46149c	-0.193438
226	0x3df88e92	0.12136568
227	0xbd99a0cc	-0.07501373
228	0x3d354d8c	0.044263408
229	0xbe8af9d6	-0.27143735
230	0xbe8acf35	-0.2711121
231	0x3e1e4e44	0.15459543
232	0xbd83390d	-0.06407366
233	0x3e7a693c	0.24454206
234	0x3e9c6c95	0.30551592
235	0x3d90bf4a	0.070677355
236	0xbdeddb16	-0.11614053
237	0xbe68a6c1	-0.22719862
238	0xbe01110e	-0.12604162
239	0x3e89439c	0.26809394
240	0x3dab60f7	0.08368104
241	0x3e3e2a28	0.18570769
242	0x3d84b5cc	0.064799875
243	0x3d1c00fb	0.038086873
244	0xbe933ff7	-0.2875974
245	0x3dd199f3	0.102344416
246	0xbdc7f7c0	-0.097640514
247	0x3e1630f4	0.14667112
248	0x3b58ea8c	0.0033098785
249	0xbe5fdc2a	-0.2186133
250	0x3e8b65e6	0.2722618
251	0xbe6290b7	-0.22125517
252	0x3df0bcce	0.11754762
253	0xbe5244a7	-0.20534001
254	0x3d8e1b0f	0.06938755
255	0x3e567c8a	0.20945945

encoder.encoder_layer.encoderlayer.self_attn.in_proj_bias f4 [48]
0	0x00000000	0.0
1	0x00000000	0.0
2	0x00000000	0.0
3	0x00000000	0.0
4	0x00000000	0.0
5	0x00000000	0.0
6	0x00000000	0.0
7	0x00000000	0.0
8	0x00000000	0.0
9	0x00000000	0.0
10	0x00000000	0.0
11	0x00000000	0.0
12	0x00000000	0.0
13	0x00000000	0.0
14	0x00000000	0.0
15	0x00000000	0.0
16	0x00000000	0.0
17	0x00000000	0.0
18	0x00000000	0.0
19	0x00000000	0.0
20	0x00000000	0.0
21	0x00000000	0.0
22	0x00000000	0.0
23	0x00000000	0.0
24	0x00000000	0.0
25	0x00000000	0.0
26	0x00000000	0.0
27	0x00000000	0.0
28	0x00000000	0.0
29	0x00000000	0.0
30	0x00000000	0.0
31	0x00000000	0.0
32	0x00000000	0.0
33	0x00000000	0.0
34	0x00000000	0.0
35	0x00000000	0.0
36	0x00000000	0.0
37	0x00000000	0.0
38	0x00000000	0.0
39	0x00000000	0.0
40	0x00000000	0.0
41	0x00000000	0.0
42	0x00000000	0.0
43	0x00000000	0.0
44	0x00000000	0.0
45	0x00000000	0.0
46	0x00000000	0.0
47	0x00000000	0.0

encoder.encoder_layer.encoderlayer.self_attn.out_proj.weight f4 [16, 16]
0	0xbebb988f	-0.3663983
1	0xbd9f496e	-0.077776775
2	0x3c987cf6	0.018614274
3	0xbe911124	-0.2833339
4	0x3eaa877f	0.333065
5	0x3e42336c	0.18964928
6	0xbe9a89ea	-0.30183345
7	0xbdaf4767	-0.08558541
8	0xbe8e57bb	-0.27801308
9	0x3ebe7055	0.37195078
10	0xbed8d089	-0.423466
11	0xbe442b72	-0.19157198
12	0xbe478b56	-0.19486746
13	0xbe9750b5	-0.29553762
14	0x3dcbcda6	0.09951334
15	0x3e2d3c92	0.16917637
16	0x3ea313fa	0.31851178
17	0x3e8ac132	0.2710052
18	0xbe471bab	-0.19444148
19	0xbe63ccac	-0.22246045
20	0x3dd9f320	0.106420755
21	0x3d9f5820	0.077804804
22	0x3ed2b00c	0.41149938
23	0xbed0513a	-0.4068697
24	0xbed4a926	-0.415353
25	0xbeb798eb	-0.35858855
26	0xbe1f7f7d	-0.15575977
27	0x3d5e5670	0.054281652
28	0x3dd0c1f8	0.101932466
29	0x3d89f55b	0.06736251
30	0x3db38874	0.08766261
31	0xbe068abc	-0.1313886
32	0x3d3a9000	0.045547485
33	0xbe84f083	-0.25964746
34	0x3eb4c8eb	0.35309538
35	0x3ea5066b	0.3223146
36	0x3e8de59e	0.27714247
37	0xbd8cace2	-0.06868912
38	0xbe4b310c	-0.19842929
39	0x3d34845c	0.04407154
40	0xbebd3d50	-0.3696084
41	0xbce4fba2	-0.02795202
42	0xbeda1a4a	-0.42598182
43	0x3e876370	0.26443052
44	0xbedbd675	-0.42937055
45	0x3e6e400b	0.23266618
46	0xbec2e0ac	-0.38062036
47	0xbebcd8c2	-0.36884123
48	0xbe975366	-0.29555815
49	0x3d1c4311	0.038149897
50	0xbe9bc8a9	-0.3042653
51	0xbeade2bc	-0.33962047
52	0xbce24cc6	-0.027624499
53	0xbdf365aa	-0.11884625
54	0xbd8b6e52	-0.06808151
55	0x3e8d7242	0.27626234
56	0x3e96d454	0.29458869
57	0xbc820cf0	-0.01587531
58	0x3d968364	0.073492795
59	0xbd5e9468	-0.05434075
60	0xbedc9b52	-0.4308725
61	0x3ea9ceca	0.3316558
62	0xbe9f5e78	-0.3112676
63	0xbd866aca	-0.06563337
64	0xbec70fa1	-0.3887911
65	0x3ed4e4d6	0.41580838
66	0x3e9c6ab8	0.3055017
67	0x3e2bc22e	0.16773292
68	0xbe9f97b1	-0.3117042
69	0x3d9c0772	0.076186076
70	0xbc6d295c	-0.014475193
71	0xbe79d810	-0.24398828
72	0x3da813d9	0.08206911
73	0x3e3c2afa	0.1837577
74	0xbe0e5cf6	-0.1390265
75	0xbe5bf7fd	-0.21481319
76	0x3e6bf2d2	0.23041847
77	0x3e1d46d5	0.15359052
78	0xbdab11b8	-0.08352989
79	0xbe4c2358	-0.19935358
80	0xbe3f3494	-0.186724
81	0x3ed4b5b5	0.4154488
82	0x3e90c5fa	0.28276044
83	0xbe247a1a	-0.16062203
84	0xbea0eb87	-0.31429693
85	0x3ec01803	0.3751832
86	0xbd96ba62	-0.073597685
87	0xbea34084	-0.3188516
88	0xbe597917	-0.21237598
89	0x3d3b7e44	0.045774713
90	0x3d634868	0.055488974
91	0xbcab89e0	-0.020939767
92	0x3e8d6fa6	0.27624243
93	0xbdfd57f1	-0.12370289
94	0x3deaea7c	0.114705056
95	0xbe97a6c5	-0.29619423
96	0xbedc5a8a	-0.43037826
97	0xbe4e9693	-0.20174627
98	0xbed00685	-0.40629974
99	0x3e6fd0f2	0.2341955
100	0xbe1a9064	-0.15094143
101	0xbe5596a8	-0.20858252
102	0x3e023e88	0.12719166
103	0x3e0d2fdb	0.13787787
104	0xbdf67239	-0.12033505
105	0x3bc8db64	0.006129669
106	0xbe577676	-0.21041283
107	0xbe37507c	-0.17901796
108	0xbe87a7ae	-0.26495117
109	0xbe7adfcc	-0.24499434
110	0xbe8d4f08	-0.2759936
111	0xbe84023f	-0.25782964
112	0xbe5a6bdd	-0.21330209
113	0x3d5a1bbe	0.053249113
114	0x3eae21f3	0.34010276
115	0xbe6afa1d	-0.22946973
116	0xbd05d1b1	-0.03267068
117	0x3e2bd16b	0.16779105
118	0xbec63ab7	-0.3871667
119	0xbeaade32	-0.33372647
120	0x3e62b79e	0.22140357
121	0x3d8ad8d2	0.067796364
122	0xbda7aa54	-0.081867844
123	0x3e9ab71c	0.30217826
124	0x3bfb8a31	0.007676386
125	0x3e80fb2c	0.2519163
126	0xbe390314	-0.1806758
127	0x3e0698c8	0.13144219
128	0xbea51bd0	-0.32247782
129	0xbdd2eced	-0.10299096
130	0xbd49c5a6	-0.049260758
131	0xbe699232	-0.22809675
132	0xbec96111	-0.39331868
133	0x3e60c125	0.21948679
134	0xbbe347ea	-0.006936063
135	0xbe09bedd	-0.13451715
136	0xbcf5f95b	-0.030026129
137	0xbe79fcb1	-0.244128
138	0xbe71d890	-0.23617768
139	0xbd3e3046	-0.046432756
140	0x3d59323d	0.053026427
141	0x3e7df1e0	0.24799299
142	0x3decf0c6	0.115693614
143	0xbeda912a	-0.42688876
144	0xbe077af7	-0.13230501
145	0xbe828787	-0.25494024
146	0xbe180df6	-0.14849076
147	0x3e5945f6	0.21218094
148	0xbdb9b6af	-0.09068047
149	0x3d8ee428	0.06977111
150	0xbc76031a	-0.015015388
151	0xbe788e8a	-0.24273124
152	0xbe2a3668	-0.16622317
153	0x3e76576e	0.2405679
154	0x3e70a79d	0.2350144
155	0xbebe9ab8	-0.37227416
156	0xbecf2bd0	-0.40463114
157	0xbe58aeb9	-0.21160401
158	0x3e8e6860	0.27814007
159	0x3eda67e0	0.42657375
160	0xbe3a099a	-0.18167725
161	0x3dab5b0e	0.08366977
162	0x3c606804	0.013696674
163	0xbd03a1ce	-0.03213673
164	0xbcb4f5c2	-0.022089843
165	0x3e656c74	0.22404653
166	0xbdcce660	-0.10004878
167	0x3ea9a887	0.3313639
168	0x3eadd7d8	0.33953738
169	0xbe5e08e4	-0.21683079
170	0xbddffbf2	-0.10936727
171	0x3eb9f5da	0.36320382
172	0x3ed0557c	0.4069022
173	0x3ebb904a	0.3663352
174	0x3e3a2a42	0.18180183
175	0xbe0e1425	-0.13874872
176	0xbe2e4bce	-0.17021105
177	0x3edb6736	0.4285218
178	0x3d829479	0.06375975
179	0x3eb4dd41	0.35325053
180	0xbe5b4f2b	-0.21416919
181	0x3dde372e	0.108503684
182	0x3ec4c41a	0.38430864
183	0x3e13872a	0.1440703
184	0xbea5671d	-0.32305232
185	0x3d0e3d9b	0.03472672
186	0xbed6ea81	-0.41975787
187	0xbeb0ad5e	-0.3450727
188	0xbe958be7	-0.292083
189	0x3ddc6472	0.10761346
190	0x3ecc05e9	0.3984826
191	0x3d396b67	0.045268442
192	0x3e8ee366	0.27907866
193	0x3c5ec512	0.01359679
194	0xbed3eda9	-0.41392258
195	0x3e4a59be	0.19760796
196	0xbe13a808	-0.14419568
197	0xbeb5d1cc	-0.35511625
198	0x3e5507f6	0.20803818
199	0x3ec2f1b3	0.38075027
200	0x3cebfd12	0.028807197
201	0x3ed476bd	0.4149684
202	0x3e6d691c	0.23184627
203	0xbeacc5c7	-0.33744642
204	0xbeaada92	-0.3336988
205	0xbe10caea	-0.14139906
206	0x3e2b0852	0.16702393
207	0xbddec790	-0.10877907
208	0x3ec85c87	0.39133093
209	0xbe8352f3	-0.25649223
210	0xbe095d20	-0.1341443
211	0x3e9cef26	0.30651206
212	0x3e33c199	0.1755432
213	0x3e7e0312	0.24805859
214	0x3e3305ff	0.17482756
215	0x3ec4be6e	0.38426536
216	0xbe26548c	-0.1624319
217	0x3e69c53d	0.22829147
218	0x3e0a9e8e	0.13537046
219	0xbe581625	-0.21102197
220	0x3e0f57fc	0.13998407
221	0xbea8a4b1	-0.3293815
222	0x3dfdb36a	0.12387736
223	0xbe27d9c9	-0.16391672
224	0x3e9a1b86	0.30099124
225	0xbd405686	-0.046957515
226	0x3e7901a0	0.24317026
227	0x3dcc7810	0.099838376
228	0x3e995f53	0.2995554
229	0x3ea4868b	0.32133898
230	0xbe86ce90	-0.2632947
231	0xbe167b1c	-0.146954
232	0xbcb2f7fe	-0.021846768
233	0x3e8fe558	0.28104663
234	0x3e77c06d	0.24194498
235	0xbe486be5	-0.19572408
236	0x3c99f1c9	0.01879205
237	0x3e56e82c	0.20987004
238	0xbed55884	-0.41669095
239	0xbe1adb5e	-0.15122744
240	0x3eac74e0	0.3368292
241	0xbd2fb76a	-0.042899527
242	0x3e0fa867	0.14029084
243	0xbeb9958e	-0.36246914
244	0x3e07b534	0.13252717
245	0xbe77ef35	-0.24212344
246	0x3e10a2da	0.14124623
247	0x3db1088b	0.086442076
248	0xbe14a9da	-0.14517918
249	0x3d4db468	0.050220877
250	0xbe7defa4	-0.24798447
251	0x3db5e16c	0.088808864
252	0xbe5b5702	-0.2141991
253	0xbebe0a14	-0.37117064
254	0x3ea2b9a8	0.3178227
255	0xbe8d9116	-0.27649754

encoder.encoder_layer.encoderlayer.self_attn.out_proj.bias f4 [16]
0	0x00000000	0.0
1	0x00000000	0.0
2	0x00000000	0.0
3	0x00000000	0.0
4	0x00000000	0.0
5	0x00000000	0.0
6	0x00000000	0.0
7	0x00000000	0.0
8	0x00000000	0.0
9	0x00000000	0.0
10	0x00000000	0.0
11	0x00000000	0.0
12	0x00000000	0.0
13	0x00000000	0.0
14	0x00000000	0.0
15	0x00000000	0.0

encoder.encoder_layer.encoderlayer.linear1.weight f4 [64, 16]
0	0xbd7beb26	-0.061503552
1	0x3d93524b	0.071934305
2	0x3da477c2	0.080306545
3	0xbd022037	-0.031769004
4	0x3de2ac3c	0.11068007
5	0xbd871458	-0.06595677
6	0x3dd84841	0.10560656
7	0xbe58787c	-0.21139711
8	0x3c3edf6d	0.011649949
9	0xbe546648	-0.20742142
10	0x3d9b4e30	0.075832725
11	0xbe06a9f5	-0.13150771
12	0x3e4f3c06	0.20237741
13	0xbe4e7ed2	-0.20165566
14	0xbe7ad47c	-0.24495119
15	0xbd8b09b8	-0.06788963
16	0x3d50d465	0.050983805
17	0xbe4e69cf	-0.2015755
18	0xbe80ef1c	-0.25182426
19	0x3dfd34a5	0.12363557
20	0x3e32962e	0.17440102
21	0x3e1d0256	0.15332922
22	0x3e48d6f2	0.19613245
23	0x3d97ddbe	0.07415341
24	0xbd9ccfc1	-0.076568134
25	0x3e3f6a15	0.18692811
26	0x3e4c5ca8	0.1995722
27	0xbc5d10e3	-0.013492796
28	0xbd06da19	-0.032922838
29	0x3e463eb0	0.19359851
30	0x3e81b580	0.25333786
31	0xbe82ffb0	-0.255857
32	0xbe1fcafc	-0.15604776
33	0x3e3c7a7b	0.18406098
34	0xbd4ead5a	-0.05045829
35	0x3de541f2	0.11194219
36	0xbe677b47	-0.2260562
37	0xbe59a522	-0.212544
38	0xbdd148d6	-0.102189705
39	0x3bc9d266	0.0061591147
40	0xbd809ffc	-0.062805146
41	0xbe22c4a7	-0.1589533
42	0xbd229a94	-0.0396982
43	0xbdafb819	-0.08580036
44	0xbe7f6081	-0.24939157
45	0x3da9d3e4	0.08292368
46	0xbe0fd6d1	-0.1404679
47	0xbe1da2e4	-0.15394169
48	0x3df908d6	0.121598884
49	0xbe5b9b39	-0.21445931
50	0xbe136764	-0.14394909
51	0x3dbd0ef0	0.09231365
52	0xbe46c885	-0.1941243
53	0x3e25cd6e	0.16191646
54	0x3e63afc8	0.22235024
55	0xbe3020d5	-0.17200024
56	0x3d0c1d7f	0.034207817
57	0x3e0d39c6	0.1379157
58	0xbe0e86a8	-0.13918555
59	0xbe1d6193	-0.15369253
60	0x3dbcbda0	0.092158556
61	0x3ca25b2d	0.019818867
62	0x3e6045ec	0.21901673
63	0x3e8a1724	0.2697078
64	0x3dd337d7	0.10313385
65	0x3e16a111	0.1470988
66	0xbe5d911b	-0.21637385
67	0xbcf46fbc	-0.029838435
68	0xbd969e33	-0.07354393
69	0x3e09cd1c	0.1345715
70	0xbe4e4f6f	-0.20147489
71	0x3dd12cd7	0.10213631
72	0xbe05393d	-0.13010116
73	0x3e8ab22a	0.27089053
74	0x3d78efe6	0.06077566
75	0xbd3db11d	-0.046311487
76	0xbe19e654	-0.1502927
77	0xbe1b5211	-0.15168025
78	0xbdd79979	-0.105273195
79	0xbd8dabcb	-0.069175325
80	0xbd32bb9d	-0.043635953
81	0x3e1e51aa	0.1546084
82	0xbe62af56	-0.22137198
83	0xbe0af3ae	-0.13569519
84	0x3e57c4bc	0.21071142
85	0xbc80e08c	-0.015732072
86	0xbe44ef87	-0.19231997
87	0xbdd497df	-0.103805296
88	0xbdfd63c4	-0.123725444
89	0xbd64adc2	-0.05582977
90	0x3e7bf0ca	0.24603572
91	0xbda5e05e	-0.08099435
92	0x3dd834c5	0.1055694
93	0x3e0b17d9	0.13583316
94	0xbd97c6b0	-0.074109435
95	0x3e86c205	0.263199
96	0x3e24feca	0.1611282
97	0x3da7cd51	0.08193458
98	0xbd626a43	-0.05527712
99	0x3c7686c9	0.015046784
100	0x3e50aea3	0.20379119
101	0xbe62f41e	-0.22163436
102	0x3e0cde7e	0.13756749
103	0x3c4c787a	0.012479896
104	0x3e410e25	0.18853052
105	0xbd4871c4	-0.04893662
106	0x3e5caccc	0.21550292
107	0xbe707252	-0.2348111
108	0xbde887ca	-0.11354025
109	0xbe56e016	-0.2098392
110	0x3e637918	0.22214162
111	0x3d09a613	0.033605646
112	0xbe847d58	-0.2587688
113	0xbe505bca	-0.20347515
114	0xbe7e707d	-0.24847598
115	0x3dc9adfe	0.098476395
116	0x3e5453b8	0.20735061
117	0xbdcc07f1	-0.09962452
118	0xbdb89e2b	-0.09014543
119	0xbccbeae4	-0.024892278
120	0x3d8da618	0.069164455
121	0xbdb207c6	-0.08692889
122	0xbe7b202c	-0.24523991
123	0x3dd581ca	0.10425146
124	0x3daa02a8	0.08301288
125	0xbd77cfef	-0.060501035
126	0x3e82d915	0.25556245
127	0x3c2ad344	0.010426346
128	0xbe897fe0	-0.26855373
129	0xbe61cd54	-0.22050983
130	0xbde6c667	-0.11268311
131	0xbb6d34e8	-0.0036194865
132	0x3e570108	0.20996487
133	0xbdaa2ea9	-0.08309681
134	0x3dcaeff7	0.09909051
135	0xbe0addae	-0.13561127
136	0xbc80d087	-0.015724434
137	0x3e2139fc	0.15744776
138	0x3d190a41	0.037363295
139	0xbda320f4	-0.0796527
140	0xbe3575cd	-0.17720719
141	0xbe5e7eb3	-0.2172802
142	0xbe514eec	-0.20440263
143	0xbe880ab3	-0.26570663
144	0xbe1e984e	-0.15487787
145	0xbe8244fd	-0.2544326
146	0x3e7c077a	0.24612227
147	0xbe862f3f	-0.2620792
148	0x3e85761b	0.2606667
149	0xbe327d25	-0.17430551
150	0x3c85a85e	0.016315635
151	0xbcf3f1c2	-0.029778365
152	0x3d52ad14	0.05143459
153	0x3da894d8	0.08231515
154	0x3dc52434	0.09626046
155	0xbcff37c6	-0.031154525
156	0x3d96f799	0.07371444
157	0xbd28838e	-0.041141085
158	0x3e83ebd8	0.25765872
159	0x3e84f57c	0.2596854
160	0x3e826d70	0.2547412
161	0x3e79cd74	0.2439478
162	0x3ded9a26	0.11601667
163	0xbe518dce	-0.2046425
164	0xbcc266e6	-0.023730706
165	0xbe10dac9	-0.1414596
166	0xbe125751	-0.14291121
167	0x3e84ed19	0.2596214
168	0xbbf7d7a3	-0.0075635477
169	0xbe5acc86	-0.21367082
170	0x3dcd611b	0.10028287
171	0x3da423af	0.080146186
172	0x3d7b916e	0.06141799
173	0x3d92b8ae	0.07164131
174	0x3e31da74	0.1736849
175	0x3d3c5d53	0.04598744
176	0x3e7fe280	0.24988747
177	0x3e3fca66	0.18729553
178	0x3e1db20c	0.1539995
179	0xbdd8bec7	-0.10583263
180	0x3e8b59a2	0.27216822
181	0x3e89bda6	0.26902503
182	0xbdcde69a	-0.100537494
183	0x3cf8415a	0.0303046
184	0xbe609370	-0.21931243
185	0x3df29847	0.11845451
186	0xbcb4c83a	-0.022068132
187	0xbe6ee813	-0.23330717
188	0x3b4a4f8d	0.003087017
189	0xbe31599b	-0.17319338
190	0xbe173070	-0.14764571
191	0xbe807d4d	-0.25095597
192	0xbe4e5333	-0.20148925
193	0x3e178e60	0.14800406
194	0x3cc12ffe	0.023582455
195	0x3e68ec92	0.22746494
196	0x3e09b56d	0.13448115
197	0xbdc37b27	-0.09544974
198	0x3e807876	0.25091904
199	0xbe2b2982	-0.16715053
200	0x3e5a5911	0.21323039
201	0xbdc1ee84	-0.09469321
202	0xbdbdba22	-0.09264018
203	0xbe0a0073	-0.13476734
204	0xbc9b2c55	-0.018942038
205	0x3e177d0a	0.14793792
206	0xbdc45310	-0.095861554
207	0x3e3fa46b	0.18715064
208	0xbe08939f	-0.13337563
209	0x3e56015d	0.20898958
210	0x3e7ab4e6	0.2448307
211	0xbe294d7c	-0.16533464
212	0x3ce9f1d6	0.0285577
213	0x3e5ae65d	0.21376939
214	0xbcf419e0	-0.029797494
215	0xbe5975f4	-0.21236402
216	0xbb0391a8	-0.0020075832
217	0xbe3f5e79	-0.18688382
218	0xbd4ce01a	-0.050018407
219	0x3e661fce	0.2247307
220	0x3e46054c	0.19337958
221	0x3e3a9706	0.18221673
222	0xbe270e80	-0.16314125
223	0xbe18fbe0	-0.14939833
224	0x3bfa4ac8	0.007638309
225	0x3e32dc46	0.1746684
226	0xbe4b4788	-0.19851506
227	0xbe13c586	-0.14430818
228	0xbe88dffb	-0.26733384
229	0x3e0489f6	0.12943253
230	0xbe36cfe2	-0.17852738
231	0x3dab713c	0.08371207
232	0xbe3de2a7	-0.18543492
233	0xbd9a219c	-0.07525942
234	0xbe87a4e4	-0.2649299
235	0xbe3fa6f4	-0.18716031
236	0xbd25efca	-0.040511884
237	0xbded017d	-0.115725495
238	0x3d9b0ab7	0.07570403
239	0xbe234936	-0.15945897
240	0x3d0ea28b	0.03482298
241	0xbce1d8fa	-0.027569283
242	0x3aacc8fa	0.0013182454
243	0x3e066676	0.13125023
244	0xbe390ed6	-0.18072066
245	0xbdb01361	-0.08597446
246	0xbe12e468	-0.14344943
247	0x3d4d6f9a	0.05015526
248	0x3e12d4b8	0.14338958
249	0xbe245583	-0.16048245
250	0x3e223b5e	0.1584296
251	0x3db68e4b	0.08913859
252	0x3de5088e	0.11183272
253	0xbe7e207e	-0.24817082
254	0xbe600bfa	-0.21879569
255	0xbcca0d7f	-0.024664639

encoder.encoder_layer.encoderlayer.linear1.bias f4 [64]
0	0x3d9a2fd8	0.07528657
1	0xbe055a88	-0.13022816
2	0x3dcf4cf8	0.101221025
3	0x3d9bdc24	0.07610348
4	0x3e4cc087	0.19995318
5	0x3c8d1ad0	0.0172247
6	0x3b91e7c0	0.0044526756
7	0xbe0fb678	-0.1403445
8	0xbdca89f4	-0.09889594
9	0x3e1ade6a	0.15123907
10	0x3e2ca014	0.1685794
11	0xbd21e8b0	-0.03952855
12	0x3e57f69a	0.21090165
13	0x3ddf87c9	0.10914571
14	0x3e592cdc	0.21208519
15	0x3e775300	0.24152756
16	0x3e1f434e	0.15553018
17	0xbe7d73ee	-0.24751255
18	0x3e1ec7a0	0.15505838
19	0x3e6fe61e	0.23427626
20	0xbdd89b74	-0.10576525
21	0xbd29cc60	-0.041454673
22	0x3e65edd2	0.22454002
23	0xbe5e03b0	-0.21681094
24	0xbd7d72f8	-0.06187722
25	0x3d934f10	0.07192814
26	0x3e49fad3	0.19724588
27	0x3e5a8fee	0.21343967
28	0xbe6bf853	-0.23043947
29	0xbd7dc120	-0.061951756
30	0x3c491320	0.012272626
31	0x3e01f5be	0.126914
32	0xbdb1a608	-0.08674246
33	0xbe1c46ca	-0.15261379
34	0x3e1a33c8	0.15058815
35	0xbe7bb9e4	-0.2458263
36	0x3d84f900	0.064928055
37	0xbd5be558	-0.053685516
38	0xbe47f20f	-0.19525932
39	0xbe710886	-0.23538408
40	0x3d409188	0.04701379
41	0xbe54add6	-0.20769438
42	0x3c52e5e0	0.012872189
43	0xbdb9f084	-0.09079078
44	0x3c653d60	0.013991684
45	0xbd22e0e0	-0.03976524
46	0xbde2670e	-0.11054812
47	0xbe4d3350	-0.20039105
48	0x3de3b7c8	0.11119038
49	0xbda80f24	-0.08206013
50	0xbe56526b	-0.20929877
51	0xbd027918	-0.031853765
52	0x3d43e570	0.04782623
53	0x3e5ebf25	0.21752603
54	0x3df65092	0.12027086
55	0x3e2a3164	0.16620404
56	0x3bbec140	0.005821377
57	0xbd858b24	-0.065206796
58	0xbe44295a	-0.191564
59	0x3dc084e8	0.0940035
60	0xbe069a22	-0.13144735
61	0xbe125d7a	-0.14293471
62	0xbe26a9be	-0.16275689
63	0x3dfd8e1c	0.12380621

encoder.encoder_layer.encoderlayer.linear2.weight f4 [16, 64]
0	0x3d41a610	0.04727751
1	0xbd6f0560	-0.058354735
2	0x3e0e3823	0.13888602
3	0xbe81c26c	-0.25343645
4	0x3e554b15	0.20829423
5	0xbd094483	-0.033512603
6	0xbe59aac5	-0.2125655
7	0xbd89ea02	-0.067340866
8	0x3d3486c8	0.04407385
9	0x3e875ee2	0.26439577
10	0x3d9d8d5e	0.07692979
11	0x3e3bbf23	0.18334632
12	0xbdd71ff5	-0.10504142
13	0xbe575fae	-0.21032593
14	0xbe6f3cd7	-0.23363052
15	0xbe5bd8b6	-0.21469387
16	0x3e149fc5	0.14514072
17	0x3dc7261a	0.09724064
18	0x3e543d03	0.20726399
19	0xbbb09114	-0.0053883884
20	0x3db6110d	0.08889971
21	0x3db1b68a	0.08677395
22	0x3d897b21	0.06712938
23	0x3e284265	0.16431578
24	0x3d0208a9	0.03174654
25	0xbe0e8ea8	-0.13921607
26	0xbe16e0ce	-0.14734194
27	0x3e377d15	0.17918809
28	0x3e8118a4	0.25214112
29	0x3e27da76	0.1639193
30	0xbe179c5e	-0.14805743
31	0xbcfa1cb3	-0.030531263
32	0xbe1dc25c	-0.15406173
33	0x3d93cc2e	0.072166786
34	0xbcd171ef	-0.025567023
35	0xbdf5b820	-0.1199801
36	0xbde099ba	-0.10966821
37	0xbdbb2c24	-0.091392785
38	0xbde0c1a0	-0.10974431
39	0x3e72102b	0.2363898
40	0xbd5bdab6	-0.053675376
41	0xbddb2d27	-0.107019715
42	0x3e7f824d	0.2495205
43	0xbdd7d078	-0.10537809
44	0x3e7fd0f4	0.24982053
45	0xbe12a04c	-0.14318961
46	0x3ca5cb06	0.02023841
47	0x3e7a392d	0.24435873
48	0xbe3e0b2d	-0.1855895
49	0x3e61256c	0.21986932
50	0xbda096c2	-0.07841255
51	0xbe2d0678	-0.16896999
52	0xbdf8ee5c	-0.121548384
53	0x3e7bb412	0.2458041
54	0xbd47cccd	-0.048779298
55	0x3e5ac1d4	0.21363002
56	0xbcba045f	-0.022707162
57	0xbe04f482	-0.12983897
58	0xbe53d07a	-0.20684996
59	0xbe57fda6	-0.21092853
60	0x3e03eced	0.12883349
61	0x3e4c6728	0.19961226
62	0xbe51dcf8	-0.20494449
63	0xbe800986	-0.25007266
64	0x3db39e10	0.087703824
65	0x3cf80b1f	0.03027874
66	0x3e16e436	0.14735493
67	0x3e0cf67f	0.13765906
68	0xbc786819	-0.015161538
69	0xbc19ad22	-0.009379657
70	0x3e6ca726	0.23110637
71	0x3e4637e1	0.19357254
72	0x3dc543d5	0.096320786
73	0xbe336d53	-0.17522173
74	0x3d4cef3b	0.050032835
75	0xbe0336e2	-0.12813905
76	0xbdd100e5	-0.10205249
77	0xbe42522f	-0.18976663
78	0x3e4e8464	0.2016769
79	0x3d0aaf00	0.0338583
80	0xbe3cd493	-0.18440466
81	0x3d0c6e98	0.034285158
82	0x3e30a295	0.1724952
83	0x3d947d7d	0.072504975
84	0x3e097258	0.13422525
85	0xbe75b722	-0.23995641
86	0xbcc87d72	-0.02447388
87	0x3e1b9c72	0.15196398
88	0xbe7f6bf2	-0.24943522
89	0xbd977044	-0.0739446
90	0x3e113a9b	0.14182512
91	0xbe62f95d	-0.22165437
92	0x3d5296dd	0.051413406
93	0xbe72404c	-0.2365734
94	0x3e1f4474	0.15553457
95	0xbe85438d	-0.260281
96	0xbcfae9c2	-0.030629043
97	0x3d88dece	0.066831216
98	0x3dd595a8	0.10428935
99	0x3df4d740	0.11955118
100	0x3ddaccc4	0.10683587
101	0xbd860421	-0.06543756
102	0x3dcedb1a	0.10100384
103	0xbdcd4ffe	-0.10025023
104	0xbe6f8146	-0.23389158
105	0x3dac8856	0.084244415
106	0xbc47ee9f	-0.012202888
107	0x3de034ea	0.109475926
108	0x3e767098	0.24066389
109	0x3e859a64	0.26094353
110	0xbe843157	-0.25818893
111	0x3e821e46	0.25413722
112	0xbd459833	-0.04824085
113	0x3e13c404	0.14430243
114	0x3e3ff45c	0.1874556
115	0xbdf5fa6a	-0.12010653
116	0x3d9ac23f	0.07556581
117	0x3e119eb1	0.14220692
118	0x3dd85330	0.10562742
119	0x3d5e6ae3	0.054301154
120	0xbe0251e5	-0.12726553
121	0x3e823e93	0.25438365
122	0xbe5e8552	-0.21730545
123	0x3d21cc38	0.0395014
124	0xbe3ecc44	-0.18632609
125	0xbe07d979	-0.13266553
126	0xbe1be574	-0.15224248
127	0x3e822bed	0.25424138
128	0x3e216d4f	0.15764354
129	0x3e74e73a	0.23916331
130	0xbe19ca4e	-0.1501858
131	0xbd13f232	-0.036119647
132	0x3e535258	0.2063688
133	0x3ba612c6	0.005068156
134	0xbd872ded	-0.066005565
135	0xbdac61b0	-0.0841707
136	0xbb2f0ad4	-0.0026709335
137	0xbd81eac2	-0.063436046
138	0xbcb1805e	-0.021667656
139	0xbcfd5d3e	-0.03092825
140	0x3e3f1362	0.18659738
141	0xbe5e6765	-0.2171913
142	0x3c700a17	0.014650843
143	0x3c084984	0.008318309
144	0x3e83957f	0.25699994
145	0xbdb6de89	-0.08929164
146	0xbe6eefd8	-0.2333368
147	0xbe80e568	-0.25175023
148	0xbe69d5b0	-0.22835422
149	0xbe866cb0	-0.26254797
150	0xbe84f756	-0.25969952
151	0xbcb9917c	-0.02265238
152	0x3dd9761e	0.10618232
153	0xbe4468fa	-0.1918067
154	0xbd56a890	-0.052406847
155	0x3dd961d0	0.106143594
156	0x3e74eaca	0.2391769
157	0xbe553bb3	-0.20823555
158	0x3e065250	0.13117337
159	0xbd24cfdc	-0.040237293
160	0xbd64902d	-0.05580156
161	0x3e4b3f1f	0.19848298
162	0x3dafab05	0.08577541
163	0x3e89d1a5	0.2691776
164	0x3e4f8670	0.20266128
165	0xbdb03715	-0.08604256
166	0x3e0a56c9	0.13509668
167	0xbe2da9e4	-0.1695934
168	0xbdd58ecf	-0.10427629
169	0xbe3e5cc2	-0.18590072
170	0x3e0a13ca	0.13484111
171	0x3e599610	0.2124865
172	0xbdab0ff6	-0.08352654
173	0xbcbc9592	-0.02302054
174	0x3e81ff6d	0.25390187
175	0x3cd13023	0.025535649
176	0x3de6b4c1	0.11264945
177	0x3e82b903	0.25531778
178	0x3e3140ca	0.17309871
179	0x3bb8a0e6	0.005634415
180	0x3e7ce79a	0.24697724
181	0x3d9ecf2c	0.07754359
182	0xbe358420	-0.17726183
183	0xbe11aafc	-0.14225382
184	0x3cae2d00	0.021261692
185	0x3e5590d6	0.20856032
186	0x3d4bf422	0.04979337
187	0xbe573972	-0.21018007
188	0x3db36a08	0.08760458
189	0x3d4c1b06	0.04983046
190	0x3e779dc6	0.2418128
191	0x3db39ad4	0.087697655
192	0xbe868b37	-0.26278087
193	0xbd5481b0	-0.051881492
194	0xbe7152e2	-0.23566774
195	0x3e1aeda3	0.15129714
196	0xbdccf7bd	-0.1000819
197	0xbe652969	-0.22379078
198	0xbe7d51b2	-0.24738196
199	0x3e7ed622	0.24886373
200	0x3c741b96	0.014899155
201	0x3e016c68	0.1263901
202	0x3e2148d8	0.15750444
203	0xbe8760ac	-0.26440942
204	0x3e3656a2	0.17806485
205	0x3dd4608d	0.10369978
206	0x3d6e0b6a	0.058116354
207	0xbdf22b55	-0.11824671
208	0xbd42a776	-0.047522984
209	0xbe147eb0	-0.14501452
210	0x3e770a66	0.2412506
211	0xbe87b505	-0.26505294
212	0x3e70db9f	0.23521279
213	0x3e062f19	0.13103904
214	0xbc820205	-0.015870104
215	0x3e6a4e00	0.22881317
216	0x3dd27a20	0.102772
217	0x3dd40841	0.10353137
218	0x3d0094c2	0.031391867
219	0xbe24aab3	-0.16080742
220	0x3d4b5494	0.049641207
221	0x3e2d3642	0.16915229
222	0x3de30458	0.11084813
223	0x3e0ee3fa	0.13954154
224	0xbdb79da3	-0.08965614
225	0xbdd180fa	-0.102296785
226	0xbbe55e99	-0.0069998023
227	0x3e0521e2	0.13001207
228	0x3e1e6059	0.15466441
229	0x3e8692f6	0.26283997
230	0x3e7b98e0	0.24570036
231	0x3e812086	0.25220126
232	0x3d413e33	0.04717846
233	0x3e5c4460	0.21510458
234	0x3deeae12	0.11654295
235	0xbe0b7d62	-0.13622048
236	0x3e3bcebf	0.18340586
237	0xbde9d661	-0.11417843
238	0xbda0a2b8	-0.07843536
239	0xbce2876e	-0.027652469
240	0xbe3677b2	-0.17819098
241	0xbe230a12	-0.1592181
242	0x3dd6f83d	0.104965664
243	0xbc0d6df8	-0.008632176
244	0xbd5d17c6	-0.05397775
245	0xbe4559c9	-0.19272532
246	0xbe0bd2a3	-0.1365457
247	0xbd84c3d4	-0.06482664
248	0xbe2bcc61	-0.16777183
249	0x3e5789d1	0.21048667
250	0xbd54925c	-0.05189739
251	0x3da25dc2	0.07928039
252	0xbe0cef7d	-0.13763233
253	0x3d820f40	0.06350565
254	0xbd9e993d	-0.07744072
255	0xbd174fa0	-0.03694117

encoder.encoder_layer.encoderlayer.linear2.bias f4 [16]
0	0x3dc555a8	0.09635478
1	0xbdbe51c6	-0.09292941
2	0xbd9cb182	-0.076510444
3	0x3b447240	0.0029975325
4	0xbcf48cf0	-0.02985236
5	0x3d733c34	0.059383586
6	0x3dcacd5e	0.09902452
7	0xbcfd9cb0	-0.030958503
8	0xbcb255d8	-0.02176945
9	0x3b986840	0.0046510994
10	0xbdef1b6a	-0.11675151
11	0x3cae0160	0.02124089
12	0x3d85b864	0.0652931
13	0x3c5ffcd0	0.013671115
14	0xbcf53080	-0.029930353
15	0xbceca028	-0.028884962

encoder.encoder_layer.encoderlayer.norm1.weight f4 [16]
0	0x3f800000	1.0
1	0x3f800000	1.0
2	0x3f800000	1.0
3	0x3f800000	1.0
4	0x3f800000	1.0
5	0x3f800000	1.0
6	0x3f800000	1.0
7	0x3f800000	1.0
8	0x3f800000	1.0
9	0x3f800000	1.0
10	0x3f800000	1.0
11	0x3f800000	1.0
12	0x3f800000	1.0
13	0x3f800000	1.0
14	0x3f800000	1.0
15	0x3f800000	1.0

encoder.encoder_layer.encoderlayer.norm1.bias f4 [16]
0	0x00000000	0.0
1	0x00000000	0.0
2	0x00000000	0.0
3	0x00000000	0.0
4	0x00000000	0.0
5	0x00000000	0.0
6	0x00000000	0.0
7	0x00000000	0.0
8	0x00000000	0.0
9	0x00000000	0.0
10	0x00000000	0.0
11	0x00000000	0.0
12	0x00000000	0.0
13	0x00000000	0.0
14	0x00000000	0.0
15	0x00000000	0.0

encoder.encoder_layer.encoderlayer.norm2.weight f4 [16]
0	0x3f800000	1.0
1	0x3f800000	1.0
2	0x3f800000	1.0
3	0x3f800000	1.0
4	0x3f800000	1.0
5	0x3f800000	1.0
6	0x3f800000	1.0
7	0x3f800000	1.0
8	0x3f800000	1.0
9	0x3f800000	1.0
10	0x3f800000	1.0
11	0x3f800000	1.0
12	0x3f800000	1.0
13	0x3f800000	1.0
14	0x3f800000	1.0
15	0x3f800000	1.0

encoder.encoder_layer.encoderlayer.norm2.bias f4 [16]
0	0x00000000	0.0
1	0x00000000	0.0
2	0x00000000	0.0
3	0x00000000	0.0
4	0x00000000	0.0
5	0x00000000	0.0
6	0x00000000	0.0
7	0x00000000	0.0
8	0x00000000	0.0
9	0x00000000	0.0
10	0x00000000	0.0
11	0x00000000	0.0
12	0x00000000	0.0
13	0x00000000	0.0
14	0x00000000	0.0
15	0x00000000	0.0

encoder.transformer_encoder.layers.0.encoderlayer.self_attn.in_proj_weight f4 [48, 16]
0	0xbe47205e	-0.19445941
1	0xbdf605f9	-0.12012858
2	0xbe289284	-0.16462141
3	0xbd166517	-0.0367175
4	0xba8a687c	-0.0010559703
5	0xbec5007e	-0.38476938
6	0xbef20e20	-0.47276402
7	0xbf08dff6	-0.5346674
8	0xbe0655bc	-0.13118643
9	0xbeb27126	-0.3485195
10	0xbeb95d1d	-0.36203852
11	0xbf08fa2f	-0.5350675
12	0xbed949ad	-0.42439023
13	0xbef0a3d9	-0.47000006
14	0xbc0ab9ca	-0.008467147
15	0x3da862da	0.082219794
16	0x3e264a93	0.16239385
17	0x3e8d582d	0.27606335
18	0x3f1ee942	0.62074673
19	0x3f1422fa	0.5786587
20	0x3efc7071	0.49304536
21	0xbd2f39a4	-0.04277958
22	0x3e260582	0.16213039
23	0x3f097e2c	0.5370815
24	0x3e334ada	0.17509022
25	0x3ee4082d	0.44537488
26	0x3f2d104b	0.67602986
27	0x3e3d1f7a	0.18469039
28	0x3ef0a4a6	0.47000617
29	0x3e92d6fa	0.2867964
30	0x3eb02af7	0.3440778
31	0x3e04c88c	0.12967128
32	0xbe61b44d	-0.22041436
33	0x3e805584	0.25065243
34	0xbefcc409	-0.49368313
35	0xbe5930ed	-0.2121007
36	0xbec26f5f	-0.37975594
37	0xbdebac70	-0.11507499
38	0xbdca9699	-0.098920055
39	0xbdd56441	-0.104195125
40	0xbed5d3ab	-0.41763052
41	0x3e664f03	0.22491078
42	0xbd2b0943	-0.04175688
43	0xbe9ee6e4	-0.3103553
44	0xbd145685	-0.036215324
45	0x3db974cc	0.0905548
46	0x3e0c889d	0.13723989
47	0xbe548b78	-0.20756328
48	0xbe38a3bc	-0.1803121
49	0xbdc9cc1f	-0.09853386
50	0xbea3ac14	-0.31967223
51	0xbe8bca25	-0.27302662
52	0xbdd3f6de	-0.103498206
53	0xbf1082c8	-0.56449556
54	0xbed0365a	-0.40666467
55	0xbee1a5b1	-0.44071725
56	0xbf1404df	-0.5781993
57	0xbef26eda	-0.47350198
58	0xbed96d7e	-0.42466348
59	0xbe806544	-0.2507726
60	0xbe287bf8	-0.1645354
61	0xbf0e4d38	-0.55586576
62	0xbf25f7e7	-0.64831394
63	0xbf238aa5	-0.6388343
64	0x3e078145	0.13232906
65	0x3e807284	0.25087368
66	0xbe6f54dc	-0.23372215
67	0xbdd4aae9	-0.10384161
68	0xbe076d6c	-0.13225335
69	0x3daaaa7f	0.08333301
70	0xbea38145	-0.31934562
71	0x3e0122ef	0.12610982
72	0xbe8c40c8	-0.27393174
73	0x3e4985db	0.19679968
74	0xbe8d918b	-0.27650103
75	0x3d068e49	0.032850537
76	0xbdeb7db0	-0.11498582
77	0x3d004b37	0.03132173
78	0x3e163e1a	0.14672127
79	0x3e92d6e8	0.28679585
80	0x3f37e7b1	0.7183791
81	0x3f4882bc	0.78324485
82	0x3e861c62	0.2619353
83	0x3e938eb0	0.288198
84	0x3ed78aa4	0.42097962
85	0x3f670076	0.9023508
86	0x3e8ad9a1	0.27119163
87	0x3ea2b808	0.3178103
88	0x3ee92f29	0.45543793
89	0x3f66c12e	0.9013852
90	0x3eb2ee21	0.34947303
91	0x3e9df2cb	0.308493
92	0x3ebdeed8	0.37096286
93	0x3ef2bc08	0.4740908
94	0x3f6fef1f	0.93724245
95	0x3f1d8c1c	0.61541915
96	0xbeaa058b	-0.33207354
97	0xbf2faca2	-0.6862279
98	0xbf26a90f	-0.6510171
99	0xbecb69ea	-0.39729244
100	0xbf2785c6	-0.654385
101	0xbf251cd3	-0.6449711
102	0xbf0a19a2	-0.5394536
103	0xbece1368	-0.4024918
104	0xbf37c7fb	-0.7178952
105	0xbee8f6b8	-0.4550073
106	0xbf326460	-0.6968441
107	0xbf1059c5	-0.5638698
108	0xbf220258	-0.63284826
109	0xbec7e112	-0.39038903
110	0xbf366fec	-0.7126453
111	0xbf15ce5a	-0.5851799
112	0x3ec19f1b	0.378167
113	0x3f0884b5	0.53327495
114	0x3ef5aa4a	0.47981483
115	0x3ebd2e36	0.3694932
116	0x3db0796e	0.08616911
117	0x3f07b5dc	0.5301187
118	0x3f2721ce	0.65285957
119	0x3f15ac82	0.5846635
120	0x3ec36d9d	0.38169566
121	0x3ee23a97	0.44185326
122	0x3f2ddec4	0.6791804
123	0x3f0c9de0	0.549284
124	0x3f14f7fa	0.5819088
125	0x3eabe066	0.3356964
126	0xb95a9502	-0.0002084561
127	0x3d62d4ba	0.055378653
128	0xbdf73fd4	-0.12072721
129	0x3ed761ba	0.42066747
130	0x3ef7bb77	0.48385212
131	0x3ec761d8	0.38941836
132	0xbd605e1c	-0.05477725
133	0x3ebc2b5e	0.36751837
134	0x3e9bc635	0.30424657
135	0x3df2b1f2	0.118503466
136	0xbd8037c5	-0.06260637
137	0x3ef75a5b	0.48311123
138	0x3eaf02b5	0.34181753
139	0x3d7316bc	0.059347853
140	0x3c3ba843	0.011453691
141	0x3ed02440	0.40652657
142	0x3edde94b	0.4334205
143	0x3caa155c	0.020762138
144	0x3cb7ed37	0.02245198
145	0xbeca8dcd	-0.3956131
146	0xbea6da43	-0.32588395
147	0xbe0a602b	-0.13513248
148	0xbd25d20b	-0.040483516
149	0xbea55233	-0.32289276
150	0xbeaf62a9	-0.3425496
151	0xbf2475c8	-0.6424222
152	0x3d848e83	0.064724945
153	0xbe96a6c6	-0.29424113
154	0x3d7c439f	0.061587926
155	0xbf178cec	-0.59199405
156	0xbe8204ab	-0.25394186
157	0xbeab9d68	-0.3351853
158	0xbdd91ba5	-0.10600976
159	0xbeb34c84	-0.35019314
160	0xbe8f2bcb	-0.279631
161	0xbef2ef7a	-0.4744833
162	0xbeea86a7	-0.45805857
163	0xbe3d5cbc	-0.18492407
164	0xbe248eb0	-0.16070056
165	0xbd45a6c1	-0.048254732
166	0xbe9765b6	-0.29569787
167	0xbf218efd	-0.6310881
168	0x3d746259	0.059664104
169	0xbecc8028	-0.39941525
170	0x3d9c56a7	0.07633715
171	0xbf076495	-0.5288785
172	0xbeee18a0	-0.46503162
173	0xbeab44e9	-0.33451012
174	0xbe6adfa4	-0.22936875
175	0xbe3b7d73	-0.18309574
176	0x3e1071aa	0.1410586
177	0x3e98fca6	0.29880255
178	0x3d1cddc3	0.038297426
179	0x3ee6b690	0.4506116
180	0x3ed69c61	0.41916183
181	0x3e8d026b	0.27540907
182	0x3e208726	0.15676555
183	0x3f0a3a15	0.53994876
184	0x3e227262	0.15863946
185	0x3e833c8e	0.25632137
186	0x3e882712	0.26592308
187	0x3eebdca6	0.4606678
188	0xbd5c49b3	-0.053781223
189	0x3ea72602	0.32646185
190	0x3f073ea5	0.5282996
191	0x3ecfe2d6	0.4060275
192	0xbecea22a	-0.40358096
193	0xbec0e858	-0.37677264
194	0xbeea8b15	-0.45809236
195	0xbed902ee	-0.42385048
196	0xbf024370	-0.5088415
197	0xbed5528e	-0.41664547
198	0xbeb27958	-0.34858203
199	0xbe713f6f	-0.23559354
200	0xbd446a9c	-0.047953233
201	0xbf13bfba	-0.57714427
202	0xbd955d6a	-0.07293208
203	0x3d25bccb	0.04046325
204	0xbd66f276	-0.056383573
205	0xbe94541c	-0.2897042
206	0xbeb6c1a7	-0.3569462
207	0xbf05ec62	-0.52313817
208	0xbeab6d51	-0.3348184
209	0x3dd59b75	0.10430042
210	0xbd695282	-0.05696345
211	0xbde30b30	-0.11086118
212	0xbea56c83	-0.3230935
213	0xbebf8bf5	-0.37411466
214	0xbe340e4b	-0.17583577
215	0xbf1467fa	-0.57971156
216	0xbef7490a	-0.48297912
217	0xbde0a67f	-0.109692566
218	0xbe649fa6	-0.22326526
219	0xbf2329c0	-0.6373558
220	0xbdb14a16	-0.08656709
221	0xbead776f	-0.33880183
222	0xbd185b62	-0.037196524
223	0x3e0ad692	0.13558415
224	0xbcd593c3	-0.026071435
225	0xbd407bf3	-0.046993207
226	0xbe95e8c7	-0.29279158
227	0xbd78d7b8	-0.0607526
228	0xbd228280	-0.039675236
229	0x3d868cf5	0.06569854
230	0xbecaf9ee	-0.39643806
231	0xbe1077ff	-0.14108275
232	0x3d58c0f6	0.052918397
233	0xbd868a2b	-0.06569322
234	0xbe9c7b32	-0.3056274
235	0xbe58037f	-0.21095084
236	0xbeae26ef	-0.3401408
237	0xbe9190d9	-0.28430822
238	0xbddf2e5e	-0.10897516
239	0x3c5d7db3	0.013518739
240	0xbe882144	-0.2658788
241	0xbe7a3a40	-0.24436283
242	0xbde889df	-0.11354422
243	0xbe77a9bc	-0.24185842
244	0xbe18b0df	-0.14911221
245	0xbf009b0a	-0.5023657
246	0xbe4faea9	-0.20281471
247	0xbec77763	-0.38958272
248	0xbe8be67a	-0.27324277
249	0xbe429577	-0.19002329
250	0xbedb26c5	-0.42803016
251	0xbee36c06	-0.44418353
252	0xbd4446d9	-0.047919128
253	0xbe1d99bb	-0.15390675
254	0xbed3041d	-0.41214076
255	0xbd9125b7	-0.07087272

encoder.transformer_encoder.layers.0.encoderlayer.self_attn.in_proj_bias f4 [48]
0	0xbe5b6372	-0.21424654
1	0x3ea4406e	0.32080406
2	0xbdbf34b3	-0.093362235
3	0xbec62f4d	-0.38707963
4	0x3df17c1e	0.117912516
5	0x3f1fcc2c	0.62420917
6	0xbf077280	-0.5290909
7	0x3ea25070	0.31701994
8	0x3e4bdb70	0.19907928
9	0xbe4a1417	-0.19734226
10	0xbe6cebf4	-0.23136884
11	0x3e80206f	0.25024745
12	0xbe88a065	-0.2668487
13	0xbe141648	-0.14461625
14	0xbdfb4906	-0.122697875
15	0xbe8fd5ca	-0.28092796
16	0x3705a697	7.966205e-06
17	0x39cbe1c8	0.00038887397
18	0x383dd046	4.525508e-05
19	0x39ac71d2	0.000328912
20	0x37ec5ee9	2.8177588e-05
21	0x39b38908	0.00034243637
22	0x382796b0	3.995624e-05
23	0x39334984	0.00017098157
24	0xb89d3e03	-7.497894e-05
25	0xb7a2f119	-1.9424175e-05
26	0x38cb42b4	9.692219e-05
27	0xb92d6ccf	-0.000165391
28	0x399882c4	0.00029089127
29	0x37d01fd7	2.4810359e-05
30	0x391ecf47	0.00015145271
31	0x3954f7d0	0.00020310213
32	0xbd535490	-0.051594317
33	0x3cdb4c02	0.026769642
34	0x3cb94c44	0.022619374
35	0x3d26c140	0.04071164
36	0xba331395	-0.0006831226
37	0x3ad8a153	0.001652757
38	0xbc712aa7	-0.014719642
39	0x3c7e10ef	0.015506967
40	0x3d2fe6a4	0.042944565
41	0xbd1a4ca5	-0.03767075
42	0x3cead23f	0.028664706
43	0x3c8e3d3b	0.017363181
44	0x3d1e37ce	0.03862744
45	0x3caf26f0	0.021380872
46	0xbbbbd3ec	-0.00573205
47	0xbc184859	-0.009294593

encoder.transformer_encoder.layers.0.encoderlayer.self_attn.out_proj.weight f4 [16, 16]
0	0xbdc2985f	-0.09501719
1	0xbea47522	-0.32120615
2	0x3ca1431a	0.019685317
3	0xbd61282a	-0.054969944
4	0x3eedaccd	0.464209
5	0x3e2099d9	0.15683688
6	0xbe9c6916	-0.30548924
7	0xbed09944	-0.40741932
8	0x3ecaa7ea	0.39581233
9	0x3c951d00	0.018202305
10	0x3e4139f7	0.18869768
11	0x3e17085e	0.14749286
12	0x3c1d56b6	0.009603193
13	0xbe87a438	-0.26492476
14	0x3e9d18b7	0.30682918
15	0x3ed97b00	0.42476654
16	0x3b3de712	0.002897684
17	0xbde74520	-0.112924814
18	0xbdaa8c7d	-0.08327577
19	0x3c0a4be5	0.008440946
20	0xbe560008	-0.2089845
21	0xbf17e550	-0.5933428
22	0xbea83614	-0.32853758
23	0xbd2dede1	-0.042463187
24	0xbebabbd8	-0.36471438
25	0xbd7ce101	-0.061738018
26	0x3e2c2345	0.1681033
27	0xbd3676eb	-0.044547003
28	0xbe61c351	-0.22047164
29	0xbe6bf1f0	-0.2304151
30	0x3e87f351	0.26552823
31	0xbca2b583	-0.019861942
32	0x3e6717e9	0.22567715
33	0x3e8ad67a	0.27116758
34	0xbc9d496d	-0.019200051
35	0x3ec75141	0.3892918
36	0x3eb1fa3e	0.34761232
37	0xbea8cd7e	-0.32969278
38	0xbdd2a79b	-0.102858745
39	0xbdf8afe1	-0.12142921
40	0x3da19250	0.07889235
41	0x3caf1188	0.021370664
42	0xbdbe6ff4	-0.09298697
43	0xbe9e03f2	-0.30862385
44	0x3e6a5dcb	0.22887342
45	0xbe0e4d78	-0.1389674
46	0xbe5f7dd0	-0.21825337
47	0xbe3242f4	-0.17408353
48	0x3e727a56	0.2367948
49	0xbe62e11d	-0.22156186
50	0x3ebcc42d	0.3686842
51	0x3ca24c66	0.01981182
52	0x3e3affc7	0.18261634
53	0xbee58c26	-0.44833487
54	0x3d9ff7dd	0.07810948
55	0x3db51760	0.08842349
56	0xbe4e5ff6	-0.20153794
57	0xbe0351ac	-0.12824124
58	0x3e82fd66	0.25583953
59	0xbe94ea0e	-0.2908482
60	0x3e872dac	0.26402032
61	0xbe9891ec	-0.2979883
62	0xbe84da84	-0.25947964
63	0xbd8c5c48	-0.06853539
64	0xbe5fb633	-0.21846847
65	0xbeb38eb7	-0.3506982
66	0xbc9852e4	-0.018594213
67	0x3c950a53	0.0181934
68	0x3e90326c	0.2816347
69	0x3ea16364	0.31521142
70	0x3e08ea60	0.13370657
71	0xbeb99753	-0.36248264
72	0x3e9fc7ac	0.31207025
73	0xbef555b2	-0.47916943
74	0xbda09787	-0.078414015
75	0xbba1f215	-0.0049421885
76	0x3c3e1b20	0.011603147
77	0xbe3cac9b	-0.18425219
78	0x3e9e999d	0.30976573
79	0x3e824eb6	0.25450677
80	0x3ee91eea	0.45531398
81	0x3eb9fded	0.36326542
82	0x3ec82ea7	0.39098093
83	0x3e8d335c	0.27578247
84	0xbeab0b83	-0.3340722
85	0xbd543968	-0.05181256
86	0xbc680df7	-0.014163486
87	0x3edc97ee	0.43084663
88	0x3c9672cd	0.018365288
89	0xbde83d1b	-0.1133978
90	0x3ec6c93a	0.388254
91	0xbe8627da	-0.2620228
92	0x3e010ec0	0.12603283
93	0x3d372091	0.044708792
94	0x3e50d282	0.20392802
95	0x3eb27e81	0.3486214
96	0x3e138783	0.14407162
97	0x3e7da747	0.24770842
98	0xbe916dcf	-0.2840409
99	0x3d9bdd87	0.07610612
100	0xbeaa1422	-0.33218485
101	0x3e24d372	0.16096285
102	0x3c9d35a1	0.019190611
103	0xbec43457	-0.38321182
104	0xbeb37b4f	-0.35055014
105	0xbe96de1c	-0.2946633
106	0x3e062e21	0.13103534
107	0xbe7e0f2c	-0.24810475
108	0xbd9eb1bf	-0.07748746
109	0x3db9e307	0.09076505
110	0xbe77fb30	-0.24216914
111	0xbe85db61	-0.26143935
112	0x3eac45f1	0.3364711
113	0xbea76ef7	-0.32701847
114	0x3e9d4ad8	0.30721164
115	0x3eabbb9c	0.33541572
116	0x3a8c13ec	0.001068709
117	0xbec68ee0	-0.3878088
118	0xbee58381	-0.44826892
119	0x3e4af4d4	0.19819957
120	0x3e813bd2	0.25240952
121	0x3dce5123	0.10074069
122	0x3de51e0d	0.11187372
123	0x3ca2e1bc	0.01988303
124	0x3cc191c4	0.023629077
125	0x3ede71e0	0.43446255
126	0xbe009722	-0.12557653
127	0x3e9b04a1	0.3027697
128	0x3e4821a3	0.19544081
129	0xbdba6148	-0.09100586
130	0x3dc02fa7	0.09384089
131	0xbda339af	-0.07969987
132	0xbcd3fe7a	-0.02587818
133	0xbe91ca36	-0.28474587
134	0xbec2728e	-0.37978023
135	0xbe4f5aeb	-0.20249526
136	0xbdf4f399	-0.11960525
137	0x3dce599b	0.10075685
138	0xbea50534	-0.32230532
139	0xbcef6ce4	-0.029226728
140	0x3e4bcf63	0.1990333
141	0xbe7d061b	-0.2470936
142	0x3ebd692c	0.36994302
143	0xbe3c99e0	-0.18418074
144	0xbeb3ca34	-0.35115206
145	0xbea35f13	-0.31908473
146	0xbec344cf	-0.38138434
147	0xbec1557b	-0.3776053
148	0x3ea3f753	0.3202463
149	0x3ccb6ed4	0.02483312
150	0x3ecc2536	0.3987214
151	0x3efc3ae2	0.49263674
152	0xbdb5b8f4	-0.08873168
153	0x3e7e4dff	0.2483444
154	0x3e40ae0c	0.18816394
155	0x3ec5b893	0.3861738
156	0x3e4f8371	0.20264985
157	0xbe576de1	-0.21038009
158	0x3e62317b	0.22089188
159	0xbd18e18f	-0.037324484
160	0xbeafc7b8	-0.3433206
161	0xbca2eb25	-0.019887516
162	0x3e594139	0.21216287
163	0x3ea789cb	0.32722315
164	0x3eb33557	0.35001633
165	0xbe13722d	-0.14399023
166	0x3db34483	0.08753302
167	0x3db81f4a	0.08990343
168	0x3e71ca8d	0.23612423
169	0xbe2a3358	-0.16621149
170	0xbc9045ff	-0.017611502
171	0xbc468635	-0.012116958
172	0xbed4cdb8	-0.415632
173	0x3e051303	0.12995534
174	0xbe6625bf	-0.22475336
175	0x3dcb1dd8	0.099178016
176	0x3d4b11a7	0.04957738
177	0x3e507ea0	0.20360804
178	0xbecbad22	-0.39780527
179	0x3b21748b	0.0024636115
180	0x3e21d25c	0.15802902
181	0x3e8b8b60	0.27254772
182	0x3e8a3cd8	0.26999545
183	0xbda2da36	-0.07951777
184	0x3e92df83	0.2868615
185	0xbe193c17	-0.14964329
186	0x3e6b78c9	0.22995295
187	0xbe34d633	-0.17659836
188	0x3e793ab0	0.24338794
189	0xbb026843	-0.001989857
190	0xbe97dc4a	-0.29660255
191	0x3de9ec71	0.11422051
192	0x3e1abd27	0.15111218
193	0x3d568306	0.052371047
194	0xbeaab793	-0.3334318
195	0xbe858d26	-0.2608425
196	0x3cb196ae	0.021678295
197	0xbe1f07d2	-0.15530327
198	0x3e124187	0.14282809
199	0xbef566c6	-0.47929972
200	0x3e60880d	0.21926899
201	0xbe3482f2	-0.17628077
202	0x3e700f00	0.23443222
203	0x3e180d48	0.14848816
204	0x3d45b5db	0.048269134
205	0x3c97d51b	0.018534234
206	0x3e4880ea	0.19580427
207	0x3d17a6cf	0.037024315
208	0xbeb23fbf	-0.3481426
209	0x3ec305f7	0.38090488
210	0xbe88bc2d	-0.26706067
211	0x3e932fc5	0.28747383
212	0xbd4d1d27	-0.05007663
213	0x3e8a80ee	0.2705149
214	0x3eb0b84b	0.34515604
215	0x3e101557	0.1407064
216	0xbe763334	-0.2404297
217	0xbe6418d2	-0.22275093
218	0x3e3ff9be	0.18747613
219	0xbda17cff	-0.07885169
220	0xbdd50787	-0.10401826
221	0x3d3914f5	0.045186
222	0xbda12594	-0.078684956
223	0x3e6a4670	0.22878432
224	0xbe947b42	-0.29000288
225	0x3eb0ac0b	0.34506258
226	0xbc6ca290	-0.014443055
227	0xbe2a092d	-0.16605063
228	0xbe2b2c0e	-0.16716024
229	0xbdef310a	-0.11679275
230	0xbd7d6520	-0.06186402
231	0x3ef8f62c	0.48625314
232	0x3d4ff182	0.05076743
233	0xbeb3b8a2	-0.351018
234	0xbd97a50f	-0.07404529
235	0x3e23fc50	0.16014218
236	0x3e39353f	0.18086718
237	0xbe18feb1	-0.14940907
238	0xbdd8fb99	-0.105948634
239	0x3e7030ce	0.23456118
240	0xbeaee9de	-0.34162802
241	0xbebe3d9b	-0.37156376
242	0x3d6cdc96	0.057827555
243	0x3d9926da	0.074781135
244	0xbd601816	-0.05471047
245	0x3e7ed0ee	0.24884388
246	0xbe8f9fa4	-0.28051484
247	0x3f0ae080	0.5424881
248	0xbedeebc8	-0.43539262
249	0xbe9746c0	-0.29546165
250	0x3e8d03c7	0.27541944
251	0xbeab8801	-0.335022
252	0xbeacfac8	-0.3378508
253	0xbca61740	-0.020274758
254	0xbe9a38f4	-0.30121577
255	0xbe5189c3	-0.20462708

encoder.transformer_encoder.layers.0.encoderlayer.self_attn.out_proj.bias f4 [16]
0	0x3d11a459	0.035557125
1	0xbcf0f117	-0.029411836
2	0x3d1d6cde	0.038433902
3	0x3bc0d134	0.005884314
4	0xbb478fe0	-0.0030450746
5	0xbc4644c2	-0.012101354
6	0x376b821f	1.4037388e-05
7	0xba1794c6	-0.0005782362
8	0xbc138e45	-0.009006088
9	0xbd109046	-0.03529384
10	0x3d0cbfb2	0.034362502
11	0x3b441202	0.002991796
12	0x3d088b30	0.033335865
13	0x3ce22537	0.027605636
14	0xbc28a05b	-0.010292138
15	0x3c846f65	0.016166398
