Final_exp/FL_003/3stacks_3nhead_100lwin_0_0005lr_128dff_64batch_50epcs_0_1dropout/server_models/aggregated_transformer_r4.pt (torch, 125519 bytes, 49 tensors)

encoder.encoder_layer.encoderlayer.self_attn.in_proj_weight f4 [54, 18]
000000 5a 7f 41 3d 36 5d 1c bd 8b dd f3 bd 6d e0 86 3e
       0.047240593 -0.03817483 -0.1190749 0.26343098
000010 55 88 8d be 9b ea 82 3b 97 04 8b be 72 ca a7 3d
       -0.27643076 0.0039952523 -0.2715194 0.0819291
000020 7f 62 6b be 74 30 f0 bc a3 10 7a be 97 51 43 3e
       -0.22986792 -0.02931998 -0.24420409 0.19074093
000030 50 7a 9f 3c 10 30 6b be 24 77 0b 3e e5 0f c7 bc
       0.019467503 -0.22967553 0.13619667 -0.024299571
000040 a4 9a 63 be 4f 8b 5e 3e c6 7b 91 be 14 3e 62 bd
       -0.2222696 0.2173283 -0.28414744 -0.055234984
000050 14 85 50 be 3b 4c 81 3e 30 69 14 3e 50 62 7b bd
       -0.20363265 0.25253472 0.14493251 -0.061373055
000060 61 3c bc bd 42 d8 4e 3e cc c2 1d be fa fc 1f 3e
       -0.09191204 0.20199683 -0.1540634 0.15623847
000070 9d e6 c9 bd c2 e6 4e 3d 92 a6 a0 bd 8a ec 2b be
       -0.09858439 0.050513037 -0.07844271 -0.16789451
000080 e6 c3 73 3e c6 f9 87 3e 5c 67 71 3e f4 5b 0c be
       0.23805198 0.2655775 0.23574585 -0.13706952
000090 7e e8 63 bd 59 6a 65 be 14 a6 fd 3d 10 f0 28 be
       -0.055641644 -0.2240385 0.123851925 -0.16497827
0000a0 71 e2 c3 3d 7e 37 2f 3e 51 8e ff 3d d2 d9 13 bd
       0.09564675 0.17111012 0.124783166 -0.0360964
0000b0 25 d5 db bc 3f 16 6a be f2 4b 14 bc 22 4f 71 be
       -0.026835034 -0.22860049 -0.00905131 -0.23565343
0000c0 55 ad 83 3e 49 29 14 3e f5 f0 01 3e 95 a8 92 3e
       0.2571818 0.14468874 0.12689574 0.28644243
0000d0 61 81 93 bd f2 39 91 be 81 57 30 be a6 f9 91 3e
       -0.072024114 -0.2836452 -0.1722088 0.2851078
0000e0 e9 81 90 be 81 26 b5 bc 00 91 c5 bd 64 fa 41 3e
       -0.28224114 -0.022113087 -0.09646797 0.18943173
0000f0 dd ed 85 be 1e d3 eb 3d 3e aa 91 3d c9 ed 68 be
       -0.26158038 0.11514877 0.07112549 -0.22746958
000100 3f f0 52 3e 62 fd 18 be 58 4b 6e 3e a6 8e 86 be
       0.20599459 -0.14940408 0.23270929 -0.26280707
000110 5f fc 76 be 9e bf 7c be 77 1a f7 3c 88 06 4e be
       -0.2411971 -0.24682471 0.030163987 -0.20119679
000120 67 77 95 3d 97 4a 5a 3d 30 af 75 3e 1c 46 23 3e
       0.07298165 0.05329379 0.2399261 0.15944713
000130 1b 71 3c 3e 9f 26 a5 bd 63 3a 59 3e 5e e0 11 be
       0.18402521 -0.08064007 0.21213679 -0.14245746
000140 54 18 f5 bd 2c 79 b4 bd d6 f7 a6 bd f9 e8 40 3e
       -0.11967531 -0.08812174 -0.0815274 0.18838872
000150 c3 fe 05 3e e6 0a 3b bd e1 55 f8 bd 9b 84 1c be
       0.13085465 -0.04566469 -0.12125755 -0.1528496
000160 b9 6d e2 bd 5c 06 ed 3c cc ae 38 be 96 18 2c bc
       -0.11056084 0.028933696 -0.1803543 -0.010503909
000170 17 61 5e be 40 48 d7 3d c5 3c 7e be 9d dc 1a 3e
       -0.21716724 0.105118275 -0.24827869 0.1512322
000180 f4 01 20 be 7e 6b 64 3e 9b 91 6f bb bd ca 49 3e
       -0.15625745 0.2230663 -0.0036555293 0.19706245
000190 5c 4c 2a be 10 8c b4 3c f2 4d 1c 3e f1 6b 85 3e
       -0.16630691 0.022039443 0.15264109 0.26058915
0001a0 1e dc 0c be 0e e6 64 be 28 7f 48 bc 6e 8a 2d 3e
       -0.13755843 -0.22353384 -0.012237348 0.16947338
0001b0 d4 d3 37 be b0 9e 0a 3d 43 1e 77 3e bc 2c 76 bd
       -0.179519 0.033842742 0.24132638 -0.060101256
0001c0 95 ad 95 3c ef c4 7f 3e 95 c3 46 be af 03 69 bc
       0.018271247 0.24977468 -0.19410546 -0.01422207
0001d0 7e bd 1e be 34 a1 31 3e 82 11 2b be b5 44 1a 3e
       -0.15501973 0.1734665 -0.16705897 0.15065272
0001e0 64 15 4d 3e 27 6f 2e bc 78 a7 73 3e f1 37 a4 bd
       0.20027691 -0.010646618 0.23794353 -0.080184825
0001f0 93 ad 88 3d 30 b6 87 be 4f da c8 3c 4c ae 0e be
       0.06673732 -0.26506186 0.02451816 -0.13933676
000200 72 85 54 bc f0 9b 2c be ab 1d c1 3d 33 5c 4f be
       -0.012971269 -0.1685636 0.09429487 -0.20250015
000210 a0 a1 70 be 02 49 d5 bd d4 cf 19 be 5f 92 0e be
       -0.23499155 -0.10414316 -0.15020686 -0.13923024
000220 4e 39 ff bd 99 3a 52 3e 4a ca 7c be 76 2b 96 bd
       -0.12462102 0.20530166 -0.24686542 -0.07332508
000230 68 87 e4 3d 7f 81 3d 3e f8 56 87 bd 01 4a 92 bd
       0.11158639 0.1850643 -0.06608385 -0.071430214
000240 4b cc 31 be f4 4b 8f 3d 20 f5 4d 3e 18 99 3e 3e
       -0.17363088 0.06996909 0.20113039 0.18613088
000250 c2 eb b3 3d 22 c5 4a 3e 41 41 6a be 0c 95 1b be
       0.087852016 0.19801763 -0.22876455 -0.15193576
000260 60 67 f4 3d 6a eb b3 3d 64 c3 8a be 67 62 24 3e
       0.1193378 0.08785136 -0.27102196 0.16053163
000270 9a a1 52 be 58 0f 17 be c9 07 55 bc 4c 74 88 be
       -0.20569459 -0.14751947 -0.013002344 -0.26651227
000280 5b e1 62 3e eb f0 86 be f2 4c 84 3e 95 4e 0a bb
       0.22156279 -0.2635568 0.25839955 -0.0021103967
000290 1d 71 6e be e8 de 6d 3e 89 e3 b7 3d ba e4 14 be
       -0.23285337 0.23229563 0.08978946 -0.14540377
0002a0 ee 43 99 3d e4 4d e8 bc 7a e6 9e 3d 7a cd 1d 3e
       0.0748366 -0.028357454 0.07758804 0.15410414
0002b0 7f eb bf 3c 45 68 54 be d3 76 89 be d1 e4 8e 3e
       0.023427723 -0.207429 -0.26848468 0.27908948
0002c0 29 c5 bf 3d bc d3 8a 3e ae d0 3e be 7b 97 0a be
       0.09363777 0.27114666 -0.18634292 -0.13534348
0002d0 d9 70 0d be 9c 5d b9 bd af 64 bf bc 63 d7 98 3c
       -0.13812579 -0.09051058 -0.02336344 0.018657392
0002e0 a1 7a 58 3e 1d 97 41 3e 06 b5 7a be 17 cc dd bc
       0.21140529 0.18905301 -0.24483117 -0.027074857
0002f0 54 36 4e 3e a7 c1 a6 bd ec d7 a5 3d 00 7f 1b be
       0.20137912 -0.08142405 0.080978245 -0.15185165
000300 13 27 90 3d 77 ea a0 3d 7a 05 39 3e 4e 2d 93 be
       0.07038703 0.078572206 0.18068495 -0.28745502
000310 db 0f 2a 3d 24 6e be 3d 9c c3 12 be 81 87 6e be
       0.041519027 0.092983514 -0.14332432 -0.23293878
000320 e9 1f c4 bd bd a2 14 bd 2a 8f 25 be e5 4d 05 3e
       -0.09576399 -0.03628801 -0.16167894 0.13017996
000330 0c 5f fe bd 4a 71 90 be ca 6a 87 be 40 9d 46 3d
       -0.124204725 -0.28211433 -0.2644866 0.04848981
000340 ac 44 9c bd 00 18 28 3e f9 e6 50 be 96 e4 2f 3e
       -0.076302856 0.16415405 -0.20400609 0.17177042
000350 b8 41 85 3e 9f a3 6c 3e 60 51 1e 3d 1e 5a 5e bd
       0.26026702 0.23109291 0.038651824 -0.05428516
000360 9d 56 f4 3d bd 17 da bd 34 ca f2 3d f0 e7 04 3d
       0.11930583 -0.10649059 0.118549734 0.032447755
000370 01 1a 44 3e f5 65 34 3d 57 60 27 be 67 43 0b be
       0.19150545 0.044042546 -0.16345344 -0.1359993
000380 77 e3 d2 bd 48 a5 df bd 44 79 51 3d e8 52 91 3e
       -0.10297292 -0.10920197 0.05114104 0.28383565
000390 f9 58 a8 bd cd 93 61 bd 36 1f c6 3d 2d 76 5c be
       -0.08220095 -0.055072594 0.09673922 -0.21529455
0003a0 b0 bb 60 bd b7 29 89 be a6 c6 5a 3e 98 a3 8d be
       -0.054866493 -0.26789638 0.21364841 -0.27663875
0003b0 64 60 f2 3d 08 b0 74 3e a1 02 c4 bd 8d b5 d9 3d
       0.11834791 0.23895276 -0.09570814 0.10630331
0003c0 27 a0 0d 3d d7 c2 e6 bc 0f 81 ce bd aa 09 85 be
       0.03457656 -0.028169079 -0.1008321 -0.25983936
0003d0 ec 49 7d be 9f 9f e4 3d 45 f8 71 be dc 0d 33 3c
       -0.2473523 0.11163258 -0.23629864 0.010928597
0003e0 38 e3 f8 3a 2c c4 2e bd ce 30 5e 3d 37 16 93 3e
       0.0018988615 -0.042667553 0.054245763 0.28727886
0003f0 c7 5d 40 3d a0 2a 8c 3e 5c 2f 49 bd 20 b4 d9 3c
       0.046964433 0.2737627 -0.04911743 0.026575148

encoder.encoder_layer.encoderlayer.self_attn.in_proj_bias f4 [54]
000000 00 00 00 00 00 00 00 00 00 00 00 00 00 00 00 00
       0.0 0.0 0.0 0.0
000010 00 00 00 00 00 00 00 00 00 00 00 00 00 00 00 00
       0.0 0.0 0.0 0.0
000020 00 00 00 00 00 00 00 00 00 00 00 00 00 00 00 00
       0.0 0.0 0.0 0.0
000030 00 00 00 00 00 00 00 00 00 00 00 00 00 00 00 00
       0.0 0.0 0.0 0.0
000040 00 00 00 00 00 00 00 00 00 00 00 00 00 00 00 00
       0.0 0.0 0.0 0.0
000050 00 00 00 00 00 00 00 00 00 00 00 00 00 00 00 00
       0.0 0.0 0.0 0.0
000060 00 00 00 00 00 00 00 00 00 00 00 00 00 00 00 00
       0.0 0.0 0.0 0.0
000070 00 00 00 00 00 00 00 00 00 00 00 00 00 00 00 00
       0.0 0.0 0.0 0.0
000080 00 00 00 00 00 00 00 00 00 00 00 00 00 00 00 00
       0.0 0.0 0.0 0.0
000090 00 00 00 00 00 00 00 00 00 00 00 00 00 00 00 00
       0.0 0.0 0.0 0.0
0000a0 00 00 00 00 00 00 00 00 00 00 00 00 00 00 00 00
       0.0 0.0 0.0 0.0
0000b0 00 00 00 00 00 00 00 00 00 00 00 00 00 00 00 00
       0.0 0.0 0.0 0.0
0000c0 00 00 00 00 00 00 00 00 00 00 00 00 00 00 00 00
       0.0 0.0 0.0 0.0
0000d0 00 00 00 00 00 00 00 00
       0.0 0.0

encoder.encoder_layer.encoderlayer.self_attn.out_proj.weight f4 [18, 18]
000000 95 d4 cb be 6b 5a 32 be 98 83 c3 3e c3 6d 06 be
       -0.39810625 -0.17417304 0.38186336 -0.13127808
000010 80 fa 31 be ab ac b4 be 56 bb b6 bd 81 63 02 3e
       -0.17380714 -0.35287985 -0.0892245 0.1273327
000020 ba fe 7d 3e 0a 57 ce bd da 26 c5 be 86 fc 2e be
       0.24804202 -0.10075195 -0.38506204 -0.17088518
000030 0a 83 dc 3d 4d 30 1b be 27 8d 88 3d 01 4f 34 bc
       0.10767181 -0.15155144 0.06667548 -0.011005164
000040 52 4d ea 3d fd 1c b6 3d 62 4e 75 ba ad 01 a3 be
       0.11440529 0.08892248 -0.0009357688 -0.31837216
000050 96 8c 8a 3e c7 d0 8a be fe 07 2b 3e 15 68 7c be
       0.27060384 -0.2711241 0.16702268 -0.24649079
000060 16 37 33 be 31 98 b7 3e 06 4a 4c bd 80 ff 8d be
       -0.17501482 0.358583 -0.04987528 -0.27733994
000070 1c 07 8a be c2 57 af be 6d 1f 70 bd 07 9b ca bc
       -0.2695855 -0.3424664 -0.05862372 -0.024732126
000080 cd 40 b1 bb 2f 05 7c be 5c ca ad 3e f4 a2 b3 3e
       -0.005409336 -0.24611352 0.3394345 0.3508526
000090 88 56 e0 bc e7 61 85 be 07 89 52 be 38 47 7d bd
       -0.027385011 -0.26051256 -0.20560084 -0.061835498
0000a0 31 a9 76 bd f3 dd cf be 63 e3 02 bc bc dc be 3d
       -0.060219947 -0.4059902 -0.0079887835 0.093194455
0000b0 4a e3 4e 3e 74 2a 14 3d 30 31 ae be 68 09 7e be
       0.20203891 0.0361733 -0.34021902 -0.24808276
0000c0 83 36 ce 3d 37 2c 83 3e d6 05 9d 3d 26 f0 c0 3d
       0.10068991 0.2561967 0.07667129 0.09420805
0000d0 9d be 9a be ae ad e5 3d b4 a1 a9 3d 4b 09 ae be
       -0.3022355 0.112147674 0.082827955 -0.33991465
0000e0 8e 88 5a be af c1 22 be 64 cd c1 bc 7e 65 de bb
       -0.21341154 -0.15894197 -0.023657508 -0.006787001
0000f0 d8 2d 95 3d 7a fa 7d 3e 9e 39 f4 3d 33 7c 36 be
       0.072841346 0.2480258 0.11925052 -0.17820816
000100 00 d5 5c be 98 19 23 be a6 52 bf be 6f 68 8b be
       -0.21565628 -0.15927732 -0.37367743 -0.27228114
000110 47 4c 89 3e e7 e8 45 be ba a2 95 3e 5d a6 44 3e
       0.26816007 -0.19327126 0.29225713 0.19204088
000120 36 08 cb 3e 96 9a 68 bd 71 a8 1f 3e 46 0a 50 be
       0.39654702 -0.05678805 0.15591599 -0.20316419
000130 80 10 08 3e 85 8e 31 3e 97 da 2e 3c 3b 60 ab 3e
       0.13287544 0.17339523 0.010672233 0.33471856
000140 92 c0 fd 3d cb dd 20 bd 0e 31 89 be ee 33 fd bc
       0.123902455 -0.03927402 -0.26795238 -0.030908551
000150 1d 53 9d 3e a5 f4 e3 3c 55 54 d7 3c 75 45 c8 b9
       0.30727473 0.027826617 0.02628533 -0.00038198722
000160 86 1c 08 be 10 5f 8d be 4c b6 3b 3d 43 ae 70 bc
       -0.13292131 -0.2761159 0.04582815 -0.014689985
000170 ce 48 cd 3e 30 17 b7 bc 45 47 b2 be 05 e5 c3 be
       0.40094608 -0.022349924 -0.3482 -0.38260666
000180 9b f6 d0 3e 49 74 13 be b8 d2 43 3e db 34 0e 3e
       0.40813145 -0.14399828 0.19123352 0.1388735
000190 ed 4a 29 3d 9c 55 39 be 6c 84 97 3e 99 81 c3 3e
       0.04133122 -0.18099064 0.29593217 0.38184813
0001a0 56 9c f9 bc de f5 fe bd 52 99 d2 bd ce 1e 33 3d
       -0.030470055 -0.12449239 -0.1028315 0.04373055
0001b0 2e 0e 25 be 32 bf 94 be 97 1e a8 be 6c a5 ac be
       -0.1611869 -0.2905212 -0.32835838 -0.33719957
0001c0 7a c2 be be e9 14 c8 3e 4b fa 1b 3e 84 a5 e3 bd
       -0.3725775 0.39078453 0.15232198 -0.11115554
0001d0 e5 4f 95 be a3 80 8c bd 43 8e bf 3e 7c dc 2c bb
       -0.29162517 -0.06860473 0.37413225 -0.0026376536
0001e0 88 4c 5c 3e 61 d8 99 3e b8 48 8b 3c d7 41 d0 3e
       0.2151357 0.30047897 0.017002448 0.40675232
0001f0 7d 7e 9d 3e 72 6d c6 be b2 4b 9e bd 5a bd 69 bd
       0.30760565 -0.38755375 -0.077292815 -0.057065345
000200 46 55 c0 3d 04 b3 0b bd 15 79 67 bd 9a 59 7a be
       0.093912646 -0.03410627 -0.056511957 -0.24448243
000210 43 3c 88 3e 85 bc 12 be 2f c1 70 be 0a 85 4c be
       0.26608476 -0.14329727 -0.23511194 -0.19972625
000220 3e 23 7b 3e b8 c7 40 be a4 6a b5 3e f8 86 de 3c
       0.24525163 -0.18826187 0.35432923 0.027163967
000230 49 d6 14 3e 41 53 bf be 83 50 aa 3d 91 18 d4 3d
       0.14534868 -0.37368205 0.08316138 0.10356248
000240 b7 97 49 be b1 3d 38 be 06 14 78 3e 47 23 86 be
       -0.19686781 -0.17992283 0.24226388 -0.2619879
000250 64 fc 85 3e b7 2a b6 be b6 dd 66 be 17 ef 85 bd
       0.2616912 -0.35579464 -0.22545514 -0.065397434
000260 15 33 44 be f2 f0 b3 be 00 10 1a bd 2f fd dd 3c
       -0.19160111 -0.35144764 -0.037612915 0.027098266
000270 47 a0 98 3e ab 95 c4 3e 98 fc 0f 3e c6 82 cd be
       0.29809782 0.38395438 0.140612 -0.40138835
000280 6c 61 9c 3e 9e 79 a0 be a5 01 85 bd ee 30 ba bc
       0.30543077 -0.31342787 -0.06494454 -0.02272841
000290 5b f9 f8 3b c7 6d 4e be c4 7c b2 3e 68 9d 67 3e
       0.007598085 -0.20159064 0.34860814 0.2261864
0002a0 96 a3 d0 3e 74 79 b8 3e 8a 4a bf 3e db 60 7b 3e
       0.40749806 0.3603016 0.37361556 0.24548666
0002b0 19 d5 a5 be 18 73 4b 3e 0a 71 3d bd 87 af c4 3e
       -0.32389143 0.19868124 -0.04625038 0.38415167
0002c0 a8 6a 63 3b 31 4e 3b bd 27 4c bf 3e f3 28 7c be
       0.0034701023 -0.045728866 0.37362787 -0.24624996
0002d0 4c b3 d3 3d 1f ee 29 3b 20 ee 63 3e 97 40 ae 3e
       0.103369325 0.0025929285 0.22258806 0.34033653
0002e0 ee bb f2 3d 05 e8 89 3e a0 7b 90 be 21 bf cb 3d
       0.11852251 0.2693483 -0.28219318 0.09948564
0002f0 3e 0f a5 be 38 45 e6 bc 4d a7 7f bc a5 1d c4 be
       -0.3223819 -0.028109178 -0.015603852 -0.38303867
000300 d2 f7 a6 be 48 53 c0 be 8c 8b cf 3d 63 8e 77 be
       -0.32610947 -0.3756354 0.10134038 -0.2417541
000310 25 30 c1 bd de e2 1d 3e f3 af 7f be 52 1e 7c be
       -0.09433011 0.15418574 -0.24969463 -0.24620941
000320 49 78 b1 3e 55 64 b2 be a1 b6 94 3e 2d ef 94 3e
       0.34662083 -0.34842172 0.29045585 0.29088727
000330 a1 e3 9a 3c 24 92 b3 be c0 14 ce be 4f 12 4a 3e
       0.01890737 -0.35072434 -0.40250206 0.19733547
000340 d6 ad 82 3e 71 2d 92 3d ce 9f f5 3d 89 0e 65 3c
       0.2552325 0.071375735 0.11993371 0.013980516
000350 94 0e 4e 3d 44 89 be 3e f8 c6 00 be 26 69 8d 3e
       0.05030687 0.372141 -0.125759 0.27619284
000360 53 ac 65 3e e0 36 cc bd 2e e3 a8 3d be 5e c8 bd
       0.22429018 -0.09971404 0.08246456 -0.09783696
000370 dd 26 aa bb f1 75 bd be 5d 76 a1 be 3b c1 04 be
       -0.005192621 -0.37004045 -0.31535617 -0.12964337
000380 1d 85 ee bd e0 ad 1e 3d e8 48 a2 be 9c e1 22 bd
       -0.11646483 0.03874004 -0.31696248 -0.03976594
000390 7a 9e 47 3e 87 13 81 be 09 c0 b0 3e d6 78 32 be
       0.19494048 -0.2521021 0.3452151 -0.17428908
0003a0 e6 59 b2 be 88 51 a6 be d3 52 cd be a2 c4 c7 be
       -0.34834212 -0.32484078 -0.40102252 -0.39017206
0003b0 a4 4a a8 3e f2 20 82 3e 6e 12 bc 3e 55 b4 c4 3e
       0.32869446 0.2541576 0.3673281 0.38418832
0003c0 5b b0 cb bd 49 0f a4 3e de d8 30 3e d3 01 b4 3e
       -0.099457465 0.32042912 0.17270228 0.35157642
0003d0 ca 2d 1f 3e 34 1e 8c be af 34 82 3e 60 13 7d bc
       0.15544811 -0.27366793 0.2543082 -0.015446514
0003e0 d5 63 c6 be c6 56 82 3d aa e4 82 3e 4f 7c b8 3e
       -0.3874804 0.06364207 0.25565082 0.3603234
0003f0 32 ef 92 3e b7 b3 fa bd 6f c4 ae 3c 5a 8f 07 3c
       0.28698117 -0.12241309 0.021333901 0.008273924

encoder.encoder_layer.encoderlayer.self_attn.out_proj.bias f4 [18]
000000 00 00 00 00 00 00 00 00 00 00 00 00 00 00 00 00
       0.0 0.0 0.0 0.0
000010 00 00 00 00 00 00 00 00 00 00 00 00 00 00 00 00
       0.0 0.0 0.0 0.0
000020 00 00 00 00 00 00 00 00 00 00 00 00 00 00 00 00
       0.0 0.0 0.0 0.0
000030 00 00 00 00 00 00 00 00 00 00 00 00 00 00 00 00
       0.0 0.0 0.0 0.0
000040 00 00 00 00 00 00 00 00
       0.0 0.0

encoder.encoder_layer.encoderlayer.linear1.weight f4 [128, 18]
000000 ca e4 8f 3d b2 80 19 3b 24 c8 84 bc 1c de c7 3d
       0.0702606 0.0023422656 -0.016208716 0.09759161
000010 af 4f 3f be c5 9f 36 be 02 b8 2c 3d bb e5 7c 3d
       -0.1868274 -0.17834385 0.04216767 0.061742526
000020 77 35 2d bd 92 c3 2d 3e 4e 1f 20 be e5 7c 4d 3e
       -0.042287316 0.16969135 -0.15636942 0.20067175
000030 e9 70 49 be ff c0 81 bd 35 62 13 3e 9f 1f 15 be
       -0.19671978 -0.06335639 0.14392932 -0.14562844
000040 7c 68 22 be 75 01 9f bc bf e8 e5 bd 53 85 cc bd
       -0.1586017 -0.019409874 -0.112260334 -0.09986367
000050 17 c3 c3 3d f7 de a1 bd 8a b5 f5 bd b0 f1 22 be
       0.09558695 -0.07903855 -0.119975165 -0.15912509
000060 24 ea fa 3c 1f a4 af bd 12 e7 e6 3c a2 61 48 be
       0.030629225 -0.085762255 0.028186355 -0.19568494
000070 4a cf 19 3e 8b 1c c3 3d 16 2b f6 bd 6d 2b 68 bb
       0.15020481 0.095269285 -0.12019937 -0.0035426274
000080 bd 69 99 bd f4 be 85 3d 2c a8 e6 bd e0 f4 1e be
       -0.07490871 0.06530562 -0.11262545 -0.155231
000090 aa d6 fd bd 97 ec cb bd b0 b8 fd 3a a9 1c 93 3d
       -0.123944595 -0.09957235 0.0019357409 0.07183201
0000a0 06 09 f2 bd 2e b6 c4 bb e0 7d 65 bd fe 58 64 bc
       -0.11818127 -0.006003163 -0.056028247 -0.013937233
0000b0 6b 7c ef 3c b4 c7 15 be 56 3b 12 bd d4 11 25 3e
       0.029234132 -0.14626962 -0.03570112 0.16120082
0000c0 fd c5 cd 3d f1 23 e3 3d fc c9 f0 bd 43 bd cc 3c
       0.10047529 0.1109084 -0.117572755 0.02499259
0000d0 bc 7c 58 3a 77 04 d6 bd 37 1e 37 3e 39 2a fd 3c
       0.0008258333 -0.1045007 0.1788262 0.030903922
0000e0 18 ce e9 bd 64 e7 91 bd 28 2f 1e bd 52 c1 cb 3d
       -0.114162624 -0.071242124 -0.03861919 0.09948982
0000f0 42 a1 cf bd bf 69 4a be 9e 8c bc bd d2 66 4d 3e
       -0.10138179 -0.19766901 -0.09206508 0.20058754
000100 b2 bc f9 bd f2 cb a3 3d b0 4a 21 3d 6d 35 da 3d
       -0.12194194 0.07997884 0.03937787 0.106547214
000110 2b 7d c7 bc 1a 54 8b 3d 2a 00 40 bd 4a 19 fc bd
       -0.024351677 0.068031505 -0.046875156 -0.12309511
000120 5c 04 e1 3d f2 67 c0 3d 5d 26 36 3d 56 2d 13 be
       0.109871596 0.09394826 0.04447018 -0.14372763
000130 85 eb fb bd f5 e9 fe bd 8f f9 0b be 1b 0e bd bd
       -0.12300781 -0.124469675 -0.13669418 -0.09231206
000140 ad 7f d7 bd 9a b6 eb bd 92 c3 d8 3d 05 75 e2 3d
       -0.10522399 -0.11509438 0.10584177 0.11057476
000150 af 9b 13 be 7f 5f 87 3c 8f 83 8f bd 24 f6 46 be
       -0.14414857 0.016525028 -0.07007515 -0.19429833
000160 cc 09 14 be 2b 08 80 bc bb 03 c6 bd 26 d3 0b 3e
       -0.14456862 -0.015628895 -0.0966868 0.13654765
000170 21 45 9e 3c 04 79 dd 3d 37 88 9f bc 77 05 9b 3c
       0.019320073 0.108140975 -0.019474132 0.018923504
000180 7e bd 08 3c c7 c6 79 3d 98 ea 0d 3e 4e 1f 04 3e
       0.00834596 0.060980584 0.13859022 0.12902567
000190 be cc 01 3c c9 9f 42 3e 9c 88 ec bd 3c a7 3d 3e
       0.0079223495 0.19006266 -0.11549494 0.18520826
0001a0 c6 37 b3 3d 71 a6 42 be 95 1b 0d 3e 91 bd 21 3e
       0.08750872 -0.19008805 0.13780053 0.1579497
0001b0 1e 20 2c 3d c0 53 33 3e ee 36 08 3e 0c 99 31 3d
       0.042022817 0.17512417 0.13302204 0.043358847
0001c0 2a e9 e3 3d 01 27 2f 3e ae fc f5 3d e4 c2 93 3d
       0.11128457 0.17104723 0.120110855 0.07214907
0001d0 6a 61 65 3d 04 76 4f bd ed ac d1 bc 14 13 d1 3d
       0.056001104 -0.050649658 -0.025595153 0.10208717
0001e0 6a 54 14 be c0 fd c5 3d 66 e8 ab bd 44 7b 43 be
       -0.14485326 0.096675396 -0.08393936 -0.19089991
0001f0 2e 2c 89 bc 18 93 0b 3e 48 76 f2 bd 6d ab 34 3d
       -0.0167447 0.1363033 -0.118389666 0.044108797
000200 c3 73 79 3d 03 23 1b bc 9e ae 45 be 1c 5c 4e 3d
       0.060901415 -0.009468797 -0.19304892 0.05038081
000210 9d 91 21 3c 6c af 8f 3d 33 e4 cb bc 95 c0 a2 3d
       0.009861377 0.07015881 -0.024889087 0.07946888
000220 ee 5d ba bc f6 64 51 bc 9a e7 c7 bc f7 e7 c1 bd
       -0.022749867 -0.012780419 -0.024402428 -0.09468072
000230 cc 9e d3 bd 5c 4c ef bd 85 1e 10 be 77 5b 4b 3e
       -0.103330225 -0.11684486 -0.14074142 0.1985911
000240 be 30 35 3c 33 eb df bd 7c 87 03 be 41 29 d7 3d
       0.011058984 -0.109335326 -0.12844652 0.105059154
000250 00 0b df 3d 4e d5 a6 3a 50 a9 00 be 26 3f 2f be
       0.1089077 0.0012728365 -0.12564588 -0.17113933
000260 ec 4b 3d 3d de 4a 17 be e1 a4 3d 3e bb 7a a3 3c
       0.046214983 -0.14774653 0.18519928 0.019955983
000270 76 3d 44 3e 9b 38 8c bd eb 2d ba 3d 1a 64 0b be
       0.1916407 -0.06846734 0.090907894 -0.13612404
000280 68 04 1f 3e cc b5 fd bc 0d 72 01 bd 26 23 29 3e
       0.15529025 -0.030970477 -0.031602908 0.16517314
000290 c8 3e b4 bd e0 3e 27 3e a9 dc f3 3d 8d ed 4d be
       -0.08801037 0.16332579 0.11907322 -0.2011015
0002a0 25 d4 d8 bd 38 1c 10 3c bb 2e 06 3d 0c 09 34 be
       -0.10587338 0.00879579 0.03275941 -0.17581576
0002b0 6f b1 c9 bd 3e db 25 be 96 b4 ea bd a8 c7 be bd
       -0.09848296 -0.16196916 -0.11460225 -0.09315425
0002c0 dc c1 23 be fb f3 01 3e 60 da 1a be fa 65 47 3e
       -0.1599192 0.12690727 -0.15122366 0.19472495
0002d0 88 5c bc bd 68 80 cc bd 2a 30 0f be c2 5a 33 be
       -0.091973364 -0.09985429 -0.13983217 -0.1751509
0002e0 22 e1 fb bd 6c 58 4d 3e d1 df 2a 3d 4e 21 d8 3d
       -0.122988 0.20053262 0.041717354 0.10553227
0002f0 02 a9 3a bd 2c d4 ed bd e7 62 4b 3e eb 76 11 be
       -0.045571335 -0.11612734 0.19861947 -0.1420552
000300 9b a5 1f 3e dd ff 8e bd 4c b0 46 be 65 bf f9 3d
       0.15590517 -0.06982396 -0.1940319 0.12194709
000310 57 ea 71 bd 33 97 8a 3c ed be 2a bd b3 29 bd 3d
       -0.059061375 0.0169178 -0.041685987 0.09236469
000320 57 94 44 3d ab ad 4b 3e 43 40 c1 bd 24 f8 38 3e
       0.04799303 0.19890468 -0.09436085 0.18063408
000330 56 7a 07 be bd bc b0 3d 0f 04 9a 3c a2 be b7 3d
       -0.13230261 0.08629749 0.018800763 0.08971907
000340 b2 41 2f be 99 d6 96 3d b0 c1 21 be a8 d0 da 3d
       -0.17114905 0.0736515 -0.15796542 0.10684329
000350 ba 47 24 3e b0 33 3a bd 68 8b 14 3d 68 7f f4 3d
       0.16042987 -0.04545945 0.03626576 0.11938363
000360 56 24 0d be 17 67 dd bd fc f5 1b 3e a4 47 67 3d
       -0.13783392 -0.108106785 0.15230554 0.056464806
000370 06 50 18 3e 08 ee ca 3d 1b 74 31 3e 05 76 d7 bd
       0.14874277 0.09908682 0.17329447 -0.10520557
000380 28 ab ae 3d ba 10 35 3e da c9 f3 3d b1 89 08 3e
       0.08528739 0.17682162 0.119037345 0.13333775
000390 2a 36 68 bc c0 d2 39 be 21 7d d5 bd 41 02 b6 bd
       -0.01417307 -0.18146801 -0.10424257 -0.08887149
0003a0 d4 6b d2 3d b8 fa 04 3d 08 ca f8 bc 57 6e fc bd
       0.10274473 0.032465667 -0.030369774 -0.12325733
0003b0 c3 f2 de 3d a3 ff b9 3d f3 c3 03 bd 2a aa f4 3c
       0.10886147 0.09081962 -0.032169294 0.029866297
0003c0 f4 b5 39 3e ef 74 07 be a1 08 13 be 3d df 85 bb
       0.18135816 -0.132282 -0.1435876 -0.00408545
0003d0 16 27 41 3e 38 f8 ee 3d 38 a2 a5 bd 2a dd b5 3d
       0.18862566 0.11668438 -0.080875814 0.08880074
0003e0 30 75 07 3d e0 07 3f 3e 59 45 40 3e 5d 67 37 be
       0.033070743 0.18655348 0.18776454 -0.17910524
0003f0 36 60 c4 3d 69 f3 3f 3e f9 72 a2 3d 93 44 d5 3c
       0.09588663 0.18745197 0.079320855 0.026033675

encoder.encoder_layer.encoderlayer.linear1.bias f4 [128]
000000 3a ba 77 3d d1 23 45 3e 41 30 39 be 91 b2 b1 3d
       0.060480334 0.19251944 -0.18084814 0.08676637
000010 de 1c 33 bd 59 03 3b be 30 ee 5c be 29 38 06 3e
       -0.0437287 -0.18262996 -0.21575236 0.13107361
000020 b0 f6 9f 3d 12 d8 19 be 7a 98 8f 3c 9e 64 5b be
       0.07810724 -0.1502383 0.017528761 -0.21425101
000030 b0 6e ae 3d b2 d7 65 3e 2e 02 51 3c 1a 61 ac bd
       0.08517206 0.22445562 0.012756867 -0.08416958
000040 4c 67 00 3e 0c 15 3e 3e 6b 21 b1 3d d4 8c 33 bd
       0.12539405 0.18562716 0.08648952 -0.043835476
000050 43 b9 98 bd 22 10 8c 3d 06 97 97 3c 61 3b 18 3e
       -0.07457211 0.068390146 0.01850463 0.14866401
000060 84 36 38 3d 79 a9 33 3e 2a 85 1f be 24 9f a1 3d
       0.044973865 0.17545117 -0.15578142 0.07891682
000070 bd 61 52 be 4a 9f 4b 3e ae bc 44 3d ee ec 5e be
       -0.20545097 0.19884983 0.0480315 -0.21770069
000080 d3 fa c0 3d 43 f6 1f 3e 1c 59 f5 bd 37 f4 0d 3e
       0.09422841 0.15621285 -0.11979887 0.13862692
000090 54 f0 45 bd a8 74 6c 3e f6 c1 c7 3a 16 21 cb 3d
       -0.048324898 0.23091376 0.00152403 0.0991842
0000a0 0b 5e 3f 3e 2d fd 6a be a7 a0 11 3e 4a f6 2d be
       0.18688218 -0.22948141 0.1422144 -0.16988483
0000b0 41 ff 02 3e 38 7e d3 bc 7b 0c 14 be 23 50 8a ba
       0.12792684 -0.025817022 -0.14457886 -0.0010552447
0000c0 fc 10 ed bd 6f 08 23 be 9c 1d 18 be c1 67 05 3e
       -0.11575505 -0.15921186 -0.14855045 0.1302786
0000d0 2c 93 6e 3d 4d 8b 5b 3e a6 83 02 bd 5f e0 c9 3d
       0.058245823 0.21439858 -0.03186383 0.098572485
0000e0 32 02 38 3e 87 52 41 be 46 5c 4e 3d b8 8b 6c be
       0.17969587 -0.18879138 0.050380968 -0.23100173
0000f0 68 fc 0b bd bf c6 37 be e7 2f 30 3e 0d cc cd 3d
       -0.03417626 -0.1794691 0.17205773 0.10048685
000100 16 0c 3b be 8a 14 29 bd e0 a3 26 3e 66 93 90 3d
       -0.18266329 -0.041279353 0.16273451 0.07059364
000110 f3 fa 4d 3e c4 38 42 be d0 8f 10 3d d9 f7 c3 bd
       0.20115261 -0.18966967 0.0352934 -0.095687576
000120 62 11 0b 3e f0 a8 1b be 6c f8 24 3d 38 f7 09 3d
       0.1358085 -0.15201163 0.040275976 0.03368303
000130 b5 5c 1a be fc 0c 3e be af c2 31 3c 0f 02 c0 bb
       -0.15074427 -0.1855964 0.010849639 -0.0058596204
000140 d6 20 1f be 24 f1 6b be 91 43 3d be 16 29 4a be
       -0.1553987 -0.23041207 -0.18482806 -0.19742236
000150 09 05 0a 3e fb 08 3d 3e 8c 44 67 bd ac 67 e9 3d
       0.13478483 0.18460457 -0.056461856 0.11396727
000160 ba 9b 67 be e0 c2 24 3e de 06 29 be 54 64 50 3e
       -0.22617999 0.16089964 -0.16506526 0.20350772
000170 d3 48 20 3e 0d 72 bb 3d 97 1f f4 3d 79 cc 0c bd
       0.1565278 0.09152613 0.11920088 -0.034374688
000180 22 55 5b 3e 68 e3 e4 bd 60 5c 9e bd 81 cf dd 3d
       0.21419194 -0.11176187 -0.07732463 0.10830594
000190 44 dc 19 3e 52 47 5b 3d 82 f7 cd bd e6 04 04 be
       0.15025431 0.053534813 -0.10056974 -0.12892494
0001a0 68 26 71 be 2c 80 5d 3e e4 bd 06 be bd 1c 1e 3e
       -0.23549807 0.21630925 -0.13158375 0.1544065
0001b0 d5 06 61 be 0f 2f 00 3e 80 e0 b1 3c 19 92 04 3e
       -0.21975262 0.12517951 0.021713495 0.12946357
0001c0 bb 0c c4 3d 7e 87 24 be 16 49 ce 3d d3 66 de 3c
       0.09572741 -0.16067311 0.10072534 0.02714864
0001d0 25 ba 8a 3c 78 55 df bc c9 b4 42 3e 3b a7 e9 3d
       0.016934464 -0.027262434 0.19014277 0.1140885
0001e0 48 c0 9d 3b b3 9d 57 3b 65 77 34 be 68 21 5f be
       0.0048141815 0.0032900393 -0.1762367 -0.21790087
0001f0 fe af 8a 3d 0e fd 22 be c5 cb 0e be c9 1a 35 3e
       0.06771849 -0.15916845 -0.1394492 0.17685999

encoder.encoder_layer.encoderlayer.linear2.weight f4 [18, 128]
000000 00 2d 95 3d 2e 72 1f be f6 ef 0f 3e a6 fa f0 bc
       0.07283974 -0.155709 0.14056382 -0.029416393
000010 a9 09 14 be fb 44 70 3d 1d 41 9d bd c8 c9 4d be
       -0.1445681 0.058659535 -0.07678435 -0.20096505
000020 f7 bb fe 3d 79 e8 a6 bd f7 66 a6 3d d0 f9 96 3d
       0.12438195 -0.081498094 0.08125108 0.07371867
000030 12 28 93 bd f6 eb 13 be 06 1a d7 bd ff 9a 24 bd
       -0.07185377 -0.1444548 -0.105030105 -0.04018688
000040 56 d2 01 3e c2 73 fd 3d 53 7d 41 3e bc 98 89 3d
       0.12677893 0.12375595 0.18895464 0.06718585
000050 ab 72 32 3e 7c 01 db 3c 38 33 bc 3d 2d a0 4a bd
       0.17426555 0.026734106 0.09189457 -0.04946916
000060 f4 e5 b8 bd c9 22 03 3d 1d e3 27 be 78 c3 2c 3e
       -0.09028235 0.032015596 -0.1639523 0.1687144
000070 53 28 21 3d 45 c9 ba 3b 6a da 40 bd f1 90 00 3e
       0.039345097 0.0057002627 -0.047083296 0.12555291
000080 1c fb 86 bd 49 7e 44 3e 66 06 9a 3d e2 0f 32 3e
       -0.06590864 0.19188799 0.07520752 0.17388871
000090 7c b4 36 3e fc 6c b7 bd a6 87 1b be b4 39 31 3e
       0.17842287 -0.08956334 -0.15188465 0.17307168
0000a0 80 2f 94 3d 25 1c 09 be 2c 88 3b 3e a4 5f 96 bc
       0.072356224 -0.13389643 0.18313664 -0.018356152
0000b0 9c ec ac 3d 8b 98 29 3e 04 71 3c 3e 94 01 d6 bd
       0.08443567 0.16562097 0.18402487 -0.1044952
0000c0 d1 99 3a 3e 16 9e 56 3d f5 81 4b bd 5b f1 e9 bd
       0.18222739 0.052396856 -0.049684484 -0.11422988
0000d0 5f 4b 04 3e 3d 51 46 3e 5d 06 c4 3d c2 54 e5 bd
       0.12919377 0.19366927 0.09571526 -0.11197807
0000e0 03 76 4e be a1 dd b1 3d 4e 19 7e 3d 5d 59 00 be
       -0.20162205 0.086848505 0.06203585 -0.1253409
0000f0 21 68 ff 3c c6 30 68 bd 02 19 1c 3c 01 34 03 3e
       0.031177582 -0.05668714 0.009527447 0.12812807
000100 40 4f 35 3e 08 1c 30 be 73 f3 2e bd 2f 26 cf 3d
       0.17706013 -0.17198193 -0.04271264 0.10114705
000110 06 f1 b4 bd 09 7e 13 3e f8 52 3b bd 48 27 b2 bd
       -0.08835034 0.14403547 -0.045733422 -0.086988986
000120 bf 9e 31 3d 40 05 3c 3e 10 77 33 bd 68 e6 92 bd
       0.043364283 0.18361378 -0.04381472 -0.07172853
000130 7d 4e 2c 3e 1e 8d fb 3d 21 63 20 bd a3 d6 d1 bd
       0.16826816 0.12282775 -0.039157037 -0.10246017
000140 5d ce 6f 3c ae fc 37 3e f8 36 49 3e 4d b0 31 be
       0.014636603 0.17967483 0.19649875 -0.1735241
000150 82 7c f9 3d 7a c8 34 be 87 f7 3a 3e d2 ea 1c be
       0.12181951 -0.176546 0.18258487 -0.15323952
000160 f3 5e 06 3e b8 ca c1 bd 58 0f e5 3d 56 e6 37 3e
       0.13122158 -0.09462494 0.11184567 0.1795896
000170 4c ea 91 bd 9f d4 f4 3d 26 ec f4 bc 59 a5 44 3b
       -0.07124767 0.11954617 -0.02989776 0.0030005781
000180 e3 dc 0f be 88 fa 03 be 54 96 87 3b 68 3b 0b 3d
       -0.14049105 -0.12888539 0.0041377936 0.0339922
000190 08 94 e3 3d bc 6a fa bb 21 98 a8 3d 46 2f 44 3e
       0.11112219 -0.0076421183 0.08232141 0.19158658
0001a0 dc 93 2e be bf 77 00 3e c2 57 31 be f2 c6 27 bc
       -0.17048591 0.1254568 -0.17318633 -0.010240303
0001b0 c0 d6 0f 3e 57 18 39 3e b7 9e 4e be 1a 1b fe 3d
       0.14046764 0.18075691 -0.20177732 0.12407513
0001c0 f9 99 1e 3e b8 82 28 bd 89 41 23 3e 16 3a 2e be
       0.15488423 -0.041140288 0.15942968 -0.17014346
0001d0 a8 f5 37 bc 68 e2 c5 3c dd 6c 91 bd aa 70 ec bd
       -0.011228003 0.02415581 -0.07100842 -0.115449265
0001e0 1a 6e 60 3d cf 37 0f be f7 8a 1f 3e 3b ef f5 bd
       0.0547925 -0.13986133 0.15580355 -0.1200852
0001f0 f0 f8 44 3e 3e 7d 56 bd 29 8f 19 be 48 a3 3d be
       0.19235587 -0.052365534 -0.14996018 -0.18519318
000200 be 4d ac bd ad f8 2a bd b2 fd 9a 3d a8 f8 ad 3d
       -0.08413266 -0.041741062 0.0756792 0.08494693
000210 53 3a 26 3c 56 a6 9b 3d 4e bb 86 3d 20 41 9d 3d
       0.0101457415 0.076000854 0.06578694 0.07678437
000220 04 21 aa 3d 3c 2e 18 3e 0e a6 0d 3e 2b 80 30 be
       0.083070785 0.14861387 0.13832876 -0.17236392
000230 9a 21 4d 3e 8e c3 10 be f8 28 d8 3d 29 54 a3 3c
       0.20032349 -0.14137098 0.10554689 0.019937592
000240 2f 6e bb bd 9b 66 2b 3e 3b 6f cb bd ed 84 43 3e
       -0.09151875 0.1673836 -0.09933325 0.19093676
000250 fb 51 74 bb 97 7e dd 3c 66 29 bb bd 98 1f cf 3d
       -0.003728031 0.027037902 -0.091387555 0.10113448
000260 5b 02 4a 3e 7d dd 54 bd c8 1a 00 3e 78 94 8e bd
       0.19727461 -0.05196904 0.12510216 -0.06961912
000270 75 3b e6 bd 5b 37 33 3c d7 f3 83 bb 64 88 b3 3c
       -0.11241809 0.010938491 -0.0040268707 0.021915622
000280 cb 71 f4 bd 6e 21 82 3c ec 29 92 3d 81 94 58 bd
       -0.11935767 0.015885081 0.07136902 -0.052876
000290 9d 73 a0 bd cf 01 89 bd bc 52 d7 bd 16 14 b1 bd
       -0.078345515 -0.06689798 -0.10513827 -0.08646409
0002a0 9e 96 22 bd 78 9f df 3d 7e 24 46 3d 3d 91 03 be
       -0.03969442 0.10919088 0.048374645 -0.12848373
0002b0 14 f7 3f be a4 97 0d 3e ae 0c b6 3d 83 03 e1 bd
       -0.18746597 0.13827378 0.08889137 -0.10986998
0002c0 5e 70 36 3e e7 b1 33 bc 27 d0 80 bc c6 72 01 be
       0.17816302 -0.010967708 -0.015724255 -0.12641439
0002d0 42 c4 28 3e 1a 18 2a be 78 38 21 bd 66 5b 7a bd
       0.16481116 -0.16610757 -0.039360493 -0.06112232
0002e0 e9 15 23 be 84 aa 11 3d a2 d0 2f be ae 7d 2f 3d
       -0.15926327 0.035563007 -0.17169431 0.042844467
0002f0 04 df 0f be af 96 10 be a0 ce 93 bc 53 49 17 be
       -0.14049917 -0.14119981 -0.018042862 -0.14774065
000300 2e 85 a0 bd be d8 8c 3d 6f e4 2b 3e c4 de 9d 3d
       -0.07837902 0.06877278 0.16786359 0.07708505
000310 95 ed 1f be fe 73 cd bd 1c 62 3b be 5e 86 01 3e
       -0.15617974 -0.100318894 -0.18299145 0.12648913
000320 91 e4 93 bd 27 7b de bd c6 5c 16 3e da 22 96 3d
       -0.0722133 -0.10863333 0.14683828 0.07330866
000330 b0 9a 79 bd 4a 8f 32 be c4 19 a3 3d 50 a4 27 3e
       -0.060938537 -0.17437473 0.07963899 0.16371274
000340 1f ac 2b 3e 01 1b 49 3e 10 c3 5d 3c 86 c4 04 be
       0.16764878 0.19639207 0.013535276 -0.12965593
000350 57 34 dd bc 76 c2 04 be 12 05 39 3d d0 b3 93 3d
       -0.027002497 -0.12964806 0.04517085 0.07212031
000360 60 f7 4d bb 7c de 6b bd bb a2 2b bd 30 e4 16 be
       -0.0031427965 -0.057585225 -0.04190324 -0.14735484
000370 f1 97 84 3c 41 21 f1 3d 05 09 f8 3d 24 0e a7 3d
       0.016185733 0.11773921 0.12111095 0.08156994
000380 bc 95 b6 3c 8d 19 0c be 4d 5f 15 be 4a 40 48 3e
       0.022288196 -0.13681622 -0.14587136 0.19555774
000390 fc c9 fa bd 45 bb fd 3d 2a 56 2f be 19 a3 0a be
       -0.12245557 0.123892345 -0.17122713 -0.1353878
0003a0 6a f6 36 be d1 84 db 3d 22 23 4f 3e 14 d6 b7 bd
       -0.17867437 0.10718692 0.20228246 -0.08976379
0003b0 fa 0e 55 bd 55 42 bb 3d 6e 30 3d 3e 77 34 31 be
       -0.052016236 0.09143511 0.18475506 -0.1730517
0003c0 3c 92 7c 3d dc 39 82 bc 70 e7 a3 bd 43 fd 0f 3e
       0.061662897 -0.01589673 -0.080031276 0.14061455
0003d0 cd 3a 1f 3d 10 f9 3f be c4 c6 d8 bd 7e fa c6 3d
       0.038874436 -0.18747354 -0.105847865 0.09715746
0003e0 2d 50 01 be 84 34 d9 bd 1d bd b1 bd 26 14 d3 bd
       -0.12628241 -0.1060572 -0.086786486 -0.103065774
0003f0 0e 3d 09 bd 51 f4 20 3e 38 7d aa bc 59 23 62 3d
       -0.033505492 0.157182 -0.020811662 0.05520949

encoder.encoder_layer.encoderlayer.linear2.bias f4 [18]
000000 2a 33 d5 3c 64 d0 04 3c 4b 36 93 bc 83 a8 80 3d
       0.026025373 0.008106325 -0.017970225 0.06282141
000010 d8 4c 35 bd 52 e7 77 3d 98 95 6f bc 95 e2 0d 3d
       -0.044262737 0.06052334 -0.014623068 0.034639914
000020 fa 08 06 bd 46 6d 0a 3d ad 05 e8 bb 78 05 a8 bd
       -0.032723404 0.033795618 -0.0070807547 -0.08204168
000030 e8 62 ef 3b 2e c8 b3 bd 5c 21 3f bd 4a 6c a1 3c
       0.0073054917 -0.087784156 -0.046662673 0.019704957
000040 11 76 9b 3d ab 7e 99 3d
       0.07590879 0.07494863

encoder.encoder_layer.encoderlayer.norm1.weight f4 [18]
000000 00 00 80 3f 00 00 80 3f 00 00 80 3f 00 00 80 3f
       1.0 1.0 1.0 1.0
000010 00 00 80 3f 00 00 80 3f 00 00 80 3f 00 00 80 3f
       1.0 1.0 1.0 1.0
000020 00 00 80 3f 00 00 80 3f 00 00 80 3f 00 00 80 3f
       1.0 1.0 1.0 1.0
000030 00 00 80 3f 00 00 80 3f 00 00 80 3f 00 00 80 3f
       1.0 1.0 1.0 1.0
000040 00 00 80 3f 00 00 80 3f
       1.0 1.0

encoder.encoder_layer.encoderlayer.norm1.bias f4 [18]
000000 00 00 00 00 00 00 00 00 00 00 00 00 00 00 00 00
       0.0 0.0 0.0 0.0
000010 00 00 00 00 00 00 00 00 00 00 00 00 00 00 00 00
       0.0 0.0 0.0 0.0
000020 00 00 00 00 00 00 00 00 00 00 00 00 00 00 00 00
       0.0 0.0 0.0 0.0
000030 00 00 00 00 00 00 00 00 00 00 00 00 00 00 00 00
       0.0 0.0 0.0 0.0
000040 00 00 00 00 00 00 00 00
       0.0 0.0

encoder.encoder_layer.encoderlayer.norm2.weight f4 [18]
000000 00 00 80 3f 00 00 80 3f 00 00 80 3f 00 00 80 3f
       1.0 1.0 1.0 1.0
000010 00 00 80 3f 00 00 80 3f 00 00 80 3f 00 00 80 3f
       1.0 1.0 1.0 1.0
000020 00 00 80 3f 00 00 80 3f 00 00 80 3f 00 00 80 3f
       1.0 1.0 1.0 1.0
000030 00 00 80 3f 00 00 80 3f 00 00 80 3f 00 00 80 3f
       1.0 1.0 1.0 1.0
000040 00 00 80 3f 00 00 80 3f
       1.0 1.0

encoder.encoder_layer.encoderlayer.norm2.bias f4 [18]
000000 00 00 00 00 00 00 00 00 00 00 00 00 00 00 00 00
       0.0 0.0 0.0 0.0
000010 00 00 00 00 00 00 00 00 00 00 00 00 00 00 00 00
       0.0 0.0 0.0 0.0
000020 00 00 00 00 00 00 00 00 00 00 00 00 00 00 00 00
       0.0 0.0 0.0 0.0
000030 00 00 00 00 00 00 00 00 00 00 00 00 00 00 00 00
       0.0 0.0 0.0 0.0
000040 00 00 00 00 00 00 00 00
       0.0 0.0

encoder.transformer_encoder.layers.0.encoderlayer.self_attn.in_proj_weight f4 [54, 18]
000000 02 3e 5a 3f e9 01 15 3f 34 ad 2a 3f 5a 82 54 3f
       0.85250866 0.5820604 0.66670537 0.830114
000010 ab 03 41 3f b4 68 2b 3f d7 19 0a 3f d0 c1 1e 3f
       0.7539622 0.6695664 0.5394568 0.62014484
000020 b2 a0 c9 3e 14 20 0e 3f 5e ad 09 3f 3f 68 60 3e
       0.39380413 0.555177 0.5378016 0.21914767
000030 fe b2 43 3f 9e 86 3b 3f b4 40 2d 3f e6 f7 4e 3f
       0.76444995 0.73252285 0.67676854 0.80847013
000040 af c2 0b 3f d0 13 bf 3e a4 d6 93 be ec 01 cc be
       0.5459394 0.37319803 -0.28874695 -0.39845216
000050 d5 6e 1f bf d2 88 04 bf 0e ac 14 bf 58 87 1f bf
       -0.6227849 -0.5177127 -0.58075035 -0.62315893
000060 41 cd ac be 7c 3c a2 be e2 65 2d bf 95 0b ee be
       -0.33750346 -0.3168677 -0.67733586 -0.4649321
000070 f8 30 09 bf 21 0f 26 bf d8 6c 9c be 3a 97 0b bf
       -0.53590345 -0.64866835 -0.3055179 -0.5452763
000080 9e ec 2c bf cd 52 88 be e5 64 3f bf 54 b0 3d bf
       -0.6754855 -0.26625672 -0.7476333 -0.7409718
000090 d0 cc 16 bf e5 50 0f bf 42 21 c9 be b6 49 8e be
       -0.5890627 -0.5598281 -0.39283186 -0.27790612
0000a0 fc 70 01 bf 49 f6 5a bf 51 6b ab be 42 16 93 be
       -0.50563025 -0.8553205 -0.33480313 -0.2872792
0000b0 e0 48 f0 be b9 62 29 bf 95 bb 9b be 08 a4 ab be
       -0.469306 -0.66166264 -0.3041655 -0.33523583
0000c0 d6 5b 2e bf 63 9b cc be 40 37 1a bf 79 36 9b be
       -0.6810888 -0.399623 -0.60240555 -0.30314997
0000d0 2c 25 d2 be c1 7f 27 bf 42 d6 a3 be 1b 5a 13 bf
       -0.41043985 -0.6542931 -0.31999403 -0.57559365
0000e0 b6 5f 9e be 0c a4 40 bf 2a 5b ea be 1e 31 50 bf
       -0.30932397 -0.75250316 -0.45772678 -0.81324947
0000f0 08 c8 80 be c3 5a b0 be 15 1a 1a bf be cb a8 be
       -0.25152612 -0.34444246 -0.6019605 -0.32967943
000100 23 54 f1 be 4f 41 cb be ff 6c 29 bf f8 0c e9 be
       -0.47134504 -0.39698264 -0.6618194 -0.45517707
000110 1c 12 30 bf d0 c2 00 bf 4e c9 92 be 67 af 0b bf
       -0.6877763 -0.5029726 -0.28669208 -0.5456452
000120 7f 44 35 bf b6 d8 41 bf 42 98 73 bf 4f 3e 65 bf
       -0.7080764 -0.757213 -0.951542 -0.895482
000130 4e 35 49 bf de f8 42 bf 3a ee fe be 0e 19 6f bf
       -0.7859696 -0.7616099 -0.49791127 -0.93397605
000140 d3 9b 1c bf eb 7e 06 bf 05 d3 26 bf b3 88 24 bf
       -0.6117527 -0.5253741 -0.6516574 -0.64271086
000150 05 b2 7a bf db b9 3c bf 00 48 38 bf 15 5f 87 bf
       -0.97927886 -0.7372109 -0.71984863 -1.0575892
000160 69 1c 5d bf 06 b0 13 bf ce e0 26 3f 41 6a 01 3f
       -0.86371475 -0.57690465 0.65186775 0.50552756
000170 6c 5e d0 3e d6 08 4c 3f 58 cc 19 3f 58 96 12 3f
       0.40697038 0.7970098 0.6007743 0.57260656
000180 fc e5 28 3f a2 44 af 3e 56 a4 fa 3e 72 90 1d 3f
       0.6597593 0.3423205 0.48953503 0.6154853
000190 d2 3f 14 3f 64 9a e4 3e 46 7e c4 3e 08 91 d3 3e
       0.5790988 0.4464904 0.3837759 0.41321588
0001a0 54 3a 33 3f ab 27 54 3f d2 06 00 3f 13 70 4a 3f
       0.70010877 0.8287303 0.50010407 0.7907726
0001b0 b3 32 28 3f 46 14 0a 3f 78 3a 05 3f fd 0a 2f 3f
       0.6570236 0.53937185 0.5204234 0.6837614
0001c0 d6 e9 65 3f 41 19 04 3f af a6 4d 3f 93 46 6a 3f
       0.8980993 0.51601034 0.80332464 0.9151394
0001d0 a3 a3 21 3f 37 70 f4 3e 60 46 59 3f 26 35 13 3f
       0.63140315 0.47741863 0.8487301 0.57502973
0001e0 a6 a7 6e 3f fa e3 23 3f ba a7 44 3f 93 d8 3f 3f
       0.9322456 0.6401974 0.7681843 0.7493984
0001f0 a0 45 5b 3f 25 ab 4e 3f e1 78 36 bf fc 59 af be
       0.85653114 0.80729896 -0.71278197 -0.3424834
000200 78 cb f7 be 61 d6 1a bf b0 ef b7 be 6b ef 8c be
       -0.48397422 -0.60483366 -0.35925055 -0.2752641
000210 42 81 1b bf d6 79 6b be 42 dc ff be fd 15 fb be
       -0.60744107 -0.22995695 -0.4997273 -0.49040213
000220 65 72 33 bf c6 72 fd be 40 ac 0b bf 4c 93 28 bf
       -0.7009643 -0.49501628 -0.5455971 -0.6584976
000230 c4 2e 7f be 82 42 1a bf 4c fa f1 be bf 38 e3 be
       -0.24920183 -0.6025773 -0.47261274 -0.4437923
000240 61 cb 1f bf 3f 03 f0 be 61 f6 52 bf ba 42 06 bf
       -0.62419707 -0.46877477 -0.82407194 -0.52445567
000250 c1 33 4b bf af df 3f bf 1c 9d 1d bf a1 22 3f bf
       -0.79375845 -0.7495069 -0.61567855 -0.74662215
000260 02 41 0e bf 34 c4 04 bf 86 63 4c bf f3 f7 22 bf
       -0.55567944 -0.5186188 -0.7983936 -0.6365959
000270 5b ac dc be c2 d1 d9 be ec 15 4f bf a8 fd 49 bf
       -0.43100247 -0.42542845 -0.80892825 -0.78902674
000280 42 f5 ec be 3c 5d a8 be 5c de 2c bf 67 86 ad be
       -0.46280867 -0.32883632 -0.67526793 -0.33891603
000290 8f b4 08 bf 02 16 36 bf 76 39 e1 be 6c b8 8a be
       -0.5340051 -0.7112733 -0.43989152 -0.27093828
0002a0 cb d2 f4 be 64 81 ee be 43 e8 a5 be e4 97 1e bf
       -0.47817072 -0.46583092 -0.32403764 -0.61950517
0002b0 4a af ca be 02 34 0f bf eb 23 ff be 93 22 25 bf
       -0.3958686 -0.5593873 -0.4983209 -0.6450588
0002c0 d7 1e 0e bf fb 9e 09 bf af 7d 03 bf 90 9f 3c bf
       -0.5551581 -0.5375821 -0.5136365 -0.73680973
0002d0 e8 47 ab be fe e5 67 be 38 3a be be e9 9f 0a bf
       -0.33453298 -0.22646329 -0.37153792 -0.54150254
0002e0 ff db a4 be a1 9a 17 bf e6 04 f3 be e2 94 0c bf
       -0.32199094 -0.5922032 -0.47464675 -0.5491468
0002f0 d4 f6 e0 bd 58 ef 7c be 7d b2 00 be 30 4b e4 be
       -0.10984579 -0.24700677 -0.12568088 -0.44588614
000300 38 e4 ac be 45 0f df be 60 5a c1 be bd 37 b4 be
       -0.33767867 -0.43566337 -0.37764263 -0.35198775
000310 65 1b 10 be 42 3b 0e bf 43 c1 88 bf 6a 75 84 bf
       -0.1407295 -0.5555917 -1.0683979 -1.0348332
000320 3b 1c 35 bf 33 04 8e bf 49 2f 34 bf ad 58 65 bf
       -0.707462 -1.1095031 -0.7038465 -0.89588434
000330 14 f1 5f bf d5 92 6f bf bf da 28 bf b4 99 7e bf
       -0.8747723 -0.9358342 -0.6595878 -0.9945328
000340 36 7b 33 bf 12 d8 4f bf 49 54 32 bf e4 b1 69 bf
       -0.7010988 -0.8118907 -0.6965986 -0.91287065
000350 f8 7f 82 bf d1 df 5e bf 68 f3 47 bf 46 87 76 bf
       -1.0195303 -0.87060267 -0.78105783 -0.9630016
000360 71 60 b7 be 6e c5 3c bf 92 bb 01 bf 7f d3 16 bf
       -0.35815766 -0.73738754 -0.50676835 -0.5891647
000370 50 7a 20 bf 70 23 e8 be 0f 9a c4 bd 0a f4 19 bf
       -0.62686634 -0.45339537 -0.09599697 -0.60138
000380 d3 b3 e7 be c6 52 8a be 6a 8a fd be 34 d4 c1 be
       -0.45254382 -0.27016276 -0.49519664 -0.3785721
000390 33 98 03 bf b6 f7 13 bf 62 02 a5 be 48 09 1a bf
       -0.5140411 -0.5779985 -0.3222838 -0.6017041
0003a0 b4 ad cb be b4 e6 dd be 34 6d bf be 86 2e f6 be
       -0.39780962 -0.43340075 -0.37388003 -0.4808237
0003b0 12 9e 7f be cc 00 d1 be 90 86 8b be a2 6d 99 be
       -0.24962643 -0.4082092 -0.272511 -0.29966456
0003c0 7e b6 3d be 63 91 09 bf 0e 58 cc be d0 81 ed be
       -0.18526646 -0.5373747 -0.3991093 -0.46388102
0003d0 9c fc 48 be 07 38 c7 be a7 a1 be be 17 fe 04 bf
       -0.19627613 -0.38909933 -0.37232706 -0.5195021
0003e0 ba 0d 02 bf 85 ff ad be 13 94 2e bf 3c ad 24 bf
       -0.50802195 -0.33984008 -0.68194693 -0.64326835
0003f0 a2 7c 6c bd ae e0 5c bd 06 ab e7 be 0c e4 b7 be
       -0.057736047 -0.05392521 -0.45247668 -0.35916173

encoder.transformer_encoder.layers.0.encoderlayer.self_attn.in_proj_bias f4 [54]
000000 ae 50 21 3f 70 de 0b bf 92 6e 0c bf e2 d8 05 bf
       0.6301373 -0.5463629 -0.54856217 -0.5228406
000010 13 b6 55 bf 3e 55 16 3f 49 14 2e 3f d6 66 e5 be
       -0.8348095 0.5872382 0.679997 -0.4480502
000020 46 46 08 bf 19 71 eb be d6 ea 94 be 22 bf 67 bf
       -0.5323223 -0.45984724 -0.29085416 -0.9052602
000030 39 3f 05 bf 69 fd 03 bf f0 f2 76 be 79 81 cb 3e
       -0.52049595 -0.5155855 -0.24116111 0.39747217
000040 13 44 12 bf 71 d1 29 bf ed c3 6a b9 6b 2c 2e b9
       -0.57135123 -0.6633521 -0.00022388967 -0.0001661048
000050 12 14 1b b8 af 08 5c 39 ef 99 65 39 72 ad b6 b9
       -3.697357e-05 0.0002098407 0.00021896487 -0.00034842972
000060 ec 6f f2 b7 57 ac 92 38 a4 88 30 37 81 74 1c 3a
       -2.8900766e-05 6.993923e-05 1.0522232e-05 0.0005968288
000070 22 88 95 39 ab 62 85 39 ae db a1 b9 a9 5c c0 b9
       0.00028520921 0.0002544125 -0.00030871987 -0.0003669013
000080 cb 69 3a b9 f1 bc 12 ba 06 27 56 ba 0a 1a ff 39
       -0.00017777753 -0.00055976125 -0.0008169267 0.0004865679
000090 59 fa 59 3d 34 99 a7 3d a9 27 31 bd fb 8c 37 3d
       0.053217266 0.08183518 -0.043250713 0.044812184
0000a0 fd 20 0a 3c 0a 3e fa bc bc 43 4c 3d c9 43 91 3b
       0.008430717 -0.03054716 0.049869284 0.0044331294
0000b0 ad ac 8b 3b f2 37 b1 3c 7b cb 21 3c 75 17 fd 3c
       0.004262528 0.021633122 0.009875174 0.030894974
0000c0 b3 b7 25 bd 40 27 9b bc ee ab 9a bc b6 2b df 3c
       -0.040458392 -0.018939614 -0.01888081 0.027242523
0000d0 71 87 36 3d 30 d7 fb bc
       0.04456276 -0.030742258

encoder.transformer_encoder.layers.0.encoderlayer.self_attn.out_proj.weight f4 [18, 18]
000000 3b 75 52 3e 31 9d aa bd 9a c4 82 be 54 86 f1 3d
       0.20552532 -0.08330763 -0.2554062 0.11793199
000010 e9 d2 99 be cf 09 94 bd bd 8d 87 bd 36 6e 3b 3e
       -0.30043724 -0.07228433 -0.06618831 0.18303761
000020 aa 7f c9 bc 30 a8 8b bd 17 4f e4 3d 95 52 91 be
       -0.024597008 -0.068191886 0.11147898 -0.28383318
000030 34 7c f9 3d 11 be 96 bd ef 24 a3 be da 5e 0c 3d
       0.12181893 -0.07360471 -0.31864116 0.034270145
000040 94 d9 7d 3e 0c d8 0b be c0 0d f4 bd 5a ef 6d 3e
       0.2479003 -0.13656634 -0.11916685 0.23235837
000050 08 c5 e5 bd 08 e1 8b bc 59 21 61 3e 62 cd 0c be
       -0.11219221 -0.017075077 0.21985377 -0.13750222
000060 10 6f 98 be cc 76 74 bd 49 83 0a 3f 17 08 ba 3d
       -0.29772234 -0.059683606 0.54106575 0.09083574
000070 67 67 a1 3e 68 ad df bd 09 5f bc 3c 94 fd f6 bd
       0.31524202 -0.109217465 0.022994535 -0.12060085
000080 60 75 a3 3e 77 23 84 be 3a 0c 12 bd cc 18 84 be
       0.31925488 -0.25808308 -0.03565619 -0.2580017
000090 d6 b2 f5 bd c2 7a 8e 3d f9 6e f2 3d 72 4f 16 bd
       -0.11997001 0.06957008 0.118375726 -0.03669686
0000a0 14 a2 42 3b c2 3e c0 be 2a 1c c4 3e b2 c2 d2 bc
       0.0029698657 -0.3754788 0.38302737 -0.025727604
0000b0 fa 2b c2 bd e0 ae 64 be d0 7d 48 be 44 aa 9a be
       -0.09481044 -0.22332335 -0.19579244 -0.30208027
0000c0 2d 79 25 be 76 ea 29 3e 66 88 a0 3e 3e b3 9b 3e
       -0.16159506 0.16593346 0.31354064 0.30410188
0000d0 7e fc fc 3d 9c 06 8b be 34 eb 77 3e 6c 87 0d 3e
       0.123528466 -0.2715348 0.24210817 0.1382119
0000e0 c8 12 7e 3d 12 24 8a be 4a 41 15 3e f6 f8 23 3e
       0.06202963 -0.26980644 0.14575687 0.1601294
0000f0 a6 55 46 3e c1 39 07 3e 77 3e 27 3e 5a 28 5d 3e
       0.1936861 0.13205625 0.16332422 0.21597424
000100 34 bc 37 3e fc 2c 83 be 29 b6 95 3e 90 f1 0c 3b
       0.17942888 -0.25620258 0.2924054 0.0021506287
000110 67 3c 42 3e 88 d3 4c be 5b b2 9f be f8 60 df bd
       0.18968354 -0.20002568 -0.31190762 -0.10907167
000120 f3 d0 b2 3e 26 88 a1 bc 60 ba a1 3e fe b2 d7 bd
       0.3492504 -0.019718241 0.31587505 -0.10532187
000130 39 f9 a2 bd 34 d9 9f 3d be d1 5c 3d 4c 3f 83 be
       -0.07957692 0.078051 0.053910963 -0.2563423
000140 ba 9e e9 bc 44 b8 cb be 3f 18 5b 3e 2a 6b 1b bd
       -0.02851807 -0.3978902 0.21395968 -0.037943996
000150 76 53 ca 3e f0 74 e6 be 73 0f 06 3e 3f be cd 3b
       0.395168 -0.4501109 0.13091831 0.0062787826
000160 1e e9 bf 3c 80 72 19 3e 91 75 b6 be 08 dd 01 be
       0.023426589 0.14985085 -0.3563657 -0.12681973
000170 b1 95 3a 3e 54 49 bf bc cc 2e 5f be 29 c8 92 bd
       0.18221165 -0.023350395 -0.21795195 -0.07167084
000180 71 0e 4b 3e 4f 5d bc be 66 55 88 be bc 54 73 bd
       0.19829728 -0.3678994 -0.26627654 -0.05940698
000190 b3 34 b7 3e a8 39 7e 3d 48 2d a5 bd c4 08 93 be
       0.35782394 0.062066704 -0.08065277 -0.28717625
0001a0 7e e3 47 be 59 dc 8d 3e 0e 92 9d 3e a8 d3 ed be
       -0.19520375 0.27707174 0.30775493 -0.46450543
0001b0 4e e2 94 be 00 1c be be a9 03 1f be 9e 82 9b 3e
       -0.29078907 -0.37130737 -0.1552874 0.3037309
0001c0 c0 3f 42 3e 7a 9a a7 bd c5 2d d7 3d 73 5d 52 3e
       0.18969631 -0.08183761 0.10506777 0.2054346
0001d0 70 10 7f 3d 8a 8b d6 3e 22 48 09 3e 8d d6 99 3e
       0.062271535 0.41903335 0.13406423 0.30046502
0001e0 92 cb 98 be 58 b1 c4 be b1 bd a2 be 99 a5 9f 3e
       -0.29842812 -0.38416553 -0.31785348 0.31181028
0001f0 50 20 4a 3e 2e f4 45 be 3a 17 68 3e c9 ed be 3d
       0.19738889 -0.19331428 0.2266511 0.09322698
000200 81 ef 68 be 7e 5f c2 3e 0a 42 dd 3d 03 0c 47 3e
       -0.22747613 0.3796348 0.108036116 0.19438176
000210 0e 44 86 be 75 41 94 3d 1a 31 b2 bd fb 75 56 3d
       -0.26223797 0.072390474 -0.08700772 0.05235861
000220 98 97 22 be 94 64 ad 3e 48 63 22 be 7e 29 7e bc
       -0.15878141 0.33865798 -0.15858185 -0.015512822
000230 7a 25 42 be 12 0c a9 3e f8 e5 04 3e 0b 10 52 3e
       -0.18959609 0.3301702 0.12978351 0.20513932
000240 b0 8a 2b be b5 8c 86 3e 1d 16 6c 3e f1 ea 86 bd
       -0.16752124 0.26279226 0.2305531 -0.0658778
000250 e0 8a a2 3e 88 b0 18 3d 66 03 bf 3e d2 0e c6 3e
       0.31746578 0.03727773 0.3730728 0.38683182
000260 cd 24 71 be fd 92 31 3e 68 34 8c 3e 84 0d 9e 3e
       -0.23549195 0.17341228 0.27383733 0.30869687
000270 9a 16 9e be 2c e4 9f bd 76 69 7c 3c 43 4e 7f be
       -0.3087662 -0.07807192 0.015406003 -0.24932198
000280 f8 36 4b 3e fd 9c 8e be 30 8d 92 3e 28 35 3e be
       0.19845188 -0.27854148 0.28623343 -0.18574965
000290 fd bb a3 3e b6 56 27 bd 71 07 95 3e a8 87 8a 3b
       0.3197936 -0.04085418 0.2910724 0.0042275973
0002a0 8d 67 55 3c a1 e2 53 bd f4 99 7f bd c0 67 b7 bd
       0.013025177 -0.051729802 -0.06240268 -0.089553356
0002b0 0e 1c a0 3e 31 77 87 3e 87 56 72 3d 70 a1 0b bd
       0.31271404 0.26458123 0.05916455 -0.034089506
0002c0 c3 ba f4 bd 73 cb 62 3d 02 ae b3 3e 8a 00 96 3e
       -0.119496845 0.055369806 0.35093695 0.29297286
0002d0 b0 5d d2 3d 0e db 58 be d3 4f 9c 3d 66 38 ae 3e
       0.10271776 -0.21177313 0.07632413 0.34027404
0002e0 0f 44 75 be 21 a4 b7 3d 54 7f 8e be 12 ae 4d be
       -0.23951744 0.08966852 -0.2783152 -0.20085934
0002f0 ec bf b7 3e 6e de 9b 3e c4 23 a2 be 62 23 00 3e
       0.35888612 0.30443138 -0.31667912 0.12513497
000300 e3 e7 28 be 5f eb 75 be 58 8a 7e 3c c8 c0 5b be
       -0.16494708 -0.24015568 0.015535913 -0.21460259
000310 2a ea cb 3d 35 15 31 3e fc d5 0f 3e 30 16 23 3e
       0.099567726 0.17293246 0.14046472 0.15926433
000320 7a a7 2b 3e c0 78 14 3e d6 96 d5 be d4 6e 02 bd
       0.16763106 0.14499187 -0.4171664 -0.031843975
000330 e2 ae 6b be 37 04 97 3e d1 c6 d3 3e 2c dd 00 3d
       -0.23015931 0.29495403 0.41362622 0.031460926
000340 12 b8 2c 3e 12 7b 44 3e ab 70 77 be 9b 03 dd be
       0.16867092 0.19187573 -0.24164073 -0.43166813
000350 d6 a2 92 be f2 7d d9 bb 3a 72 a0 3e 5a a5 a4 3e
       -0.2863986 -0.0066373283 0.31337148 0.32157403
000360 32 2a c2 3d 8d 1f 11 be 07 4b 66 3d 88 7c 04 3e
       0.09480704 -0.14172192 0.056223895 0.1293813
000370 6c 31 7b be fb ff 5e be b4 d5 50 3d ec 33 a8 bc
       -0.24530572 -0.21777336 0.050985053 -0.02053257
000380 c1 b3 34 be 6d 62 8b be d9 85 07 3d ba e8 91 be
       -0.17646696 -0.2722353 0.03308663 -0.2849787
000390 41 98 b5 3d 16 69 84 3e d4 aa f5 3d 46 dd 74 3e
       0.08866931 0.25861424 0.119954735 0.23912534
0003a0 e0 73 66 bd 5c e8 a0 be d0 f2 a9 be 29 45 45 be
       -0.05626285 -0.31427276 -0.33193064 -0.19264664
0003b0 a6 c2 69 be 0c 90 35 be dc 5a b4 3d fe 5e 98 3e
       -0.22828159 -0.17730731 0.088063926 0.29759973
0003c0 5f 63 95 bc 3d c4 00 bd 6e 56 76 3e 9c 9d 27 be
       -0.01823586 -0.031437147 0.24056408 -0.16368717
0003d0 63 b4 70 be 8c 4f 1c 3d c6 d1 66 3e ac bc d2 be
       -0.23506312 0.0381618 0.2254096 -0.4115957
0003e0 6c 21 a4 3e 1b 18 ca be f0 b5 bb 3e 68 95 4b be
       0.3205675 -0.39471516 0.36662245 -0.19881213
0003f0 de 1c a9 be bf 5b a0 3d 69 b9 ef bd 7c 57 d8 bd
       -0.33029836 0.07829999 -0.11705286 -0.10563561
