Final_exp/cen_003/models/model__lr_0.0005_l_win_120_dff_64.pt (torch, 89807 bytes, 49 tensors)

encoder.encoder_layer.encoderlayer.self_attn.in_proj_weight f4 [54, 18]
000000 f8 e1 ee bd c5 be 25 be d6 75 cd bc c1 88 75 be
       -0.11664194 -0.16186054 -0.025080603 -0.23977949
000010 b7 f8 69 be e6 9e 80 bd 33 02 8e 3e 4a b0 4b 3d
       -0.22848783 -0.062803075 0.27736053 0.04972867
000020 e7 17 f6 bd 1c 9d 45 3e 02 2c 5a 3e 05 07 4a 3e
       -0.12016278 0.19298214 0.2130585 0.1972924
000030 c7 15 30 3b 35 19 00 bd dc 00 40 3e 09 e7 1e 3e
       0.002686845 -0.03127404 0.18750328 0.1551782
000040 15 23 60 3e f2 e5 54 3e 41 d0 a7 bd 0b 5f 7a 3e
       0.21888383 0.20790842 -0.08194018 0.24450319
000050 dc 56 67 3d 19 26 93 3e 24 09 93 3e 44 ea 77 3e
       0.05647932 0.28740004 0.2871791 0.24210459
000060 a6 c5 44 3e a4 19 68 3e 4b f0 0a be 63 27 e6 bd
       0.19216022 0.22666031 -0.13568227 -0.11237981
000070 fd c7 89 bd 5d 4c 17 be b0 2e 59 3e 2f 12 dd 3c
       -0.06727598 -0.14775224 0.21209216 0.02698621
000080 a1 bc 95 bd ad 70 04 be 02 97 83 be be ad a9 3c
       -0.07311369 -0.12933607 -0.25701147 0.02071273
000090 5b ec 81 3e 23 5e 42 3e 97 4a 6a 3e a8 f7 49 3e
       0.25375637 0.18981223 0.22880016 0.1972338
0000a0 86 c7 f8 3d 54 32 08 bc 10 ae 5a be f2 56 59 3e
       0.12147431 -0.00831278 -0.21355462 0.21224573
0000b0 fb 02 50 be a6 c1 31 be 90 3b ed 3d fb 57 22 3e
       -0.20313637 -0.17359027 0.11583626 0.15853874
0000c0 12 d4 19 be 67 13 3b 3e a8 52 8a be 9a e2 8c 3d
       -0.15022305 0.1826912 -0.27016187 0.06879158
0000d0 c2 7f 02 3e 92 a0 5b 3d 8a 56 26 be 53 a2 47 be
       0.12744048 0.05361993 -0.1624395 -0.19495516
0000e0 5b 42 6c 3e 06 3f 82 3d 77 fc fd bd 7f 5c 8e 3e
       0.23072188 0.06359677 -0.124016695 0.27804944
0000f0 9d ce 76 bd d4 a6 5a bd 39 2c 98 3d d1 1a 76 3e
       -0.060255636 -0.053381756 0.0743031 0.24033667
000100 7c 96 03 be 71 c1 be 3a b5 b5 04 be 1d e4 05 be
       -0.12850374 0.00145535 -0.1295994 -0.130753
000110 7e 2d 21 bd b0 eb 9b b9 9c 80 1e 3e 39 cc 5c be
       -0.039350025 -0.00029739505 0.15478748 -0.2156228
000120 43 8a 2b 3e 3c f2 66 3e cb cb 06 bd 14 d6 d3 bc
       0.16751961 0.22553343 -0.032909196 -0.025858916
000130 5e cb 91 3d ba 50 87 be b1 82 59 3e 2f d8 4e bd
       0.07118867 -0.26428777 0.21241261 -0.050499137
000140 05 37 3e 3c ac 24 0c 3e b9 2c f6 3d dc c6 08 be
       0.011609797 0.13685864 0.12020249 -0.13357109
000150 1e 20 59 be d2 95 8e be 62 d6 76 be 9f 90 78 bd
       -0.21203658 -0.2784868 -0.24105218 -0.060684796
000160 d8 7b 65 be 8c c8 ee bc f9 2b 1c be b0 7f 27 3e
       -0.22410524 -0.029148363 -0.15251149 0.16357303
000170 11 32 4a 3e fd 14 7a 3e b7 d7 41 be 62 9c 50 be
       0.19745661 0.24422069 -0.18929945 -0.20372155
000180 80 16 cd 3d 43 02 87 bd 11 2e 60 3e c2 97 87 be
       0.10014057 -0.06592228 0.21892573 -0.2648297
000190 d7 0f 89 3e 32 09 4d be 80 0c 6d be 2a c5 fa bc
       0.26769897 -0.20023039 -0.231493 -0.030611593
0001a0 2b f4 02 be 8f 58 3a be 2a c3 28 3e 18 4d 64 3e
       -0.12788455 -0.18197845 0.16480699 0.22295034
0001b0 6c 94 24 3e 88 53 10 3d 84 26 2a bd 0b 49 21 be
       0.16072243 0.03523591 -0.041540638 -0.1575052
0001c0 8d df 8c 3e 75 00 21 be d1 96 81 be e5 cb 7a 3e
       0.27514306 -0.1572283 -0.25310376 0.24491842
0001d0 46 b8 be bc 48 9f 46 3e 8b 3a c4 bd a4 3c 66 3e
       -0.023281228 0.19396698 -0.09581479 0.2248407
0001e0 7c 73 50 be a6 e3 31 3e 5c 12 66 3e 3e 3f 84 bb
       -0.20356554 0.17371997 0.22467941 -0.0040358594
0001f0 9a 08 44 3e af d5 27 3c f8 52 87 be 8d 80 01 3e
       0.19143906 0.010243817 -0.26430488 0.12646694
000200 4e cd 65 be fe a2 14 3c 8e f3 84 be f3 bd 0c be
       -0.22441599 0.0090720635 -0.25967067 -0.13744335
000210 4a 28 b0 bd ed c0 e5 bd cf 97 91 be 75 d2 12 be
       -0.086014345 -0.11218438 -0.28436133 -0.14338095
000220 03 f3 88 be f8 20 77 be 60 75 93 be 89 49 2a be
       -0.26747903 -0.2413367 -0.28800488 -0.16629614
000230 da 7a 84 bd a2 26 85 3e fb f5 4f be 9a c9 60 be
       -0.064687446 0.26006037 -0.20308678 -0.21951905
000240 bc a3 70 be 2b 46 8a 3e 8a 36 17 bd d6 4b 9d bd
       -0.2349996 0.2700666 -0.036917247 -0.0768048
000250 b8 13 22 3e 2e a8 2e be 02 3f 9c bd a5 78 87 3e
       0.15827835 -0.17056343 -0.07629205 0.26459232
000260 46 71 1d 3e 17 4f 65 be 2a 7d a2 bd af 39 e8 3c
       0.15375242 -0.22393452 -0.079340294 0.028347818
000270 47 9b d5 3d 6c ff 07 be 9c fa 4e 3e 8f ed 93 3b
       0.104300074 -0.1328103 0.20212787 0.004514403
000280 da 95 7f be 56 6b 9e 3d ca 7a 8f be 4a a3 a4 3c
       -0.24959508 0.077353165 -0.28023368 0.020097394
000290 18 2e 92 be 79 a3 a8 bd 4a 66 89 bd f6 c3 84 be
       -0.28550792 -0.08234305 -0.06708963 -0.25930756
0002a0 47 39 a7 bd 51 d3 1e 3c 20 8c 26 be e1 cc 27 3d
       -0.08165222 0.009693936 -0.16264391 0.040966872
0002b0 f7 18 1c 3e 98 8c 0b 3d 7b 13 91 be 4b 1f 6f ba
       0.15243898 0.034069628 -0.28335175 -0.00091217895
0002c0 66 88 0a be a8 84 a8 3d 7c 2e 6d be a5 7a 4c be
       -0.13528594 0.08228427 -0.23162264 -0.1996866
0002d0 fb 02 1d bc 22 75 2a 3e 6d f1 9d bd b9 67 79 bc
       -0.00958323 0.16646245 -0.07712064 -0.015222483
0002e0 27 33 ea bc 46 4b 67 be 69 19 bb bc 61 1d 05 bc
       -0.028588844 -0.22587308 -0.022839265 -0.00812468
0002f0 80 b7 43 3d 17 4e 04 3e 44 11 b0 3d 72 d9 24 3e
       0.04778242 0.12920414 0.08597043 0.16098574
000300 29 6a 61 bd 3c 65 ff bd c3 0a 7b 3e 0b b1 6b 3e
       -0.055032883 -0.12470481 0.24515824 0.23016755
000310 a9 2a 21 3e 1b 56 57 3e 33 c7 10 3e 1d a7 82 3e
       0.1573893 0.2102894 0.14138488 0.25518122
000320 8c 92 80 3e 0e 58 70 be 94 48 8b be a6 5d 19 be
       0.25111806 -0.2347109 -0.2720381 -0.1497713
000330 69 03 62 3e 15 74 85 3e 21 44 9a 3c ea 8f 5a be
       0.22071613 0.26065126 0.018831315 -0.21343961
000340 e1 ee 0a be 45 86 0c 3e 34 ad 89 3e 17 05 65 3d
       -0.13567688 0.13723095 0.26889956 0.055913057
000350 f7 68 42 be e4 3b 8c 3e cf c8 81 3e fe ad 01 be
       -0.18985353 0.27389443 0.25348517 -0.12664029
000360 b4 b9 1f be e7 f1 29 3e ce 9c 55 be e2 be 76 3e
       -0.15598184 0.16596185 -0.20860597 0.24096254
000370 68 b0 6e bd 54 be 80 bb dc eb 1d be 37 1e 92 be
       -0.058273703 -0.003928939 -0.15422004 -0.28538677
000380 fa c1 85 3d 6a a3 d2 bd 51 53 2d be 04 a1 6b 3e
       0.06531139 -0.10285075 -0.16926314 0.23010641
000390 9b 42 5b 3d 80 85 9e bd f1 4c 88 be 01 68 26 be
       0.053530317 -0.07740307 -0.26621202 -0.16250612
0003a0 26 fc c0 bd 50 87 f8 3d 7e b5 86 be f0 b8 2a 3e
       -0.094230935 0.12135184 -0.26310343 0.1667211
0003b0 52 71 86 3e 8b f2 b6 3d 98 bf 92 be 15 43 1a 3d
       0.26258332 0.0893298 -0.286618 0.03766163
0003c0 4a 95 ee bd 79 03 bb 3d 5a cb 30 bc 2f a2 10 3e
       -0.116495684 0.09131522 -0.01079067 0.14124368
0003d0 d5 66 c0 bc ae 46 55 3d e0 8a eb 3d fb 02 5b be
       -0.023486534 0.05206936 0.11501098 -0.21387856
0003e0 39 30 45 3d 5a b5 83 3e 7a 68 4e 3e 38 33 93 3c
       0.04814169 0.25724298 0.20157042 0.017968759
0003f0 bf ed 4f bd d6 74 f4 3d de f8 81 be c3 10 b2 bd
       -0.05076384 0.11936347 -0.25385183 -0.08694603

encoder.encoder_layer.encoderlayer.self_attn.in_proj_bias f4 [54]
000000 00 00 00 00 00 00 00 00 00 00 00 00 00 00 00 00
       0.0 0.0 0.0 0.0
000010 00 00 00 00 00 00 00 00 00 00 00 00 00 00 00 00
       0.0 0.0 0.0 0.0
000020 00 00 00 00 00 00 00 00 00 00 00 00 00 00 00 00
       0.0 0.0 0.0 0.0
000030 00 00 00 00 00 00 00 00 00 00 00 00 00 00 00 00
       0.0 0.0 0.0 0.0
000040 00 00 00 00 00 00 00 00 00 00 00 00 00 00 00 00
       0.0 0.0 0.0 0.0
000050 00 00 00 00 00 00 00 00 00 00 00 00 00 00 00 00
       0.0 0.0 0.0 0.0
000060 00 00 00 00 00 00 00 00 00 00 00 00 00 00 00 00
       0.0 0.0 0.0 0.0
000070 00 00 00 00 00 00 00 00 00 00 00 00 00 00 00 00
       0.0 0.0 0.0 0.0
000080 00 00 00 00 00 00 00 00 00 00 00 00 00 00 00 00
       0.0 0.0 0.0 0.0
000090 00 00 00 00 00 00 00 00 00 00 00 00 00 00 00 00
       0.0 0.0 0.0 0.0
0000a0 00 00 00 00 00 00 00 00 00 00 00 00 00 00 00 00
       0.0 0.0 0.0 0.0
0000b0 00 00 00 00 00 00 00 00 00 00 00 00 00 00 00 00
       0.0 0.0 0.0 0.0
0000c0 00 00 00 00 00 00 00 00 00 00 00 00 00 00 00 00
       0.0 0.0 0.0 0.0
0000d0 00 00 00 00 00 00 00 00
       0.0 0.0

encoder.encoder_layer.encoderlayer.self_attn.out_proj.weight f4 [18, 18]
000000 bb c8 f6 3c 39 8f 1a 3c 61 87 b0 3e 2f d0 ac bd
       0.030125013 0.009433561 0.34478286 -0.08438145
000010 52 67 c4 be 68 e0 17 3e 42 5d b7 bd a3 de 11 3e
       -0.38360077 0.14831698 -0.089533344 0.14245085
000020 93 92 fb 3d 2a 04 15 3e 40 3e 67 3e 55 89 92 be
       0.12283816 0.1455237 0.2258234 -0.286204
000030 97 41 aa be 9d b3 c3 3e 4f 0d bf 3e 2c 06 25 be
       -0.33253166 0.38222972 0.3731484 -0.16115636
000040 28 23 c8 3e c5 0e a5 3d 19 b2 db bd 36 68 62 be
       0.39089322 0.08059458 -0.10727329 -0.22110066
000050 3f 78 5e be fa b7 a7 3e 80 7a 80 be 0d 79 2b be
       -0.21725558 0.3275755 -0.2509346 -0.16745396
000060 08 15 d0 3e 2a 38 4c be dc a9 cd 3e c0 b2 3a 3e
       0.40641046 -0.199433 0.40168655 0.1823225
000070 bb 64 4f 3e 1d 67 be 3d d7 ab 95 bd 67 62 3a 3e
       0.2025327 0.09297011 -0.073081665 0.182016
000080 84 08 f9 3d 23 13 64 be 6c 31 ac be 69 e1 a9 be
       0.12159827 -0.22272925 -0.33631456 -0.33179787
000090 8c 60 4a bd 75 1f ef 3d 4d 7c 84 be 01 0a 9a 3d
       -0.04940848 0.11675922 -0.25876084 0.07521439
0000a0 5c d1 70 3e c5 e0 75 3e e8 36 1c be 80 a9 bf 3d
       0.23517364 0.24011524 -0.1525532 0.093585014
0000b0 1b 54 b9 be e1 60 96 3e 06 0d a7 be 15 9f b9 3c
       -0.3619698 0.29370788 -0.32627124 0.022658864
0000c0 b8 53 03 be 2d 4f ad be 54 2e b5 be c5 47 86 be
       -0.12824905 -0.3384947 -0.35386908 -0.2622663
0000d0 6f be 97 be f3 82 9f 3e 2d 6e 80 bd ec 8c 8b be
       -0.29637477 0.31154594 -0.06271014 -0.27255952
0000e0 7a 01 c1 3a 11 b8 3c be fc 24 72 bd 77 c2 b3 3e
       0.0014725171 -0.18429591 -0.059117302 0.35109302
0000f0 16 79 b8 be 12 95 b5 be f4 e7 cc 3d e7 b0 91 3e
       -0.3602988 -0.35465294 0.10005179 0.28455278
000100 43 96 c6 be a4 56 03 3e 53 17 cf 3e 51 53 86 bd
       -0.38786516 0.1282602 0.40447482 -0.0655886
000110 b7 ac 76 be 95 16 4d 3e d7 20 6c 3e ca 98 2d bd
       -0.24089323 0.20028146 0.23059402 -0.04238204
000120 39 7a aa be c1 b3 81 3c fd 5c 87 be 9f 71 b2 be
       -0.33296373 0.015832784 -0.26438132 -0.3485231
000130 73 76 82 3e a4 8e 8f 3e 3c d6 27 3e 21 8e aa be
       0.25480995 0.28038514 0.16390318 -0.3331156
000140 cc 43 b1 3e 13 21 99 3e ba a4 b3 3e c0 4a de bc
       0.34622037 0.29908046 0.35086614 -0.027135253
000150 4c d8 9a bd 8f 76 bb be ee 3e 9a 3e 55 5d af bc
       -0.075607866 -0.3661389 0.30126137 -0.021406809
000160 13 00 d1 be fe 5f cc 3e ac 34 58 bd dd 6e 7b 3e
       -0.4082037 0.39916986 -0.052784607 0.2455401
000170 bc d2 76 bd 3e 88 83 bd 9f de b7 3e 1f 8c ad 3e
       -0.060259566 -0.064224705 0.35912034 0.33895966
000180 af 1c 43 be 1a fb 50 3c 7b fa 8d 3e 0a bb a0 3c
       -0.1905391 0.01275518 0.27730164 0.019620437
000190 af ab 96 bd fd be ba 3e ce 20 ba 3e 81 1e e0 bd
       -0.07356965 0.36473837 0.36353153 -0.10943318
0001a0 08 42 9e 3e 5f 9e 25 bd 02 c1 46 3c 2a ac a7 3e
       0.30909753 -0.040434238 0.012130978 0.32748538
0001b0 95 bc 01 bd cc 56 26 bd 19 ae b5 bd 4f 84 ae be
       -0.031673986 -0.04061012 -0.08871097 -0.34085318
0001c0 ad d8 a1 3e b9 fc a3 be bb 6f a0 be 29 53 62 3d
       0.31610623 -0.3202875 -0.31335244 0.05525509
0001d0 b0 19 30 bd 27 18 83 3c d2 8f 03 3d 7f 2a cf 3e
       -0.042993248 0.016002728 0.03211958 0.4046211
0001e0 43 f2 ca be ce 58 7b be 33 3b 9a 3d 83 14 ba be
       -0.39637956 -0.24545595 0.075308226 -0.36343774
0001f0 5c 22 a5 be c9 29 a0 3e fd de 21 3e 26 ac 01 be
       -0.32252777 0.3128188 0.1580772 -0.12663326
000200 a1 a3 dc 3d a8 3b 92 3d 80 be 24 bd 35 93 ad 3e
       0.10773397 0.07140285 -0.040220737 0.33901373
000210 59 84 e4 b8 6b 4a 94 3e 9b b3 a2 be 06 db 29 be
       -0.00010896539 0.28963026 -0.31777653 -0.16587457
000220 15 6a 8d 3d 19 4f 5f 3e 08 18 2a be 64 cb 96 3e
       0.06904999 0.21807517 -0.1661073 0.2945205
000230 a7 68 ad be ee 76 1f be 18 24 9d 3e 29 2e 9c be
       -0.33868906 -0.15572712 0.306916 -0.30503967
000240 f8 08 c4 be f4 08 d3 bd f7 24 ae be 25 b7 f8 3d
       -0.38288093 -0.10304442 -0.34012577 0.12144307
000250 ec ff 92 bd 2c 1c f6 bd 00 30 67 3e 80 93 c2 3c
       -0.071777195 -0.12017092 0.22576904 0.023751974
000260 5c 72 bc be cb 12 c6 be 79 46 83 3e 6f 48 34 3e
       -0.36806 -0.38686213 0.25639704 0.17605756
000270 56 ba 65 3e 2a 86 b1 be b4 91 a1 bd 8f 95 b2 3e
       0.22434363 -0.34672672 -0.07889119 0.3487973
000280 9e d5 a8 3e 13 1a 8e 3e 30 0b c2 3e 2f 00 03 be
       0.32975477 0.27754268 0.3789916 -0.12793039
000290 ca d0 a1 be c4 01 6b 3e dc 45 85 3e 2f 7e fc bd
       -0.31604606 0.22949892 0.2602986 -0.12328755
0002a0 a9 1a 1c bd 04 0e a1 bc 63 6b b9 be 2b 27 2d be
       -0.038111363 -0.019660003 -0.36214742 -0.16909473
0002b0 bb 77 04 be 3d 10 1c 3e 46 f3 f3 bd 61 ac 3c 3e
       -0.12936299 0.1524057 -0.11911635 0.18425132
0002c0 cb 36 bc 3e 4a 3a b2 bd bc cb cb bd 84 49 83 be
       0.36760554 -0.08702524 -0.099509686 -0.25642025
0002d0 24 3c ff bc 86 48 bf be d9 48 8d 3e c9 4e b4 3e
       -0.031156607 -0.37360018 0.2759464 0.35216358
0002e0 df fd de 3d df af c5 3e 7f 92 52 3e 5e 8e 8a 3e
       0.10888266 0.38610741 0.20563696 0.27061743
0002f0 53 0f c1 3e df b5 8f be c0 30 03 bd cc 0d 1d 3e
       0.37707004 -0.28068444 -0.032028913 0.15337294
000300 a7 cb df bd ce 45 94 be 88 43 03 be e1 3b 4f be
       -0.109275155 -0.28959507 -0.1281873 -0.20237686
000310 76 9f 12 be d1 3b 9f be 92 34 fc bd c2 88 6f 3e
       -0.14318642 -0.31100324 -0.123147145 0.23392013
000320 a9 7b 37 be c4 12 32 3e 48 e5 ab be 8c b6 83 be
       -0.17918266 0.17389971 -0.33573365 -0.2572521
000330 bb 50 2d 3d dd 91 c1 3e 47 09 c1 be 30 f7 35 3e
       0.04231332 0.37806597 -0.3770239 0.17770076
000340 95 3a 92 3d 46 cb aa be dd c3 97 be 75 9f 52 3e
       0.0714008 -0.3335821 -0.2964162 0.2056864
000350 85 e2 50 be 4c 7b 92 3e 3f 8c 90 be 71 e7 9d 3e
       -0.2039891 0.28609693 -0.28232 0.30840638
000360 51 45 55 be 59 58 29 3e 94 29 fa 3d 53 04 a4 be
       -0.20827223 0.16537608 0.12214962 -0.3203455
000370 85 3d 5b be 9c 87 ca bd bf c7 a9 3a f5 75 4e 3e
       -0.21410187 -0.09889147 0.0012953206 0.20162185
000380 ee d7 2b be 46 07 76 3d 2d c5 62 be 4e b6 46 be
       -0.1678159 0.06006553 -0.22145529 -0.19405481
000390 40 67 88 3e d4 fd e4 bd 41 27 b7 be 1b 7b 8c 3c
       0.26641273 -0.111812264 -0.35772136 0.017148545
0003a0 02 61 6e bd c6 b0 ed 3d 0e 41 55 be f2 0b 90 3c
       -0.058197983 0.116059825 -0.20825598 0.017583821
0003b0 3c 3d 4e be d8 a6 7c be f9 1f bf 3d 65 36 01 3e
       -0.20140547 -0.24673021 0.0933227 0.12618406
0003c0 82 ad 9a 3d bf 13 c1 3e 85 03 1b 3d 7b 32 0e 3d
       0.07552625 0.37710378 0.037845153 0.03471611
0003d0 55 9d 5a bd 70 15 ca be 54 81 23 3e d1 f1 a2 3e
       -0.0533727 -0.3946948 0.15967304 0.31825116
0003e0 e8 b3 25 3d 3c 04 a3 be f2 ad bb 3e 58 4e bb 3d
       0.040454775 -0.31839168 0.36656147 0.09145802
0003f0 17 30 97 3e b1 90 35 3e 72 e1 83 3d fc 56 f6 bd
       0.29528877 0.17730977 0.06439485 -0.1202831

encoder.encoder_layer.encoderlayer.self_attn.out_proj.bias f4 [18]
000000 00 00 00 00 00 00 00 00 00 00 00 00 00 00 00 00
       0.0 0.0 0.0 0.0
000010 00 00 00 00 00 00 00 00 00 00 00 00 00 00 00 00
       0.0 0.0 0.0 0.0
000020 00 00 00 00 00 00 00 00 00 00 00 00 00 00 00 00
       0.0 0.0 0.0 0.0
000030 00 00 00 00 00 00 00 00 00 00 00 00 00 00 00 00
       0.0 0.0 0.0 0.0
000040 00 00 00 00 00 00 00 00
       0.0 0.0

encoder.encoder_layer.encoderlayer.linear1.weight f4 [64, 18]
000000 3f 57 79 3e c5 e0 5e be 02 49 09 be 7f 47 d7 3d
       0.24349688 -0.2176543 -0.13406757 0.10511684
000010 66 a2 53 3e 77 c2 40 3d a5 c1 88 bc 78 ab 2b 3c
       0.20667419 0.047060456 -0.0166939 0.010477893
000020 76 10 7c 3e ab 79 59 be 65 61 fc 3d 77 4f 46 be
       0.24615654 -0.21237819 0.12323264 -0.19366251
000030 bb b0 d2 3c a7 d4 82 be 0c 67 33 3e cb 54 1a be
       0.025719037 -0.25552866 0.17519778 -0.15071408
000040 9e 33 93 3c c5 b7 2d be 41 ef ca 3c 8c e2 06 be
       0.017968949 -0.16964634 0.024772288 -0.13172358
000050 a5 a8 0d be c4 13 f0 bd 58 dd 2b 3e a9 d6 1a 3d
       -0.13833864 -0.1172252 0.16783655 0.037802372
000060 b6 b0 8e bd 0a eb 6b 3e dc 20 59 3d 0b 47 b3 bd
       -0.06967299 0.23038879 0.053009853 -0.08753785
000070 a9 66 48 bc a8 9a d8 bd 06 c5 db bd 11 ff ac bd
       -0.012231507 -0.10576373 -0.107309386 -0.084470876
000080 af 05 84 3d 9b a4 76 be da b6 57 be 9c f0 39 3e
       0.064463966 -0.2408623 -0.21065846 0.18158191
000090 57 ae 84 bd 0a a2 23 bc ff 7a c1 3d 4d cb f7 bd
       -0.06478565 -0.009987364 0.09447288 -0.120993234
0000a0 6d 0b 42 3e 0c cd 7a bd 72 07 87 3c 75 1b 40 be
       0.18949671 -0.061230704 0.016483042 -0.18760474
0000b0 ad 45 e1 3d 7f e0 44 be 57 75 28 3e 92 dc 1c bd
       0.10999618 -0.19226263 0.16451012 -0.03829629
0000c0 cc 54 ca bd 95 72 b9 bd ca 5b d3 3d 65 a5 87 3e
       -0.09879455 -0.09055058 0.10320242 0.26493374
0000d0 2f 82 96 3d ea c7 29 3e 23 7c 69 be 0f bd 82 bd
       0.07349049 0.16580167 -0.2280126 -0.06383716
0000e0 e5 dd 1c be 07 ce 46 be 08 3e 3e 3d 3f 30 ad bd
       -0.15319021 -0.1941453 0.046445876 -0.08456468
0000f0 58 cf 7a 3d aa 46 dc bd 75 92 7c be 38 8d 0e be
       0.061232895 -0.107556656 -0.24665244 -0.13921058
000100 9c 1f 85 be 67 f5 6f 3d 89 f2 4f be bf ec 54 3e
       -0.2600068 0.058583643 -0.20307364 0.20793436
000110 6d c4 ef 3d 9c 6a 1b be 8a 51 9e bd fd 2b 78 be
       0.11707387 -0.15177387 -0.07730396 -0.2423553
000120 b6 8d 47 3e 94 bb f7 bd 91 c1 68 bd 15 b3 a3 3c
       0.19487652 -0.120963246 -0.056825224 0.019982854
000130 5a 77 06 3e dd 27 a5 bd 8e cd 07 3e ff 75 0e 3e
       0.13131467 -0.08064244 0.13262007 0.139122
000140 f6 e5 08 bd d1 a8 37 3e 51 e6 72 be a3 d3 16 be
       -0.033422433 0.17935492 -0.23720671 -0.1472917
000150 17 e6 ad bc fa 9e e1 bc ad 89 c4 3d 88 0f 48 3e
       -0.02122788 -0.027541626 0.09596572 0.19537175
000160 f2 02 48 be 0b 5a 11 3e 41 ec 84 3d 12 0b 66 3e
       -0.19532374 0.14194505 0.06490374 0.2246516
000170 63 d7 13 3e db d3 70 bd 23 1c 1d bd 3d 54 38 be
       0.14437632 -0.05879579 -0.03835691 -0.18000884
000180 93 78 74 3d 8a c2 58 3e 38 a1 be 3d 29 f6 5f 3e
       0.0596853 0.21167961 0.09308094 0.21871246
000190 b3 43 dd 3d e7 30 55 3d 4f de 6f bd 52 4d 6f be
       0.10803928 0.05204859 -0.05856162 -0.23369339
0001a0 48 b3 4f bd 64 21 6b 3e 1b d8 70 3e e9 6c bb bd
       -0.050708085 0.22961956 0.23519938 -0.09151632
0001b0 0e 5a 63 3e 33 55 64 3e 15 5a 6c be 89 9d 88 be
       0.22202322 0.22298126 -0.23081239 -0.2668269
0001c0 7c f5 09 be ee 3a e0 bc b0 98 d6 3d 1b f4 e7 3d
       -0.13472551 -0.02737185 0.104783416 0.11325856
0001d0 4e 7a 2f 3e 13 a7 07 be bb 44 39 3e 62 9a 7c 3d
       0.171365 -0.13247328 0.18092625 0.06167067
0001e0 b3 a4 44 be b4 b5 4c be 05 f2 c4 3d c4 f3 80 3e
       -0.19203453 -0.19991189 0.09616474 0.25185978
0001f0 36 e7 37 be fe 48 03 3d c8 1c 83 be cf 6b 34 3e
       -0.17959294 0.032052033 -0.25607896 0.1761925
000200 79 54 a3 3d e1 19 8d bd 9a 58 12 3e 0a c1 e5 3d
       0.07975096 -0.06889702 0.14291611 0.1121846
000210 da b3 3a 3e a0 9c dd 3c 32 fe 2e 3b dc ea 04 3e
       0.1823267 0.027052224 0.0026701805 0.12980217
000220 b3 d4 ba 3d 5e c5 6a be cc a5 d4 bd d7 41 2b 3e
       0.091226004 -0.22926852 -0.10383186 0.16724335
000230 33 17 0d be f4 43 56 3e b4 9c 54 bd 2b a8 84 3e
       -0.13778381 0.2092436 -0.051907256 0.25909552
000240 3c d3 22 be 90 e6 43 3e 04 a7 f4 bd 29 e1 43 3e
       -0.15900892 0.19130921 -0.11945918 0.1912886
000250 11 f2 18 3e 5a 14 df 3d e0 1b a2 3d 3c 7a 25 3e
       0.14936091 0.10892554 0.07915473 0.1615991
000260 f4 d2 dc bd 4c 9f b2 bd dc 81 96 3d 66 77 44 be
       -0.107824236 -0.0872179 0.073489875 -0.19186172
000270 fc af 83 3c 6b 34 e7 3d e2 a6 7b be a2 ca 6e bc
       0.016075127 0.11289295 -0.2457538 -0.014574679
000280 90 19 7b 3c e2 3f 55 be 6f 74 59 3e 20 8c 48 3c
       0.015325919 -0.2082515 0.21235822 0.01224044
000290 21 53 82 be c9 28 c0 bd 42 c9 48 3d d9 a8 48 3e
       -0.25454047 -0.09382779 0.04902006 0.1959566
0002a0 3b e9 b2 bd 49 4a 72 3e f4 53 ea bd e6 48 5f be
       -0.087358914 0.2366115 -0.11441794 -0.21805152
0002b0 c4 5b 97 bd 89 c0 34 be 60 1e b8 3d 51 ea 36 3e
       -0.0739055 -0.17651571 0.089901686 0.17862822
0002c0 58 cd 69 be 34 c6 4a be 43 f3 19 3e 3e ac 6d bd
       -0.22832239 -0.19802171 0.15034203 -0.05802559
0002d0 ff 92 7c 3e b5 77 7b 3e c0 d0 37 be 92 27 23 3e
       0.2466545 0.24557383 -0.17950726 0.15933064
0002e0 44 90 85 be 13 03 df 3d 1a 09 1e be 4f 63 c9 ba
       -0.26086628 0.10889258 -0.1543316 -0.0015364679
0002f0 5a 7e 86 3e ab 41 16 3d 90 e0 14 be ae 9a fe 3d
       0.26268274 0.03668372 -0.14538789 0.124318466
000300 0d 24 32 bd b9 97 78 3e dc 25 4f be 00 61 3c bd
       -0.043491412 0.24276628 -0.20229286 -0.045990944
000310 30 b9 68 be dc 1d 1d be cc 19 9e bd e2 bf 36 be
       -0.22726893 -0.15343422 -0.07719764 -0.17846635
000320 f3 b4 3c be 90 6f 89 bd c2 36 1e be 5c d7 27 be
       -0.18428402 -0.06710732 -0.15450576 -0.16390747
000330 7b 72 6f 3c c8 06 50 be 6e 8e 1f 3e 8b 87 36 3e
       0.014614697 -0.20315087 0.15581676 0.17825143
000340 8c dc 7e 3e 05 a9 ab 3d fb 3b d1 bc fb 94 41 bd
       0.2488882 0.08381847 -0.025541296 -0.04726122
000350 1d ad 03 be f0 65 3c 3e 52 63 19 3e d8 03 48 3e
       -0.12859006 0.18398261 0.14979294 0.19532716
000360 cc 1b 57 bd d6 5d 3f be 4e c6 b8 3d 46 ce 72 3e
       -0.052516744 -0.1868814 0.090221986 0.237115
000370 9f be 2f bd 82 b3 5f 3e a1 96 43 3e f4 c5 c2 3d
       -0.0429064 0.2184582 0.19100429 0.09510413
000380 1a d3 95 bd a7 c7 b9 bd 90 fd 41 bd f9 4b a6 bc
       -0.07315655 -0.09071284 -0.047360957 -0.020299898
000390 f6 0a 64 bd 99 e8 86 be 19 fb 3d be 64 ae af bd
       -0.055674516 -0.26349333 -0.18552817 -0.08578184
0003a0 46 d8 54 3e cc e5 e4 3d 61 45 7c be a5 4e 46 be
       0.20785627 0.11176643 -0.24635841 -0.19365938
0003b0 bc 85 22 be 9b 58 83 3e 98 26 89 3d 64 df 5d 3e
       -0.15871328 0.25653538 0.06696814 0.21667248
0003c0 ef ac 5f be c9 60 81 3e 09 65 61 3e 64 b7 99 3c
       -0.21843313 0.25269154 0.22011198 0.018764205
0003d0 34 89 01 be 7c 27 d9 3d 4b d6 14 be 34 a8 e5 bd
       -0.12649995 0.10603234 -0.14534871 -0.11213723
0003e0 69 d0 cf 3d 44 c0 54 be 36 d0 86 3d fe 5a 6c bc
       0.10147173 -0.20776469 0.06582682 -0.014425991
0003f0 e5 14 25 3b 37 12 4b 3c 6c 93 85 3d ae 8f 25 be
       0.0025189456 0.0123944795 0.06522259 -0.1616809

encoder.encoder_layer.encoderlayer.linear1.bias f4 [64]
000000 ef 10 07 bc 81 96 23 be 8a 13 8e bd 3b a4 9b 3d
       -0.008243783 -0.15975381 -0.069373205 0.07599684
000010 66 21 51 3e ab e5 a2 bd 0c 9c c8 bd f3 d1 6b be
       0.20422897 -0.07953962 -0.097953886 -0.23029308
000020 94 59 14 3e a0 92 6b 3e ad 2b 26 3e f3 7c 06 be
       0.14487296 0.23005152 0.16227598 -0.13133602
000030 86 e7 2c 3e 4d 58 92 bd d1 5f fc 3d 5b 20 0d 3e
       0.16885194 -0.07145748 0.12322963 0.13781874
000040 61 c7 44 be 3c ea 6e 3d 4f b6 c0 3d ea 18 11 be
       -0.19216682 0.058328852 0.094097726 -0.1416966
000050 fb 25 5f 3e 52 6c 3c 3e 31 b8 49 3e 11 59 0b bb
       0.21791832 0.18400696 0.1969917 -0.0021262805
000060 ee 22 01 be d1 e5 03 be 93 9d aa 3d 4a cd 3f bd
       -0.12610981 -0.12880637 0.08330836 -0.04682664
000070 28 d6 3f 3e ae 23 4a 3e ef 00 95 3c d8 98 45 be
       0.18734038 0.19740173 0.018188922 -0.19296587
000080 03 9b bf 3d b8 fd 57 3e f7 7c 72 bd 8c a1 fc bd
       0.09355738 0.2109288 -0.059201207 -0.123355
000090 68 d7 61 bd 7e 51 0a 3d 6c 14 33 be 07 e5 00 3e
       -0.055137068 0.033769123 -0.17488259 0.12587367
0000a0 12 56 ce 3d fa 8e b8 bd 0d d2 b2 bd b2 0b e5 bd
       0.1007501 -0.090116456 -0.0873147 -0.11183871
0000b0 66 ab 3c 3e 08 26 0f 3e ec 33 89 3d 31 34 2d bc
       0.18424758 0.13979352 0.066993564 -0.010571525
0000c0 db 2d 71 3d 01 dd 68 3e 4f d6 98 3d 08 bf f0 bd
       0.05888162 0.22740556 0.07462751 -0.11755186
0000d0 e1 ba ba 3d ef 8f bf bd 8d 20 09 bc 35 74 1b be
       0.091176756 -0.09353625 -0.008369577 -0.15181048
0000e0 2c f8 e1 bb 9a 76 49 3c fe 60 12 be 7a 2b 1b 3e
       -0.0068960395 0.012296343 -0.14294812 0.15153304
0000f0 a4 ea 5e 3e af e1 49 be e7 df 8b 3d 56 bb 26 be
       0.21769196 -0.19714998 0.06829815 -0.162824

encoder.encoder_layer.encoderlayer.linear2.weight f4 [18, 64]
000000 98 c9 75 3e d5 a6 db bd 85 40 2b 3d 21 26 cb bd
       0.24002683 -0.1072518 0.041809577 -0.09919382
000010 bb 7e e9 3d 79 98 5a 3e 1a 80 81 3e 32 d8 3f be
       0.11401125 0.21347226 0.25293046 -0.18734816
000020 f6 26 3e 3e d1 34 37 3e 0a 4d 63 be 9b eb df 3d
       0.1856955 0.17891242 -0.22197357 0.1093361
000030 e4 34 56 3d 41 08 18 3e a1 b0 72 3e 0a c4 ca 3b
       0.052296534 0.14846899 0.23700191 0.0061879205
000040 3a 11 cd bd 17 b0 f9 bd 2f 16 0f 3d 07 95 22 bd
       -0.10013051 -0.121917896 0.034933265 -0.039692905
000050 83 62 46 be 88 3b f7 3b f2 9a 1e 3e b1 ed 12 3c
       -0.19373517 0.0075449385 0.15488794 0.008967803
000060 26 23 2e 3e a9 48 d1 bd bd 3b 59 3e 0c fc 83 3d
       0.17005596 -0.10218937 0.21214195 0.064445585
000070 88 2d ba bd e0 8d 05 3e 9d 37 08 3e 5a 87 ed bd
       -0.09090716 0.13042402 0.13302465 -0.11598082
000080 f9 88 49 bd 8a f5 0e 3e c0 1b 74 be bb 14 d3 3d
       -0.049202893 0.13960853 -0.23838711 0.103066884
000090 16 e7 72 3d 1c d0 3c be 90 98 08 bd 54 25 a2 3d
       0.059302412 -0.18438762 -0.03334862 0.07917276
0000a0 82 ae 40 3e c5 8e 4a 3e a0 ae 32 be f5 19 34 be
       0.1881657 0.19781025 -0.17449427 -0.17588027
0000b0 ee fc 02 3e d3 a3 88 3e 7a 8c 6c 3e a9 29 da 3d
       0.12791798 0.26687488 0.23100463 0.10652477
0000c0 88 51 83 3e ca 54 fe bd bc e3 fa bb 12 f1 61 be
       0.2564814 -0.12418516 -0.0076565426 -0.22064617
0000d0 8e fc 29 be 3f 53 3b be 69 44 7b be a9 4d 9c 3d
       -0.16600248 -0.18293475 -0.24537815 0.07632
0000e0 6f 18 8f 3d a4 07 df 3d 85 92 37 3e 3f a1 5c be
       0.06987082 0.10890129 0.17926987 -0.21545886
0000f0 a8 e3 9f bd dc f5 59 3e a1 22 75 be 74 ae 42 3e
       -0.07807094 0.21285194 -0.23938991 0.19011861
000100 fb 98 aa 3d 3e df 60 be 16 09 6f 3d 06 64 0e 3c
       0.0832996 -0.2196016 0.058358274 0.00869084
000110 7c fe 55 3d 2a f2 9e bd c2 c5 fa 3d 2b 6c 57 3e
       0.05224465 -0.07761033 0.122447506 0.21037357
000120 00 0f 41 3e 38 ae d4 bc c9 cd 7e be a1 96 87 3e
       0.18853378 -0.02596198 -0.24883188 0.26482108
000130 78 2b 9a 3d d7 da 75 3e 3d 8f c7 3d 13 b6 91 3b
       0.07527822 0.24009262 0.097441174 0.0044467538
000140 36 0d 15 3e bf 04 1b 3e 68 65 8f bc f7 a0 29 3d
       0.14555821 0.15138529 -0.017504409 0.041413274
000150 d0 eb 33 bc 02 cb 3d 3e b1 34 fc 3d d1 be 38 bd
       -0.010981515 0.18534473 0.123147376 -0.04510385
000160 87 10 81 3e 97 b6 84 3e 9f 04 61 3e 6b 86 46 3d
       0.25207922 0.25920555 0.21974419 0.048468035
000170 34 88 87 3c b7 a4 10 be 52 ed 49 3e 7f 05 47 be
       0.016544439 -0.14125334 0.19719437 -0.1943569
000180 89 be 6e be c5 27 a7 3d 48 8e 81 be 7b 9e b0 3d
       -0.23314871 0.08161882 -0.25303864 0.08623978
000190 66 67 05 be 04 d7 5e bb a5 6e d5 bd 0e fc 5f 3e
       -0.13027725 -0.003400267 -0.104214944 0.21873495
0001a0 eb e1 4d be e1 89 4b 3d ef 4f 7b 3b cb c8 83 be
       -0.20105712 0.04969204 0.0038347205 -0.2573913
0001b0 ff 2e 56 3e 2b 22 5b 3d 62 42 5e be c3 74 89 be
       0.20916365 0.053499382 -0.2170501 -0.26846895
0001c0 9c f7 f4 3d b9 61 63 3e 42 7c 7c bd c1 a7 a3 bd
       0.1196129 0.22205247 -0.06164194 -0.07990981
0001d0 50 33 6c be b8 0c 3b 3e 2b b5 d0 bd f7 a1 fe bd
       -0.23066449 0.1826657 -0.10190805 -0.12433236
0001e0 60 ca d2 3d 41 3f 72 3e 6b 33 00 3e b0 c8 9f 3d
       0.10292506 0.23656942 0.12519614 0.0780195
0001f0 5b 29 75 3e 62 7e 3c 3c 05 66 2b 3d 76 e9 a1 bc
       0.23941557 0.011504741 0.04184534 -0.019764643
000200 6f 90 2d be 7d 8a 4b 3d f0 d7 0f be d7 4b 20 3e
       -0.16949628 0.04969262 -0.14047217 0.1565393
000210 1c 10 3f be 81 69 62 be 92 12 56 bd ce c4 4d 3e
       -0.18658489 -0.22110559 -0.052263804 0.20094606
000220 75 74 52 be e0 8d b0 bd c6 c9 a9 bc a1 45 f2 bd
       -0.20552237 -0.086208105 -0.020726096 -0.11829687
000230 43 db 02 3e 5e f5 71 3e 23 ec 15 3e ca a9 69 bd
       0.12778954 0.23628756 0.1464086 -0.05704669
000240 5d 79 59 be 21 b3 64 be 34 a8 84 bd 14 85 ae bd
       -0.21237703 -0.22333957 -0.06477395 -0.085214764
000250 2d 11 52 be 78 00 89 3d 9b ea d1 bd 61 a7 a0 3d
       -0.20514365 0.066895425 -0.102498256 0.07844425
000260 09 17 13 be 22 ab c7 bc 87 b8 a6 bd 69 24 2a 3e
       -0.14364256 -0.024373595 -0.081406645 0.16615452
000270 60 cc 7c be a4 74 da bd c7 9b 6c 3d 78 13 9c bd
       -0.24687338 -0.10666779 0.05776575 -0.07620901
000280 31 b2 97 bb d7 34 3b 3e c6 9b 1e 3d c2 95 08 3d
       -0.0046293964 0.18281876 0.038722776 0.033345945
000290 49 d8 a1 3d b4 06 15 be a1 3e dd bd 3f af 04 3e
       0.07902581 -0.14553338 -0.10802961 0.12957476
0002a0 ee 9d 20 3d 36 b1 34 3e f0 74 0d bd bb 1a 82 3e
       0.039213113 0.17645726 -0.03453535 0.2541102
0002b0 7b 6b 25 3e ec 31 9b bd be 8e 0d be 91 be 5f 3d
       0.16154282 -0.07577881 -0.13823983 0.054625098
0002c0 40 13 67 be ab b4 fd bd a7 b6 a9 3d 89 46 c1 3c
       -0.22565937 -0.12387975 0.08286791 0.023593204
0002d0 aa b5 fa 3d 08 b9 e7 bd 76 1a 69 3e 9a 51 18 be
       0.12241681 -0.11314589 0.22764 -0.14874879
0002e0 64 ee 0d be b7 51 39 3e ec c3 55 bd 43 7b 9e 3d
       -0.1386047 0.18097578 -0.0521888 0.07738354
0002f0 7d d3 44 bd f0 e5 43 be a4 48 31 bc af 54 fb 3d
       -0.048053253 -0.19130683 -0.0108205415 0.122720115
000300 0e ad 3a 3e f9 4b 53 3e 71 10 1c bc 28 a0 48 3e
       0.18230078 0.2063445 -0.009525404 0.19592345
000310 76 45 9c 3d 79 02 24 3c 2c 74 a7 3b 99 71 d3 bc
       0.07630436 0.010010355 0.0051102843 -0.025811004
000320 22 36 9e 3d b4 f6 64 bc e5 22 32 3e b3 c1 28 bd
       0.07725169 -0.013974834 0.17396124 -0.04120035
000330 cd d0 19 be da fe a0 3d 7f 35 1b be b6 04 2c 3e
       -0.15021057 0.07861109 -0.15157126 0.16798672
000340 0d 39 62 3e d2 dd 31 3d eb 42 5e bd 24 21 48 bc
       0.22092076 0.043424435 -0.054263037 -0.012214933
000350 c7 b9 01 3e 81 99 53 be b1 49 94 bd e6 c2 28 be
       0.12668525 -0.20664026 -0.07240618 -0.16480598
000360 28 8a 7a be 6d 30 46 be 0f f9 31 be 5e e8 52 3e
       -0.24466765 -0.1935441 -0.17380165 0.20596454
000370 42 4e 29 3e f9 0b 3c be 28 97 5a be ae 0e 78 3e
       0.16533759 -0.18363942 -0.21346724 0.2422435
000380 2d 7f 83 3d 33 1c ff 3d 07 07 2d 3d c1 fe ce bd
       0.06420741 0.124565504 0.04224303 -0.10107184
000390 c2 a5 15 be 41 07 15 3e 6e d0 88 be ce 7d 66 be
       -0.14614013 0.14553548 -0.2672152 -0.22508928
0003a0 0e 4b a7 3d 6c 47 91 bd 72 ef 53 3d 9c bb 13 3e
       0.081686124 -0.07093701 0.051742025 0.14427036
0003b0 cd 2d 1f be 1e ec 1b be 02 5e 2a be 1e 5b 72 be
       -0.15544815 -0.1522679 -0.16637424 -0.23667571
0003c0 4b ff 95 bc 8c 36 6b 3e bd 70 87 bc 25 e9 17 3e
       -0.01831021 0.22970027 -0.01653325 0.14835031
0003d0 fb c0 09 be f3 dc db 3c 35 fe 4f be eb 79 92 bc
       -0.13452522 0.026838755 -0.20311816 -0.0178804
0003e0 cb 24 73 3d 0c 08 ed bd 93 4f 7e 3e 2f 69 9c 3d
       0.05936126 -0.115738004 0.24835043 0.0763725
0003f0 1a 8c 0a 3e d4 d5 89 3e 56 d6 ea 3d 0d 17 ae bc
       0.13530007 0.2692095 0.114666626 -0.021251226

encoder.encoder_layer.encoderlayer.linear2.bias f4 [18]
000000 bc 91 61 3d cc 14 cf bd 80 13 40 bb 80 99 df ba
       0.055070624 -0.101113886 -0.0029308498 -0.0017059296
000010 90 46 d1 bd fa fa eb 3d 44 b8 72 bd f4 1a cb 3d
       -0.10218537 0.11522479 -0.05925776 0.0991725
000020 5c 38 c4 3d 40 dd 5d 3b c6 9d be 3d b4 a3 c0 bd
       0.09581062 0.00338538 0.09307437 -0.09406224
000030 10 1f 61 bc 12 2c d3 bd d6 d7 9b bd 50 c3 21 3d
       -0.013740316 -0.1031114 -0.07609527 0.039492905
000040 6a c2 be 3d d8 ea 97 bd
       0.09314425 -0.0741784

encoder.encoder_layer.encoderlayer.norm1.weight f4 [18]
000000 00 00 80 3f 00 00 80 3f 00 00 80 3f 00 00 80 3f
       1.0 1.0 1.0 1.0
000010 00 00 80 3f 00 00 80 3f 00 00 80 3f 00 00 80 3f
       1.0 1.0 1.0 1.0
000020 00 00 80 3f 00 00 80 3f 00 00 80 3f 00 00 80 3f
       1.0 1.0 1.0 1.0
000030 00 00 80 3f 00 00 80 3f 00 00 80 3f 00 00 80 3f
       1.0 1.0 1.0 1.0
000040 00 00 80 3f 00 00 80 3f
       1.0 1.0

encoder.encoder_layer.encoderlayer.norm1.bias f4 [18]
000000 00 00 00 00 00 00 00 00 00 00 00 00 00 00 00 00
       0.0 0.0 0.0 0.0
000010 00 00 00 00 00 00 00 00 00 00 00 00 00 00 00 00
       0.0 0.0 0.0 0.0
000020 00 00 00 00 00 00 00 00 00 00 00 00 00 00 00 00
       0.0 0.0 0.0 0.0
000030 00 00 00 00 00 00 00 00 00 00 00 00 00 00 00 00
       0.0 0.0 0.0 0.0
000040 00 00 00 00 00 00 00 00
       0.0 0.0

encoder.encoder_layer.encoderlayer.norm2.weight f4 [18]
000000 00 00 80 3f 00 00 80 3f 00 00 80 3f 00 00 80 3f
       1.0 1.0 1.0 1.0
000010 00 00 80 3f 00 00 80 3f 00 00 80 3f 00 00 80 3f
       1.0 1.0 1.0 1.0
000020 00 00 80 3f 00 00 80 3f 00 00 80 3f 00 00 80 3f
       1.0 1.0 1.0 1.0
000030 00 00 80 3f 00 00 80 3f 00 00 80 3f 00 00 80 3f
       1.0 1.0 1.0 1.0
000040 00 00 80 3f 00 00 80 3f
       1.0 1.0

encoder.encoder_layer.encoderlayer.norm2.bias f4 [18]
000000 00 00 00 00 00 00 00 00 00 00 00 00 00 00 00 00
       0.0 0.0 0.0 0.0
000010 00 00 00 00 00 00 00 00 00 00 00 00 00 00 00 00
       0.0 0.0 0.0 0.0
000020 00 00 00 00 00 00 00 00 00 00 00 00 00 00 00 00
       0.0 0.0 0.0 0.0
000030 00 00 00 00 00 00 00 00 00 00 00 00 00 00 00 00
       0.0 0.0 0.0 0.0
000040 00 00 00 00 00 00 00 00
       0.0 0.0

encoder.transformer_encoder.layers.0.encoderlayer.self_attn.in_proj_weight f4 [54, 18]
000000 4f b6 47 3f 5d 9c 33 3f 6f 74 b0 3e 3b f5 02 3f
       0.78012556 0.70160466 0.34463832 0.5115544
000010 a5 27 03 3e 91 03 57 3f bc 8d 81 3d d6 89 e2 3e
       0.12808092 0.83989817 0.06325862 0.44245785
000020 7e 3d 98 3e 77 42 d5 3e 9e 1d c3 3e c1 d0 5c bd
       0.29734415 0.4165227 0.38108534 -0.05391002
000030 7c 9e 59 3f 8a de 86 3e 9b 23 50 3f 25 12 ea 3e
       0.8500745 0.2634166 0.8130433 0.45716968
000040 48 ca cd 3e e1 3c 82 3e 36 a5 ad 3e 4d 82 6d 3f
       0.4019339 0.25437072 0.33915108 0.9277695
000050 d2 67 a6 3d cf ee bc 3e e0 1a d9 3e 48 1e be 3e
       0.08125271 0.36900946 0.42403316 0.37132478
000060 a1 7c 9b 3e f3 a9 03 3f 56 fb 84 3e cc cd b4 3e
       0.30368522 0.51431197 0.25973004 0.3531326
000070 6c 7d 34 3e 32 6e 3a 3e 47 84 7f 3e 69 86 b0 3e
       0.1762597 0.18206099 0.24952804 0.34477547
000080 30 ef f4 3e 31 ab c4 3e c8 af 0f 3f ac 86 9a 3e
       0.47838736 0.3841186 0.56127596 0.3018087
000090 47 9b 5a 3f 5d 98 29 3f a8 6d 0d 3f bf f2 fb 3e
       0.85393184 0.6624811 0.5524545 0.49208638
0000a0 b3 6f 3a 3e 90 0b 44 3f fb 4a 59 3e cb bc 4b 3f
       0.18206672 0.7658014 0.21220009 0.7958495
0000b0 66 6e 8e 3e 30 74 6e 3e db 0b b3 3e cd 8f 92 3d
       0.27818602 0.2328651 0.34969983 0.07156334
0000c0 1d 76 4a 3f cd 61 d7 3e 90 17 67 3f 26 a6 9b 3e
       0.79086477 0.42066804 0.9027033 0.304002
0000d0 bd 07 15 3e 4a e1 79 3e 42 8f 6e 3f b8 2a 6d 3f
       0.14553733 0.24402347 0.93187344 0.9264331
0000e0 d4 2e fe 3e f3 ba c7 3e 44 c2 0e 3f 97 c3 47 3f
       0.49645102 0.39009818 0.55765176 0.7803282
0000f0 96 bb 12 be fa df 20 3f 31 cf cd 3e 19 35 35 3e
       -0.14329371 0.6284176 0.40197137 0.17696036
000100 a3 38 b0 3e 2f c2 a7 3d 90 cc ec 3e af 2c ec 3e
       0.3441821 0.081913345 0.4624982 0.4612784
000110 8f e1 6e 3f 83 d5 12 3f 14 b4 e3 3d 41 e8 d6 3e
       0.93312925 0.57357043 0.111183316 0.4197407
000120 cd ea 2d 3f a5 c7 4b 3f 19 a8 27 3e 8c 0d 04 3f
       0.679364 0.7960151 0.16372718 0.5158317
000130 bc 60 98 3e 8f 5a dc 3e e7 13 6f 3e 1d e5 0b 3f
       0.29761302 0.4303784 0.23347436 0.54646474
000140 89 29 ef 3d d0 1b 08 3e c8 c2 fe bd 64 0e 07 be
       0.11677844 0.1329186 -0.12439495 -0.13189083
000150 9a ce 70 3e 08 bf 8e 3e 32 a0 0a 3f 3e 0f 5a bd
       0.23516312 0.2788012 0.5415069 -0.053237192
000160 ed 20 84 3e 63 8a 05 3f cf 41 0c 3f d0 c0 e1 3e
       0.2580637 0.52164286 0.54787916 0.44092417
000170 ad b2 f0 3e 1f 58 0c 3f 08 4c 40 3e 64 ff 1d 3f
       0.4701132 0.5482196 0.18779004 0.6171782
000180 58 01 36 bd e4 10 19 3f cb 64 87 3e 05 f9 8d 3e
       -0.044434875 0.597914 0.26444086 0.2772905
000190 16 09 35 bd d6 96 b8 3e ad e2 f6 3e bb 9a 0b 3e
       -0.04419812 0.3605258 0.48219815 0.13633244
0001a0 0b 4a 17 3f b9 c2 8d 3d 5c 49 81 3e d6 bb 1a 3f
       0.59097356 0.06921906 0.2525128 0.60442865
0001b0 2f 9b 40 be 17 66 18 bf f8 21 b5 be ef 55 04 bf
       -0.18809198 -0.59530777 -0.3537748 -0.51693624
0001c0 b2 b0 8e be 67 4e a3 be 04 a7 84 3c b5 0a 16 bf
       -0.27869183 -0.31895754 0.01619292 -0.5861009
0001d0 58 e3 73 bd db 7e 89 be fb 46 ee bc e0 6d 60 be
       -0.059542984 -0.26854596 -0.02908658 -0.21916914
0001e0 07 57 29 bf 31 2a fb be f1 cd 73 be ce 40 67 bd
       -0.6614842 -0.49055627 -0.23809029 -0.056458287
0001f0 ee 38 b1 be 9d c9 0f bf 50 70 08 3f 04 34 1b 3f
       -0.34613746 -0.5616701 0.53296375 0.60626245
000200 4b a8 b1 3e 34 84 53 3e c2 b9 8a 3e ae 43 af 3e
       0.3469871 0.206559 0.27094847 0.34231323
000210 bc a9 a9 bd 11 8d fd 3e 1e 05 3f 3e 0a 33 8a 3e
       -0.082843274 0.49521688 0.18654296 0.26992065
000220 08 85 80 3e d9 02 b5 3d c5 ab 0b 3f 75 c9 cd 3e
       0.25101495 0.08838434 0.54558975 0.40192762
000230 82 13 20 3f c4 d5 15 be 29 ee 8a 3e 3f 4f 1a 3f
       0.62529767 -0.14632326 0.27134827 0.6027717
000240 61 9c 0c bf c4 0b 2e bf 7d 34 4c be f0 09 30 bf
       -0.54926115 -0.679867 -0.19941898 -0.68765163
000250 07 af d3 be f4 a2 38 bf 18 f6 73 bd 15 d1 af be
       -0.41344473 -0.72123647 -0.059560865 -0.34339204
000260 76 5c c5 be 5e 7c a0 be 4c 1b 2d 3d ca da c5 bd
       -0.38547105 -0.31344885 0.04226236 -0.09660871
000270 d1 94 b7 be 36 0d fa be 44 c4 31 bf f8 be a5 be
       -0.35855725 -0.48838204 -0.694401 -0.3237226
000280 85 1d 8d be 68 27 be be 9b 7b 57 bf 3b 40 76 bf
       -0.27561584 -0.3713944 -0.8417298 -0.9619176
000290 bb 80 0e bf 52 47 54 bf bc 4e b8 be 5f 74 fc be
       -0.5566518 -0.82921326 -0.3599757 -0.49307534
0002a0 f7 cd 43 bf 18 38 4f bf cf 0d 0b bf 48 fe 01 bf
       -0.7648615 -0.8094497 -0.54317945 -0.5077863
0002b0 eb fb 88 be d4 e6 ed be 75 33 2e bf 17 c4 2d bf
       -0.26754698 -0.4646517 -0.6804727 -0.67877334
0002c0 3c 11 5f bf 22 a1 35 bf e2 b5 6b bf f6 9a 2c bf
       -0.8713567 -0.70948994 -0.92074406 -0.6742395
0002d0 5b 74 8c 3f ee 52 88 3f e4 39 28 3f 52 14 1c 3f
       1.0973009 1.0650308 0.65713334 0.60968506
0002e0 2a a8 1f 3f 26 3a 50 3f e7 70 25 3f 1d 8e 2c 3f
       0.62365973 0.8133873 0.646254 0.6740435
0002f0 30 f0 f1 3e 0e 73 4e 3f 03 52 14 3f 0b 90 80 3f
       0.4725356 0.8064431 0.5793764 1.0043958
000300 b2 fa 30 3f 24 79 5d 3f 47 fe 35 3f 17 b0 10 3f
       0.6913253 0.8651297 0.7109112 0.5651869
000310 f7 78 43 3f 6d 03 79 3f 66 1d 1c 3f 10 a5 61 3f
       0.7635645 0.9727085 0.6098236 0.8814249
000320 22 99 f3 3e 69 39 c0 3e ec b3 88 3e 3e aa e6 3e
       0.4757777 0.375438 0.2669977 0.4505176
000330 87 db 1e 3f 3f fe 40 3f db 79 c3 3e 92 0b 90 3e
       0.6205372 0.7538795 0.38178906 0.28133827
000340 67 0a fa 3e 86 37 c7 3e 31 cc 9e 3e c4 5e 14 3f
       0.4883606 0.3890955 0.3101516 0.579571
000350 71 9f 04 3f 14 cb 1c 3f f4 36 1f 3f ab ae e0 3e
       0.5180579 0.6124737 0.62193227 0.4388326
000360 51 e5 6a bf ec 95 8d bf 9d 0e 8d be f2 55 ff be
       -0.9175616 -1.1061378 -0.27550212 -0.4987026
000370 66 0a 8b be fe 34 74 bf 5e 30 5f bf e3 40 5c bf
       -0.2715637 -0.9539336 -0.8718318 -0.8603651
000380 ee 5d 4c bf 29 9a 41 bf b5 55 2d bf 03 eb 0e bf
       -0.79830825 -0.75625855 -0.67708904 -0.5582735
000390 e7 cc 46 bf ad 5a 30 bf a9 f7 0a bf 9f 38 05 bf
       -0.77656406 -0.6888836 -0.5428415 -0.5203952
0003a0 8a bc 0e bf 96 16 73 bf f2 43 bd be 10 c3 1f bf
       -0.5575644 -0.9495634 -0.369659 -0.62407017
0003b0 3f f7 1c bf 17 47 be be 35 6c 32 bf e0 14 3f bf
       -0.6131477 -0.37163612 -0.6969636 -0.7464123
0003c0 cc d0 aa be d5 6d e8 be 56 44 1b bf 56 25 05 bf
       -0.33362424 -0.45396295 -0.6065115 -0.52010095
0003d0 77 66 09 bf 59 c9 b5 be 68 a5 01 bf ff e2 ea be
       -0.53671974 -0.3550518 -0.50643015 -0.4587631
0003e0 40 fc a6 be 54 35 30 bf 79 df 36 bf 0f e8 1b bf
       -0.32614326 -0.6883137 -0.7143474 -0.6090097
0003f0 bb 75 40 bf b7 e0 5b bf 6b cf d7 bd a3 21 54 be
       -0.7517964 -0.8588976 -0.10537609 -0.20715956

encoder.transformer_encoder.layers.0.encoderlayer.self_attn.in_proj_bias f4 [54]
000000 70 c4 14 3f 0f b8 f6 3e ae c4 06 3f 69 35 09 3f
       0.5811224 0.481873 0.5264386 0.5359712
000010 52 91 c1 3e e1 1c d8 3e 3a 6c cd be 1a bb 00 3f
       0.37806183 0.42209533 -0.40121633 0.50285494
000020 08 cf 0f bf 31 02 3e bf 12 d1 32 3f ef 26 14 3f
       -0.5617528 -0.74222094 0.69850266 0.5787191
000030 c1 5b 2b bf 19 b2 0b bf 93 f8 02 bf 69 d5 13 bf
       -0.6693688 -0.5456863 -0.51160544 -0.57747513
000040 0a a1 d4 3e 19 47 3a 3f f0 fb 5d 3a 77 df 60 3a
       0.41529113 0.72764736 0.00084680226 0.0008578221
000050 e5 66 95 39 a8 67 df b7 5f 6d 3c 3a bf b0 37 3a
       0.00028496157 -2.663194e-05 0.00071879284 0.0007007233
000060 7c 41 23 b9 6b 59 a7 38 61 ab e6 b9 f4 7c b8 ba
       -0.00015569286 7.979836e-05 -0.00043996706 -0.0014075325
000070 d7 7e 83 38 b9 20 e8 b9 52 4a 8e ba 60 ac b4 b9
       6.2701925e-05 -0.0004427487 -0.0010855889 -0.00034460705
000080 9a 1e 00 ba 5d 46 a8 b9 e7 62 3d 39 8e 41 2c 3a
       -0.00048873725 -0.00032095882 0.00018061289 0.00065710477
000090 f8 7a 1a bd ce 2d e3 3b 3b fb 9e 3c 22 e3 8a bd
       -0.03771493 0.0069329506 0.019406905 -0.067816034
0000a0 47 2e 88 3d d8 1c 1e 3d be f9 b3 3d 69 a4 6d 3d
       0.06649452 0.038601726 0.08787869 0.058018122
0000b0 3b 68 10 bd 23 7b 32 3d 03 15 29 3d 2c 73 8f 3d
       -0.035255652 0.043574464 0.041279804 0.07004389
0000c0 94 1f 96 bc 62 99 13 3d 9a 09 76 3d 63 fc 81 3c
       -0.018325604 0.03603495 0.06006775 0.015867418
0000d0 37 49 d5 3c 16 70 51 bd
       0.026035888 -0.051132284

encoder.transformer_encoder.layers.0.encoderlayer.self_attn.out_proj.weight f4 [18, 18]
000000 87 4a e8 be 38 ac bd be 2b 80 19 3e de b1 11 3e
       -0.4536936 -0.37045455 0.14990298 0.14228007
000010 38 ff f4 bc fd 6e 80 3e 68 6e 81 3e 70 a4 6d 3e
       -0.029906854 0.25084677 0.25279546 0.23207259
000020 ef 8a 82 be 69 2e c5 bd 34 e8 e1 3c 84 83 c0 be
       -0.25496623 -0.09627993 0.027576543 -0.37600338
000030 93 24 e1 3d af 1e bb 3d 01 d8 f0 bd eb 36 bc 3d
       0.10993304 0.09136712 -0.117599495 0.09190162
000040 f8 ea 65 bd 0b 32 29 3d f5 f6 88 bc 13 51 dc bd
       -0.056132287 0.04130749 -0.01671932 -0.10757651
000050 e6 8a 83 3e ca 9e 3e 3c 3a 28 1b bd b7 f9 75 3e
       0.2569191 0.011634538 -0.03788016 0.2402104
000060 9a c4 55 be 2e af 98 be 60 b7 36 3e 0a 40 b6 be
       -0.20875779 -0.29821151 0.1784339 -0.35595733
000070 c3 34 31 3e b9 cd 15 be 28 ba fe bc 18 9b 07 be
       0.17305283 -0.14629258 -0.031094626 -0.13242757
000080 95 91 75 be 3f 64 13 3d 4a b6 a4 3e f0 e1 98 be
       -0.23981316 0.035984274 0.32170326 -0.29859877
000090 fb 30 87 bd a4 80 ee 3d 73 f7 16 be cb e7 be be
       -0.06601139 0.1164563 -0.14742832 -0.3728622
0000a0 3c 8b b2 3b 92 f1 a0 3d bc 5f ab be 2a 0e 90 3e
       0.005448727 0.07858576 -0.33471477 0.28135806
0000b0 12 d1 20 be 6e 4f 74 bc b6 06 6e be 11 bd a5 3d
       -0.15704754 -0.014911516 -0.23244748 0.08092702
0000c0 43 ad 8c 3e 7b f4 ae 3e 77 c9 45 3e 46 2b 89 3d
       0.27475938 0.341709 0.19315134 0.06697707
0000d0 31 21 b3 bc 8b 4c 9e 3e 4b 55 00 3e 7f e6 a4 bc
       -0.021866413 0.30917773 0.12532537 -0.02012944
0000e0 9f 79 37 be e1 b8 8d be 64 80 4a be 3d 98 02 bd
       -0.17917489 -0.27680114 -0.1977554 -0.031883467
0000f0 88 31 cf 3d dc 55 c3 bd 0f a5 29 3e 76 b8 7e 3e
       0.10116869 -0.09537861 0.16566871 0.24875054
000100 e5 25 9f bd 2c 32 5d 3d 13 3f e6 bd 66 08 01 3e
       -0.077709 0.054002926 -0.11242499 0.1260086
000110 4d bd 87 3e a3 eb a8 3b 03 ce 47 3e 91 59 60 bd
       0.26511613 0.005155043 0.19512181 -0.054772917
000120 f7 6a 92 be 6c 73 0e be 28 5b 1a bf bd a2 83 3e
       -0.28597233 -0.13911217 -0.60295343 0.25710097
000130 9a ff 8c be 97 fa e6 bd 75 be 30 be 95 bf 17 3e
       -0.2753876 -0.11278265 -0.17260154 0.14819176
000140 5a bd f9 bb 29 c3 1f 3e 73 8e 93 3e 33 4b 0b 3e
       -0.0076214494 0.15601791 0.28819618 0.13602905
000150 bb 3b 01 bf 1c d1 d6 3d 14 28 7e 3e 28 39 40 be
       -0.50481766 0.10489103 0.24819976 -0.18771803
000160 e8 ef b2 bc ce 8a be bd 16 f6 4a 3e 9d 9e 21 3e
       -0.021842912 -0.09303819 0.19820437 0.15783162
000170 14 b1 8c 3e 12 ce cd 3e c4 6f 0b 3e e3 4d 24 3e
       0.2747885 0.40196282 0.13616854 0.16045336
000180 88 4c 37 3e e8 33 71 be 67 fe 97 3e a5 c4 86 3d
       0.17900288 -0.23554957 0.2968628 0.06580476
000190 79 f1 3d 3e 5f c2 6e be 04 02 a6 3e e0 04 d0 3d
       0.18549146 -0.23316334 0.32423413 0.1015718
0001a0 a1 ab 21 3e 7a dc b5 be ac 11 19 3e ac 36 ee bd
       0.15788127 -0.35519773 0.14948148 -0.116315216
0001b0 f2 a0 c3 3e 20 f5 07 bd f6 97 87 be 77 8a 5f be
       0.3820873 -0.033192754 -0.26483124 -0.21830164
0001c0 c7 ff 47 be e8 eb 34 3b c4 e0 63 be cc 5c 38 3e
       -0.19531165 0.0027606431 -0.2225371 0.18004149
0001d0 73 44 13 be 74 d3 85 bd 48 cd fa bd ee b9 7a 3c
       -0.1438158 -0.06534472 -0.122461855 0.015303118
0001e0 05 d3 80 be 32 b5 a4 be 51 41 81 be 96 f5 93 3c
       -0.25160995 -0.3216949 -0.25245145 0.01806144
0001f0 e5 2f 8a be b2 76 7a 3e d9 7e 72 3e 84 8a ce 3e
       -0.26989666 0.24459341 0.23681201 0.40340054
000200 1b 5d 27 3e 62 cc 81 be 18 9e 66 be ef b9 50 3e
       0.1634411 -0.25351244 -0.22521245 0.20383428
000210 43 d0 c0 bd 8e 3b 9c be 52 dd 0e 3d 8b 23 07 3e
       -0.09414723 -0.30514187 0.034879036 0.13197152
000220 68 c9 3b be c9 2b 20 3e 2f b4 04 bf 8d 88 53 3e
       -0.18338549 0.15641703 -0.5183744 0.20657559
000230 6a 79 b9 bc f7 75 ee 3e 76 4c 81 3c 01 95 3d 3d
       -0.022640903 0.46574375 0.01578353 0.04628468
000240 47 de 1c 3f 57 ce 76 3c f1 37 aa bd 29 53 e5 be
       0.6127667 0.015063844 -0.08311451 -0.4479001
000250 43 d9 ba 3e 9c fa 59 be bb af 7b be 16 03 99 be
       0.36493883 -0.21287006 -0.24578755 -0.29885167
000260 a0 ab d0 be d8 5c e0 3d 89 ff b0 be 6f 0f 91 bd
       -0.4075594 0.109552085 -0.34569958 -0.07083022
000270 28 fe 04 3f 78 4c c8 3d 94 76 07 bd 42 02 e0 3d
       0.5195031 0.0978021 -0.03307207 0.10937931
000280 b3 da 90 be e7 86 87 be 27 41 31 be 32 e0 8f 3e
       -0.28291854 -0.2647011 -0.1731001 0.28100735
000290 a1 68 a8 be d8 52 67 3e 25 9c 1a be 52 db 36 3e
       -0.32892326 0.22590196 -0.15098627 0.17857102
0002a0 53 aa b4 3e 36 d1 18 3e d8 34 6f 3c 7b 28 6d be
       0.35286197 0.14923558 0.014600001 -0.23159973
0002b0 78 01 cc be a8 03 98 3d bd 70 38 3e 67 6f 53 3e
       -0.3984487 0.074225724 0.18011756 0.20647965
0002c0 53 10 a8 3d a3 fd 87 be a4 23 01 3e ee 50 d3 be
       0.082062386 -0.26560697 0.12611252 -0.41272682
0002d0 ad b6 8b be f7 10 02 3d ee c3 64 3d e1 78 60 be
       -0.27287808 0.03175446 0.055850916 -0.21921112
0002e0 c8 69 42 3d 92 32 bb 3d 25 7b b4 be e2 7c 43 3e
       0.047464162 0.09140505 -0.35250202 0.19090608
0002f0 a0 10 04 3c 61 26 ac bd 4a 07 7d be 6c 06 d6 bd
       0.008060604 -0.08405758 -0.24709812 -0.104504436
000300 bf 5a 21 bd b4 8d a0 be 4e 9f fd 3c 05 a3 05 3c
       -0.039393183 -0.3135811 0.030959751 0.008156543
000310 33 47 9a 3e 29 16 35 3e 4f bc b7 be 31 00 d2 bd
       0.30132446 0.17684235 -0.35885856 -0.10253943
000320 a0 ce 71 3e 89 1b 74 3d 50 4b 7e be 9d 50 11 bc
       0.23613977 0.059596572 -0.24833417 -0.008869317
000330 0c d1 69 3e 35 74 0a bc 23 9d da bd e8 c6 17 be
       0.22833651 -0.0084505575 -0.10674503 -0.1482197
000340 56 84 2b 3e 97 45 10 be a6 b9 40 3d 3c 3c 8c 3d
       0.16749701 -0.14089046 0.04705205 0.06847426
000350 14 6a 7f ba 83 94 8c 3e 5a 54 71 bd 71 65 e7 be
       -0.0009743285 0.27457055 -0.058918335 -0.4519458
000360 66 fa 91 be eb 9f d4 be b2 34 e7 be 7e 22 9b be
       -0.2851135 -0.41528258 -0.4515739 -0.30299753
000370 39 2f cc 3d a2 66 32 3e a8 ec a3 3e 81 6d 28 3d
       0.099699445 0.17421964 0.32016492 0.041120056
000380 00 6b 41 3c b1 80 94 3d 0d 86 7d bd 32 a2 24 be
       0.011805296 0.072511084 -0.06189542 -0.16077498
000390 a7 3a 3d bd ca 00 c2 bd d4 b6 13 3b bd 47 9a be
       -0.046198513 -0.09472807 0.0022539394 -0.30132857
0003a0 84 18 0f be cb 5e 4b 3e dd d4 77 3e 35 85 0c be
       -0.13974196 0.1986038 0.24202295 -0.1372269
0003b0 38 dc 25 be ce 89 d3 3e 84 da 0d 3c 17 92 31 3e
       -0.16197288 0.41316074 0.008658055 0.17340885
0003c0 e4 43 7f be 21 31 90 be e3 43 b8 3e ae 27 98 3e
       -0.24928242 -0.28162482 0.35989293 0.29717773
0003d0 39 57 36 be 1f 49 6d bc 35 37 18 bf b7 ee d8 bc
       -0.1780671 -0.014482765 -0.5945924 -0.026481016
0003e0 64 d0 13 bf 7e 67 b1 3e 96 52 9c be 4b ac 68 be
       -0.57739854 0.3464927 -0.30531758 -0.22721975
0003f0 d5 5e 57 3e 98 88 23 be 71 c2 c6 bc 0e 2c dc 3e
       0.2103227 -0.15970075 -0.024262639 0.4300236

encoder.transformer_encoder.layers.0.encoderlayer.self_attn.out_proj.bias f4 [18]
000000 46 b0 d8 bb 16 fe cf bc d7 f3 93 3b 85 fb 09 bc
       -0.0066128103 -0.025389712 0.004515152 -0.008421783
000010 66 70 48 3c bd 15 12 bb 00 68 ce bc 16 6d 8d bc
       0.012233829 -0.002229079 -0.025196075 -0.01726393
000020 e6 e5 16 bd 4d b9 03 bc 30 61 46 bc 1b 6c b5 bc
       -0.036840342 -0.008039785 -0.012108132 -0.022146275
000030 18 98 ae b9 e0 50 c2 bc 37 af 8b bc 09 fc af 3c
       -0.00033301185 -0.023720205 -0.017051322 0.021482484
000040 71 7c 60 3c 25 7a c6 bb
       0.013701544 -0.006057041
